model/1721470870_model-aapl.pth (torch, 174356 bytes, 5 tensors)

lstm.weight_ih_l0 f4 [400, 5]
0	0xbdf6b082	-0.12045385
1	0xbe47da9f	-0.19516991
2	0xbe0aeb77	-0.13566385
3	0xbcb1fa59	-0.02172582
4	0xbe4dae62	-0.20086053
5	0xbe11b4be	-0.14229104
6	0xbdfc3a73	-0.12315836
7	0xbe516161	-0.20447303
8	0xbd7e3b3c	-0.06206821
9	0xbe5d2f67	-0.21600114
10	0xbdc49058	-0.09597844
11	0xbe571772	-0.21005037
12	0xbd7c79fe	-0.06163978
13	0xbe14477c	-0.14480394
14	0xbf051a90	-0.51993656
15	0xbe2dc4b7	-0.16969572
16	0xbd16c847	-0.036812093
17	0xbd1185c8	-0.035527974
18	0xbe19f19b	-0.15033571
19	0xbe440c13	-0.19145231
20	0xbdf6d2ba	-0.12051912
21	0xbe2edabd	-0.1707563
22	0xbe0ef818	-0.13961828
23	0x3cc9d543	0.024637824
24	0xbd5e7482	-0.05431033
25	0xbd3ef337	-0.046618666
26	0xbdfb85de	-0.122813925
27	0xbd9de065	-0.077088155
28	0xbcfc44e6	-0.030794572
29	0xbe05bf73	-0.13061313
30	0xbd815a93	-0.06316104
31	0xbda3ab9e	-0.07991718
32	0xbe4a9d29	-0.19786514
33	0xbd84322f	-0.06454884
34	0xbdf42a34	-0.11922112
35	0xbe2e0528	-0.16994154
36	0xbd202c4b	-0.03910474
37	0xbd3dc2cd	-0.046328355
38	0xbd13afe6	-0.03605642
39	0x3d44dfb5	0.048064906
40	0xbd29f35e	-0.04149186
41	0xbd384a7f	-0.04499292
42	0xbc851380	-0.01624465
43	0xbdde14d7	-0.10843819
44	0xbba4f37a	-0.0050339075
45	0xbe0c87d5	-0.13723691
46	0xbd1bc0ec	-0.03802578
47	0xbba995d0	-0.0051753297
48	0xbe2779d5	-0.16355069
49	0xbe15cc7b	-0.14628784
50	0xbe01de92	-0.1268256
51	0x3c815559	0.015787767
52	0x3be455bc	0.006968228
53	0x3c973a3c	0.018460386
54	0xbf85dfad	-1.0458885
55	0xbe3eae36	-0.18621144
56	0xbe0feba0	-0.14054728
57	0xbe76b2d5	-0.24091657
58	0xbd8c0a1f	-0.06837868
59	0xbe78ec39	-0.24308862
60	0x3d686ffd	0.056747425
61	0xbe020a8d	-0.12699337
62	0xbdb95b82	-0.09050657
63	0x3d5d6c88	0.05405858
64	0xbf214a91	-0.63004404
65	0xbd9a7545	-0.07541899
66	0xbe40826c	-0.18799752
67	0xbe54167a	-0.20711699
68	0xbe174f17	-0.14776264
69	0xbead2794	-0.33819258
70	0xbe7b84d3	-0.24562387
71	0xbe127b10	-0.14304757
72	0xbe7deb41	-0.24796773
73	0xbe51f199	-0.20502318
74	0xbe783fc3	-0.24243073
75	0xbda43713	-0.08018317
76	0xbdf5d2ec	-0.12003121
77	0xbd5ede14	-0.05441101
78	0xbdbf8a69	-0.093525715
79	0xbe8262c4	-0.25465977
80	0xbe356661	-0.17714836
81	0xbdf08c20	-0.11745477
82	0xbd1a99a2	-0.037744172
83	0xbddf7321	-0.10910631
84	0xbcced8d1	-0.02524987
85	0xbe07f3a3	-0.13276534
86	0xbdebdae9	-0.11516363
87	0xbe25fada	-0.16208974
88	0xbddd5bb7	-0.10808509
89	0xbdda2829	-0.10652191
90	0xbdfbaed4	-0.12289205
91	0xbd84714e	-0.06466924
92	0xbd7a48b6	-0.0611045
93	0xbd8f582c	-0.06999239
94	0xbe530fe5	-0.20611532
95	0xbdaa8fee	-0.08328234
96	0xbd38a575	-0.045079667
97	0xbe188b06	-0.14896783
98	0xbd4d16b8	-0.050070494
99	0xbde5a6f8	-0.112134874
100	0xbe143ee4	-0.14477116
101	0xbe5269c8	-0.20548165
102	0xbdc79d3f	-0.09746789
103	0xbe1e43b2	-0.15455511
104	0xbec26ab7	-0.37972042
105	0xbe09e2ea	-0.13465467
106	0xbd2a2ac2	-0.041544683
107	0xbb1962db	-0.002340487
108	0xbe430f8c	-0.190489
109	0xbe1c4157	-0.152593
110	0xbc95853a	-0.018252004
111	0xbb864c92	-0.0040984834
112	0xbcafaf36	-0.021445852
113	0x3cea772e	0.028621282
114	0x3d76cfde	0.06025683
115	0xbd2020cd	-0.03909378
116	0xbcda7ac8	-0.026669875
117	0xbe3a595e	-0.18198153
118	0xbd9bda77	-0.07610028
119	0xbe93fcb8	-0.28903747
120	0xbe32e428	-0.17469847
121	0xbd82658a	-0.06367023
122	0xbe20985c	-0.1568312
123	0xbdaeb771	-0.085310824
124	0xbd73b7df	-0.059501525
125	0xbda9ac84	-0.08284858
126	0xbc3160b2	-0.010826277
127	0xbd2c5db5	-0.042081553
128	0x3d3696fb	0.04457758
129	0xbd10ce34	-0.0353529
130	0xbde22e83	-0.11044028
131	0xbc382fe6	-0.011241889
132	0xbdbb30eb	-0.0914019
133	0x3d12477d	0.035712708
134	0xbed0f977	-0.40815327
135	0xbe0681a7	-0.13135396
136	0xbb8ac8d8	-0.004235368
137	0x3cc102b0	0.023560852
138	0xbe161a3d	-0.14658447
139	0xbcb23d99	-0.021757888
140	0xbd9cc52a	-0.076547936
141	0x3bf136b2	0.0073612565
142	0xbe077e3b	-0.13231747
143	0xbd6c987f	-0.05776262
144	0x3ced3aba	0.028958667
145	0x3c998cb8	0.018743858
146	0xbda914a5	-0.08255891
147	0xbe07b960	-0.13254309
148	0xbe180a76	-0.1484774
149	0xbd4af368	-0.049548537
150	0x3e04951e	0.12947509
151	0x3d99d172	0.07510652
152	0x3e24e258	0.16101968
153	0x3db69649	0.08915383
154	0xbf130891	-0.57434946
155	0xbd5d683d	-0.054054487
156	0xbd8a4fdb	-0.067535125
157	0xbe3f6fa8	-0.18694937
158	0xbe1222b2	-0.14271048
159	0xbd2c0ed7	-0.04200634
160	0xbe83f8b7	-0.25775692
161	0xbe8632f7	-0.26210758
162	0xbe863195	-0.26209703
163	0xbe973078	-0.29529166
164	0x3e62e4e2	0.22157624
165	0x3bec78f5	0.0072165676
166	0xbe2b5ec2	-0.16735366
167	0xbd919acd	-0.07109604
168	0xbe122685	-0.14272507
169	0xbcec97ca	-0.028880972
170	0xbdd43976	-0.10362522
171	0xbe2ecbef	-0.17069982
172	0xbca563f2	-0.02018926
173	0xbde8d646	-0.113689944
174	0xbeecaa8c	-0.46223867
175	0xbdfa869b	-0.12232705
176	0x3d324a3d	0.04352783
177	0x3cece9b4	0.028920032
178	0xbdae0a32	-0.08498038
179	0x3e1d4113	0.15356855
180	0xbb9562a5	-0.0045588785
181	0x3de7d73e	0.11320351
182	0x3c8ebdfb	0.017424574
183	0x3dd1d7ea	0.102462605
184	0x3e2f7a95	0.17136605
185	0xbd925340	-0.07144785
186	0xbdffc209	-0.12488181
187	0xbd322f8a	-0.043502368
188	0xbcbc28db	-0.0229687
189	0x3d5867b7	0.052833285
190	0xbcd96aa6	-0.026540112
191	0x3d317730	0.043326557
192	0x3d638ca3	0.055554044
193	0x3d59149f	0.05299818
194	0x3e028a21	0.12748004
195	0xbdebdf22	-0.115171686
196	0x3c5237bb	0.01283067
197	0xbe0b2cec	-0.13591355
198	0xbe0496ab	-0.129481
199	0x3de47798	0.11155623
200	0xbe16d4a1	-0.14729549
201	0xbdc35070	-0.095368266
202	0xbd225a53	-0.03963692
203	0xbce371cf	-0.02776423
204	0x3cdbf5ca	0.0268506
205	0xbd897e61	-0.06713558
206	0xbe454d7e	-0.19267842
207	0xbe04d95a	-0.12973538
208	0xbcc03efc	-0.023467533
209	0xbd324fb8	-0.043533057
210	0x3cfe5145	0.031044612
211	0xbde052ba	-0.10953279
212	0x3d851cb1	0.06499613
213	0xbc2da59d	-0.010598567
214	0x3e270818	0.16311681
215	0x3c1b2ee7	0.009471632
216	0xbd106519	-0.035252664
217	0xbb062f84	-0.00204751
218	0x3ddaf343	0.1069093
219	0xbe3ab95d	-0.18234773
220	0xbdd41a38	-0.10356563
221	0xbde606ab	-0.112317406
222	0x3c9cbc2e	0.0191327
223	0xbd41b922	-0.047295697
224	0xbf5fd78a	-0.8743826
225	0x3cb32625	0.021868775
226	0xbdd90f02	-0.10598566
227	0x3c99ec8d	0.018789554
228	0xbdcf401a	-0.10119648
229	0x3e913ddf	0.28367516
230	0xbe275bc9	-0.16343607
231	0xbd8451c2	-0.064609066
232	0xbca4077b	-0.020023098
233	0xbe3a65ed	-0.18202944
234	0xbe549d67	-0.20763169
235	0x3ded1fe2	0.11578347
236	0xbb9edd4c	-0.004848158
237	0x3d06d11c	0.032914266
238	0xbcfb82c5	-0.030702004
239	0xbe7946f4	-0.24343473
240	0x39da5d00	0.0004164949
241	0xbd7a06ae	-0.061041526
242	0xbd18d027	-0.037307885
243	0xbdabe073	-0.0839242
244	0xbf75c8ed	-0.96009713
245	0xbd4176a6	-0.047232293
246	0xbe1bb216	-0.15204653
247	0xbd5bb57f	-0.053639885
248	0xbe4b80f9	-0.19873418
249	0xbd46d0cf	-0.04853898
250	0xbdf19d8f	-0.1179763
251	0xbdfa0509	-0.12207992
252	0xbabeccd8	-0.0014556898
253	0xbc86732d	-0.016412342
254	0xbf3dcf96	-0.74144876
255	0xbe36a12e	-0.17834923

lstm.weight_hh_l0 f4 [400, 100]
0	0xbe08c137	-0.13354956
1	0xbd920a90	-0.07130921
2	0x3b531107	0.0032206194
3	0x3e02f3a0	0.12788248
4	0xbdf43694	-0.119244725
5	0x3df9ebf0	0.12203205
6	0x3d8119be	0.06303738
7	0x3d951305	0.07279018
8	0x3e37d161	0.17950965
9	0xbcf9f04e	-0.030510094
10	0x3d569bdc	0.052394733
11	0x3d2c779f	0.042106267
12	0x3c47c813	0.0121936975
13	0xbd44abdf	-0.04801547
14	0xbd880778	-0.066420496
15	0x3e08789b	0.13327257
16	0x3cc85347	0.024453772
17	0x3db88d83	0.09011366
18	0xbd40fab3	-0.047114085
19	0x3ce959d4	0.028485216
20	0x3dc83b09	0.09776885
21	0xbbb7d682	-0.005610288
22	0x3e332fc3	0.17498688
23	0x3e1d768c	0.15377253
24	0xbe2b8eb7	-0.1675366
25	0xbe711e22	-0.23546651
26	0x3ca04baf	0.019567339
27	0x3e1401ca	0.14453807
28	0x3d54bc9b	0.05193768
29	0xbc0d3cae	-0.008620424
30	0xbe468827	-0.19387875
31	0x3a96dd54	0.0011510053
32	0xbe11fb44	-0.14256006
33	0xbd1eb1eb	-0.038743895
34	0x3d246c6f	0.040142473
35	0xbde7cd58	-0.11318463
36	0x3dc25729	0.09489281
37	0xbceb6f36	-0.028739553
38	0x3cdbef46	0.026847493
39	0xbe29107e	-0.16510198
40	0x3d89a68d	0.0672122
41	0xbccd80cf	-0.025085835
42	0xbda5cf81	-0.08096219
43	0xbd2ef0a8	-0.042709976
44	0xbcbbdf55	-0.022933641
45	0xbe38181f	-0.17977951
46	0xbde300b1	-0.11084116
47	0x3e08bb2a	0.13352647
48	0x3d56f375	0.052478272
49	0xbe0e9dab	-0.13927333
50	0x3e0d9f70	0.13830352
51	0xbd5d89ae	-0.05408638
52	0xbdb7a8a6	-0.08967714
53	0xbd6e8d79	-0.058240388
54	0x3dce7fff	0.10083007
55	0x3e230611	0.15920283
56	0x3d096e78	0.033552617
57	0xbd03db6f	-0.03219169
58	0x3c6e7497	0.014554164
59	0xbde84b02	-0.113424316
60	0xbe34e38f	-0.17664932
61	0x3ca46bdc	0.020070963
62	0xbe478e60	-0.19487906
63	0x3e439e7b	0.19103424
64	0x3d9d132e	0.07669674
65	0xbada542b	-0.0016657164
66	0x3d28e524	0.04123415
67	0x3d040af9	0.032237027
68	0x3e042689	0.12905325
69	0x3ce7299b	0.028218081
70	0x3cad64f9	0.021166312
71	0xbe2e38d6	-0.17013869
72	0x3dcc0e14	0.09963623
73	0x3d244e4b	0.04011373
74	0x3db5388a	0.088486746
75	0x3c384293	0.011246341
76	0xbd074dd5	-0.03303321
77	0xbd95a8de	-0.073075995
78	0x3e3463f1	0.1761625
79	0x3e0a359e	0.13497016
80	0x3d648c97	0.05579814
81	0xbd134f81	-0.035964493
82	0xbd0f5fd5	-0.035003502
83	0x3d8449bd	0.06459377
84	0x3d881450	0.06644499
85	0xbd6e4734	-0.058173373
86	0x3d918406	0.071052596
87	0x3dd44cb2	0.10366191
88	0xbe50d977	-0.20395456
89	0x3d925540	0.071451664
90	0x3d32da80	0.04366541
91	0xbd62fcb5	-0.05541678
92	0xbd916f08	-0.07101256
93	0xbcfb2ce0	-0.030661047
94	0x3c4b6028	0.012413062
95	0x3ca86457	0.020555658
96	0x3c65c416	0.014023801
97	0x3e30f222	0.17279866
98	0x3e0aec9f	0.13566826
99	0x3dda5cea	0.10662253
100	0xbd932b67	-0.07186013
101	0xbddf6a8e	-0.109089956
102	0xbe68db4d	-0.22739907
103	0x3d82ac00	0.06380463
104	0xbd6c4c90	-0.057690203
105	0xbd41e753	-0.04733975
106	0xbc185827	-0.009298361
107	0xbe0bdad1	-0.1365769
108	0x3d8623c1	0.06549788
109	0x3c7a4f4b	0.015277694
110	0x3d3ffedb	0.04687391
111	0x3cf39428	0.029733732
112	0x3d111a01	0.03542519
113	0xbd698654	-0.05701287
114	0xbc32c8d1	-0.010912136
115	0x3df272db	0.11838313
116	0x3d526d0b	0.051373523
117	0x3d80e639	0.062939115
118	0xbe2976c9	-0.16549219
119	0xbc9f566d	-0.01945039
120	0xbca1867f	-0.019717453
121	0x3e20f53d	0.15718551
122	0x3e2572dc	0.16157097
123	0xbdb3f848	-0.0878759
124	0xbdf11ecd	-0.11773453
125	0xbe11525c	-0.14191574
126	0x3d92a76c	0.071608394
127	0x3d48dfa4	0.049041405
128	0x3d86450e	0.0655614
129	0x3dff75f1	0.124736674
130	0xbdf7a04e	-0.120911226
131	0xbc70f425	-0.014706646
132	0xbce4bd50	-0.027922302
133	0x3d072548	0.03299454
134	0x3d86bed6	0.06579368
135	0xbe3d111b	-0.18463556
136	0x3ea6eb4e	0.32601398
137	0xbcfa0687	-0.03052069
138	0x3e63e852	0.22256592
139	0xbe06e92b	-0.13174884
140	0x3e10d351	0.14143111
141	0x3d9a8d30	0.07546461
142	0xbd56ae1e	-0.052412145
143	0x3cc75da5	0.024336645
144	0x3d62fa85	0.055414695
145	0xbd9982b6	-0.07495634
146	0xbd322c10	-0.043499053
147	0x3daec82c	0.085342735
148	0xbdcc227c	-0.09967515
149	0xbe45298e	-0.19254133
150	0xbdac051f	-0.08399414
151	0xbd153f60	-0.036437392
152	0xbd2ba9a3	-0.041909825
153	0x3c35d9c2	0.011099281
154	0x3d62a616	0.055334173
155	0x3e1956c9	0.14974512
156	0xbe0b3f18	-0.13598287
157	0x3d28b5fb	0.041189175
158	0xbd1ef273	-0.038805436
159	0xbe039647	-0.12850295
160	0xbe45c0d0	-0.19311833
161	0xbc3e1402	-0.01160145
162	0xbe18f89b	-0.14938585
163	0xbd452ccc	-0.048138425
164	0xbd3d07d4	-0.046150044
165	0x3e2064fa	0.1566352
166	0xbd483a82	-0.048883922
167	0x3de3f6e3	0.11131074
168	0xbc1ab21a	-0.009441877
169	0xbe4dee19	-0.20110358
170	0x3dad7502	0.08469583
171	0xbe4e2c14	-0.20134002
172	0x3d3ce749	0.04611901
173	0x3d949da9	0.07256634
174	0x3dbde772	0.0927266
175	0xbdddc3f9	-0.108283944
176	0xbcd20355	-0.025636354
177	0xbca920c6	-0.02064551
178	0x3d380a48	0.04493168
179	0x3d67fcbb	0.056637507
180	0x3d71a18e	0.05899196
181	0x3c953735	0.018214801
182	0xbab3e631	-0.0013725219
183	0x3cdd3f31	0.027007671
184	0x3e6fee2c	0.23430699
185	0xbd013f81	-0.031554703
186	0x3dfe6ba0	0.124228716
187	0x3da67a74	0.08128825
188	0xbe3b7e5e	-0.18309924
189	0xbdd80093	-0.105469845
190	0xbd2e6f2b	-0.042586487
191	0x3d5572e3	0.052111518
192	0x3d2f2b8a	0.04276613
193	0xbc13723c	-0.008999404
194	0xbd3a5977	-0.045495477
195	0x3e83fa59	0.25776938
196	0xbd81ff1c	-0.063474864
197	0xbd378401	-0.044803623
198	0x3d27e240	0.040987253
199	0xbd7878bc	-0.060662016
200	0xbe2b902b	-0.16754214
201	0x3d9a3976	0.07530491
202	0xbd825251	-0.06363357
203	0x3e54b41e	0.20771834
204	0xbe45376e	-0.19259426
205	0xbc7c01c7	-0.015381283
206	0xbe56482b	-0.20925967
207	0x3d1e5c6f	0.03866237
208	0x3df89618	0.12138003
209	0xbdb95c5a	-0.09050818
210	0x3dfd8fbf	0.12380933
211	0x3d5f3811	0.05449683
212	0xbe01b8c6	-0.12668142
213	0xbe8e75d6	-0.27824277
214	0xbde6d751	-0.11271537
215	0x3bb42dc5	0.00549862
216	0x3e1baae7	0.15201913
217	0x3c848ad5	0.016179482
218	0xbe2e49b3	-0.17020302
219	0xbd20abf5	-0.03922649
220	0x3e31424d	0.17310448
221	0x3e31435b	0.1731085
222	0x3e2f29a3	0.17105727
223	0x3e05f231	0.1308067
224	0x3b18f0cf	0.0023336892
225	0xbe289146	-0.16461667
226	0xbe01da58	-0.12680948
227	0x3e1d9b6f	0.15391324
228	0x3da85a47	0.08220344
229	0x3c6f9184	0.014622096
230	0xbd891115	-0.06692711
231	0xbcead203	-0.028664595
232	0xbe099020	-0.13433886
233	0xbbb84c53	-0.005624333
234	0x3dc61779	0.09672446
235	0xbe7bcad7	-0.24589096
236	0x3e98ea23	0.29866132
237	0xbd6e3e85	-0.058165092
238	0x3d713d7b	0.058896523
239	0xbdd60f4d	-0.10452137
240	0x3e20759b	0.15669863
241	0x3ea879dc	0.3290547
242	0xbd8c0e70	-0.06838691
243	0xbd947a20	-0.07249856
244	0x3e1271ea	0.14301267
245	0xbd8cb6ab	-0.06870779
246	0xbde3ecbd	-0.111291386
247	0x3e0b0d24	0.13579232
248	0x3dc5c175	0.096560396
249	0xbe403900	-0.18771744
250	0x3e33ee6d	0.17571421
251	0xbde82c05	-0.11336521
252	0x3dc15b9c	0.09441301
253	0x3d9560f5	0.07293884
254	0xbc90d659	-0.017680334
255	0x3df25139	0.11831898

lstm.bias_ih_l0 f4 [400]
0	0xbdc4de49	-0.0961271
1	0xbd84fdad	-0.06493697
2	0xbdd1b008	-0.102386534
3	0xbe0088ca	-0.12552181
4	0x3db17d3c	0.08666465
5	0xbe1dad0a	-0.1539804
6	0xbda7dd11	-0.08196462
7	0xbd033542	-0.032033212
8	0x3d9257b6	0.07145636
9	0xbda4502b	-0.08023103
10	0x3de8e880	0.11372471
11	0xbe449943	-0.1919909
12	0xbd887a5e	-0.06663965
13	0xbdbbc905	-0.09169201
14	0xbe191551	-0.14949538
15	0x3c88ab1a	0.01668315
16	0x3cc2ae98	0.023764893
17	0xbd4a088b	-0.049324553
18	0xbc48944c	-0.012242388
19	0xbe09fca4	-0.13475281
20	0xbe168f67	-0.14703141
21	0x3d768a2e	0.060190372
22	0xbdb9454e	-0.09046422
23	0xbe4d7fc1	-0.20068265
24	0x3aaffef6	0.0013427425
25	0xbc963aa0	-0.018338501
26	0xbe27d1c1	-0.16388609
27	0xbd3f498c	-0.046701
28	0xbd88a493	-0.06672015
29	0xbe194558	-0.14967859
30	0x3e6ae576	0.22939095
31	0xbe1183c7	-0.14210425
32	0xbe8081b1	-0.25098947
33	0xbd6e42b5	-0.058169086
34	0xbd55a833	-0.05216236
35	0x3cadee82	0.021231893
36	0x3cb26c87	0.021780265
37	0x3d35d8ed	0.04439633
38	0xbd9f5193	-0.07779231
39	0xbcbea72b	-0.023273071
40	0x3cded878	0.02720283
41	0xbcac5041	-0.021034362
42	0xbd4672b1	-0.048449222
43	0xbdd9677c	-0.10615441
44	0xbe0bb432	-0.13642958
45	0xbd0c3359	-0.034228656
46	0xbd74e876	-0.059792005
47	0xbc2f5be5	-0.010703062
48	0xbccf8169	-0.025330262
49	0xbd29e9ba	-0.041482665
50	0xbe125d83	-0.14293484
51	0xbe11f36c	-0.14253014
52	0xbd42592b	-0.04744832
53	0xbdaf4ed0	-0.08559954
54	0x3c870e14	0.016486205
55	0xbcbe524d	-0.023232603
56	0xbe17fc7c	-0.14842409
57	0xbe381b1d	-0.17979093
58	0xbde7805b	-0.11303779
59	0x3b984100	0.0046464205
60	0xbd11da13	-0.035608362
61	0xbe27d479	-0.16389646
62	0x3d3bcdc7	0.04585054
63	0xbd7f23ff	-0.062290188
64	0xbc080d09	-0.008303889
65	0x3c8c74f4	0.017145611
66	0xbe2571cc	-0.16156691
67	0x3c3770cf	0.011196329
68	0xbdcf3c54	-0.101189286
69	0xbe2cd0f8	-0.1687659
70	0xbde61ce4	-0.11235979
71	0x3d48c8c8	0.049019605
72	0x3c1c3c25	0.009535824
73	0xbe3c8667	-0.18410645
74	0xbd13b05a	-0.036056854
75	0xbd9a6eea	-0.075406864
76	0xbe18d3a4	-0.14924484
77	0xbe201f9c	-0.15637058
78	0x3d79b702	0.060965545
79	0xbdea55ab	-0.11442121
80	0xbdc76d5e	-0.09737657
81	0xbdfce843	-0.12348988
82	0xbdb96515	-0.09052483
83	0xbe7ac5c8	-0.2448951
84	0xbd792ebd	-0.06083559
85	0xbdd26b11	-0.102743275
86	0xbccd0e4b	-0.02503123
87	0xbe092de7	-0.13396417
88	0xbc1a1914	-0.009405393
89	0xbd2fa457	-0.042881336
90	0xbd778099	-0.060425375
91	0xbddea01c	-0.10870382
92	0xbddf6d8a	-0.10909565
93	0xbdcb5626	-0.09928541
94	0xbe085a9e	-0.13315818
95	0x3e25c5b2	0.16188696
96	0x3da57ae9	0.08080084
97	0xbe611e70	-0.21984267
98	0xbd95d2ed	-0.073156215
99	0xbde2161b	-0.110393725
100	0xbe409146	-0.18805417
101	0xbd20f418	-0.039295286
102	0xbd988c02	-0.07448579
103	0xbce3a14a	-0.02778687
104	0x3cef8931	0.029240223
105	0xbd5e8fab	-0.05433623
106	0xbe569e50	-0.20958829
107	0xbe01fa75	-0.12693198
108	0xbd39b000	-0.045333862
109	0xbdad4c74	-0.08461848
110	0x3bc2707a	0.0059338184
111	0xbe27663b	-0.16347592
112	0xbcab545c	-0.02091425
113	0xbbac607b	-0.005260525
114	0xbda118dc	-0.0786607
115	0xbe1a14b0	-0.15046954
116	0x3c1f0224	0.0097051
117	0xbe23c065	-0.15991361
118	0xbe1156fd	-0.1419334
119	0xbda0f22b	-0.0785869
120	0xbe04dbe5	-0.12974508
121	0xbd8a9225	-0.06766156
122	0xbd98ed36	-0.074671194
123	0xbd5292d6	-0.051409565
124	0xbc1d99cf	-0.00961919
125	0xb9087356	-0.00013012937
126	0xbdd94556	-0.10608928
127	0xbd959934	-0.07304612
128	0xbd5b26a6	-0.053503655
129	0xbdd846f5	-0.10560409
130	0xbe6f4c02	-0.23368838
131	0xbe3d6de6	-0.18498954
132	0xbe516a5f	-0.20450734
133	0x3d3f2cfb	0.046673756
134	0xbdeb285e	-0.11482309
135	0xbd9c9a6f	-0.07646643
136	0x3da49e66	0.080380246
137	0xbc253511	-0.010083453
138	0x3b07fa0a	0.00207484
139	0xbc18b525	-0.009320532
140	0xbd9ae89c	-0.07563898
141	0xbddcf63d	-0.10789154
142	0xbdeecb22	-0.11659838
143	0xbe370428	-0.17872679
144	0xbca096ce	-0.01960316
145	0xbddc87a6	-0.107680604
146	0xbd9b4e75	-0.07583324
147	0xbda5b81a	-0.08091755
148	0xbcd3ee80	-0.025870562
149	0xbd53dcbb	-0.051724177
150	0xbe154d37	-0.14580236
151	0xbd3695d8	-0.044576496
152	0xbe0ff698	-0.14058912
153	0xbd083a6e	-0.033258848
154	0xbd2b6992	-0.041848727
155	0x3d12ce95	0.035841543
156	0xbe6522db	-0.22376578
157	0xbe0d73ad	-0.13813658
158	0xbe18aa15	-0.14908631
159	0xbe7a49fc	-0.24442285
160	0xbe07012b	-0.1318404
161	0xbe2df97e	-0.16989705
162	0xbd97269e	-0.073804125
163	0xbe2cde15	-0.16881593
164	0xbd6d623e	-0.05795502
165	0xbe0a53f1	-0.13508584
166	0xbc7d76eb	-0.015470247
167	0x3ca99eb4	0.020705558
168	0xbe1c820e	-0.15283987
169	0xbd66e99d	-0.056375135
170	0xbdf47a51	-0.119373925
171	0xbc227390	-0.009915248
172	0xbd585d84	-0.05282356
173	0xbe1a05bc	-0.1504125
174	0xbe63e700	-0.22256088
175	0xbd9e9b48	-0.07744461
176	0xbbeec018	-0.007286083
177	0xbe78bbbd	-0.24290366
178	0x3c7dd012	0.015491502
179	0xbe0aca30	-0.13553691
180	0xbdb78d44	-0.08962491
181	0xbe0f469b	-0.13991778
182	0xbe4828da	-0.19546834
183	0xbe340a66	-0.17582092
184	0x3d25581b	0.040367227
185	0xbdf93294	-0.1216785
186	0x3c570ed4	0.013126094
187	0xbd90f8dc	-0.07078716
188	0x3d2ca2af	0.042147335
189	0xbe2f8fa8	-0.17144644
190	0xbd85fd56	-0.065424606
191	0xbe323719	-0.1740383
192	0xbe02c99b	-0.12772219
193	0xbe01a7ef	-0.12661718
194	0xbe13cba9	-0.14433159
195	0x3e0c5c10	0.13706994
196	0xbd13aa78	-0.036051244
197	0xbde764e0	-0.11298537
198	0xbc6abc24	-0.014327083
199	0xbdbfe243	-0.09369328
200	0xbb967ac9	-0.004592274
201	0x3c73d144	0.014881436
202	0x3dda757d	0.1066694
203	0xbde58b00	-0.11208153
204	0xbce12aad	-0.02748617
205	0x39ac5b7f	0.00032874566
206	0xbd83fa3f	-0.06444215
207	0x3d3cfbf3	0.046138715
208	0x3ab7784d	0.0013997644
209	0xbbb27c13	-0.0054469197
210	0xba2bbb8e	-0.000655108
211	0xbdf1673b	-0.11787268
212	0x3d91c550	0.071177125
213	0x3ce0d0fa	0.027443398
214	0xbd0a7832	-0.033806033
215	0xbdda6a4a	-0.10664804
216	0xbd2ee6eb	-0.04270069
217	0x3ddfbe22	0.10924937
218	0x3d3816c2	0.04494358
219	0x3cefa33e	0.029252645
220	0xbd68ada2	-0.056806214
221	0x3cac0555	0.020998636
222	0xbd95bf2e	-0.07311855
223	0xbd05c042	-0.032654054
224	0x3d2afde4	0.041746035
225	0x3cd92086	0.026504766
226	0x3c11f3e3	0.008908245
227	0xbcdf0591	-0.027224334
228	0xbd93fb76	-0.07225697
229	0xbd44a768	-0.048011214
230	0x3cb573e8	0.022149995
231	0x3e039a9b	0.12851946
232	0x3dd8d343	0.1058717
233	0x3d125ad9	0.03573117
234	0xbb884aaf	-0.0041592936
235	0xbce9a5c0	-0.028521419
236	0xbdc4e727	-0.09614401
237	0xbcd09f2a	-0.02546652
238	0xbb31c00e	-0.002712253
239	0x3d1f1859	0.03884158
240	0xbdaa05c5	-0.08301882
241	0xbb0b4896	-0.0021252981
242	0x3d8a6fdd	0.067596175
243	0xbcc6221d	-0.024186188
244	0xbcd2aff6	-0.02571867
245	0x3dabfad8	0.08397454
246	0x3b1e8dbd	0.002419337
247	0x3dc2c370	0.09509933
248	0xbc668018	-0.014068626
249	0x3d0f8623	0.035040032
250	0xbe0ac839	-0.13552941
251	0x3d918a29	0.0710643
252	0x3a944d2c	0.0011314503
253	0xbc96ce80	-0.018409014
254	0xbceec91f	-0.029148636
255	0xbd631198	-0.0554367

lstm.bias_hh_l0 f4 [400]
0	0xbe794977	-0.24344431
1	0xbd6cb661	-0.057791118
2	0xbdd443a5	-0.10364465
3	0xbe12c168	-0.14331591
4	0xbd990cea	-0.07473166
5	0xbd487e87	-0.04894879
6	0xbe5a9c4b	-0.21348684
7	0xbe13ad99	-0.14421691
8	0xbdb37135	-0.08761827
9	0xbde11578	-0.10990423
10	0xbd963f7a	-0.07336326
11	0xbcfd1374	-0.030893065
12	0xbde87bd6	-0.11351745
13	0xbe1e0715	-0.15432389
14	0xbe60511c	-0.21905941
15	0xbd99ba6c	-0.0750626
16	0xbd845312	-0.06461157
17	0xbe27e5bd	-0.16396232
18	0xbdf1bcd3	-0.118035935
19	0xbe03b329	-0.12861313
20	0xbe1d4baf	-0.15360902
21	0x3d573712	0.052542754
22	0x3d116d9c	0.035504922
23	0xbda56e1f	-0.080776446
24	0x3c4f82fb	0.0126655055
25	0xbd663fe0	-0.05621326
26	0xbe22b6a8	-0.1588999
27	0xbd216098	-0.03939876
28	0xbdc157c4	-0.09440568
29	0xbbc5e566	-0.0060393093
30	0x3e877b31	0.26461175
31	0xbd63b90b	-0.055596393
32	0xbe657eab	-0.22411601
33	0xbdbd6741	-0.0924821
34	0xbd04c7e5	-0.032417197
35	0x3db16f6f	0.086638324
36	0x3df0904b	0.11746272
37	0xbd567c39	-0.05236456
38	0xbd857341	-0.065161236
39	0xbde11750	-0.10990775
40	0x3d37b2ba	0.04484818
41	0xbc3d3043	-0.011547151
42	0x3cf05a77	0.029340012
43	0xbd8c385a	-0.06846686
44	0xbddd090a	-0.1079274
45	0x3d2342fa	0.039858796
46	0xbe10313d	-0.14081283
47	0xbd6d2e86	-0.057905696
48	0xbcf365b3	-0.02971158
49	0xbb04e730	-0.00202794
50	0xbe22496b	-0.15848319
51	0xbcb71cdb	-0.022352627
52	0xbda8b20c	-0.08237085
53	0xbe02d8e5	-0.12778051
54	0x3bc87e6b	0.006118586
55	0xbd5d086c	-0.05396311
56	0xbe717b16	-0.2358211
57	0xbda7d051	-0.0819403
58	0xbdbe91a3	-0.09305122
59	0xbd065847	-0.03279903
60	0xbd563fb7	-0.052306857
61	0xbe09c4f6	-0.13454041
62	0xbd541047	-0.051773336
63	0xbdfb6b70	-0.122763515
64	0xbe4f8c69	-0.20268406
65	0x3adf4acd	0.0017035842
66	0xbe4a8bad	-0.19779845
67	0xbe129a37	-0.14316641
68	0xbcaf7ca0	-0.02142173
69	0xbe6d802e	-0.23193428
70	0xbc6a96cf	-0.014318182
71	0x3d8f553a	0.069986776
72	0xbbfad1cf	-0.0076544057
73	0xbd526082	-0.05136157
74	0x3cdd91a0	0.027046978
75	0x3c66029c	0.014038708
76	0xbe15fe3e	-0.14647767
77	0xbe7b5c8c	-0.24547023
78	0x3cd6c0ed	0.026215041
79	0xbe02eaa7	-0.12784825
80	0xbe03ab8f	-0.12858413
81	0xbcb5763d	-0.022151107
82	0xbe2a4fb3	-0.16631965
83	0xbe375cb8	-0.17906463
84	0xbca29201	-0.01984501
85	0xbdad3957	-0.08458202
86	0x3d547c6f	0.05187648
87	0xbe28751c	-0.16450924
88	0x3c9f8dc1	0.019476773
89	0xba9ac3d1	-0.0011807625
90	0xbe065649	-0.13118853
91	0xbd838446	-0.064217135
92	0xbe121add	-0.1426806
93	0xbe38ca28	-0.18045866
94	0xbdf3a161	-0.11896015
95	0x3e1b9b6a	0.15196005
96	0x3d46ab77	0.048503365
97	0xbdd6d96c	-0.10490689
98	0x3c933c03	0.017972952
99	0xbdb9f879	-0.090805955
100	0xbe3f89b0	-0.18704867
101	0xbd815e01	-0.06316758
102	0xbcdaf9a4	-0.026730366
103	0xbe181507	-0.14851771
104	0x3d6eaa14	0.058267668
105	0xbe0eba7f	-0.1393833
106	0xbe3c7230	-0.18402934
107	0xbddd2069	-0.10797197
108	0xbc11990f	-0.00888659
109	0xbd57a4f2	-0.05264754
110	0x3cd4b255	0.025963942
111	0x3b93fba9	0.004516084
112	0xbddec450	-0.108772874
113	0xbd830fec	-0.06399521
114	0xbe4fd843	-0.20297341
115	0x3d014e96	0.031569086
116	0xbd24f2ff	-0.0402708
117	0x3cd55b25	0.026044438
118	0xbe0ddce7	-0.13853799
119	0xbe01a370	-0.12660003
120	0xbd015ad8	-0.031580776
121	0xbe10d473	-0.14143543
122	0xbe2c76ab	-0.16842143
123	0xbe7ebf35	-0.24877627
124	0x3c1a6f5a	0.009425962
125	0xbd398350	-0.045291245
126	0x3d1dd2af	0.038531
127	0xbdbcc613	-0.09217467
128	0xbdac4542	-0.084116474
129	0xbe1242f4	-0.14283353
130	0xbe9098b3	-0.282415
131	0xbdd5e8df	-0.10444807
132	0xbe96eaf3	-0.29476127
133	0x3cddad6f	0.027060239
134	0xbd44a0b1	-0.04800481
135	0x3d8ebca5	0.06969575
136	0x3dacca28	0.08436996
137	0xbc174276	-0.009232154
138	0xbcff12a5	-0.03113682
139	0xba9ce436	-0.0011969868
140	0x3c8dd6a8	0.01731427
141	0xbe214759	-0.15749873
142	0xbdd210e6	-0.10257129
143	0xbe0c0d3d	-0.13676925
144	0xbe1288f3	-0.14310054
145	0xbdb432a4	-0.087987214
146	0xbd7f90f3	-0.062394094
147	0xbdb79090	-0.0896312
148	0xbcea2649	-0.028582709
149	0xbc5e5ac5	-0.013571446
150	0xbdad2ad5	-0.08455435
151	0xbd94304e	-0.07235776
152	0xbda66a5b	-0.081257544
153	0xbe56369e	-0.20919272
154	0xbde7ea91	-0.11324037
155	0xbb29794c	-0.0025859652
156	0xbe855804	-0.26043713
157	0xbe3cf437	-0.18452536
158	0xbc7498d1	-0.014929012
159	0xbda38b43	-0.079855464
160	0xbd1e0276	-0.038576566
161	0xbe651734	-0.22372133
162	0xbd8dd672	-0.06925668
163	0xbd3b3242	-0.045702226
164	0xbe4466a3	-0.19179778
165	0xbdbca252	-0.09210648
166	0xbe4293e6	-0.19001731
167	0x3cb0d7c2	0.021587256
168	0xbde5fcfa	-0.11229892
169	0xbc6b28e8	-0.0143530145
170	0xbbacfc19	-0.005279076
171	0xbdde40fd	-0.10852239
172	0xbbf81ea5	-0.0075720125
173	0xbe3a8c18	-0.18217504
174	0xbe291836	-0.16513142
175	0xbd94ebb6	-0.07271521
176	0x3cb6bcfb	0.02230691
177	0xbe86c2f4	-0.26320612
178	0xbd9c19db	-0.07622119
179	0xbde0bbd8	-0.10973328
180	0xbd98169f	-0.0742619
181	0xbdf7bb80	-0.1209631
182	0xbc85ab92	-0.016317163
183	0xbe411bc8	-0.18858254
184	0xbe20286a	-0.15640417
185	0xba8d32f4	-0.0010772632
186	0x3d6a50e5	0.057206053
187	0xbe5e6ede	-0.2172198
188	0xbd71b57f	-0.05901098
189	0xbc86fe09	-0.016478555
190	0xbc50fae6	-0.012755131
191	0xbd0f1ba2	-0.034938462
192	0xbcb1c283	-0.021699196
193	0xbe6305ae	-0.22170135
194	0xbd4668e6	-0.048439883
195	0x3dbbce54	0.09170213
196	0xbd9d13d8	-0.076698005
197	0xbe2ff5f0	-0.17183661
198	0xbdb4b26e	-0.08823095
199	0xbd0aaee3	-0.03385819
200	0x3b697d4c	0.0035627661
201	0xbc5db8da	-0.013532842
202	0xbc8e601c	-0.017379813
203	0x3d87ff2c	0.06640467
204	0x3d9e063c	0.07716033
205	0xbd3f9cf5	-0.046780545
206	0x3d6e58fd	0.058190335
207	0x3d355725	0.04427256
208	0xbd3f2b2d	-0.046672035
209	0x3cf43ce1	0.029814186
210	0x3afe5683	0.0019404445
211	0x3c9d2a2b	0.019185146
212	0x3ca2bb90	0.019864827
213	0xbb95beb9	-0.004569855
214	0x3d3d7ce9	0.0462617
215	0x3d5279b5	0.0513856
216	0x3d3f50a7	0.046707775
217	0xbd16f1c9	-0.036851678
218	0xbd7e6b33	-0.062113952
219	0x3c0c3d7a	0.008559579
220	0xbd656ee4	-0.056013957
221	0xbd9708e6	-0.07374744
222	0xbd734eac	-0.0594012
223	0x3cfb3dfd	0.030669207
224	0x3b7f3d5e	0.003894649
225	0x3d293e42	0.04131914
226	0x3d9bf69e	0.07615398
227	0xbd7991fd	-0.06093024
228	0xbd2ec9f8	-0.04267308
229	0xbd139980	-0.03603506
230	0x3dae51b0	0.085116744
231	0xbce26a3a	-0.027638543
232	0x3aeb0fff	0.0017933844
233	0xbd7d4bea	-0.061839975
234	0xbd0505d5	-0.032476265
235	0x3da3ee41	0.08004428
236	0x3d487bd6	0.048946224
237	0x3da7e35c	0.08197662
238	0xbcd836e4	-0.026393361
239	0x3d8dd4a3	0.06925323
240	0x3d511143	0.051041853
241	0x3d594a3f	0.053049322
242	0x3de3d42a	0.111244515
243	0xbca7e0b3	-0.020492887
244	0xbd99847d	-0.07495973
245	0x3cd09ca0	0.02546531
246	0xbcbfaba9	-0.023397284
247	0xbd8f1e88	-0.06988245
248	0xbd98ec45	-0.0746694
249	0x3dc737dc	0.09727451
250	0xbbecbe5b	-0.0072248406
251	0x3d37e56d	0.04489653
252	0xbc6fca98	-0.014635704
253	0xbb3c1a66	-0.0028702258
254	0x3d95a3c0	0.073066235
255	0xbccaeeca	-0.024772067

linear.weight f4 [1, 100]
0	0x3c168417	0.009186766
1	0xbbd525ae	-0.006504736
2	0x3c8d1d57	0.017225904
3	0xbdc1212c	-0.09430155
4	0x3dbbd3e9	0.09171278
5	0xbd104bcb	-0.03522853
6	0x3b5dc57b	0.0033839631
7	0x3d385055	0.044998486
8	0xbddd13d0	-0.107947946
9	0x3cf8895c	0.030338936
10	0xbdb8af12	-0.09017767
11	0xb9ccf275	-0.00039090557
12	0xbd68375c	-0.05669342
13	0x3c7cc47c	0.015427705
14	0x3ceb3aa2	0.028714482
15	0xbdac2a56	-0.084065124
16	0xbd67525f	-0.05647504
17	0x3ccf95e9	0.025340037
18	0x3d45443c	0.048160776
19	0x3d184760	0.037177444
20	0xbc2d9952	-0.010595636
21	0xbdb59b98	-0.08867568
22	0xbda3d1a9	-0.07998974
23	0xbd537fdb	-0.051635604
24	0x3d8fb2db	0.07016536
25	0x3e0ace51	0.13555266
26	0xbbdfa1e8	-0.0068247207
27	0xbdbe469e	-0.09290813
28	0xbdb58b64	-0.08864477
29	0x3d185971	0.037194673
30	0x3e155174	0.14581853
31	0x3cd766c7	0.026294125
32	0x3d9cd769	0.07658274
33	0xbdaedcd9	-0.08538217
34	0x3d23ba87	0.03997281
35	0x3e1b8cc1	0.15190412
36	0xbe1e170c	-0.15438479
37	0x3e058501	0.13039018
38	0xbdc31cdb	-0.09526988
39	0x3de8e1eb	0.113712154
40	0xbdfbb218	-0.12289828
41	0xbd12eb1a	-0.03586874
42	0x3dfc709d	0.12326167
43	0xbd390d87	-0.045178916
44	0x3d90f91a	0.07078762
45	0x3e03e4cb	0.12880246
46	0x3d7b39d2	0.06133444
47	0x3ccb03ee	0.024782147
48	0x3de31046	0.11087088
49	0x3d9da0dc	0.07696697
50	0x3d865342	0.06558849
51	0x3df83d85	0.12121109
52	0xbc8c17de	-0.017101225
53	0xba2bec56	-0.0006558349
54	0xbdd2b6de	-0.102887854
55	0xbdbc46df	-0.09193205
56	0x3cfce0d2	0.030868921
57	0x3d18b61a	0.03728304
58	0x3d3ae440	0.045627832
59	0x3df6e719	0.12055797
60	0x3dfcc6d8	0.12342614
61	0xbd31ebb4	-0.043437675
62	0x3df898d0	0.12138522
63	0xbd8905c0	-0.0669055
64	0x3d6e147c	0.058125004
65	0xbd832520	-0.064035654
66	0xbc91de62	-0.017806236
67	0x3d6c1c15	0.05764397
68	0xbd1599ba	-0.03652356
69	0x3c6caf76	0.01444613
70	0xbda71240	-0.08157778
71	0x3dc58f98	0.09646529
72	0xbdac1014	-0.08401504
73	0xbdbb537f	-0.09146785
74	0xbdfa8f47	-0.12234359
75	0x3dbdc349	0.09265763
76	0x3dae7d20	0.085199594
77	0x3db588d7	0.08863991
78	0xbdf604b1	-0.120126136
79	0xbd4cc256	-0.04999002
80	0xbdcd58e7	-0.100267224
81	0xbdbcfa57	-0.09227436
82	0x3cce2946	0.025166165
83	0xbcd62c35	-0.026144126
84	0xbdf58455	-0.11988131
85	0x3da7a8d3	0.081864975
86	0xbd91ae48	-0.0711332
87	0xbdd83148	-0.10556275
88	0x3dfca1af	0.12335526
89	0xbd6bf5b0	-0.057607353
90	0x3d312c70	0.04325527
91	0x3d46fb9c	0.048579797
92	0x3b2e9b54	0.0026642876
93	0x3ccdfd88	0.025145307
94	0x3d673530	0.056447208
95	0xbe53d1b5	-0.20685466
96	0x3de15daa	0.11004193
97	0xbccd8348	-0.025087014
98	0xbd05309d	-0.032517064
99	0xbbf0dcc7	-0.0073505375
