model/1721472233_model-aapl.pth (torch, 174356 bytes, 5 tensors)

lstm.weight_ih_l0 f4 [400, 5]
00000000: 5d7e 703d 00e4 74bb 003f aabc 9a34 74bb
00000010: ca63 a63d 2dde e0bc 004f 733b 57b2 04bd
00000020: 93dc 54bd 50fc 86bd 9261 ac3d 33f3 debc
00000030: 8361 1dbd 0d8c 2c3c f32d 0cbc 53ca c4bc
00000040: 0242 a33d 87f3 bc3c e320 ccbd 2030 a5bd
00000050: bd0e 41bd 73c8 81bd c231 8dbd bbc0 b63d
00000060: a7fa 463d 8507 c53d fbcf aabd 2d90 b8bd
00000070: 4dfb d4bb 176f 763d a74c 59bc a7e0 373c
00000080: cdf7 503c 476d c0bd 9ad1 85bd 6308 65bd
00000090: bd42 c73d 271a fb3c 7706 2bbd 0fdf c93d
000000a0: a09d 16bd 005e 23bd 9afa 51bb 9a51 9dbd
000000b0: dafc 0abd faa6 e9bc fb9f 94bd b7f1 753d
000000c0: eaa5 233d 77ad 963d 03f0 833d e7c4 723c
000000d0: 0023 10bc 8817 97bd bf5c 96bd 678d 75bb
000000e0: 002f 693b a737 31bd 006c 03bd 5aaa 6dbd
000000f0: eae7 01bd 2204 89bd 6d32 ae3c 2d38 873c
00000100: 37a2 b7bd a7a0 893d e702 5c3d 270a afbd
00000110: ba1e 853c 6df8 823d 8a13 0abd e793 a8bb
00000120: 0d94 8cbd baf2 b13d 3307 623b 2d1a 51bd
00000130: 45f8 c2bd 8be0 c73d 50be 4cbd 1aff 53bc
00000140: 27c2 cabc 8741 83bc e77d dc3b 02a3 89bd
00000150: b33a c43d 689d a13d 9a3d 563c 800c b73d
00000160: 0d23 c3bc 32d3 89bd 5a95 72bd 90c2 973d
00000170: f0b3 1e3d 234f cabd f788 8bbd 6741 96bd
00000180: 65b3 8e3d bb10 823d 40e7 533d 936d c43d
00000190: 83c8 963d b376 9d3c 6d51 b23d 3050 35bd
000001a0: e323 6a3d 5d98 6c3d d3f6 a5bc 2b6e 8f3d
000001b0: f313 b63d 5332 9bbc f553 c43d c8c3 a13d
000001c0: 4d6c 44bd a0ba 9c3c ebd5 bfbd 5037 20bd
000001d0: 5755 aa3d 8063 833d 6018 99bc 38d0 89bd
000001e0: f35a 5c3d ddbe ca3d fdbf c4bd 6a01 7bbd
000001f0: 530f 3d3d e712 393c e787 9dbc 5a3d 19bc
00000200: 209d a23c 4bb2 a43d b30f 93bb 8d00 843c
00000210: f366 5e3d 3559 a73d 00c6 5b3b fa45 7fbd
00000220: f0a0 44bd c011 f03c 5dd5 4abd 40c1 c0bc
00000230: 8d51 ea3c 80d0 44bd 2d42 54bd cffb a2bd
00000240: fdfa 793d 5a2f d83c ca2b 8c3d 2329 a73d
00000250: 8d57 c1bc 4b1f 843d 6757 593c 0b9b c93d
00000260: bd4a c1bd 0d5b a8bd 0dd5 2ebc 2586 c1bd
00000270: eaca 0e3d 3d3b 13bd b3d6 d7bb e07b 9dbc
00000280: 534b debc e08a 9d3d 80f5 933b f0a9 493d
00000290: 5343 cebc 8d51 b7bc aa4a 8e3d a784 1f3c
000002a0: 00ce 913a 30c9 1fbd cdfe 7b3b 2305 153d
000002b0: 7d44 82bd da8b 95bc 3354 113c 537b 3b3d
000002c0: 9dd6 76bd 53c4 cfbc 5aa6 053c ab2c ba3d
000002d0: 93d5 10bd 9a85 2abb a08e 5fbd 473a b23d
000002e0: 3f7b 91bd cdc2 bf3a 3fcb 8abd 6082 80bd
000002f0: c071 d6bc 45f4 99bd 0027 bcbc 3a52 62bd
00000300: 2d14 b13d 475b bc3d b38f c83b fa73 af3c
00000310: c094 3ebd 1f02 8cbd 9875 943d fa1d de3c
00000320: 8773 e5bc c031 223d 6dac dbbc 873a 8e3c
00000330: 570c 903d 8ae2 12bd ca51 803d 5f46 8e3d
00000340: 1ae1 abbc 4376 8a3d bfc6 c23d 33e5 a4bc
00000350: ed87 6c3d 2743 7dbd 2ff9 af3d 9a71 493d
00000360: 0d6b 6f3c 33bc a9bb 3706 13bd 30ac 85bd
00000370: 9ad6 b83c 977e 27bd cdf4 67bd 80ce 59bd
00000380: 0751 69bd 3bb7 9b3d c07a eebc 9b23 b6bd
00000390: 40dc 843d 6fd3 cbbd cb3d 8bbd a0ae 1ebd
000003a0: a783 2c3c 070d 6ebd 007b 7e3c 4785 3ebd
000003b0: f71d 22bd 201a 8bbd 0b51 98bd 1bab c43d
000003c0: a333 3b3d 7a11 c43d 2a37 08bd 3d4b 033d
000003d0: 2d61 c13c baaa 8b3c 23eb 61bd 7afd 59bd
000003e0: e203 adbd a74b 0c3d 9ac9 37bd 0d90 0cbd
000003f0: 8055 fa3b 4b80 b2bd caf0 353d 0bd4 b23d
0.05871426 -0.0037367344 -0.020781994 -0.0037262798 0.08124502 -0.027449692 0.0037125945 -0.03239664
-0.05196817 -0.065910935 0.084170476 -0.027215576 -0.038423073 0.010531438 -0.008555877 -0.024022257
0.07971574 0.023065342 -0.0996721 -0.0806582 -0.047133196 -0.06337061 -0.06894256 0.08923479
0.048578884 0.09620575 -0.083404504 -0.09011874 -0.006499684 0.060164537 -0.013262904 0.011222995
0.012754393 -0.09395843 -0.06534119 -0.0559162 0.09729526 0.030652119 -0.041754212 0.09856998
-0.036771417 -0.039884567 -0.003204024 -0.0768158 -0.033932544 -0.028522003 -0.07257076 0.06004497
0.03995315 0.073573045 0.06442263 0.014817453 -0.008797407 -0.07377535 -0.07341909 -0.0037468316
0.0035580993 -0.043265965 -0.03208542 -0.058023788 -0.03171531 -0.066902414 0.02126428 0.016506279
-0.08966487 0.06720095 0.053713705 -0.08546858 0.016250003 0.0639504 -0.03371004 -0.0051445845
-0.06864176 0.086888745 0.0034489154 -0.051050354 -0.0952001 0.09759625 -0.049986184 -0.012939239
-0.024750782 -0.016022457 0.006728876 -0.067205444 0.095815085 0.07891351 0.01307621 0.08937931
-0.023820424 -0.067297354 -0.059224464 0.07410157 0.03874582 -0.098783754 -0.06813233 -0.07336693
0.069678105 0.06350847 0.05173421 0.09591212 0.07362463 0.01922164 0.08706937 -0.044265926
0.05716313 0.057762492 -0.020259297 0.07003435 0.08890524 -0.018944895 0.09586326 0.078986704
-0.047954846 0.019131958 -0.093669735 -0.03911525 0.083170585 0.064154625 -0.01868838 -0.06729168
0.053797673 0.098996855 -0.09606931 -0.061280645 0.046157192 0.011296011 -0.019229842 -0.009353006
0.019850314 0.08041819 -0.0044879555 0.016113544 0.0542974 0.08171312 0.0033534765 -0.062322594
-0.048005044 0.029305339 -0.049519885 -0.023529649 0.02860334 -0.048050404 -0.051820923 -0.07958185
0.061030377 0.026389766 0.068442896 0.08162143 -0.023601318 0.06451281 0.013265467 0.09844025
-0.09438083 -0.082204916 -0.010670912 -0.09449414 0.034861483 -0.035945166 -0.0065868734 -0.019224107
-0.027135527 0.07692504 0.00451535 0.04923433 -0.025178587 -0.022377754 0.06947835 0.009736217
0.0011124015 -0.039010227 0.0038451434 0.036381852 -0.06360719 -0.018255163 0.008870172 0.045771908
-0.060263265 -0.02536217 0.008157337 0.09090551 -0.03535993 -0.0026019574 -0.054579377 0.08702522
-0.071035855 0.0014630199 -0.06777047 -0.06274867 -0.026177287 -0.07517294 -0.022967815 -0.0552542
0.08646426 0.09197097 0.006120646 0.021417607 -0.046528578 -0.06836342 0.07248992 0.027113903
-0.02800919 0.039598227 -0.026815617 0.017361892 0.07033604 -0.035860576 0.062656 0.06947016
-0.02098136 0.06760838 0.09510564 -0.020128822 0.057746816 -0.06183162 0.0859245 0.049180605
0.014612925 -0.005179906 -0.0358946 -0.06526983 0.022563267 -0.04089221 -0.056629945 -0.05317545
-0.05696204 0.07603308 -0.029111266 -0.0889351 0.06487322 -0.09952437 -0.067988954 -0.038740754
0.010529435 -0.058117893 0.015532255 -0.046513822 -0.039579358 -0.06792092 -0.07437333 0.09602948
0.04570354 0.09573646 -0.033255734 0.032054175 0.023605907 0.017049182 -0.055155884 -0.05322025
-0.08448006 0.034251835 -0.044869997 -0.034317065 0.007639587 -0.08715876 0.044419087 0.0873185

lstm.weight_hh_l0 f4 [400, 100]
00000000: 9a71 b53c 80f7 463d 9aa0 f7bc 33c4 a63d
00000010: 9374 bd3d e83d 933d c0c0 593d 6242 95bd
00000020: cd34 a5bc 67c9 57bd ffe3 c63d 407f 643c
00000030: faff 50bd e538 a83d 2d71 a8bd 0bce 80bd
00000040: e222 c2bd 4dd3 1e3c 1393 873c 27e2 0dbc
00000050: bd58 313d c7bf bdbc 225f 8d3d d3bb 543d
00000060: 33f9 28bd a05f 87bd 807c 8fbc 8b59 993d
00000070: 176b 443d 0b3e a23d f78e a03d 2767 403c
00000080: d5f3 893d 331b 743b 3342 d9bc e777 de3b
00000090: df44 933d a709 43bd 4de4 84bc 4dd2 b93c
000000a0: 4020 bfbc cd31 e9bb da7a ac3c 27f4 a1bc
000000b0: 974e bf3d 2076 d53c cd50 ddba 274a febc
000000c0: 6daf d0bc b304 c93d d3cf dabc 6a03 813d
000000d0: 50ba 0cbd add6 033d 9aa8 0f3d 85de 873d
000000e0: 4dcd e83c 103a 8c3d 3083 63bd 6082 a13c
000000f0: e366 b9bd cdc5 74bd 1d00 30bd 9a0d 3abb
00000100: 13c9 f43c 33fd afbc 6be4 bb3d 6233 98bd
00000110: c701 f1bc 2fa1 c53d 43ad 753d e001 22bd
00000120: a7fe 143c 6d8b c5bc 5a1a 9cbd d80c b2bd
00000130: 279c 083c c04b eebc 33e9 f2bc 6f66 b23d
00000140: 6a90 6f3d 9258 a73d bad7 f33c f3d6 bd3d
00000150: b07c 6c3d 7727 0d3d 275a 183d cd7d abbc
00000160: 7259 95bd 3323 3ebd 18f7 ca3d 33e3 1a39
00000170: edec 9abc f582 9f3d 9a28 943c 1ac5 5dbc
00000180: c0a4 95bc 9a88 5ebd 931e c6bd 6d25 653d
00000190: b3bd 183c 65dd c43d 2a05 a2bd 003c 17bb
000001a0: a072 e3bc 18e1 853d 03d5 76bd d081 9c3d
000001b0: eaaa 9cbd 9dd0 4cbd 78dd c5bd 8841 bcbd
000001c0: 3db0 92bd ada9 96bc 1a5b a9bd 6d19 6a3d
000001d0: a06a a1bc 7b97 c63d e00f 0b3d d7ea 2bbd
000001e0: 77f0 443d 2096 fc3c 8a28 b4bd 33a3 28bc
000001f0: 0712 823c f03f a73d 0dd9 5ebc afc1 abbd
00000200: c85f b1bd 2bcf adbd 42fc 9a3d da44 a83c
00000210: b38a e93c cd68 1a3a 2df8 3fbd a7a8 8a3c
00000220: 1010 1dbd 2a18 09bd 203e 85bc 805a ebbc
00000230: 4017 3abc e2bc 91bd d7ae bfbd 7db2 9abd
00000240: 9ffe c83d faf6 8ebd 5bd2 c93d 5a2c 83bd
00000250: 338d 883c 00d7 d73c 2d86 b8bd bd6b 82bd
00000260: cd8c ceba 8354 0b3d 62af 96bd 3ab5 85bc
00000270: dd34 76bd ca9d 593d bab2 98bd 00ab 54bb
00000280: da45 bcbc 13d6 9e3c 0032 103b 9267 87bd
00000290: 007a 81ba 0566 c1bd 0d08 13bd 9a06 78bc
000002a0: 9adc 863b d2e6 95bd 9334 ba3d 0733 ce3c
000002b0: cb4b 8ebd 8de6 aebc 073e a33d 4d93 563c
000002c0: a0a4 e5bc 1f1c 9abd 8087 183d 00bd 6e3d
000002d0: 13b5 c5bd 3a61 a53c 6d9a 1e3d b0ae 7fbd
000002e0: 8043 973c 8d9f 1fbc f81f c43d 303c 383d
000002f0: 007e 653c 57cf 77bd 67e0 cb3b 5310 bfbd
00000300: f7ba 70bd 0051 0a3b 2d49 d5bc 2de1 6d3d
00000310: 2364 5cbd e08e b4bc b05e 1abd 6748 4e3b
00000320: 33e5 403b c7b1 333d b547 babd f387 23bd
00000330: d374 59bd 3a6b 39bd 45ab a83d e717 cf3b
00000340: 3765 93bd 4752 16bd c0c9 de3c 0a93 0b3d
00000350: 0065 49bd a09b 743d 1a76 64bc 9a40 afbc
00000360: 0d99 97bd b3ff 9a3c 151c abbd 6509 babd
00000370: 40dc 8abd 5a6c 053d 3584 903d fd11 cc3d
00000380: 806b 313c 3304 adbc 938c 93bc 8d00 983d
00000390: 4873 913d 00b4 e13c 60f3 433d e8c6 983d
000003a0: 7df5 c53d a704 8ebc 3ad8 2abd dab9 b73c
000003b0: d5db 8cbd cd71 323c d38c fe3c cdef 8e3c
000003c0: 95ed b6bd cda8 443c 33b8 b2bc 2b31 813d
000003d0: ffb7 c03d 38c2 9bbd 0dfa 6dbc a708 2c3c
000003e0: a384 79bd 5acf 143d 1372 85bc 0deb d03c
000003f0: 1a84 16bd 5504 a23d 608c b0bd d703 7dbd
0.022148896 0.04857588 -0.030227948 0.08142891 0.092507504 0.07189542 0.053162336 -0.07288052
-0.020166779 -0.052682307 0.097114556 0.013946354 -0.05102537 0.08213977 -0.082247116 -0.062892996
-0.094793096 0.009693933 0.016549623 -0.008659876 0.043297518 -0.023162736 0.06902911 0.051936936
-0.04125328 -0.06610036 -0.01751542 0.07487782 0.04795369 0.0792199 0.078397684 0.011743343
0.067359604 0.0037247657 -0.026520824 0.006789196 0.071908705 -0.047616627 -0.016222144 0.022683287
-0.023330808 -0.0071165324 0.021054674 -0.019769741 0.09341162 0.026057303 -0.0016885042 -0.031041218
-0.025474275 0.098153494 -0.026710426 0.06299479 -0.03435737 0.032187153 0.0350729 0.06634239
0.028418208 0.06847012 -0.055545032 0.019715488 -0.09052827 -0.05975895 -0.042968858 -0.0028389455
0.029881036 -0.02148304 0.09174427 -0.074316755 -0.029419793 0.09649884 0.05997969 -0.03955257
0.009093917 -0.024114335 -0.07622214 -0.08693856 0.008338011 -0.029088855 -0.029652214 0.08710944
0.058487333 0.0817119 0.029765952 0.09269514 0.0577361 0.034461465 0.03719535 -0.02093401
-0.07292451 -0.046420287 0.09910411 0.00014771223 -0.018911803 0.0778865 0.018085767 -0.013535762
-0.018267035 -0.054329492 -0.096738 0.055943895 0.009322572 0.0961254 -0.07911141 -0.0023076534
-0.027764618 0.06537074 -0.060261738 0.07641947 -0.07649787 -0.050003637 -0.096613824 -0.091921866
-0.07162521 -0.018391455 -0.08269329 0.057153154 -0.019704163 0.09696861 0.033950686 -0.041972008
0.048080888 0.030833304 -0.08796795 -0.010292816 0.015877737 0.08166492 -0.013601554 -0.083865516
-0.08660847 -0.0848678 0.075676456 0.020540643 0.02850852 0.00058902503 -0.04686754 0.016926123
-0.038345397 -0.03347031 -0.016264975 -0.028729677 -0.011358082 -0.07116105 -0.0935952 -0.07553575
0.0981419 -0.06980701 0.09854575 -0.06404944 0.016668892 0.026347637 -0.09009967 -0.06368206
-0.0015758515 0.034016144 -0.0735767 -0.016321767 -0.060109008 0.053128995 -0.074559644 -0.0032450557
-0.022982527 0.019389188 0.0022002459 -0.06611551 -0.0009878278 -0.09443287 -0.03589635 -0.015138293
0.004115653 -0.07319416 0.09092059 0.025170816 -0.0694805 -0.02135017 0.07970815 0.013096643
-0.0280326 -0.07524895 0.037238598 0.058285713 -0.09653678 0.020187963 0.03872149 -0.062422454
0.018464804 -0.00974263 0.0957641 0.044979274 0.0140070915 -0.06050047 0.006221819 -0.093292855
-0.058772054 0.0021105409 -0.02603587 0.058076072 -0.053806435 -0.022040784 -0.037687957 0.003147626
0.0029433488 0.043870714 -0.09095708 -0.039924573 -0.053089928 -0.045268275 0.08235792 0.006319988
-0.071970396 -0.03669956 0.027195811 0.034075774 -0.049168587 0.059718728 -0.013944173 -0.02139311
-0.07402239 0.018920755 -0.083549656 -0.09083823 -0.067802906 0.032574035 0.070564665 0.099643685
0.010828853 -0.021120166 -0.018011367 0.0742198 0.07102066 0.027551651 0.047839522 0.07459813
0.09665964 -0.017336203 -0.041710116 0.022427488 -0.06877867 0.01089139 0.03107301 0.01744833
-0.08932034 0.012003136 -0.021816349 0.06308206 0.094100945 -0.07605404 -0.014524949 0.01050011
-0.060917508 0.03633056 -0.016289746 0.025502706 -0.036747076 0.079109825 -0.086205244 -0.06177124

lstm.bias_ih_l0 f4 [400]
00000000: b386 883d 134a db3c 6721 a1bc 50a4 583d
00000010: 6035 523d 4252 c1bd 678d c7bc 2734 dbbc
00000020: edc6 d2bc cda0 413b a7bc a7bd 788f c93d
00000030: cd23 47bb a0c7 203d 9a7a 053b 1dbc 86bd
00000040: 7b5b 86bd 00f4 3bba 1da8 bebd c5c7 adbd
00000050: 20f7 a73d 1312 953d a850 85bd b399 00bc
00000060: 7bbe b43d 7344 24bc 1009 5fbd 93d9 59bd
00000070: 883c 9f3d 6a0c 31bd 3a01 34bd f011 6dbd
00000080: 3f2f 83bd ed69 f7bc 0008 1c3c 5b30 b13d
00000090: 6713 c93b 605d 7b3d 5bc7 bdbd aad9 36bd
000000a0: adbe 9d3c fa89 d8bc 4093 b63d cad9 29bd
000000b0: b787 643d ed95 a4bc 38e7 a93d 0fc7 a3bd
000000c0: b32a 8bbd 0d7d bf3c c098 233d 479d 0b3d
000000d0: c0a9 6d3c 908d 563d 530e dd3c 7a91 ccbd
000000e0: 8a29 77bd 0756 5b3d 80d1 7fbc 0815 943d
000000f0: 0d24 7fbc fa59 22bd 9381 413d cb3a be3d
00000100: 1ade c93b 5d84 44bd 800b 99bd 67bf c2bc
00000110: da07 72bd 9a2d 0abb e7a6 cfbc da55 63bc
00000120: a7cd 54bd 8ac4 7a3d 00c2 edbb 7015 143d
00000130: 8303 c2bd 6716 9a3b c01b 173c 82bc 9bbd
00000140: cdfa d03a 2dbf 2b3d 9a6e 6c3c 0084 fc3b
00000150: b3b6 c23c dd13 87bd 0023 3c3c ba5f ae3d
00000160: ba97 80bd b3b9 c4bb 8a55 34bd 02d0 82bd
00000170: 4dc8 41bd b332 273d a769 573d 83de 27bd
00000180: 7b23 94bd ad33 97bc a78f 7cbc 1341 4dbd
00000190: 632e 5cbd 1bd0 9b3d 9a39 0bbc cf60 ae3d
000001a0: 6079 84bc d750 2dbd 607d f93c e057 dabc
000001b0: 00fd e5bb 477c 8dbd db4d 94bd 0a9a 2f3d
000001c0: 200e fdbc 6744 c73d 406a 11bd 2736 263d
000001d0: 2090 febc 405b 37bc 5a9f 72bc 40f0 6b3c
000001e0: 67a9 58bc a3ed 56bd ed70 793d 0037 41bc
000001f0: 0d5f 5e3d 87e0 4d3d 0a80 1dbd 6def a2bd
00000200: 802b c13c e72b 8ebd 2ae2 5cbd 6372 313d
00000210: 93de 1bbd 83c2 c73d a086 273d 65e0 ae3d
00000220: fd97 3b3d b3ea 2bbd 53c7 523d 9a8d 7e3a
00000230: 0884 913d 470c c1bd cde0 37bb 23fd bf3d
00000240: 67a3 703d 0d2f cbbc 4d24 643c 67b4 a3bc
00000250: 5bc8 8b3d daf9 673c e3f5 24bd 1a77 f93b
00000260: 80cf 53bd 9ad9 90bd 0d31 3bbd 2725 c6bd
00000270: a078 463d 87ce 213d 3a4e f03c a3c1 92bd
00000280: cdb4 67bc e76b c53b d26f 973d 4d0e aabb
00000290: 9a7f 7cbc b3a2 8b3d ba2f a53d 5df0 1d3d
000002a0: 1a72 e23c dab9 033c d7a3 803d c8e6 8fbd
000002b0: ebaf 9e3d af70 843d 8d46 4e3c daeb 16bd
000002c0: 9dd5 25bd 5aad 373c 6dd2 0fbd b206 c13d
000002d0: 6f66 93bd 4273 953d 339f cebb 4de0 383c
000002e0: 67a6 fcb8 381e bd3d fa74 d8bc 089b 95bd
000002f0: 455a 9abd 40dd 6bbc 936b 9a3d 870e bdbc
00000300: 2342 2c3d d782 833d 0a95 5fbd fa03 903d
00000310: 337d 853a e0c4 1abd f3e9 cfbc bdb5 7c3d
00000320: 58ad a53d 00d0 9b3b 9aeb a63c 930a 713d
00000330: 9ad6 b43b 3394 783b e7cd 7dbc caf5 a23d
00000340: 7ad7 333d dd30 c53d ff2b a03d 8095 0c3c
00000350: cdf0 17ba cd1b 55bd 772f b5bd eae0 11bd
00000360: fd71 0b3d 679b 37bb a092 ed3c 3abb 6ebd
00000370: b3b3 663c 1d25 02bd b3eb 233c cd63 19bd
00000380: ade8 f7bc 8fa0 aabd 57d2 843d 0f46 c73d
00000390: b0cf 7fbd 80ee 48bd abfd 89bd b3c6 c53d
000003a0: da82 ba3c 98c6 aabd 9ae3 9dbc a0e8 86bc
000003b0: 6d45 c2bc 47f7 d13c 9a69 353d 4fb7 99bd
000003c0: 7331 bc3d c045 7b3c a78e 3ebd 0db6 51bc
000003d0: d311 afbd edd7 9ebc 4fe9 9dbd 2d77 d83c
000003e0: 30a5 423d fff8 84bd f38f 1abd 8027 613c
000003f0: 9af4 1d3d 1d13 3cbd 3340 ebbc 3357 0d3d
0.06666317 0.02676872 -0.019669248 0.052891076 0.051320434 -0.094395176 -0.024359418 -0.026758267
-0.02572962 0.0029545308 -0.081902795 0.098418176 -0.003038633 0.039252877 0.0020367266 -0.065788485
-0.06560417 -0.0007169843 -0.09309409 -0.08485369 0.08201432 0.07278838 -0.065095246 -0.007849145
0.08825394 -0.010026085 -0.054452002 -0.05318601 0.07775217 -0.04322473 -0.043946482 -0.057878435
-0.06405496 -0.030201877 0.009523392 0.08651801 0.006136346 0.061368346 -0.0926654 -0.044641174
0.01925596 -0.02643298 0.089148045 -0.041467465 0.05579349 -0.020091021 0.082960546 -0.07996952
-0.067952536 0.023375059 0.039940596 0.03408554 0.014505804 0.0523811 0.02698437 -0.09988685
-0.06034235 0.05354884 -0.015613914 0.07230574 -0.01557256 -0.03963659 0.047242712 0.092885576
0.00616051 -0.047977794 -0.074728966 -0.023772908 -0.05908952 -0.002108431 -0.02534814 -0.013875449
-0.051953938 0.06122259 -0.0072557926 0.036153257 -0.09473326 0.0047023776 0.009222925 -0.076043144
0.0015943885 0.041930366 0.014430666 0.0077061653 0.023768758 -0.065955855 0.011482954 0.08514352
-0.062789395 -0.0060035824 -0.04402689 -0.063873306 -0.047310162 0.040819835 0.052590992 -0.040983688
-0.0723333 -0.018457258 -0.015415109 -0.050110888 -0.053755175 0.07608052 -0.00849762 0.085145585
-0.016171157 -0.042313423 0.030455291 -0.02665323 -0.0070186853 -0.0690847 -0.07241412 0.042871512
-0.030890524 0.097298436 -0.03550172 0.040578987 -0.031074584 -0.011191189 -0.0148085 0.014400542
-0.013223982 -0.05247272 0.06089871 -0.011792898 0.054289866 0.050262954 -0.038452186 -0.07955823
0.023580313 -0.069419675 -0.053926624 0.04332198 -0.03805406 0.09753897 0.040899873 0.085388936
0.045799244 -0.041971873 0.05145962 0.00097104313 0.07105261 -0.0942617 -0.0028057576 0.09374454
0.058749583 -0.024802709 0.01392467 -0.019983483 0.06825324 0.01415869 -0.04027356 0.007613075
-0.05171156 -0.07072754 -0.045701075 -0.09675055 0.04845488 0.0395036 0.029334176 -0.071658395
-0.014142227 0.006024826 0.07394375 -0.005189693 -0.015411282 0.06818142 0.08065744 0.038559306
0.027642298 0.008039916 0.0628125 -0.0702644 0.077483974 0.06466805 0.012590063 -0.03684602
-0.04048692 0.011210764 -0.035112787 0.09425105 -0.07197272 0.07297374 -0.006305599 0.011283946
-0.00012047291 0.092342794 -0.026422966 -0.073049605 -0.07536749 -0.014396012 0.075400494 -0.023078216
0.04205526 0.0642144 -0.054585494 0.070320085 0.0010184407 -0.03778541 -0.02538011 0.061696757
0.08089703 0.00475502 0.020376015 0.058847975 0.0055187466 0.003793013 -0.0154909855 0.07957037
0.043906666 0.096284606 0.078208916 0.008580565 -0.0005796075 -0.052028466 -0.08846944 -0.035614885
0.034044255 -0.002801621 0.02900058 -0.058284022 0.01408093 -0.031773675 0.010004926 -0.037448693
-0.030262316 -0.08331405 0.06485432 0.097301595 -0.062453926 -0.049055576 -0.067378365 0.096570395
0.022767473 -0.0833866 -0.019273568 -0.016468346 -0.023714745 0.025630606 0.044290163 -0.075056665
0.09189119 0.015336454 -0.046522763 -0.012799752 -0.085483216 -0.01939007 -0.07710516 0.026424015
0.047520816 -0.06492805 -0.037734937 0.013742328 0.03856335 -0.045916665 -0.028717136 0.034506988

lstm.bias_hh_l0 f4 [400]
00000000: 6007 5dbd a774 bcbc 80ad 663c 9781 803d
00000010: 1372 ab3c 8a8d 1e3d 2dfa c63c 7a72 b53c
00000020: dbe1 c43d bf52 b93d e7d4 953b 13df f13c
00000030: 2a4b aabd 8a91 44bd 2729 50bc 1a00 543d
00000040: d73a b9bd 4817 a53d adbf f73c 40bd 9a3d
00000050: 9afc c0bd 13fd f23c f84d a5bd c044 2b3c
00000060: 5de5 22bd e286 a0bd adc9 473d 8056 673c
00000070: 9548 babd f3b7 45bc 0f31 9a3d cdae fc3a
00000080: f23c c3bd 00ac 0a3d c76e 353d 57a0 603d
00000090: 1a28 8a3c 6d56 d53c 3f9e a0bd a76a 1bbc
000000a0: da47 1a3c 9a29 763b eabe 233d 7abe 06bd
000000b0: dd4f 323d 731d 2abd e203 a3bd b7ab 65bd
000000c0: 93bb 17bd fb1b 843d 9a37 0fbb 0d8d 843d
000000d0: 0043 873c 73ad ab3c 132b e3bc 5048 49bd
000000e0: 3d2c 48bd 6708 4a3c b3aa 73bc c7a0 25bd
000000f0: b0b8 b6bd cd8d 69bd 77fd 54bd 6716 5e3d
00000100: edea 77bd ca5d 1dbd d008 353d 83a1 953d
00000110: 7777 57bd 3a29 133d 0d5a f43c 0026 493c
00000120: 6adc 7cbd 3563 c2bd 934c 28bd 4d7b cb3c
00000130: 0a46 81bd 2303 8abd 330b b6b9 7d8e 14bd
00000140: f3d8 3cbd eb28 8f3d 63da 6c3d 7786 cc3d
00000150: 656a babd c741 243d c7c5 bfbc 0d1b 0fbc
00000160: da9e 2f3d eaee 1fbd a359 76bd 6384 7f3d
00000170: 4035 cc3d 0788 8a3d 33eb a43c f05b 1d3d
00000180: f3a1 093c ed1c a13c 4018 393c c768 a7bc
00000190: d58e a33d 5aa8 8d3c e714 673c 6d2a 84bd
000001a0: 1359 b6bd bb69 a7bd b31f 0dbc b3d6 6d3d
000001b0: e0ad f4bc 80a5 b3bc cdbf 7bbc 0f8e a0bd
000001c0: 2db0 ccbd da42 a83c 1adf 39bc 475a ac3c
000001d0: 32c9 bbbd a075 01bd 2369 4bbd 2a90 1a3d
000001e0: 4d18 a53b 0f88 8cbd 1378 8cbc 1f83 94bd
000001f0: 82a8 b2bd fa7d 0e3d b770 883d 8d9a de3c
00000200: c58d bd3d 1aac 2cbc 13e6 f4bc 3342 56bb
00000210: 4a44 b93d 0346 243d 5ab6 2cbd 2779 dcbc
00000220: 481a a03d 8252 c9bd 4d00 9bbc 5dfe 763d
00000230: 8d44 47bd 3d8d 3b3d 1f0d bbbd c08c 523c
00000240: 80ed f03b a779 7bbd df06 b6bd 182e a0bd
00000250: 3aad 2e3d 6d1b 773d 374f 04bd cd04 89bb
00000260: 03d7 92bd 282c c0bd f337 b63d c7a7 ccbc
00000270: c21b b83d 8d0f a8bc cd5e 793d 4a8c 1e3d
00000280: d3b9 62bd 6278 95bd 873f 403d cd26 ce3c
00000290: 73e9 a3bc 357d 80bd 673d ef3c f8a4 b33d
000002a0: 3ad1 fa3c 930e 493d f388 0cbc 7a3b 033d
000002b0: ea48 74bd b3ba adbd 0078 24ba b35f 85bd
000002c0: c0ad 1a3d 7335 03bc 7dc9 c4bd 8d50 3a3d
000002d0: 4be9 91bd 131f a5bc aa88 3b3d 679b 533c
000002e0: f07a ba3d 4348 4f3d 8d4e 303c b780 48bd
000002f0: e719 ae3c 57e6 863d 6b53 c2bd 379b 253d
00000300: e74f c53b d002 4fbd cd6b d73c e0c2 913d
00000310: f0ca 53bd cd1d 2bbb a83a c63d 8ad6 543d
00000320: 0d4a 14bd 0a02 43bd 4a26 af3d 32f8 b6bd
00000330: 7a38 983c fd9b bd3d 6da7 44bd 23c0 183d
00000340: 8f25 87bd 4dfb 983b fb00 86bd 2306 4c3d
00000350: 8dbc 3fbd 2aee 7f3d 60c8 83bd 4887 98bd
00000360: 93ee 153d 3b34 8fbd 0099 d0bb 070b 943d
00000370: 6386 12bd a27d be3d b082 91bd 5766 32bd
00000380: c58b 8ebd 1acb b73b 073f 993d da34 55bd
00000390: 3ae4 383d 20ce b33c 6dde 98bc 551a ccbd
000003a0: d5a7 a43d 6709 173c f3c6 4dbc e78a 9bbd
000003b0: f7a2 c93d 4825 cc3d 3ace 5bbd cd0b 493c
000003c0: 0dec 5dbc da0e 35bd 33b5 5cbb f367 0f3d
000003d0: 9a7b 9bbc 9a29 5d39 65da 8cbd 18dc c73d
000003e0: cabf 4d3d 3aaf 56bd b35a b6bd d5d2 b2bd
000003f0: 800c b5bd dd8c 04bd 6770 043b 7d9a cb3d
-0.05396211 -0.023004843 0.014079452 0.06274717 0.020928418 0.0387092 0.024289215 0.022149313
0.09613391 0.09048986 0.004572499 0.029525315 -0.08315118 -0.04799036 -0.012705124 0.05175791
-0.09044426 0.08061081 0.030242765 0.07555628 -0.0942318 0.02966169 -0.08071512 0.010453403
-0.03976952 -0.07838227 0.048776317 0.014119744 -0.09095875 -0.012067783 0.075288884 0.0019278169
-0.09533109 0.03385544 0.0442951 0.054840412 0.016864825 0.026042188 -0.07842683 -0.009485877
0.009416545 0.0037561418 0.03997699 -0.032896496 0.043533195 -0.04153199 -0.07959725 -0.056071963
-0.03704412 0.06450649 -0.002185321 0.06472216 0.01651144 0.02095673 -0.0277305 -0.04914123
-0.048870314 0.012331105 -0.014872241 -0.040436532 -0.08921945 -0.057019997 -0.051999535 0.054220583
-0.060526777 -0.038419522 0.044197857 0.073061965 -0.052604165 0.03592799 0.029828096 0.012277126
-0.06173364 -0.094915785 -0.041088652 0.024839068 -0.06312187 -0.067388795 -0.0003472209 -0.0362687
-0.046105336 0.06990226 0.057825457 0.09986585 -0.091023244 0.040101793 -0.023409737 -0.008734477
0.042876102 -0.039046206 -0.060144078 0.062382113 0.09971094 0.067642264 0.020131683 0.038417757
0.008400428 0.019667113 0.011297286 -0.020435704 0.079862274 0.01729219 0.014104105 -0.064534046
-0.08903708 -0.08174463 -0.008613515 0.05806608 -0.029868066 -0.021929502 -0.015365553 -0.078395955
-0.0999454 0.02053969 -0.011344695 0.021039141 -0.09169234 -0.031606317 -0.049660813 0.03773514
0.0050382973 -0.068618886 -0.0171471 -0.07251572 -0.087235466 0.03478811 0.06662124 0.027173305
0.09255556 -0.010539079 -0.029894864 -0.0032693266 0.09046228 0.04010583 -0.04216609 -0.026913239
0.07817513 -0.0983019 -0.018921042 0.060301173 -0.04864936 0.045788992 -0.09133362 0.01285094
0.007352531 -0.061395314 -0.08888029 -0.07821292 0.04264567 0.06032889 -0.032302108 -0.0041814805
-0.071699165 -0.09383422 0.0889739 -0.024982346 0.089896694 -0.020515228 0.060881425 0.03870801
-0.055352997 -0.07298352 0.046935584 0.025164986 -0.020008778 -0.06273881 0.029204084 0.087717
0.030617345 0.049086165 -0.008577573 0.032039143 -0.05963985 -0.08482876 -0.0006273985 -0.06512394
0.037763357 -0.008008349 -0.09608743 0.045486975 -0.07124575 -0.020156419 0.04578463 0.012915469
0.0910548 0.050606024 0.010760915 -0.048950877 0.021252586 0.065869026 -0.09488567 0.040431228
0.006021488 -0.05053979 0.02629652 0.071172476 -0.05170721 -0.0026110292 0.096791565 0.051962413
-0.036203433 -0.047609366 0.08552225 -0.08934058 0.018581618 0.09258268 -0.048011232 0.03729261
-0.065989606 0.0046686293 -0.06543156 0.04981054 -0.046810675 0.06248299 -0.06434703 -0.07447678
0.036604475 -0.06992384 -0.0063658953 0.07228666 -0.035772692 0.09301306 -0.07105005 -0.04355463
-0.06960253 0.0056089284 0.07482725 -0.052052356 0.04513953 0.021948874 -0.018660748 -0.0996596
0.08039824 0.00921855 -0.01255964 -0.07594853 0.09845536 0.09968048 -0.05366347 0.01227088
-0.013545048 -0.044203617 -0.003367734 0.035011243 -0.018979836 0.000210917 -0.06877593 0.097587764
0.050231732 -0.052413203 -0.08904018 -0.08731619 -0.08840275 -0.0323609 0.0020208599 0.09941576

linear.weight f4 [1, 100]
00000000: 33cd adba 8bd6 cabd b35c 28bd 274a 98bc
00000010: 7d3b 8f3d 052d adbd ca28 3fbd 428c b7bd
00000020: a87c a63d f880 973d f025 903d 551d 91bd
00000030: 8758 4f3d 10e2 41bd ad9e 7fbd bbda bbbd
00000040: 270e a0bc 1f60 c63d 0aec 143d e3c6 b83d
00000050: 009e b33b da0c 2c3c 47be 7fbd 008d 933c
00000060: 5ac6 043c 3367 1fbc 2b21 c9bd dab9 4dbc
00000070: cb54 9abd 2d33 9b3d 0db1 1f3d 7320 01bc
00000080: cd77 e53c f730 533d e78e c63d 7383 d23c
00000090: 00cb 63bc 52c6 a3bd 3396 a8bb ddf0 8ebd
000000a0: 6774 82bc 334e e3bb 2ff4 c63d 7a39 f93c
000000b0: 6ae0 0cbd 6029 d83c 6a05 aa3d e7dd f93c
000000c0: da6d 7fbd 7d8f 283d e734 16bd 5a35 053d
000000d0: 6af6 7ebd 3314 403b 3307 603c 6766 efba
000000e0: 5a53 4a3c d80b 933d 8d71 2f3c 7adf e13c
000000f0: 1dfd 0c3d 9b04 9b3d b794 71bd ffa9 9cbd
00000100: ab32 b13d 087c acbd 47cb 353d e09f 27bd
00000110: f3ac 213d b091 6e3d a70a af3c d31b b3bd
00000120: 8d1e 1dbc fadc 35bd 2061 8bbc 6084 4b3d
00000130: 9a29 58ba 9a0f 07bb 2aae 3e3d 6d8f 2bbd
00000140: 27da a73d cbae 99bd b371 543d 6d49 abbc
00000150: 22e3 86bd cdb5 113b 67a7 84bc ffe7 b0bd
00000160: c25c b93d cb7e c53d 6d0f 80bd 47ad 3bbd
00000170: 7d6b 88bd 3318 183c d35d 62bd 1545 9fbd
00000180: baa3 8f3d 7827 913d b850 9bbd 0d17 9b3c
-0.0013260007 -0.09904202 -0.04110403 -0.018590046 0.06993768 -0.084558524 -0.04666976 -0.08962299
0.08129245 0.07397646 0.07038486 -0.07085673 0.050621536 -0.04733473 -0.062407184 -0.09172579
-0.019537998 0.096863024 0.036357917 0.0902231 0.0054814816 0.010501111 -0.062437322 0.01801157
0.008103931 -0.009729194 -0.098207794 -0.0125565175 -0.07535704 0.075781204 0.03898721 -0.007881272
0.028011227 0.05156037 0.09695225 0.025697445 -0.013903379 -0.07996811 -0.0051448583 -0.06979535
-0.015924646 -0.0069368123 0.09714543 0.030422915 -0.034393705 0.026386917 0.08301814 0.03050132
-0.062360622 0.041152466 -0.036671545 0.032521583 -0.062246718 0.0029308915 0.013673591 -0.0018264771
0.012348974 0.071799934 0.010708225 0.027572382 0.034421075 0.07569238 -0.058979716 -0.07649612
0.08652242 -0.084220946 0.044383314 -0.040923953 0.039471578 0.058244407 0.021367384 -0.087455414
-0.009589803 -0.044400193 -0.017014086 0.04968679 -0.0008245945 -0.0020608664 0.046552815 -0.04188483
0.08195906 -0.07504042 0.051866245 -0.020909036 -0.06586291 0.0022233606 -0.016193105 -0.08638
0.09050895 0.096433245 -0.06252942 -0.045819547 -0.06661127 0.009283113 -0.05526526 -0.07776848
0.0701365 0.07087606 -0.07583755 0.01893189
