model/1721471182_model-aapl.pth (torch, 174356 bytes, 5 tensors)

lstm.weight_ih_l0 f4 [400, 5]
00000000: 3a63 d9bb 3791 0cbe 54af 06be 167d 30bd
00000010: 0773 b13e 936b c8bc 974e ce3b e8c2 10be
00000020: 1123 6a3c 76dc 463c dd5c 07be f4d4 26be
00000030: df81 d4bd 886b 56be b127 82bd e3d2 efbd
00000040: 1945 15bd d650 82bd 1aa9 c6bd f0c5 4b3e
00000050: 7c9b 143c e6c3 cfbd 0c7b c5bd b692 6e3a
00000060: e769 c7bc b2c8 acbd ce2a bb3c 9b36 79bd
00000070: 784e 22be 72c7 873c 2dfd 51be 593f 33bd
00000080: 0fb2 cfbc cc15 cfbd 8281 24bf 7177 69be
00000090: c987 ffbd 0026 d0bd e8b2 85be 808a 1cbe
000000a0: 6592 853d bc3c febd 4edb bebd 0592 5cbd
000000b0: 8709 f1be da18 05be fe1a 00be 6199 f4bd
000000c0: bcb4 09bd edf5 7c3e 7c14 83bd fb72 13be
000000d0: cdb0 04be c3d2 2dbe 75f5 2a3e eedb ffbd
000000e0: 1286 62be 012e 08be ecde 11be 1ab3 d6bd
000000f0: 5c23 17be 78e8 38be a732 c4bd ae4e 87bc
00000100: f0d2 82bd 8e48 b1bd 33c3 4dbe 976a 67bd
00000110: 079b 37be c7fb 313c c37e 283d 6cce 1a3b
00000120: 05a1 92bd b74e 513b f11c c53c 042a 4cbe
00000130: 9be3 9ebd bb3f 09be 2440 3abd a099 8bbe
00000140: a3c3 96bd dbff 9dbd a608 c4bd cede 1fbc
00000150: 2348 88bf 13dd 44be a159 d0bd 05f3 0fbe
00000160: ae5a aabc 34b6 0a3e 2934 f2bc 3090 c3bd
00000170: 29f3 a5bc 2883 e5bb 2ed7 64be dbfc 71be
00000180: 1284 88be 5244 98bd 3d03 a0bd 78b8 78be
00000190: eafc 65be 91e1 78be a4b1 92be 4dee 00be
000001a0: 82d9 90bd 1909 21be 7b7c edbd 1242 87bd
000001b0: 2982 43bd f5a2 0abf f265 fdbd 4b00 463c
000001c0: 3268 e2ba af75 cabd ed6a 7fbe d1aa 1cbe
000001d0: 0cbf 1fbe 7f50 c5bc 6e03 87bd 3eee e93c
000001e0: eb19 25bd 28dc 0ebe 11bc 1bbe b32a 29bd
000001f0: 909f 07bf ceb1 c7bd 8296 57be 7ce3 cfbd
00000200: 1a05 0dbe 6715 0bbf 3371 f2bd f65a cabb
00000210: 7e5a a0bd f686 e1bd 3668 c43d 8be5 1bbd
00000220: 7afa edbc 9845 05bd d9bf 013c f37b 37be
00000230: 45d3 353b 9b4f 2fbe ffed c3bd 3171 4cbd
00000240: 7fcc 2dbe ad53 ecbd 93a1 00be a178 f4bd
00000250: cd06 d9bd 7fda 123d 34f9 b4bb 99a9 e2bd
00000260: 769f 0dbd fd62 dcbb 0f39 d83d 2619 93bc
00000270: c299 28be 5735 113c bbf6 eabb af74 863e
00000280: 37be 09be 9d73 febd 048b 3cbe fe91 4fbe
00000290: 9064 a7be c27a 0d3e 72d4 3f3d 3aa9 c43d
000002a0: ef39 0c3e 0399 af3e f0cb 25b9 5957 fbbd
000002b0: 0d1a bfbd 1128 05be 0f4d 5fbf f960 32bd
000002c0: d120 cbbd 1725 0f3d 74c9 8ebd f37f 83bf
000002d0: 7e50 c3bd 7388 8f3c fedb 523d 874e b4bd
000002e0: b53a ac3d 1014 6cbd d968 afbd 35d9 15be
000002f0: 9fd6 1e3d c058 093d 2885 53bd b4e7 fcbd
00000300: 3770 a5bc 2f6d 8ebc 1c7c e3be 9f34 71bd
00000310: 15d0 1cbd 6492 a0bc d4fd 3f3d d477 ae3e
00000320: b19b 23be bd4d e9bc 8e05 03be 0ea1 efbd
00000330: 1efc 673d ff63 eb3c 61be a73c 4b4d 23bd
00000340: 4a4c 55bd 15f8 bcbe 0c39 2dbc f546 a0bd
00000350: 4e25 85bb 203d 65bd d2fb 873e 319a ffbc
00000360: 142b 82bd 3253 d93b 11b3 b73b d20b 523b
00000370: e966 03be 7bf2 edbd fa22 2ebe 3112 ddbd
00000380: ae1d cbbe b64c ffbd 3b2d 0cbe 62d6 c4bd
00000390: 4a66 5d3d 46c7 36be e0fd 3dbd 0efe 34bd
000003a0: 6a5b a8bd 15e5 b4bd 1a48 b7be 75c2 08bd
000003b0: bdad 0abe 4b9f abbd 1559 41bc f5a4 5abe
000003c0: 4c74 eebd d474 c6bd ee22 16bd 9062 5fbd
000003d0: fbd8 3ebe b7ec a93b a843 c93b 6e49 6fbc
000003e0: 7033 e8bd f154 25be 9b9f 83bd 92d4 b7bd
000003f0: 7799 04be 00cc 84bd 9fd2 9f3c 467b 0bbe
-0.006634143 -0.1372727 -0.1315282 -0.04308804 0.3465807 -0.024465358 0.0062959897 -0.14136851
0.014290587 0.012137523 -0.13219018 -0.16292173 -0.103763334 -0.20939457 -0.06355227 -0.11710145
-0.03644285 -0.063630745 -0.09700222 0.19899726 0.0090702735 -0.101447865 -0.0964261 0.0009100841
-0.02434249 -0.08436717 0.02284756 -0.06084309 -0.15850246 0.016574595 -0.20506735 -0.043761585
-0.02535346 -0.10111579 -0.64260113 -0.2279947 -0.12477071 -0.10163498 -0.26113057 -0.15287209
0.06522063 -0.12413928 -0.09319173 -0.053850193 -0.4707758 -0.12997761 -0.12510297 -0.11943317
-0.033619627 0.24703188 -0.064003915 -0.1439933 -0.12958069 -0.1697493 0.16695197 -0.1249312
-0.22121456 -0.13298799 -0.14245194 -0.1048338 -0.14759582 -0.1805743 -0.09579974 -0.01651701
-0.063878894 -0.08656417 -0.20093994 -0.056498136 -0.17930232 0.010863251 0.041136514 0.0023621572
-0.07159618 0.0031937787 0.024061652 -0.19937903 -0.07758256 -0.13403217 -0.045471326 -0.27265644
-0.073615335 -0.07714816 -0.09571962 -0.009757711 -1.0647014 -0.19224958 -0.10173345 -0.14057548
-0.020795193 0.13546067 -0.029565888 -0.09548986 -0.02025755 -0.0070041604 -0.2234771 -0.23631613
-0.26663262 -0.07434906 -0.07813118 -0.24289119 -0.2245976 -0.24304797 -0.28651154 -0.12590905
-0.07072736 -0.15726127 -0.115960084 -0.06604399 -0.047731552 -0.541549 -0.1237296 0.012085031
-0.0017273484 -0.098857276 -0.24943133 -0.15299536 -0.15600222 -0.024086235 -0.06592451 0.028555986
-0.04030792 -0.1395117 -0.1520846 -0.041300487 -0.5297785 -0.097507104 -0.21053508 -0.10150811
-0.13771477 -0.5432953 -0.11837997 -0.006175394 -0.0782976 -0.1101207 0.09590189 -0.038060706
-0.0290501 -0.032537073 0.007919275 -0.17918377 0.0027744335 -0.17120211 -0.095668785 -0.049912635
-0.1697254 -0.115393974 -0.12561636 -0.11937071 -0.10597 0.035852905 -0.0055228714 -0.110675044
-0.034575902 -0.0067256675 0.10557758 -0.017956328 -0.16464904 0.008862815 -0.007170526 0.26260898
-0.13451467 -0.12424395 -0.18412405 -0.20270535 -0.3269391 0.1381636 0.046833463 0.0960259
0.13693975 0.34296426 -0.00015811599 -0.122725196 -0.09331141 -0.13003565 -0.8722696 -0.04354951
-0.099183686 0.03494748 -0.06972018 -1.0273422 -0.09536837 0.017521119 0.051479332 -0.088040404
0.08409635 -0.05763632 -0.0856492 -0.14633639 0.038778897 0.033531904 -0.05164066 -0.12348881
-0.02019511 -0.017386047 -0.44430625 -0.058888074 -0.03828438 -0.019601054 0.04687293 0.34075797
-0.1597736 -0.028479451 -0.12795088 -0.117006406 0.056636922 0.028734205 0.020476522 -0.039868634
-0.052074708 -0.36908022 -0.010572683 -0.07826034 -0.004063285 -0.055966496 0.2655931 -0.031201454
-0.06355873 0.006632232 0.005606063 0.0032050502 -0.12832226 -0.11618515 -0.1700553 -0.10794485
-0.3967108 -0.12465803 -0.13689129 -0.09611203 0.05405263 -0.17849454 -0.046384692 -0.044187598
-0.08220561 -0.088327564 -0.35797197 -0.033388574 -0.13542838 -0.08379992 -0.011801024 -0.21351989
-0.116432756 -0.09690252 -0.036654405 -0.054537356 -0.18637459 0.0051856893 0.0061420985 -0.014604909
-0.11337936 -0.16145684 -0.06426927 -0.089760914 -0.12949167 -0.064842224 0.019509612 -0.13621244

lstm.weight_hh_l0 f4 [400, 100]
00000000: f57b 193d 246e f7bd 1c3d 943c edaa 1b3c
00000010: 14f1 dfbd 24fc 6dbd c647 fd3c 6f5e 0d3d
00000020: c5b1 923d fc95 99bc 4716 1d3e 49ea 7fbc
00000030: d782 6abd 552f 95bd 2283 abbd 9c92 033e
00000040: 950f 2abd 2ac0 033d f3d5 a03d 6a62 5c3d
00000050: e579 083e 4777 6bbd 8c7c 44bd 1a40 b4bc
00000060: c7ce c83d 70c5 e93d a1a2 6bbc c19c 243d
00000070: 1f3e 383c f88d 9c3c a69d dc3d d011 943c
00000080: e32d ff3b e06c 57be a557 a6bb 51b0 e33d
00000090: a90b c5bd f1f9 b63d 1b62 9cbd d97a acbb
000000a0: e970 ba3c 5bf9 b5bd a392 bebd fb8d c7bd
000000b0: cf47 82bd 4b18 f0bc 1ce5 0e3d 3882 233e
000000c0: 8c8e 5dbd 30a1 9ebd 9bfe f3bd aa22 d13d
000000d0: 1717 4ebd 6982 3b3d 6a11 893d 9cab 41bd
000000e0: 4492 5dbc 125e 21bb 0513 d33d c800 31bd
000000f0: 0672 70bd edbd 9cbd 9571 07bc f01c 81bd
00000100: c281 653c 616f 14be 4a96 06be 0a0c 5d3c
00000110: 760d 863d 688b 18bc 8157 ca3d 0d34 f8bd
00000120: 6571 edbd 5447 053e efd3 923d bcff 953d
00000130: 9288 9d3c e88d 0e3e 9e01 12bd fe07 7ebd
00000140: 024f dc3c 1583 8b3d ab4b da3d 32d5 b3bc
00000150: feae 5bbc 6f84 dabd a510 323e 866c 03bd
00000160: 8404 28be 37f4 e9bd 325f 51bd 1537 db3b
00000170: b115 01be 4f57 aabc 961d a43c b257 aebd
00000180: 1d7a 183e 0ef8 22bc ca65 4d3d 3971 bb3d
00000190: 30ed 7b3c 5d87 47bd b45b 80bd 4f94 3f3c
000001a0: 1420 59bd b020 573d 025b e5bd 6e21 3c3d
000001b0: 435e 833d f569 2c3d 2597 7d3d 3bbd b6bd
000001c0: 52a0 403d e4e3 57bd 7f5f 5abd 8ca1 123e
000001d0: aaae ddbc 8ea1 fbbc 2a4b 94bc 421b f13d
000001e0: a23f 9b3c cd7f a23c 9081 8b3d 4e6e c6bd
000001f0: c9ee 763c fbae 0a3e 4282 9ebc d596 6dbd
00000200: 3550 8d3d 9e21 123d 02d7 803c b4ce f53d
00000210: 595e 7d3d 210c 82bc f7c2 533d 21a5 013d
00000220: e8eb d23a dcc2 573c 20e5 34be 6e21 e03d
00000230: 6cb7 983d cdfb b83d 8476 44bb a0b8 01be
00000240: 60e3 0b3e ae33 1dbd 0c3a a5bc 9327 453b
00000250: 9f9e a0bc 0f83 10bd 975d ac3c 467f 7abd
00000260: d204 8fbd a86c 43bd dadf 40bd 2cd4 62bd
00000270: 4088 78bc c2ec 07be 4f12 3a3d 44c4 10be
00000280: 8acd 21be 373d 173d 0361 28be 03a8 393d
00000290: b27b 09bd 2604 97bd fcd1 b7bd f98f 7a3d
000002a0: 84d1 7abd eaeb 083e 4985 d43b bcd9 a7bd
000002b0: 9e64 a2bc 8d23 09be c566 963d 6c05 433d
000002c0: 8ce2 4d3d 12ad 2dbd 267c 22bd 7fd0 043e
000002d0: 10aa 1a3d 3eca f1bd 3a83 3cbd dba2 debd
000002e0: 7e13 213e c698 bb3d 4f55 a63d c6f0 3abd
000002f0: 3247 ecbd 8cda 6b3d ebab 36bd f382 d2bb
00000300: e4af 59b7 b6aa 263c bb4c 073e 79a1 fc3d
00000310: f0d4 9f3d 7cb0 da3d 14fd 2ebb b7cc c33d
00000320: fb0b babe 7328 743b fb8b 1e3b 2bf4 5e3d
00000330: 3ff0 e5bd 2f86 d33d 5c49 1c3e baea b5bc
00000340: dd02 3f3e f65a efbd a1fd e9bc 1265 fbbc
00000350: aa90 4dbd 8c91 a2bd dc25 e7bd 60e3 563d
00000360: bb26 b1be 6158 4ebd af83 5fbe 2e8a cdbd
00000370: a42a a33d 7282 3f3e 8935 133e 758b 6fbe
00000380: daf7 083e bf11 0abe fef0 5abe bb36 863e
00000390: 17da 213e 2bf3 023e 1fcb 7bbe 2142 173e
000003a0: 290d adbc 90af d33e be0a c63e 1fb2 1abe
000003b0: bea4 09be b1ad 7ebe 3113 5f3e 1b8b a03e
000003c0: da30 f33d b9e3 3ebe a2d9 6c3e c50f 60be
000003d0: cb6d 37bd b5bd d53c 2531 213e a77e cc3d
000003e0: 0412 e43d aba8 59bc 85dd 923e 918a 44bd
000003f0: b913 56be 48ce ed3c b8ad e03c 8282 67be
0.03747173 -0.120815545 0.018095545 0.009501201 -0.10934654 -0.05810179 0.030918013 0.034513887
0.07162813 -0.018748276 0.1534053 -0.015619823 -0.057253685 -0.072844185 -0.08374621 0.12848896
-0.041518766 0.032165684 0.078533076 0.053804792 0.13327749 -0.0574868 -0.04797034 -0.022003222
0.09805065 0.11414611 -0.0143820355 0.040188555 0.01124528 0.019110665 0.107722566 0.0180749
0.0077874525 -0.21037626 -0.005076366 0.11117614 -0.096213646 0.08934391 -0.076359 -0.005263668
0.022758918 -0.088854514 -0.093053125 -0.097438775 -0.06361353 -0.029308459 0.034886464 0.15967643
-0.05409102 -0.07745588 -0.119137965 0.1021169 -0.05031499 0.045778666 0.066927746 -0.0472828
-0.013523642 -0.002462272 0.10306362 -0.043213636 -0.05870249 -0.07653413 -0.008266826 -0.063043475
0.014007987 -0.14495613 -0.13143268 0.01349164 0.06545536 -0.009310581 0.09879971 -0.12119303
-0.11593894 0.13015491 0.071693294 0.07324168 0.01923016 0.1392132 -0.035646074 -0.06201934
0.026893143 0.06812111 0.10658964 -0.021952245 -0.013408421 -0.10669791 0.17389162 -0.032085918
-0.16407973 -0.114235334 -0.051116176 0.006689916 -0.12605931 -0.020793585 0.020033639 -0.0851282
0.14890333 -0.009946836 0.0501459 0.09152455 0.015376374 -0.048713077 -0.06267491 0.011693074
-0.053009108 0.052521408 -0.11198999 0.04593032 0.06414463 0.042093236 0.06191172 -0.089228116
0.047027893 -0.052707568 -0.05331373 0.14319438 -0.027060825 -0.030716684 -0.018102247 0.11772777
0.01895124 0.01983633 0.068118215 -0.09689008 0.015071579 0.13543312 -0.019349221 -0.058005173
0.06900064 0.03567659 0.015727524 0.12002316 0.061857555 -0.015874924 0.051699605 0.03165162
0.0016092034 0.013169017 -0.17665529 0.10943876 0.0745686 0.09032402 -0.0029977867 -0.12668085
0.13660955 -0.038379364 -0.02016928 0.0030083403 -0.019606886 -0.035281237 0.02104072 -0.061156534
-0.06983341 -0.047711045 -0.04708848 -0.055378124 -0.015169203 -0.1327391 0.045427617 -0.1413737
-0.15801063 0.036923613 -0.16443257 0.045326244 -0.03356523 -0.07373838 -0.08975598 0.06117246
-0.061234966 0.13371244 0.0064856154 -0.081958264 -0.019823369 -0.13392468 0.073438205 0.047612593
0.05026488 -0.04240138 -0.03966918 0.1297016 0.03775984 -0.11806153 -0.046023585 -0.10870906
0.15730092 0.091599986 0.0812174 -0.045639776 -0.11537017 0.05758147 -0.044597548 -0.006424302
-1.2975161e-05 0.010172537 0.13212864 0.12335486 0.078042865 0.10678193 -0.002670114 0.09560531
-0.36337265 0.0037255555 0.0024192322 0.054432075 -0.11227464 0.10328328 0.1526236 -0.022206653
0.18653436 -0.11687271 -0.028563322 -0.030687843 -0.05018679 -0.07937917 -0.11286518 0.052462935
-0.34599862 -0.050377253 -0.21827577 -0.10036121 0.079671174 0.18702105 0.14375891 -0.23393042
0.13375798 -0.13483332 -0.21380994 0.2621363 0.15805851 0.12788074 -0.24589203 0.1477132
-0.02112444 0.4134488 0.3868007 -0.1510701 -0.1344175 -0.24870946 0.21784665 0.3135613
0.11874552 -0.18641557 0.23129895 -0.21881016 -0.04478244 0.026091436 0.15741403 0.099850945
0.11136249 -0.0132848425 0.2868463 -0.04798371 -0.20905961 0.029029027 0.027426586 -0.22608379

lstm.bias_ih_l0 f4 [400]
00000000: a5a3 673d 77fe fabd 30a8 35be 842c bdbd
00000010: bed6 bdbc ddff 7bbd 19f7 f5bd d3e2 a0bd
00000020: f2df 84bc 427c 97bd f690 09be 8d4c 4abe
00000030: 8a7b 00be 1b14 48be 054a 53bd dc64 54bd
00000040: fd8a 04be 7701 92bd ef4a 283d 418a 9abd
00000050: a6eb eebd 2ae6 2abe 1a68 f4bd 05b0 103d
00000060: 37b1 13be fbf6 22be 2f76 b9bc 1aac 283d
00000070: 7219 b3bd 1c45 a4bd 91a0 d5bd f2bb b0bc
00000080: 789d 2abe 52c3 4abc 580a e33d 9671 1eba
00000090: b491 b43c 9d9f e0bc 93cf 5cbd 48b6 803c
000000a0: 747b 2e3c a6ec f6bd 851e debc 9f55 d23b
000000b0: 3f50 16bd e43d e3ba c008 7abd 1584 01bd
000000c0: 5115 bbbd 80ef ecbd 2953 853d 48b8 47bd
000000d0: 4f40 ffbd 42e2 ccbd 1b24 8cbc 7628 e23d
000000e0: 378f f3bd dfd8 f6bb cb2a 803d 07b0 64bd
000000f0: ef8c 18be 3fa0 ec3c b8d0 c7bd 7cf5 00be
00000100: da28 453d f8a1 d5bc b0e5 c3bb 07ee 93bd
00000110: 0aa4 41be f875 0d3b f154 8cbe f680 bbbd
00000120: 1da1 06be 96c4 b8bd f83c 19bd 31d7 093c
00000130: 314e 65bd c90d c33c 732f 2cbe 2abb b33b
00000140: 0d94 87be 560c 2a3b 2586 133d 0aca 28bd
00000150: 9d5d 37be 1036 07bd 9441 3dbc 5b5a fd3c
00000160: 3e8e 4ebd 2504 643d 6e6b 26bd f813 d6bd
00000170: 5847 32be 061f 3fbe 1775 2dbe dd10 94bd
00000180: 18e6 71bd d817 6fbd ce8d cb3c 12ed 3bbb
00000190: 335a 6e3d e591 b73b d8fa 8cbb 4250 6f3c
000001a0: f917 40bd fbc3 16be 3581 16bd 7491 1ebd
000001b0: 3f57 83bd e92a 353c 908e be37 d4d1 0abe
000001c0: e9c3 07be fc1e bfbc feee fd3c c05c 103d
000001d0: cac5 47be 1d44 f8bd 3dde c13c a68e 04be
000001e0: 1841 80be 03ad 73bd 3390 6ebd 8d93 02bd
000001f0: aedb e8bd d1f3 623c e7f6 9f3d ff83 943d
00000200: 92e7 01be 4a1c 2f3d ed18 22bd a316 223d
00000210: 79fa 25bc 66d6 8e3e 0c45 c8bd e19e fcbd
00000220: 1eda c6bb a71b dabd f916 79bd f8a2 8a3d
00000230: b87a e8bd 4865 74bd ece4 ad3d 0461 e9bc
00000240: c41f 55be 8577 9dbd b36c 10be 98ac 0ebe
00000250: 6239 283c eba1 50bd 4c51 aebd 68bd 93bd
00000260: 2cea 7f3d 8cb9 00bd b079 16bd e943 a4bd
00000270: c326 64bc d7bf 41be 3b49 acbe f4b3 a5bd
00000280: c183 39bc 6a54 ba3a fbb9 0ebd 8c71 6ebd
00000290: 96a3 243c 3910 5bbd 1503 dbbd c968 3b3d
000002a0: a592 43be b5f6 adbd b7e4 5dbe 237a 9cbd
000002b0: 326f 8b3d bf03 83bd 6141 45bd 003b b5bc
000002c0: 6c59 713d 54d3 89bd 482f c8bc 93b4 febd
000002d0: 7921 6fbd 89ac 10be a023 6cbd ec48 3dbe
000002e0: a356 c6bc 8e1e a3bd 22fa 3e3d b8fa adbd
000002f0: f80f a2bc f50b 923a 1c46 4f3a 6503 d2bd
00000300: 573a 4abd 4432 d2bd 9b35 64be bcc9 80bd
00000310: 32a5 8ebd 67ff a93a e224 1dbc 47a2 29bd
00000320: a8cc 4ebd 7d0b fc3d e960 1cbd e725 49bd
00000330: 7789 e83d f41d a73d b7f3 08bc ea2b 4138
00000340: e9bb fdbb 4df6 8a3d 3850 43bd 98af 0bbb
00000350: 350d f33c d396 973d fc4c 3ebc 8d81 9bbd
00000360: 1d2b af3d 44ab 253c 5821 083d 338d dabd
00000370: 36c5 e6bc 9e5c 543d 831b d83c daff 663d
00000380: d4a8 df3d 5771 cf3c 3842 a13d 224f 09bc
00000390: a722 693c be47 40bd 115a 263d 7740 4f3d
000003a0: edd3 f6bc 4edb 33bd 7477 23bd 0bcd b23c
000003b0: 3156 a73d 9c35 85bd 3b33 48bc b90b 9dbd
000003c0: f7c8 adbd d4da 183d 9fee b33d e81e d73d
000003d0: 4454 2e3c 036f 69bd c71c 9c3c 446d 13be
000003e0: 80fe 0d3d a37b 493d 0840 6abc 7999 bdbc
000003f0: 67a9 4c3d 0987 00be ef5e 96bd 6939 953d
0.056552548 -0.122555666 -0.1773994 -0.09237006 -0.023173686 -0.061523307 -0.12010021 -0.07855763
-0.016220067 -0.07396747 -0.13434204 -0.19755764 -0.12547126 -0.1953892 -0.051584262 -0.051854
-0.12943645 -0.07129186 0.041087087 -0.07545901 -0.1166604 -0.16689363 -0.11933918 0.035324115
-0.14423071 -0.15914528 -0.022639362 0.041179754 -0.08745088 -0.08020994 -0.10431016 -0.021573994
-0.16661632 -0.01237567 0.11085957 -0.00060441473 0.022042133 -0.02741986 -0.053908896 0.015711918
0.010649551 -0.12056856 -0.027114162 0.0064188982 -0.036697622 -0.001733717 -0.0610435 -0.031620104
-0.09134925 -0.115691185 0.06510002 -0.04875973 -0.12463438 -0.10004093 -0.01710706 0.110428736
-0.118925504 -0.0075331773 0.06258162 -0.055831935 -0.14897512 0.028885005 -0.09756607 -0.12593645
0.048134662 -0.02607821 -0.0059783086 -0.072231345 -0.18910232 0.0021585207 -0.27408555 -0.09155457
-0.13147397 -0.09021871 -0.03741166 0.008413122 -0.055982772 0.023810284 -0.16814975 0.005484958
-0.2648014 0.0025947294 0.036016602 -0.041208304 -0.17906804 -0.033010542 -0.01155128 0.030926874
-0.05042862 0.055668015 -0.040629797 -0.104530275 -0.17410028 -0.18664178 -0.16939197 -0.07229779
-0.059057325 -0.05837235 0.024847891 -0.002867524 0.05819149 0.005602109 -0.004302364 0.014606537
-0.046897862 -0.14723198 -0.036744315 -0.038712934 -0.06413125 0.011057594 2.271615e-05 -0.13556606
-0.13258328 -0.023330204 0.03099775 0.035244703 -0.19509044 -0.121223666 0.023665542 -0.12945041
-0.25049663 -0.05949117 -0.058242988 -0.031878997 -0.113700256 0.013852076 0.07810765 0.07251739
-0.12685993 0.042751588 -0.039574552 0.03957237 -0.010130518 0.27897948 -0.09778795 -0.12334991
-0.006068482 -0.106498055 -0.060812924 0.06769365 -0.11351532 -0.0596669 0.08490929 -0.028488643
-0.20812899 -0.07688812 -0.14103965 -0.13933027 0.010267587 -0.050935667 -0.085116 -0.07213861
0.062479183 -0.03142695 -0.036737144 -0.08020765 -0.013925257 -0.18920837 -0.3364962 -0.08090964
-0.0113229165 0.0014215831 -0.034845334 -0.058213755 0.010048768 -0.053482268 -0.10693947 0.045754228
-0.19098909 -0.08494321 -0.21669279 -0.07640483 0.06808318 -0.06397199 -0.048158053 -0.02212286
0.05892317 -0.06729761 -0.024436608 -0.124367855 -0.05838153 -0.14128317 -0.057651162 -0.18484849
-0.024211233 -0.07964812 0.046625264 -0.084950864 -0.019783005 0.001114248 0.00079068705 -0.10254554
-0.049372043 -0.10263494 -0.22286074 -0.06288478 -0.06965102 0.0012969793 -0.009591313 -0.041414525
-0.050488144 0.12306879 -0.03817836 -0.049108412 0.11354344 0.0816001 -0.008358887 4.6055684e-05
-0.007743348 0.067852594 -0.047683924 -0.0021314379 0.029669384 0.07401814 -0.011615034 -0.07593069
0.08553145 0.010111634 0.033234924 -0.10671463 -0.02817021 0.05184614 0.026380306 0.056396343
0.10920873 0.0253226 0.07873958 -0.008380683 0.014229453 -0.04694342 0.040613238 0.050598588
-0.030130351 -0.043910317 -0.03990884 0.021826288 0.081707366 -0.06504366 -0.012219246 -0.076682515
-0.084855966 0.037318066 0.08785748 0.10503942 0.010640208 -0.056990635 0.01905669 -0.1439715
0.03466654 0.049190175 -0.014297493 -0.02314447 0.049966242 -0.12551512 -0.07342326 0.07286341

lstm.bias_hh_l0 f4 [400]
00000000: 87e3 63bd def6 3bbd 43d5 a3bd a840 0fbd
00000010: fadf 563c 87ed 16be 229d 3bbd 7c45 60be
00000020: 6f5e a93c 7c6a a2bd 0cb7 42bd d81a 39be
00000030: 9210 bbbd 014b 5bbd ebf1 00be f8f8 7bbc
00000040: 3b5a 06be b3c0 cebb 7b7c 8d3d 2266 77be
00000050: 07e0 44be 1569 0abe 1518 01bd b0d5 74bc
00000060: 052b 293c 4ec8 82bd 9c14 6d3c 0cbb df3d
00000070: 1059 94bd 471d 0bbb 4743 eabc 0820 103c
00000080: c700 3abe 696f 66bc 7d2b 5d3d 5fe4 a0bd
00000090: 2618 cc3c 2f8b 8dbd 3188 a3bd 42c2 3c3d
000000a0: c05d c8bd d7fd 25be cbd6 5ebd 03fa 6cbd
000000b0: 9114 a0bd 9592 84bd 8e2d 96bd d10d 353d
000000c0: c2e3 2dbd 8c90 f7bd a857 b9bd 5f80 b5bd
000000d0: 649d efbd c095 41bd 4fdf 8f3c 6cd3 ae3d
000000e0: 84db c9bd 782a aabc d7f4 773d 0f08 34bd
000000f0: fd15 4dbe f339 f93b 9fb5 ccbd 3543 82bd
00000100: 82a4 f4bc da5f ffbc 3189 f8bd 0854 22bd
00000110: ca52 4dbe fcda cd3c 07c1 84be 49c5 34be
00000120: 9acb d7bd a8b1 54be e769 44be 0776 ee3c
00000130: 0c3a 84bd 6d1f 3c3d c943 29be edcb 98bd
00000140: 50f0 cabd a9d5 29be 4172 cf3b b34f a1bd
00000150: 9852 93bd 0ac5 84bd 332e 41bd fe45 dfbc
00000160: cf5a f6bd 5445 babd 487c 0ebd 0fae 32bd
00000170: 298a 24be fa4f 28be a97c 35be 1003 523d
00000180: cf7d 4ebe b602 253d 65d6 38bd 5e11 043d
00000190: a75f 6d3d 9eac 913d a553 aebd 37ac 45bd
000001a0: e517 b53c aaf9 fa3b ff70 efbd 5991 2cbe
000001b0: 6dc3 da3c 266e 04be 171c 2cbe da22 0bbe
000001c0: 0631 7abd 05d1 babd e88e b4bd fb90 8dbd
000001d0: 2821 95be fef2 4cbd cbe6 653d c3e4 a2bd
000001e0: 918b 32be 6768 f1bd 3b43 fb3b a4a3 e3bc
000001f0: b0e4 32be 10e4 2abe 24f6 8abc 5eef 323d
00000200: 5c79 13bd 53a6 e7bc a5da 173d dd67 58bd
00000210: a8e0 16bc bd8e 1a3e 196e 25be 8a6d 19bc
00000220: 921f 6a3d 1e85 023c 63da 05bc e1f4 51bd
00000230: 4c63 fdbc 685b ffbd 7ab2 cbbd 7436 07be
00000240: ea06 1cbe 020f 81bd 7f3f 02be 4a08 07be
00000250: 1293 e1bc 13e8 aebd 8327 15bd 9826 9dbd
00000260: 7a4c 903d 7e4b 3f3c 6f42 bbbc a68b 1ab9
00000270: 992f af3b 68b6 ebbd 340d 8ebe a95a 663d
00000280: 39ce c13c 6014 8cbc 9767 0abd 0665 9dbc
00000290: 5e54 4fbb 5006 6f3d 3106 8b3c c137 f73c
000002a0: fc5e e5bd 6539 fabc 15cb a3be f62c 63bd
000002b0: b06c 4abd c8b2 2dbc b704 16bd 8b90 bebd
000002c0: e1df 40bd b3fd cdbb 57da eebd 2640 6dbd
000002d0: 5b51 b2bd c385 0dbd c060 e7bd 50e8 2ebe
000002e0: ebee 88bc e8e0 94bd 2aad 82bd 4098 6a3d
000002f0: a7f7 06bd 99c0 b8bd e1c6 833d 8176 32be
00000300: 3154 bebd f15a 82bd dbfa e3bd d0f8 46bc
00000310: 1346 15be 8100 61bc cdcc c4bc 8378 b2bd
00000320: e07e 9a3d 2d08 9a3b 99df b43c 9a32 c2bd
00000330: fb3d 5ebd b8d5 4e3d 485e 863d 7431 0dbe
00000340: d507 9abd df3e 833d f753 e7bd 106b ad3d
00000350: 310a f03b 812c a53d c21c b73d ce2c 02bd
00000360: 55b0 94bd a4b1 82bb 367c 73bb 5ae2 b73c
00000370: e497 5a3d 8bab 103d 0860 a93b 6359 a63d
00000380: 20d5 33bd b9f9 efbd 80c5 a9bd 1578 973c
00000390: 0995 e6bc cad5 3abd 5528 1f3d 914b dbbd
000003a0: 787f 873c 28e0 69bc 917e c6bc 8339 dcbc
000003b0: a73d 6f3d a97f d63d 1575 653c ffee 85bd
000003c0: 490e 01bd 6665 91bc a1a9 44bd 8074 1abc
000003d0: 887d 82bd 18a3 dbbc ceba 79bc f03a 95bb
000003e0: 97e4 f6bc 7397 693d e413 4cbd bd83 d2bb
000003f0: 5868 b03d 4771 e7bc 986b 13bd 8f23 4a3c
-0.05563691 -0.045889728 -0.07999661 -0.03497377 0.013114924 -0.14739047 -0.04580415 -0.21901506
0.020674912 -0.079304665 -0.04753785 -0.18076646 -0.0913402 -0.053538326 -0.12592284 -0.015379183
-0.13120358 -0.0063095926 0.069085084 -0.24160054 -0.19226085 -0.13516648 -0.031517107 -0.014943525
0.010325198 -0.06385861 0.014470246 0.10924348 -0.0724355 -0.0021227167 -0.028596533 0.008796699
-0.18164359 -0.014064648 0.05399655 -0.07856058 0.024913859 -0.06911313 -0.07984961 0.046083696
-0.097835064 -0.16210113 -0.05440406 -0.057855617 -0.07816423 -0.06473271 -0.073329076 0.04420263
-0.042453535 -0.12088117 -0.09049922 -0.088623755 -0.11699942 -0.047261953 0.017562537 0.08536419
-0.098563224 -0.020772204 0.06053623 -0.043952998 -0.20027919 0.007605785 -0.09995579 -0.06360475
-0.0298636 -0.031173635 -0.12135542 -0.03963092 -0.20051113 0.025128834 -0.25928518 -0.17653383
-0.10536881 -0.20770895 -0.19181024 0.029109014 -0.06456384 0.045928407 -0.16529764 -0.07460771
-0.09909117 -0.16585411 0.006330759 -0.078765295 -0.07193488 -0.06482895 -0.0471632 -0.027255055
-0.12029039 -0.090952545 -0.034786493 -0.043623026 -0.16068329 -0.16436759 -0.17723335 0.051272452
-0.2016518 0.04028579 -0.045126338 0.032243125 0.05795255 0.07113002 -0.08512048 -0.04825994
0.02210612 0.007659157 -0.11691474 -0.1685232 0.026704514 -0.12932643 -0.1680759 -0.13587514
-0.06108191 -0.091218986 -0.0881632 -0.069124185 -0.2912686 -0.050036423 0.056128304 -0.07953789
-0.17436053 -0.11787491 0.0076679266 -0.02778799 -0.1747005 -0.16688561 -0.016963072 0.04368531
-0.03600441 -0.028277552 0.03707375 -0.052833427 -0.009208836 0.15093513 -0.1615528 -0.009364495
0.057159014 0.007966308 -0.008169743 -0.051258925 -0.030931138 -0.12468606 -0.09946151 -0.13204366
-0.15237013 -0.06301691 -0.12719534 -0.13186756 -0.027535949 -0.085403584 -0.036414634 -0.07673377
0.07045837 0.011675714 -0.022858826 -0.00014738608 0.0053462503 -0.115094006 -0.27744448 0.056238804
0.023657905 -0.01709956 -0.033790197 -0.01921321 -0.003163598 0.05835563 0.016970726 0.030177953
-0.111997575 -0.030544946 -0.31990877 -0.0554628 -0.04942006 -0.010601707 -0.03662559 -0.09304913
-0.047088508 -0.006286347 -0.11662739 -0.057922505 -0.087069236 -0.034551393 -0.112977505 -0.17080808
-0.016715487 -0.0726946 -0.06380685 0.057274103 -0.032951023 -0.0902111 0.064344175 -0.17428018
-0.09293402 -0.06365002 -0.11131831 -0.012144282 -0.14577512 -0.01373303 -0.024023438 -0.08714392
0.07543731 0.0047006817 0.022079276 -0.09482308 -0.054258328 0.050496787 0.065609515 -0.13788396
-0.07521025 0.06408476 -0.11295312 0.08467686 0.0073254337 0.08065129 0.08941032 -0.03178101
-0.07260195 -0.0039884616 -0.0037152893 0.0224468 0.05336751 0.035319846 0.0051689185 0.08122518
-0.043904424 -0.11717553 -0.08289623 0.018489877 -0.028147237 -0.04561404 0.038856823 -0.107077725
0.016540274 -0.014274634 -0.024230273 -0.026882892 0.058408406 0.10473568 0.014004965 -0.065397255
-0.031507764 -0.017748546 -0.048013333 -0.00942719 -0.063715994 -0.026811168 -0.015242292 -0.004554145
-0.030138297 0.0570292 -0.049823657 -0.006424396 0.08613652 -0.028252257 -0.03599128 0.012337579

linear.weight f4 [1, 100]
00000000: 175e 173e 0339 253d 2d9a e63d b4d7 02be
00000010: 96d3 7e3d f35f bd3c 31da 44bd 4686 a5bd
00000020: 8a73 87bd 5a58 c23d d885 7e3b 1036 553d
00000030: dad1 5ebc 54e1 8f3d 7e7b 463d e4ed d8bd
00000040: 2fcd 573e 4803 d63d 18a6 5a3d 2ce2 31bd
00000050: a945 913c 3d6c 20bd fa68 23bd 313e eb3d
00000060: 60bc 68bd a95b 053d 7859 0e3e eb51 2abe
00000070: 73b2 b8bd 1718 94bd a62e 0a3e 76e6 03be
00000080: 53e0 913c 504d 0fbe e2ac 33be 873b ec3d
00000090: 9fad 5a3d ed51 ea3d dc82 d4bd fdb5 2ebe
000000a0: 2941 98bd 2a9f c43b 54a5 b6bd ec1b ca3d
000000b0: 5cff 123d eabc 1fbd 0f39 59bd aee3 e03a
000000c0: 4d51 30bd f334 293d 9ba2 f2bd ecbc 803d
000000d0: c26b c63d a509 b5bd 4f14 0ebd 3cb8 cd3d
000000e0: d682 80bd 3dc4 dc3d 9dc0 15be f8d3 54bd
000000f0: 8dd4 893d 2f12 a23d 9b73 2ebc 3ee8 d53c
00000100: 9a40 a53d 707b c93d 1854 1d3d 49e9 5f3d
00000110: e98d 14bc 760d cfbd ea6c 37bd 2589 9abc
00000120: b9ea f9bd 03b9 903d 386a a6bd 26b7 fc3d
00000130: efcc a8bd d1ef cdbc 3f98 bdbc 932f bdbd
00000140: e169 da3a 6d50 f73c 3465 4bbd 3d8b 003d
00000150: aa25 08bd 029b 07be 1474 0abc 6b96 4b3d
00000160: 7433 d2bc 162c 6bbd a8f4 a73d e03a 0dbd
00000170: 9bd0 303d 84ad 51bd 6e7a c7bc 9449 c5bd
00000180: 8e24 06bd 5930 e6bd 35c8 843d 0fd7 c9bd
0.14781986 0.040337574 0.112598754 -0.12777597 0.062213503 0.023117041 -0.048059646 -0.08082251
-0.06613834 0.09489508 0.0038837101 0.05205351 -0.013599837 0.070254 0.048457615 -0.10592249
0.21074365 0.104498446 0.053381056 -0.043428585 0.017733412 -0.039165724 -0.039895035 0.114864714
-0.056820273 0.032558117 0.13901317 -0.16632812 -0.090184115 -0.07231157 0.13494357 -0.12880883
0.017807161 -0.13994336 -0.17546418 0.115347914 0.053388234 0.11441407 -0.10376522 -0.1706161
-0.07434303 0.006000419 -0.089182526 0.09868607 0.03588806 -0.038998522 -0.05303293 0.0017157698
-0.043046284 0.041310262 -0.11847421 0.06286034 0.09688522 -0.0883973 -0.034687337 0.100449055
-0.06274955 0.10779617 -0.14624257 -0.05195996 0.06729994 0.079136245 -0.01064768 0.026111718
0.080689624 0.09837997 0.038410276 0.054665837 -0.009067037 -0.10109989 -0.044781603 -0.018864224
-0.12202973 0.07066538 -0.08125728 0.1233962 -0.08242213 -0.025138767 -0.023143886 -0.0923759
0.0016663634 0.030189717 -0.04965706 0.031382788 -0.033239044 -0.13242725 -0.008450527 0.049703997
-0.0256593 -0.05741509 0.08200961 -0.034479976 0.04316769 -0.051190868 -0.024350371 -0.096331745
-0.032749705 -0.1123969 0.06483499 -0.09855472
