model/1721471534_model-aapl.pth (torch, 174356 bytes, 5 tensors)

lstm.weight_ih_l0 f4 [400, 5]
00000000: 2c25 9ebd 7414 963c a923 81bd b95d 89bd
00000010: 0615 163e af54 89bd 96fb 22bd fb81 8ebd
00000020: 0a7a d8bd ba6c a0bd ec73 393c 3352 18bd
00000030: 678e d6bd db51 81bd c9b2 ee3d d914 863c
00000040: a136 0dbe b1ab 2cbd a10c 9c3c 8507 4fbd
00000050: 34ba 1fbe 0ec2 7dbe 67e0 f3bd 0cba 4dbe
00000060: 3cc4 4abe daa5 04be 3a33 c0bd 99b8 15bd
00000070: 78bd d5bd 22cb 4e3d 0f86 cebc d5e1 e1bc
00000080: 774d 52be d512 09be f87b 1b3e b66d 113d
00000090: ba29 943d 559e 0f3c 3bf3 cd3d d4a1 a43d
000000a0: 9f5a 6fbd 5dce 66bd 90e6 cbbc 6b36 b3bd
000000b0: 56fb e1be d8ca dabd b2a9 46be b3eb b3bd
000000c0: c1eb a3bd 8220 f03d 8cf7 213d 55b1 eebc
000000d0: 47c2 c33d 6f4a a63d a06e 063d 3268 093a
000000e0: 55d5 c4bd beaa 08be b67e 2bbe 5694 5f3e
000000f0: 72bb f03a 5ad7 5b3d f71c 11bd 2871 3ebc
00000100: ceb8 043c e088 9abd 45fa b1bd 42bd 83bc
00000110: 7ebc 373c 8d12 66bd c0fb d1bd 9441 71bc
00000120: 5259 31be 2eaa 05bd cefc 473e 4b92 c13c
00000130: 9d27 b6bd 4b4c 063d 1d3f 92bd 87b7 833c
00000140: 526b e2bd e6a1 72bd 30f5 253d 3c13 87bc
00000150: f10f 663c 1439 fbbd 6952 b6bd d7e4 aebd
00000160: 2f59 36bd b2cd 94bd 6dc9 62be c550 edbd
00000170: a192 76be baa2 48be de47 3cbe e703 49bd
00000180: ac92 2e3c 9418 c0bd b6a2 ddbd 0a7b b53d
00000190: 3da4 9cbc 2319 563d 903e 5c3d 6c22 e6bd
000001a0: bc81 a4bd 9b69 4d3e 379a 583d 48de ba3d
000001b0: dbc0 1b3e 0c9a 55bf a4cd c6bc 02b3 87bd
000001c0: 9305 e5bd c3e7 7cbc 601c c6bd 4cb7 ecbc
000001d0: 68c0 413a dba3 38bc bf8a f13c 9d83 acbc
000001e0: 83b9 e9bc fa46 573c afbd 8dbc 6cc4 09be
000001f0: 5cbd 42be e369 d2bd 6d68 10be 8fbd 44be
00000200: 606e 5fbe e6f9 933e d51d ecbc 10c4 953c
00000210: ff87 e2bd c61b 1f3d c044 b1bd 7449 4ebe
00000220: 82eb 3ebd 42a2 f9bd aa5e b0bd 2a39 0ebd
00000230: a0b1 d6bd 6f2b 083d 659a d7bc fd1d bfbb
00000240: c28d 57bd 2206 e6bd accb 1cbe 77b9 1cbe
00000250: ffac cd3c 2a92 673d 2930 bbbd 23cc cd3b
00000260: d523 35bc e4ac 4fbd f232 903c aca7 1cbd
00000270: d722 40be 6ec1 29bd 1342 86bd 462a 86bd
00000280: d0ef c6bd 7eae 94bc 87b0 ebbc 8c46 29be
00000290: 1ca8 96be 75e9 4dbd a9c3 8ebd d904 c5bd
000002a0: 5f3e 44bd 5672 d1bd 7811 08bc 9229 fdbd
000002b0: d9f6 43be d3c4 85bd bdb9 dc3e 7765 f3bd
000002c0: 2428 8cbd 1635 13be 9303 30be 7c41 36bd
000002d0: 7f56 f6bd 2e14 4abc 211b 053c 3f82 d3bb
000002e0: 6002 c53d a8f6 f73c 8490 f7bd be37 cebd
000002f0: 4506 80bd 7b20 8f3d ac4b c6bd 5d32 82bd
00000300: 9029 2cbb 7f59 f0bd 2166 f3bc 9863 593e
00000310: e3c6 ff3d f219 323e d4ae 103e c487 8cbe
00000320: 0d3b b1bd ad9c 29be b1b7 6bbe 45b2 3dbe
00000330: d895 96be 0a69 ef3c 5672 98bd 42d5 7c3c
00000340: 9e88 143c 34f4 21bd 1bb0 f9bd cdfa a5bd
00000350: 7f25 f83a b838 2dbd 2abe 01be 29d2 2bbc
00000360: 4b5a e5bd 498c 373c 810c 13be 8b66 adbc
00000370: f866 e4bc 5fed 93bd 3251 a8bd 1090 e83d
00000380: fd6d 393e b184 38bd 0f4f 3ebd 204c 7a3b
00000390: 2aab a6bd d76c 69bf afac 06be 968c 38bb
000003a0: fc43 6fbd 89a3 08be 5af2 a7bd 68c0 f7bd
000003b0: 4188 fcbd a75f 37bd 1329 73bd a6df e0bd
000003c0: d9f4 c4bd 20cd e6bd 3ba1 423d f45d c9bd
000003d0: e44d eabc 58ca 4cbe b127 b6bd 5990 c4bd
000003e0: 3ff1 bbbd cd50 d93d 2446 bebd f44f 90bd
000003f0: dc7c 09bd 3b06 9c3c 9aca 3b39 8240 e4bc
-0.07721934 0.0183203 -0.0630563 -0.06707329 0.14656457 -0.06705605 -0.039790712 -0.069583856
-0.10570152 -0.07833238 0.011319142 -0.037187766 -0.1047638 -0.06314441 0.11655194 0.016367363
-0.1379037 -0.042155925 0.01904899 -0.05054428 -0.15598375 -0.24781057 -0.11908036 -0.20090503
-0.1980142 -0.12953892 -0.09384771 -0.036553 -0.10436529 0.05048669 -0.025210408 -0.027573505
-0.20537363 -0.1338609 0.15184009 0.03550502 0.07234521 0.008765777 0.10056158 0.08038679
-0.058436032 -0.056349147 -0.024890214 -0.08750614 -0.44137067 -0.106832206 -0.19400671 -0.087851904
-0.08003951 0.117249504 0.03954272 -0.029137293 0.0955854 0.08119666 0.032820344 0.00052416616
-0.09611002 -0.13346383 -0.16747555 0.2183393 0.001836641 0.053672172 -0.035428014 -0.011623658
0.0081007015 -0.07545638 -0.08690313 -0.016081456 0.011214374 -0.056170035 -0.102530956 -0.014725108
-0.17319229 -0.032633 0.19530031 0.023629328 -0.088942744 0.032787602 -0.07140944 0.016078724
-0.11055626 -0.05923643 0.040517032 -0.016488664 0.014041887 -0.12266746 -0.08902437 -0.085397415
-0.044518646 -0.07265796 -0.2214715 -0.11587671 -0.24079372 -0.19593325 -0.1838679 -0.049075987
0.0106550865 -0.09379688 -0.1082205 0.088613585 -0.019121284 0.052270066 0.0537706 -0.11237034
-0.08032557 0.20059817 0.052881446 0.09124428 0.15210287 -0.8343818 -0.024267979 -0.0662594
-0.11182704 -0.015436116 -0.09673381 -0.028895997 0.00073910365 -0.011269535 0.029485105 -0.021058852
-0.028530842 0.013139481 -0.017302362 -0.13453835 -0.19017547 -0.102741025 -0.14102335 -0.19212936
-0.21819448 0.28901595 -0.028822819 0.018281966 -0.110610954 0.038844846 -0.08655691 -0.20145208
-0.046611317 -0.12189151 -0.08611806 -0.034722485 -0.10483098 0.033244547 -0.026318738 -0.0058324323
-0.052625425 -0.112316385 -0.1531207 -0.15305124 0.025106905 0.056535877 -0.09140045 0.0062804385
-0.011055906 -0.05070199 0.017602418 -0.03824584 -0.1876329 -0.041444235 -0.065555714 -0.06551032
-0.09713709 -0.01814961 -0.028770698 -0.16530818 -0.29425132 -0.05027147 -0.06970913 -0.09620065
-0.047911044 -0.10226886 -0.008304946 -0.123614445 -0.19137134 -0.06531682 0.43110457 -0.11884587
-0.06843594 -0.1437572 -0.17188863 -0.044496045 -0.120282166 -0.012333913 0.008124144 -0.0064547355
0.096195936 0.030268982 -0.12088111 -0.10069226 -0.06251196 0.06988617 -0.09682402 -0.06357262
-0.002626989 -0.1173582 -0.029711785 0.21229398 0.124891065 0.1739271 0.14129192 -0.2744733
-0.08653841 -0.16563673 -0.23019291 -0.18525036 -0.29411197 0.029224891 -0.07443683 0.015431704
0.009065775 -0.03953953 -0.121917926 -0.08104477 0.0018932073 -0.04229042 -0.12670198 -0.010487118
-0.11198863 0.01120288 -0.14360239 -0.02116706 -0.02788113 -0.07223009 -0.08218612 0.11355603
0.18108363 -0.04504842 -0.046462115 0.0038192347 -0.08138116 -0.911817 -0.13151811 -0.0028159968
-0.058414444 -0.13343634 -0.08200522 -0.120972455 -0.12330676 -0.044768956 -0.059365343 -0.109801576
-0.096170135 -0.11269593 0.047517043 -0.09832373 -0.028601594 -0.19999063 -0.08894289 -0.09597845
-0.091768734 0.10611115 -0.09290722 -0.070465 -0.03356634 0.01904594 0.00017909185 -0.027862791

lstm.weight_hh_l0 f4 [400, 100]
00000000: 25f2 e4bd b864 613d a27d d03d a3eb 593d
00000010: 0385 8cbd 171a afbd c075 9d3d 6ced c43b
00000020: 9102 9fbc 6516 5abc 1200 103d 6282 e93c
00000030: e3ff ad3d f460 a8bd 2888 abbd 1fb5 b53d
00000040: c925 91bd eef4 76bd ad3a 00be ad99 403d
00000050: a550 493d 70fd adbd ae68 353d a2c5 d0bd
00000060: 93d5 203e eb3c 83bd aa0d 9a3d 27c4 363d
00000070: e8f7 4ebd 9fc6 ddbd d1ee 0cbe 39ba 8e3d
00000080: a0f8 e43d a4af cbbd 2343 a83d be58 ac3d
00000090: 4e64 f03d c7c2 cbbd c3f3 b0bc 6d34 673e
000000a0: 941f 5cbc ce04 81bd 085b dcbd 4c9b c93d
000000b0: 40e1 893d d212 a23c 520e 68bc ea61 bc3d
000000c0: 7b21 453d 8542 f1bc ae03 67bd 8d86 fe3c
000000d0: c66e 8d3d 091d 74bd 789f debb 3169 0dbe
000000e0: 12fa 023e be8e 41bc bb62 753d 3144 aabd
000000f0: 7299 363c 3964 a0bc 433b f5bd 3062 8fbd
00000100: e1be d4bc b1f8 713d 8931 813d f188 123d
00000110: 470f 9b3d e697 a73d 2af5 3bbd 2ac4 87bb
00000120: 4041 e03d e0a4 23bb 7657 123d bcc7 cb3d
00000130: 84a5 0f3d 65db 993c 7ad7 823b fdbc 0fbb
00000140: d0bd 663d 3c36 563c 49b4 2b3e bc9d 193d
00000150: 0ee4 b6bd 73ce 193e 75ff 94bc 2767 dcbd
00000160: c82c bbbb 74ec 90bd e910 84bd e20a 713b
00000170: f1a4 95bd 8dba 193c b245 00bd 7e12 ccbb
00000180: 9016 09ba 0299 b7bd 6394 153d 1a73 52bd
00000190: f059 333d 06be 703d 5358 55bd 7a64 633c
000001a0: 26dc 03be 8a38 61bc 01b8 de3c 28af 133d
000001b0: 663c 143e 5a7b c3bd ebe7 083e c495 003e
000001c0: 48cc b53d cb3b febd b735 d9bd 616c 803d
000001d0: 27b2 03be 55bf 293d 0689 99bd 1538 613d
000001e0: 53b1 fbbc 0d2d 1dbe 771f 3ebd cdab 90bd
000001f0: b627 adbc f587 cc3d adf8 003e 2c77 1fbe
00000200: c3ee a1bd 7072 b13c bfa0 15be eb4d 073e
00000210: 88a7 923d 9fbf 08be 1643 cabb a679 25bc
00000220: 0d0a e5bc 57cc eebd c261 9a3c 637a 1cbe
00000230: 19b4 6e3d 90ca 2e3a 9bea 47bc d4b6 f53d
00000240: d0fc 013d 038d e93c 8fd9 15bc 2183 10bd
00000250: 53a3 a33d e39b cebc 5355 b73c 47fd c3bd
00000260: 3f86 063e 38e7 143d cf43 f83c 88d1 3ebe
00000270: 70f0 04be 8b23 993d 8a96 02bd 470f 953d
00000280: f514 ef3c 5b13 e33d b4f6 c4bd 8d2c b4bd
00000290: 184b 93bd 98f9 c63d 6dc5 c3bd 8ebb 0a3e
000002a0: 3490 113e b03a 423d b2de 3ebd b999 09be
000002b0: ba81 3d3d 4885 a1bd 01c6 eabd 6324 0a3e
000002c0: b9b6 7ebc 33e3 cf3d d9d2 c8bd 2a7c 983d
000002d0: 4bef 04be f57a 10be 433b 0a3e c720 d5bc
000002e0: 3e7f 033a daf0 a63c 493f 403e fcc4 21be
000002f0: 1fd1 c1bd 1134 2ebd a671 bbbc 6bea 543d
00000300: c270 80bd f232 99bd ecef 1d3d b837 a4bd
00000310: 5b99 b6bd 5350 b7bd cb47 bb3b ebeb 5f3d
00000320: 8964 af3c e6a1 283d c243 16bd d4be 033d
00000330: 4b6f 9e3d 0206 e83d 7fe9 3dbd dfb7 7dbc
00000340: 42a7 0bbe 24a3 8dbd 4d99 9f3d 0baa fbbc
00000350: 17bf 01be 4692 a43b 6967 f1b9 0a57 03be
00000360: 1d7b 78bd dee2 873d b1cd a73d 00ec 14bd
00000370: edc6 2b3d f0e4 7fbe 78c4 65bd a03c 223d
00000380: 8683 8d3c c516 b53c 51b4 853d 8e0f 5d3d
00000390: c28f fb3d 927d 04bd 78fe 94bb b873 c0bd
000003a0: 9483 85bd 515b d23c c4d0 b93d 72da 4bbd
000003b0: 6780 b63c 9ddb 79bd 3183 0abe a1e6 9b3c
000003c0: 7663 35bd 5827 c1bd a26a 353d 1170 853d
000003d0: 2d5d 06bd a73f b83d d917 0d3e 633e 8b3d
000003e0: b7da 763c a395 663d 8e24 92bd 67ab 233c
000003f0: e3b4 28be 6385 0c3e 9d44 f2bd 24ec 84ba
-0.11178998 0.055027694 0.101802126 0.053203236 -0.068613075 -0.08549898 0.07688475 0.006009748
-0.019410403 -0.013311003 0.035156317 0.028504554 0.08496072 -0.08221617 -0.08375579 0.08872437
-0.07087285 -0.060292177 -0.12522383 0.047021557 0.049149174 -0.08495605 0.044289283 -0.101939455
0.15706472 -0.064081036 0.075221375 0.04462066 -0.05052939 -0.108288996 -0.13762976 0.06969113
0.11180234 -0.0994561 0.0821593 0.08415364 0.117378816 -0.0994926 -0.02160061 0.22578593
-0.013435263 -0.062997445 -0.1075955 0.09844074 0.06732416 0.019784365 -0.0141635705 0.09198363
0.048127633 -0.029450664 -0.056399994 0.031070018 0.06905894 -0.059598003 -0.0067939125 -0.13809659
0.12790707 -0.011813818 0.05990861 -0.08313788 0.011144983 -0.01957904 -0.11974194 -0.0700115
-0.025969924 0.05907506 0.06308276 0.03577513 0.07571273 0.08183269 -0.045888104 -0.0041432576
0.109499454 -0.00249701 0.03572794 0.09950206 0.035069957 0.018781373 0.003992972 -0.0021932714
0.056333363 0.013074454 0.16767992 0.037503943 -0.08930217 0.1502016 -0.018188218 -0.10761862
-0.0057121255 -0.0707635 -0.06448538 0.0036780168 -0.07306851 0.009382856 -0.031316467 -0.0062277904
-0.00052294973 -0.08964731 0.036518466 -0.0513793 0.043786943 0.05877497 -0.052086186 0.013878936
-0.12876949 -0.01374639 0.02718735 0.036055714 0.14476165 -0.09545012 0.1336972 0.12557131
0.08876854 -0.12413748 -0.106059484 0.06270672 -0.12860928 0.041442234 -0.07496838 0.054985125
-0.030724203 -0.15349217 -0.046416726 -0.070640184 -0.0211371 0.09986869 0.12594862 -0.15572804
-0.07906868 0.021661013 -0.14612101 0.13213317 0.0716086 -0.13354348 -0.006172548 -0.010099804
-0.027958894 -0.116600685 0.018845443 -0.15281062 0.058277223 0.00066677574 -0.01220193 0.11997762
0.03173524 0.028509622 -0.009146108 -0.035281304 0.07990136 -0.025220817 0.022379553 -0.09569793
0.13137148 0.03635332 0.030305771 -0.18634617 -0.12982345 0.074774824 -0.031881846 0.072783045
0.029184798 0.11087676 -0.096173674 -0.0879756 -0.07192057 0.09715575 -0.0955914 0.13548109
0.14215165 0.04741925 -0.046599098 -0.13437547 0.046266295 -0.078867495 -0.114635475 0.13490443
-0.015546494 0.10150757 -0.09805841 0.074455574 -0.12981908 -0.14109404 0.13499169 -0.026016606
0.0005016214 0.020378519 0.18774141 -0.157978 -0.09463715 -0.042530123 -0.02288134 0.05198137
-0.06271507 -0.0748042 0.038558885 -0.0801844 -0.08915969 -0.089508675 0.0057153455 0.05466835
0.021410244 0.041170023 -0.036685713 0.03216441 0.07736071 0.11329271 -0.046365257 -0.015485733
-0.13638023 -0.06915882 0.07792912 -0.030720731 -0.12670551 0.00502232 -0.0004604415 -0.12826172
-0.060664285 0.06635068 0.081935294 -0.03635788 0.041937757 -0.24989676 -0.05609557 0.039608598
0.01727463 0.022105584 0.06528533 0.053969912 0.12283279 -0.032346316 -0.0045469366 -0.093970716
-0.06519237 0.025678309 0.09073022 -0.049768873 0.022278024 -0.061000455 -0.13526608 0.01903087
-0.044284306 -0.09431332 0.044291146 0.065155156 -0.032803703 0.08996516 0.13778628 0.06799009
0.015066794 0.05629505 -0.071358785 0.009989596 -0.16475253 0.13722758 -0.11829493 -0.0010141176

lstm.bias_ih_l0 f4 [400]
00000000: 0d5a 483d 39e0 ecbd 30e3 0d3d 212a ebbd
00000010: 6bce 29be 198a 8d3c d67b 1c3d 2451 91bc
00000020: e5a4 74bd d5b3 c43d 8b80 49bd 5934 2e3d
00000030: d868 23bc f00f 203d 0e0f 0fbe f8de c0bd
00000040: be19 b2bd 99bd cf3c 3222 e7bd c970 9fbd
00000050: 9aca c5bd 462a ca3d 03bc 6b3d 1880 98bd
00000060: 525c 2cbe 08e9 cfbd 6c6f 9dbd 7f0b 18be
00000070: 9c53 d0bd 83f8 56bc a2d1 3dbb 9aae d63b
00000080: 73a1 29bd 11f7 96bd e1b4 63bd af5a 17be
00000090: a1bf f7bd 5a05 efbd 3be7 1c3d 66dc d1bd
000000a0: 2079 1abd 07df e6bd 0867 bf3b 922d 743d
000000b0: 8c8f 353e 2a1c 8bbd c503 0dbe 3c7c 773d
000000c0: 071e dabd cfd0 6bbe 5491 85bc fcd8 e0bc
000000d0: a69e 6a3d 04c1 f3bc 2d2c 02be a9a7 38bd
000000e0: 3ad4 12bc bdc7 fd3c 7544 23bd 38fb a1bc
000000f0: f803 a6bd 7af7 5c3c dbb4 9cbd b062 52bd
00000100: 9f73 c6bd ebd7 773d 0d66 a93d 2515 80bc
00000110: f134 1fbd 49cd 32bc ce2d 69bd fec6 06bd
00000120: c78b 9cbc 5612 b4bd c3c3 89bd afd9 2fbe
00000130: 4eff f4bc bed1 263d 33ca 03be 70de d6bd
00000140: 0678 00bd 3fda a7bc aa67 79bd bde7 753d
00000150: c86b a0bc a4b1 45bd fb72 af3d 63e8 4a3d
00000160: 9260 07be 9f8b a63d 44db 87bd 046d b0bd
00000170: 52f8 bebb 56f2 b0bd fcbe 723c b670 b5bd
00000180: 757d b4bd 5ef1 59bd e205 0e3d 9edc 203b
00000190: b44e f2bd 181e 7cbc 1a8d c8bc 544d e23c
000001a0: 2928 99bd ab81 00be a7f0 62be aef1 083d
000001b0: 9fb2 a9bd 46c8 dbbd 7f1a d0bd bd39 70bd
000001c0: 137e b53c 1190 9b3d 04f5 0cbe 9382 403c
000001d0: 064d a2bd 1777 5d3d 6d5b c7bd 3bba c5bd
000001e0: d432 eebd a188 46be f7ca f6bd 2779 803c
000001f0: e8b2 fdbd ab22 42bd 382e 793d 645c 24be
00000200: ea95 ae3b 8918 9dbd a7f7 a9bd b49e 03be
00000210: 60b9 72bd 9581 eebd 0cc7 f1bc 0223 a9bd
00000220: d28c 4c3d 77b8 d8bd 865e 3c3d 044b eebd
00000230: 52d8 afbd 9be1 f33b 76fa e2bd a544 83bd
00000240: 0fbd ed3b 9c53 d7bd a620 e43a b766 03be
00000250: 665f d2bd 057b 7bbe 73fb 88bc 84cf d4bc
00000260: ff55 8d3d 2d68 36be 51f1 c1bc 3842 3abd
00000270: 4d2a 173e 0a8e 693d 5759 cebc f22e 18be
00000280: 4010 30be 2d9f b7bc 717b 04be f24b 1fbd
00000290: 52d8 33be a293 f1bd ba77 78bd 5cb2 ddbd
000002a0: 8627 0abd b06b ce3b 8a42 febb 7baa 3fbe
000002b0: 3223 e9bc 2c3c e8bd 1227 33be 1e70 34bd
000002c0: 3a67 83bd d0b8 d8bd 9ac0 dbbd 1f8f a43c
000002d0: c915 7fbd 3d70 26be e452 74bd db93 8d3d
000002e0: aa49 89bd 3089 6abc 7543 51be a878 07be
000002f0: 6da4 b1bd de9b ea3c d46f cdbb 2356 b9bd
00000300: 7a25 3cbe b7ed 133d e38c 83bd 0040 23be
00000310: 573c d53c 9601 aabd 3570 afbb 132a 80bc
00000320: e8a8 813d f8dd 0b39 7dfa 933d f16f b5bd
00000330: 5edd 543d daa3 2cbd 3dcb 24bc 2e88 6bbd
00000340: 50a0 dabc b808 e33d d94d bebd a347 223d
00000350: 5979 993d dcef b53d 8532 243d ff4f c43c
00000360: 0802 d03c 4380 01bd e2d4 8cbc cb62 3ebd
00000370: 9fd4 cbbd 1c42 cc3c 80eb 5c3d a51a fdbc
00000380: e9e0 96bd 71c5 123d d711 e73c 20e1 4cbc
00000390: 4e4e 373d 060f 423d a192 c23d b3df 7f3b
000003a0: fd9b 273d 7d9d 12bc 5f30 9b3d 4373 49bd
000003b0: 18f7 2e3d ce0a d0bc fc9c 4d3c bc17 c7bb
000003c0: 1921 b83d 0a11 3d3c 94e7 07bd 0d9e 173d
000003d0: 36bf babd a3b8 b43b 55a2 07bd 5fa0 14bd
000003e0: 45e8 3b3d 799a 84bd 0320 9fbd c1fd c23c
000003f0: d59f 9ebb 25e3 30bd 0325 053c 0bf8 2f3d
0.048914004 -0.115662046 0.03464049 -0.11482645 -0.16582648 0.017277764 0.038204037 -0.017738886
-0.05972757 0.09604613 -0.049194854 0.04253039 -0.009973727 0.0390777 -0.13970587 -0.09417528
-0.08696316 0.025358962 -0.11285819 -0.07785184 -0.09657784 0.09871344 0.05755235 -0.07446307
-0.16832092 -0.10151869 -0.07687268 -0.14848135 -0.10172197 -0.013120773 -0.0028964062 0.006551576
-0.041413736 -0.07371343 -0.05559242 -0.14780687 -0.12097097 -0.116709426 0.038306456 -0.10247116
-0.03771317 -0.11273008 0.0058411397 0.05961377 0.1773054 -0.06792481 -0.13770969 0.060421214
-0.106502585 -0.23028873 -0.01630465 -0.027447216 0.057280205 -0.029755123 -0.12712164 -0.04508177
-0.008961732 0.030979032 -0.039860208 -0.01977311 -0.08106226 0.013486737 -0.07651683 -0.051363647
-0.09690022 0.06050865 0.08271418 -0.015635082 -0.03886885 -0.010913202 -0.05692845 -0.032904617
-0.01910962 -0.0879256 -0.06726792 -0.17172883 -0.029906895 0.04072737 -0.12870102 -0.10491645
-0.031364463 -0.02048981 -0.060889877 0.060035456 -0.019582644 -0.048265114 0.08566853 0.049538027
-0.13220432 0.08132099 -0.066336185 -0.08614543 -0.005827942 -0.08639972 0.014816042 -0.088593885
-0.088129915 -0.0532087 0.03467358 0.002454556 -0.11831418 -0.015388034 -0.024481345 0.027624764
-0.07478363 -0.12549464 -0.22162114 0.03343361 -0.082860224 -0.107315585 -0.10161304 -0.058648814
0.022154843 0.07595838 -0.13765341 0.011749881 -0.07924847 0.05406865 -0.09734235 -0.09654661
-0.116307884 -0.19388057 -0.12050431 0.01568277 -0.12387639 -0.047396343 0.060835093 -0.16050869
0.0053279297 -0.07670695 -0.08299189 -0.12853509 -0.05925882 -0.116458096 -0.029513858 -0.0825863
0.049938984 -0.10582059 0.045988582 -0.11635402 -0.08586182 0.0074426658 -0.11082928 -0.06409577
0.0072552036 -0.10513994 0.001740475 -0.12832151 -0.10272102 -0.24558647 -0.016721463 -0.025977857
0.06901168 -0.17813177 -0.023674639 -0.045473307 0.1476223 0.057020225 -0.025189085 -0.14861658
-0.17193699 -0.022414768 -0.12937714 -0.038890786 -0.17562988 -0.11795737 -0.060661055 -0.10825035
-0.0337291 0.0062994584 -0.007759397 -0.18717377 -0.028459165 -0.11339602 -0.17495373 -0.044052236
-0.06416173 -0.10582125 -0.10730095 0.020087777 -0.062276635 -0.16253753 -0.059649363 0.06912967
-0.067035034 -0.014314935 -0.20435889 -0.1322962 -0.0867394 0.028638776 -0.0062694345 -0.090496324
-0.18373671 0.036115374 -0.064233564 -0.15942383 0.026029749 -0.08301084 -0.0053539523 -0.015645063
0.063310444 0.00013338763 0.07225511 -0.08859242 0.051968925 -0.04214845 -0.010058221 -0.057502918
-0.026687771 0.11085647 -0.09292192 0.0396191 0.07493848 0.0888364 0.04008724 0.023963926
0.025391594 -0.03161646 -0.017191354 -0.046480935 -0.09952664 0.024933867 0.053935528 -0.030896494
-0.07367117 0.035832826 0.028206749 -0.012504846 0.04475241 0.04737761 0.095006235 0.0039043247
0.040920246 -0.008948681 0.075775854 -0.049182188 0.042716116 -0.025395777 0.012549635 -0.0060758274
0.08990688 0.011539707 -0.033179834 0.037015963 -0.09118502 0.0055151745 -0.033113796 -0.036285754
0.045875806 -0.06474776 -0.077697776 0.02380264 -0.004840831 -0.043185372 0.0081265 0.04296116

lstm.bias_hh_l0 f4 [400]
00000000: e9bc 94bd 1a83 05be bacf 0cbd c6ba cebd
00000010: a58e 7cbd 680a a33c 21c7 f9bd 787d 45bc
00000020: ca94 cfbd 4471 933c 9dfd db3c 4793 913c
00000030: 4613 d3bd c621 033c ee3d a8bc ba7b dabd
00000040: f8e5 97bd 5eba 3c3c b836 d8bd 4f72 d3bd
00000050: 1722 3bbd 5c88 153e 2ad3 ca3b bbf2 adbd
00000060: c8c2 26be 0647 3dbe 2ad6 063c ed02 0bbe
00000070: 94c1 acbd 2a4c 953c 930e 743d e9d0 4ebd
00000080: 8694 a0bd 481e 903d 0133 f5bc b8a3 6ebc
00000090: 32e4 fe3c 8fcd 6dbd 169b 62bc d04c a0bd
000000a0: a0fb 45be 34f3 1d3d dd10 a9bc 7ffc 80bd
000000b0: 2bf2 f53c 14af 073d 269b e2bd 8fd3 ebbc
000000c0: e25a 3bbd a23f 55bd c7c7 273c c528 debd
000000d0: 32c0 73bb c0b9 f4bc b1d6 26bd 418c 88bc
000000e0: 7027 f23c 58c2 abbd 0f44 1ebe fac8 ed3c
000000f0: 2c03 17be 4d44 bebb 6b7c 49bd 8730 eabb
00000100: 7773 223d 3b94 47bd 24f4 043d 33d5 47bd
00000110: be84 27be d3c4 c43d 7716 803c 62b7 913d
00000120: 5f77 adbd 6ead 8d3a 7397 6f3c fd2c c7bd
00000130: f853 45bd 55e2 76bd e86d e0bd 2e5e 82bd
00000140: e94a 51bc 042e 0bbc f00a a8bc 92e0 d2bd
00000150: 3fa2 57bd 3a5b 16be e0db 3e3b ee55 083e
00000160: 170d 3ebe 4642 cebb 31c7 c0bd 0c46 a5bd
00000170: 26da 12be 7214 07be 6284 adbd 709a 49bd
00000180: 2d66 9dbd 631b 963c c7a8 95bd 6411 093d
00000190: cbce 9bbc 9ad9 10bd 52d3 20bd 40b8 dcbd
000001a0: 191e 00be f13a 41bc 2808 3cbe e1fd 92bd
000001b0: 9f12 5fbd aea8 fb3a 0513 603d 47b9 633d
000001c0: 9edd 793d 8e2f 5ebd efaa d9bd eb6b 8b3d
000001d0: 0f01 bebd 0976 003c b1cd bbbd 9dae d0bd
000001e0: a6f5 d63c b78a 61be 701e c43c 6e6f 743d
000001f0: e8c2 62bd 30df f9bd 078f 763c 50b0 92bd
00000200: 2d0c b8bc d88e 163d 6305 0dbc 5ff7 14be
00000210: b561 af3c b37d c1bd a8ad 14be e662 c7bd
00000220: 35f4 febd 83b6 cd3c 6cc1 4abb fd35 64be
00000230: 05a4 f1bd f266 55bd 2338 4abd 58b0 35bd
00000240: 633a 1ebe 6b12 6abd 5a2e 37bd db21 513c
00000250: 1a99 92bd 034e f2bd a40d 00be 6883 c8bd
00000260: b412 48bd ff17 01be 1e8c 13be 456c bbbd
00000270: bf1e 5b3e 7711 91bd 0cd6 683c 133e 49bd
00000280: 4c09 8abd 6071 d0bc 346b c0bb a945 ae3d
00000290: c0fe 0dbe 585a fdbd 0794 be3c b90d 82bd
000002a0: 2c9a 1cbe 5bc1 2fbe 2de3 6ebd 4c59 97bd
000002b0: 5423 9bbc cbbc 00be b983 a9bd 517c 23be
000002c0: f4b6 91bd 23c4 6dbd feff b8bd 0ca1 79bd
000002d0: 12f7 0d3c 8f5a 90bc 55aa 923d 45d1 8e3c
000002e0: ae3e 5cb9 2728 2abe dec5 0dbe 8d71 8cbd
000002f0: af2d a0bd 7644 78bd 7e47 1fbe a6ea 91bd
00000300: 1822 2fbc 3718 bebd b15d 79bd e095 21be
00000310: b3fe 03be 4676 63bd c6e8 86bc e371 fabd
00000320: 4dd1 893c b295 9c3d 5fc5 243d bb9f 9f3d
00000330: d1d5 df3d 127f 193d 9296 243d 7036 aebd
00000340: 7212 92bd ace3 c2bc f0db 843d 2081 13be
00000350: 879f 89bd f29d 73bd 536e 9dbd 2c95 533c
00000360: 5891 873b cf63 9dbd bfd4 d73d 59c6 363c
00000370: 2b00 b83d c9af 833c 5c81 27bd 3dfc 5e3d
00000380: a564 04bc ef48 d3bc 7b75 5ebd ba75 bbbd
00000390: 83e6 c7bd dbab 9abd a256 5bbb 3ad9 2fbd
000003a0: fbe3 713d fcf4 9c3d 6770 673d be88 06bd
000003b0: aee3 91bd 2648 543d 05c2 96bd 2a36 c83c
000003c0: 489c 4c3b fe9b 7b3d b69d 043d aee3 c2bd
000003d0: 54ca 943c 4b6d a73d 59b4 f03a 40e1 bebb
000003e0: 2c33 cdbd 60c6 0e3c 2521 c9bc 9f3b ec3c
000003f0: 22b1 943d f3ce c8bb 8541 f0bd 3af6 0a3c
-0.07262594 -0.13038293 -0.03437779 -0.10094218 -0.061659474 0.019902423 -0.12196184 -0.01205384
-0.10135801 0.017998345 0.02685433 0.017770423 -0.103064105 0.008003658 -0.020537343 -0.1066813
-0.0741691 0.011519043 -0.10557312 -0.10324537 -0.045686807 0.14602798 0.0061897235 -0.08493563
-0.1628524 -0.18484125 0.008229772 -0.13575335 -0.084353596 0.018224794 0.05958421 -0.0504922
-0.078408286 0.07037026 -0.029931547 -0.014565401 0.031114671 -0.058057364 -0.013830921 -0.07827151
-0.19334269 0.038562015 -0.020637924 -0.0629816 0.030022701 0.033125952 -0.110647485 -0.028787402
-0.04574097 -0.052062638 0.010240502 -0.1084762 -0.0037193415 -0.029873729 -0.04073209 -0.01666844
0.02955982 -0.083866775 -0.1545565 0.029026497 -0.14747304 -0.005806482 -0.04919092 -0.007146898
0.039660897 -0.048725348 0.032459393 -0.048787307 -0.16359231 0.09607854 0.015635712 0.071150556
-0.08470034 0.0010809132 0.014623511 -0.09725378 -0.048175782 -0.06027444 -0.10958463 -0.063656196
-0.012774208 -0.008494858 -0.020513028 -0.1029674 -0.052644964 -0.14683238 0.0029122755 0.1331403
-0.18559681 -0.0062945215 -0.09412993 -0.08070001 -0.1434103 -0.13191393 -0.08472516 -0.04921955
-0.07685504 0.018323606 -0.07307582 0.03346385 -0.019019505 -0.03536377 -0.03926403 -0.107773304
-0.12511481 -0.011793838 -0.18362486 -0.0717733 -0.054461118 0.0019200051 0.05470564 0.055596616
0.061002366 -0.05424457 -0.10628306 0.06807693 -0.09277546 0.007840642 -0.09170092 -0.10189555
0.026240181 -0.22025572 0.023940295 0.05967658 -0.05536166 -0.12200773 0.015048749 -0.07162535
-0.022466743 0.03675732 -0.008607241 -0.1454749 0.021408895 -0.09447803 -0.1451937 -0.0973566
-0.124489225 0.025111442 -0.0030938042 -0.2228622 -0.11798862 -0.05210013 -0.049369942 -0.044357628
-0.1545196 -0.05714647 -0.04472194 0.012764419 -0.07158108 -0.11831286 -0.12505203 -0.09790689
-0.04884596 -0.1260681 -0.14408919 -0.0915151 0.21398447 -0.07083409 0.014211189 -0.049131464
-0.067400545 -0.025444686 -0.0058721546 0.0850938 -0.1386671 -0.12370747 0.023263944 -0.06350274
-0.15293187 -0.17163603 -0.05832212 -0.07390079 -0.018937744 -0.12572019 -0.08277077 -0.15965392
-0.07114974 -0.05804838 -0.09033202 -0.060944602 0.008664863 -0.017621307 0.071613945 0.017433772
-0.00021004185 -0.1661688 -0.13845012 -0.068575956 -0.078212135 -0.060612164 -0.15554616 -0.07124834
-0.010689281 -0.09281962 -0.060880367 -0.15779829 -0.12890129 -0.055532716 -0.016468417 -0.122287534
0.016823435 0.076457396 0.04022729 0.07794138 0.10929454 0.0374747 0.040182658 -0.08506477
-0.071324244 -0.023790203 0.06487262 -0.14404726 -0.067198806 -0.0594768 -0.07687058 0.012913983
0.0041371994 -0.076850526 0.10538625 0.011155688 0.08984407 0.016075032 -0.04089485 0.054439772
-0.008080636 -0.025791613 -0.054311257 -0.09153314 -0.097607635 -0.0755231 -0.0033468385 -0.042931773
0.05905531 0.076639146 0.05650368 -0.03284525 -0.071235046 0.05182662 -0.07361225 0.02443989
0.003122108 0.061428063 0.032376967 -0.09516083 0.018162884 0.08175143 0.0018364295 -0.0058251917
-0.10019526 0.0087142885 -0.024551937 0.028837023 0.07260348 -0.006128186 -0.11731247 0.008481557

linear.weight f4 [1, 100]
00000000: aa39 8c3d 0817 87bc 5c83 ac3d 2a13 4339
00000010: 4267 343d e147 053d 0593 8b3d 87e6 00be
00000020: efc4 f73c 6c8e e73d 962e d6bc 473a 9bbd
00000030: 8921 48bc 806b 9e3d ee99 a6bd 444b 593c
00000040: 8140 b13c ee25 adbd ae71 d63c caa3 0cbd
00000050: 3ecc 7f3c 2b53 373e 2ad7 983c ee45 9f3c
00000060: 3c3d 1fbc 54e1 b8bd e3a3 083c faaa 09bd
00000070: 8fd1 68bd 2574 cf3b c714 db3d ff14 f3bc
00000080: a036 94bc 6c97 38bc e32c 1c3e 8633 623d
00000090: b7c7 75bd a7ba 643d 01d9 acbd b887 033e
000000a0: 1414 35bd 6f38 333d 3f3e b03d 98cd 5a3d
000000b0: cbb0 09be 58c0 03be d131 d63c 905d 8fbc
000000c0: 0b97 b0bd 83f7 94bd 8f08 b4bd bf81 603d
000000d0: 75b9 35bd 97c9 8ebd 5a72 cfbd 9d5f 353c
000000e0: 48d4 1b3e c365 8ebd c9e9 983d ef93 99bd
000000f0: 53c0 813d bfbf a0bd ebe6 2f3c e35b fb3c
00000100: 1bae 4c3d 38d0 42bd 9ebd 363d ac0b 9cbd
00000110: 2efe 26bd e7c0 bbbd 9af2 b33a 30aa c33d
00000120: e8e7 02bc 0337 0d3e fe90 263d fea9 883d
00000130: 9a06 43bb 95cb 923a 759b 03bc c9ba 71bc
00000140: 9a8f e93c 5ca3 c33d 14c5 483d eab4 b1bc
00000150: aeae 053c 12c6 5abc bb38 adbd 8360 233e
00000160: bfe2 5dbc 9252 e9bd f8fa 8b3d 1440 9d3d
00000170: 98c5 c3bd 2f54 4c3c da5d 6e3b 05eb 683d
00000180: c97b 8abd 3ec9 043d fc13 233d df65 45bd
0.06846936 -0.016490474 0.08423492 0.00018603788 0.044043787 0.032539252 0.06815151 -0.12587939
0.030245272 0.11306462 -0.02614526 -0.07579475 -0.012215027 0.07735348 -0.081348285 0.013262574
0.021637203 -0.084545 0.026177254 -0.03433589 0.01561266 0.1790282 0.018657286 0.019442525
-0.009719189 -0.09027353 0.008339855 -0.03361032 -0.056840476 0.006330984 0.10697322 -0.029673098
-0.018092453 -0.011266571 0.15251498 0.055224918 -0.060004916 0.055842068 -0.08439828 0.12844741
-0.0442086 0.04375499 0.086056225 0.053418726 -0.13446347 -0.12866342 0.026146801 -0.017500669
-0.08622559 -0.072737716 -0.08790695 0.054811236 -0.04436632 -0.06972044 -0.10129233 0.011070159
0.15217698 -0.06953003 0.07466466 -0.07498919 0.06335511 -0.07849073 0.0107362075 0.030683463
0.049970727 -0.047561854 0.044614427 -0.07619414 -0.04076975 -0.091676526 0.0013728917 0.09553945
-0.007989861 0.13790517 0.04066562 0.066730484 -0.0029758574 0.0011199588 -0.008032669 -0.014754006
0.028510857 0.09552643 0.049016073 -0.021692712 0.008159323 -0.013352888 -0.08458086 0.15954785
-0.01354283 -0.11392702 0.06834978 0.076782376 -0.095591724 0.012471243 0.0036371858 0.056864757
-0.067618914 0.032418482 0.03981398 -0.048192855
