model/1721469533_model-aapl.pth (torch, 174356 bytes, 5 tensors)

lstm.weight_ih_l0 f4 [400, 5]
000000 10 51 57 3d 35 72 6b 3d cd cf 09 bb 59 df d3 bc
       0.05256754 0.057481963 -0.00210284 -0.025863336
000010 48 b2 18 3e e2 1c f8 bd 8d db 86 bc 64 6b f1 bd
       0.14911759 -0.12114884 -0.016462112 -0.11788061
000020 73 19 f4 3c 05 ad e1 3d 4a d1 b0 bd a3 84 22 bd
       0.029797291 0.11019329 -0.08633669 -0.039677273
000030 c3 66 df bd 6c 46 66 bd f4 b1 bf 3d ca 09 50 3d
       -0.10908272 -0.056219503 0.09360114 0.050790586
000040 25 06 81 bd 97 cb e2 bd 11 9b f4 bd 30 77 77 3c
       -0.063 -0.11073988 -0.11943639 0.0151041
000050 ba 55 98 bd 0f bb a3 bd 98 73 e5 bd dc 95 e8 3c
       -0.07438226 -0.07994663 -0.112036884 0.028391771
000060 76 56 57 3d 63 6d 17 bc 0e 40 ab bd a2 86 a8 bd
       0.05257269 -0.009242388 -0.08361827 -0.08228804
000070 8c 37 99 3d f8 e6 5a bd 74 b8 82 bd c9 bb 72 bc
       0.07481298 -0.053442925 -0.06382838 -0.014815279
000080 56 4c b9 bc f7 1e 9e bd 5f 2a 1a be 4d ac f1 bc
       -0.022619408 -0.0772075 -0.15055226 -0.029501105
000090 c7 cc f8 bd 1f fa 42 be 5c a6 9f bd 14 67 ed 3e
       -0.12148433 -0.19040726 -0.077954024 0.46367705
0000a0 09 f2 dc 3d 52 0c 27 bd 1c 0e 71 bd d0 66 ce 3c
       0.10788352 -0.040783234 -0.058851346 0.02519551
0000b0 5d da cb 3c 80 0c a7 bd 76 00 42 3d 24 21 02 be
       0.024884397 -0.08156681 0.04736372 -0.12707955
0000c0 4e a1 b9 bd 17 dc 16 3c 0f 62 96 bc 4c 8a 6c bb
       -0.090639696 0.009207747 -0.018357305 -0.0036093174
0000d0 58 b0 7e 3c f7 63 81 3c 0b 54 8f 3d 97 80 f2 bd
       0.015544973 0.015794737 0.06998452 -0.11840933
0000e0 dc 27 0b be 11 6a c5 bd cd 1a a2 bd 34 b3 d3 3e
       -0.13589424 -0.09639371 -0.07915268 0.4134766
0000f0 e2 8c 05 bd 8d ce d1 bd d1 3a 44 3d 25 39 84 3d
       -0.03260506 -0.102444746 0.047907654 0.06456212
000100 18 47 88 bd 3e 67 b2 3b 1b 50 0c bd 31 d6 79 bd
       -0.06654185 0.0054444363 -0.034256082 -0.060995284
000110 d7 77 8c bc 3d d9 29 be 5b bf 22 3c ae ff c2 bd
       -0.017146988 -0.16586776 0.009933318 -0.09521423
000120 0f 28 eb 3c 86 df 4c 3c 21 1b 86 bc 5d 26 00 3e
       0.028705625 0.012504464 -0.016370358 0.12514634
000130 30 a6 d0 3d a1 8d 3e 3e 9e 68 06 3e c7 9d 3a bf
       0.10187948 0.18608715 0.13125846 -0.72897
000140 ac 3b dd bd d6 21 d6 bd c2 f7 ae bd 71 c7 0c be
       -0.10802397 -0.104556724 -0.0854335 -0.13747956
000150 8e e6 c8 3e ce cc 57 be 1b 14 4b be 47 3e 9c bd
       0.392384 -0.2107422 -0.19831888 -0.07629066
000160 e5 b7 56 be df 2b 4d 3e 93 ba 06 bd 22 6b dd 3b
       -0.20968588 0.20036267 -0.032892775 0.006757156
000170 55 dd f5 3d 92 4d 45 3b 02 3e 16 3d 5d 5c d1 3c
       0.12005106 0.003010605 0.03668023 0.025556738
000180 ba 60 fd bd 4c b4 14 be a4 3f 56 bd 25 42 21 bd
       -0.12371965 -0.14521903 -0.052306786 -0.03936972
000190 30 d9 ec bd 5d 28 16 3d dd 53 72 3d ac 1e 43 3c
       -0.11564863 0.036659587 0.05916201 0.011909168
0001a0 4b dc bb bc f2 8f 94 3d b4 be 7a bd 32 5c 88 3d
       -0.022932192 0.07254018 -0.061217025 0.0665821
0001b0 1b a1 68 3c b4 a5 87 bd 1f 66 45 3c bb 31 64 3d
       0.014198567 -0.06623402 0.012048273 0.05571149
0001c0 76 66 dc 3d 87 a4 e6 3d b3 6e a5 bd 58 77 81 bc
       0.107617304 0.1126185 -0.08077755 -0.015803978
0001d0 a1 35 81 3b ea 4e b2 bd 0b 0f 42 3b a7 ce 0f be
       0.0039431606 -0.08706458 0.0029611017 -0.14043675
0001e0 4b 86 c9 bd 6d e6 80 bd e1 80 ed bd ae 03 3f bc
       -0.098400675 -0.0629395 -0.11596847 -0.011658592
0001f0 50 42 61 3d 22 79 7e bd a5 1e b1 bd 08 7a 7d bd
       0.05499488 -0.06212724 -0.08648423 -0.061883956
000200 a6 7f 6a bd ed ce ad bc 4f 13 68 3d 13 9c 44 bd
       -0.05725064 -0.021216834 0.05665904 -0.048000406
000210 54 a0 ee 3d 71 60 91 bd 14 4c 43 3d 58 94 17 be
       0.11651674 -0.07098473 0.047679976 -0.14802682
000220 02 34 bb bd 4b c1 70 be e3 96 55 be 1b ad 8a 3e
       -0.09140779 -0.23511235 -0.2085834 0.27085194
000230 51 78 2d bd 9e 28 e5 bc 9f 1a 90 bd fc c4 ac bd
       -0.04235107 -0.02797347 -0.070363276 -0.08436009
000240 6f a7 18 3b f0 df 1a be dd 40 08 be 85 ac 42 bd
       0.0023293158 -0.15124488 -0.13305993 -0.04752781
000250 38 b7 d0 bd e6 4d b9 3c 9a 45 1a be 31 0e 1c be
       -0.10191196 0.022620153 -0.15065613 -0.15239789
000260 76 4e fd bd ba b3 03 bd 90 1d 9f bd e3 77 92 3c
       -0.12368481 -0.032153822 -0.077693105 0.017879432
000270 5a ab d6 bd 4d f8 bd 3c ee b8 3e bd 1c 90 d5 bd
       -0.104819015 0.023189688 -0.04656308 -0.10427877
000280 a0 0c 95 bd 78 b9 3b be a5 ee 4d bc b0 bc 02 be
       -0.07277799 -0.1833247 -0.012569104 -0.12767291
000290 e4 6b da bd 49 51 85 3c a3 df 73 3d 3d 79 31 3d
       -0.1066511 0.016274111 0.05953945 0.043328512
0002a0 6d b2 3b bd 07 5a e5 bd 11 96 84 3d 7c a4 70 3c
       -0.045824457 -0.11198812 0.064739354 0.014687654
0002b0 5b dd 02 3e 29 09 4c 3e b0 7d 18 3d f6 20 8c bd
       0.12779753 0.1992537 0.03722924 -0.06842224
0002c0 6b 56 ea bd cd 78 c6 bd e1 a0 df bd 78 61 dd 3c
       -0.11442264 -0.0969101 -0.10919357 0.027024016
0002d0 61 18 df 3b d7 0a 04 be 0a 8a 8d bd 43 65 b0 bd
       0.006808326 -0.1289476 -0.069110945 -0.08613064
0002e0 98 f4 7d bd 9a fd 9d bc 5c 68 5c bd fa 46 44 bc
       -0.06200084 -0.019285966 -0.053810462 -0.011979813
0002f0 03 5c cb bd 94 55 40 3c d0 3f 5a bd fd 99 d3 bd
       -0.09929659 0.011739153 -0.053283513 -0.10332105
000300 c7 f2 d1 bd 2e 04 e8 bd 06 1b f7 bc 8a 1e fe bd
       -0.10251384 -0.11328922 -0.030164253 -0.124081686
000310 b8 9c 9a bd fc 4d 10 be de d4 cc bc f2 2c 9c bd
       -0.07549423 -0.14092249 -0.025003847 -0.0762576
000320 18 3d 4c 3d 45 10 39 3d 2b eb 2c 3d 5b 95 0c bd
       0.04986295 0.04518153 0.04221646 -0.034322124
000330 7b 40 fd bc e6 98 c3 bd af 3a 7b bd 98 f3 45 3d
       -0.030914536 -0.095506474 -0.061335262 0.048328012
000340 a7 0e 2c 3d 65 55 3f 3c d7 a9 3f bd 40 28 58 3c
       0.04200616 0.0116780745 -0.04679283 0.01319319
000350 17 2e d3 3c 37 73 e2 bd bc 43 e0 bc ea 84 0b bd
       0.025778813 -0.11057132 -0.027376048 -0.034062304
000360 c3 dc 2f bb b6 45 ab bd 3f 23 33 bd 06 22 3d 3d
       -0.0026834465 -0.08362906 -0.043734785 0.046175025
000370 c2 96 1e be 5f a6 0c be af 37 9f bd b0 01 b2 bd
       -0.15487197 -0.1373534 -0.07774293 -0.08691728
000380 b5 cf 3e be bc 4e 0d be f2 0c 85 3c 71 96 ae bd
       -0.18633921 -0.13799566 0.016241524 -0.08524788
000390 a3 7f af bd eb 88 be bd 41 9c 93 3d bc 48 d3 3d
       -0.08569267 -0.09303459 0.072075374 0.10316607
0003a0 88 3a 83 bc dd ba f9 3d 73 10 cc 3e 4e ba 39 be
       -0.01601912 0.121938445 0.398563 -0.18137476
0003b0 2a ac 56 be de 76 a1 bd dc 10 3c be 7e d7 58 be
       -0.20964113 -0.07884 -0.18365806 -0.21175954
0003c0 f9 d1 0f bd 5f 65 e6 bc fd 1e f9 bd a9 ed 9d bc
       -0.035112355 -0.02812451 -0.12164114 -0.019278364
0003d0 33 74 e6 bd a7 32 00 be a3 c3 88 bd 13 9b 08 bb
       -0.11252632 -0.12519322 -0.0667794 -0.0020844385
0003e0 60 ab 08 be cf 02 b6 3d b1 81 b6 bd f8 05 fe bd
       -0.13346624 0.088872544 -0.089114554 -0.12403482
0003f0 48 0b 41 bd 45 af ae bc 31 eb a5 3e 5f 6e 49 be
       -0.0471299 -0.02132381 0.32406 -0.1967101

lstm.weight_hh_l0 f4 [400, 100]
000000 4c 64 1c 3e 21 21 44 bd 59 e0 bf 3c 8e 81 c9 bd
       0.15272635 -0.047883157 0.023422407 -0.09839164
000010 db f8 b3 3d e4 e3 01 3b 19 0c ed 3c 84 e0 c0 bb
       0.087877 0.0019819671 0.028936433 -0.0058861393
000020 16 64 00 3d 57 e7 55 3c fa 35 8b 3c b0 c8 99 3d
       0.03134545 0.013055644 0.016993511 0.07508981
000030 cd c0 00 3d 47 42 6e bc f4 d4 b0 3c d7 a4 86 3e
       0.03143387 -0.014542169 0.021585919 0.26297638
000040 09 1c 07 3b f0 04 7f 3c 64 00 59 3d 84 06 f4 3c
       0.0020616075 0.015565142 0.05297889 0.029788263
000050 3b 9d 80 bc 3b 96 3d 3c 62 ed 13 3e da 66 79 bd
       -0.015699973 0.011571462 0.14446023 -0.060889103
000060 f6 ef 15 3d a8 49 e1 bd 3c 6e 95 3c d2 90 8b bd
       0.036605798 -0.11000377 0.01824104 -0.06814732
000070 85 99 95 3c a5 2e 2a bc f5 f7 a3 3c 3f 9a f5 bc
       0.01826168 -0.0103870975 0.020015696 -0.029980777
000080 5b c8 0b be 47 9b c2 bd a9 95 06 bf 53 e6 d7 bb
       -0.13650648 -0.09502273 -0.52572113 -0.006588736
000090 06 7d 4d bd c9 39 ab 3d 05 24 04 be 83 21 19 3e
       -0.05016806 0.08360631 -0.12904365 0.1495419
0000a0 da ab bd bd 5a 50 06 bc 5c 2d a8 3d a3 ce c1 3c
       -0.09261294 -0.008197868 0.082117766 0.023658102
0000b0 8f 94 0d 3a 4a a2 57 bd 26 cc 29 3d 16 b6 55 bc
       0.000540086 -0.052645005 0.041454457 -0.013043901
0000c0 b5 f9 01 3c 48 0c 6f bb 40 8b 93 bd bf 4f 1f bd
       0.00793307 -0.0036475826 -0.07204294 -0.03889441
0000d0 8b 38 c9 3d 79 cd 5e 3d c8 f1 8b 3d 8b 34 1b 3d
       0.09825238 0.054395173 0.068332255 0.037891906
0000e0 d9 55 38 bd 27 78 23 bd e6 3a 19 3e c4 88 2a 3e
       -0.045003746 -0.039909508 0.14963874 0.16653734
0000f0 f6 68 81 3d e6 97 78 3d b5 b8 26 3e 15 db 65 3d
       0.06318848 0.060691737 0.16281398 0.056117136
000100 d1 57 80 3c 58 fd 9e bc f4 5c ba bd 69 eb 89 bd
       0.015666874 -0.019407913 -0.09099761 -0.06734354
000110 45 c9 c3 3c 6e df e1 3c 7f be 86 3d 19 ea f2 3d
       0.023899684 0.02757236 0.06579303 0.11861057
000120 7f 8d 09 3e db 9c 57 3d 63 50 15 3d 26 05 03 be
       0.13432883 0.052639823 0.036453616 -0.12794933
000130 cf a1 6f 3d 86 a0 2f be d7 e0 fa 3d d4 ad dd bb
       0.058503922 -0.17151079 0.12249916 -0.0067651067
000140 86 ab 2f 3d e7 2e 52 bd a8 26 75 bb 9b e3 13 be
       0.042888187 -0.05131426 -0.0037407074 -0.14442293
000150 dc db f2 3d 50 b0 00 3e 46 52 d5 bc ee 1f 1d 3d
       0.11858341 0.12567258 -0.026040208 0.03836053
000160 d2 57 7c bc aa 26 82 bc 05 b6 13 bc b1 57 d9 bd
       -0.015401797 -0.015887577 -0.009015565 -0.10612429
000170 79 38 b3 3c 6b 83 2e bd bc 10 8a 3d 7a 98 4b bd
       0.021877514 -0.0426058 0.06741473 -0.04970596
000180 f8 64 c2 3c fb 32 06 3e ac c2 09 be 30 24 2f bd
       0.023729786 0.13105385 -0.13453168 -0.04275912
000190 fb 88 87 bd b4 a2 64 bd e5 42 d9 3d b4 5e 05 3e
       -0.06617924 -0.05581923 0.10608462 0.13024408
0001a0 e8 cd c1 bd bb 17 4c bc 94 a7 eb bd 4b 2c ff 3d
       -0.094631016 -0.01245683 -0.11506572 0.1245962
0001b0 e5 96 01 be be 74 b5 bc 66 77 8c bc d2 6a 25 bd
       -0.12655218 -0.022150394 -0.017146777 -0.040385075
0001c0 4d 44 b7 bc 54 23 fd bc 9f c1 02 3d 04 4b cd bd
       -0.022371436 -0.030900635 0.031922933 -0.10024074
0001d0 5a e2 ba bd 82 ec 93 bd bd 51 b4 bd 77 2f 6b bd
       -0.091252044 -0.07222845 -0.08804653 -0.057418313
0001e0 92 e7 ff bd fa d5 05 be c1 eb 91 bd c1 09 0a 3d
       -0.124953404 -0.13069907 -0.071250446 0.03370071
0001f0 88 d1 d6 bc 7e 8c fc 3c 2c b6 77 bc 46 f0 8b bc
       -0.02622296 0.03082871 -0.015119117 -0.017082345
000200 6d 7e 35 bd 28 ce 7d bd 4e c9 50 3c 96 a0 18 bd
       -0.044310022 -0.061964184 0.012743307 -0.03726252
000210 4e ca 0a 3c f3 3c 1a bd 34 c4 f0 3c 7c b5 15 3e
       0.008471085 -0.037655782 0.029390432 0.14620012
000220 0b 6b 55 bc cd 6a 22 bc 0a a4 df 3c fa 05 16 be
       -0.013026009 -0.009913159 0.0272999 -0.14650717
000230 4c 5b 73 3d 3c 2d 6b 3d f9 b6 f9 bc 59 ae 4b bd
       0.05941324 0.057416186 -0.030482756 -0.049726818
000240 0b 3f 83 3d 33 50 0a be 1e 22 dc 3d 7d 50 28 3c
       0.06408509 -0.13507156 0.10748695 0.010273096
000250 bd 10 77 3d db a9 54 3d 6d d7 49 3e 6a ae 09 3c
       0.060318697 0.0519198 0.19711085 0.0084034
000260 db 52 fc 3c 77 c7 f9 bc 25 f7 a9 bd 50 cd 12 3e
       0.030801227 -0.03049062 -0.08299092 0.14336133
000270 96 26 b9 3d 96 34 8e 3d 3e ba a5 bd 52 17 e2 3a
       0.09040563 0.06943624 -0.080921635 0.0017249382
000280 cb 69 d8 bd 4a 44 06 bd 6a 05 db bd ec 67 82 bd
       -0.105670534 -0.03277997 -0.10694392 -0.06367478
000290 33 b1 2f 3d 37 51 5f bd 02 e5 3c ba de 0f 1d 3e
       0.0428936 -0.054520812 -0.00072057557 0.15338084
0002a0 94 41 aa bd e3 f1 90 bd 82 31 2e 3b 77 94 62 bc
       -0.08313289 -0.07077386 0.0026579802 -0.013829342
0002b0 18 1a 1d bc 58 25 cf bd dd 16 d5 3d e1 2a 3c 3c
       -0.009588741 -0.10114545 0.104047514 0.0114848325
0002c0 09 92 83 bd 9c b2 9f 3d 4b 68 ac 3c a9 ef ae bd
       -0.06424338 0.07797739 0.021045825 -0.08541805
0002d0 2c 51 8b bd 63 44 f5 bc dd 2e e7 bd f0 29 57 3d
       -0.06802592 -0.029939836 -0.11288235 0.05253023
0002e0 4d 47 98 bd a3 6b ff bc a2 9f 9c 3c 60 eb 15 be
       -0.074354745 -0.031179255 0.019119088 -0.1464057
0002f0 b6 21 f4 3d 4e f7 0f bc 21 a8 19 3e a2 8c 07 bd
       0.11920492 -0.008786989 0.15005542 -0.033093102
000300 36 cd 20 3d 35 20 91 3d 30 93 fb 3c a2 e6 87 bd
       0.039258204 0.07086221 0.030709833 -0.066357866
000310 45 24 83 3d 05 99 b5 bd ad 28 5d 3b b9 d3 d2 3d
       0.06403402 -0.08867077 0.0033746168 0.10294289
000320 25 c6 dd bd 0f 31 c1 3d 04 07 fa 3d ad 13 c4 3d
       -0.10828809 0.09433185 0.122083694 0.09574065
000330 b6 bd c4 bd 71 98 fa 3c 07 01 dc 3b f9 5a 72 3c
       -0.09606497 0.030590268 0.0067139897 0.014792197
000340 3a cf 22 be 23 90 65 bd 94 12 ce 3d df da ca bd
       -0.15899363 -0.056045663 0.10062137 -0.099050276
000350 ba eb 88 bd 66 4c 5e 3d 64 00 d4 3c e6 97 01 be
       -0.06685586 0.054272078 0.025879093 -0.12655601
000360 87 5d fe bd e5 c3 c9 3b 77 f3 e2 bd 3f 22 b1 bd
       -0.12420183 0.0061573857 -0.110815935 -0.0864911
000370 60 e7 60 3d 0c f5 aa bd 92 85 02 be d6 d9 23 3e
       0.054908156 -0.0834752 -0.12746266 0.16001067
000380 52 ea ec bd 26 f3 f0 3d b4 ae fd 3d 0e 32 31 bd
       -0.115681306 0.11765127 0.123868376 -0.043260626
000390 dc e4 85 bd 8e b4 1b bd 27 6d 82 bd 58 d8 23 3e
       -0.06537792 -0.038013987 -0.063684754 0.16000497
0003a0 54 b5 b2 3d 99 94 e9 3d 49 22 28 3e 4f ad af 3c
       0.08725992 0.11405296 0.16419329 0.021444945
0003b0 b8 5b 1d 3d 22 e5 06 be b4 28 93 3d 4e a6 89 bd
       0.038417548 -0.13173345 0.07185498 -0.06721173
0003c0 35 f3 1a bc 6b 68 83 bd b1 65 a0 bd f7 e1 f6 bd
       -0.009457399 -0.064164005 -0.07831896 -0.12054818
0003d0 92 9c ed 3d 5c 7c 54 3b b8 5b f9 3d cb 9e 42 3d
       0.11602129 0.0032422757 0.12175697 0.047514718
0003e0 54 c6 70 3d 3b 48 84 3d 51 13 a0 3d aa b7 6f bc
       0.05878289 0.06459089 0.07816184 -0.014631191
0003f0 21 10 db bd 81 cc 7a bd a5 a8 43 bd fa af 8c 3d
       -0.10696436 -0.061230186 -0.047768254 0.06869502

lstm.bias_ih_l0 f4 [400]
000000 b2 51 b9 3d 00 e2 ea bd 58 12 8c bd f7 ab f9 bd
       0.09048785 -0.11468887 -0.06839436 -0.12191003
000010 5a c1 6f bd b0 b0 1d 3d e6 82 f6 b9 1a 18 b3 3a
       -0.058534004 0.03849858 -0.00047018303 0.0013663799
000020 a0 de 93 3d bd e3 89 bd a2 a8 b4 bc a0 7c 47 bd
       0.07220197 -0.06732891 -0.022053067 -0.048702836
000030 1d f9 f9 bc cc 0b 06 be 2c 24 d5 bd be f3 16 3e
       -0.030514294 -0.13090438 -0.1040729 0.14741418
000040 93 38 83 bc c4 01 0c bd 60 2a 5f bd 4e b4 ba bc
       -0.016018188 -0.03418137 -0.05448377 -0.022791054
000050 be f3 d8 3c a3 88 af bc 05 08 04 bd eb 10 2b bc
       0.026483413 -0.021427458 -0.03223421 -0.010441045
000060 39 d3 8d 3c 1a df c1 bd a5 f6 0d 3e 12 02 be bd
       0.017312633 -0.09466381 0.13863619 -0.09277739
000070 de 81 ba bd 8f 83 09 be a6 61 20 be bf eb 9a 3d
       -0.091068015 -0.13429092 -0.1566225 0.07564496
000080 79 d2 fc bd d9 4a 90 3d 0b 2a 53 3e 9b 99 d5 bd
       -0.12344832 0.07045526 0.20621507 -0.104296885
000090 7a 12 b3 bd 5d 3b 55 3d e7 50 7f bd d2 54 01 be
       -0.087437585 0.052058566 -0.062333014 -0.12630013
0000a0 ed 27 d2 bd 2f 0c be bd 60 50 5f 3d 5a da e7 bd
       -0.102615215 -0.092796676 0.05452001 -0.11320944
0000b0 c3 7f b4 bd cb b4 7a bb 39 6b 78 3d e5 a9 20 be
       -0.08813431 -0.0038254734 0.06064913 -0.1568981
0000c0 37 21 87 3d d4 94 0e 3d bf d5 2e 3d 02 7e 2e be
       0.06598132 0.034809902 0.042684313 -0.17040256
0000d0 c9 88 40 3d 6d b3 28 3d dc ed 84 ba c7 dc d1 3c
       0.04700545 0.04118674 -0.0010141688 0.02561797
0000e0 87 41 11 bd 91 71 ba bc 1e 1f 2b be 28 f4 37 bc
       -0.035462882 -0.02275923 -0.16711089 -0.011227645
0000f0 68 15 cf bd f8 65 1e bd 89 c3 5f bd 51 d6 f7 bc
       -0.10111505 -0.038671464 -0.054629836 -0.030253561
000100 af 52 d8 bd 67 a3 d2 bd 49 f1 8a 3d 17 83 47 be
       -0.10562646 -0.10285073 0.06784303 -0.194836
000110 3b 5e 72 3d 4e 26 de 3d 16 df c9 3c 9b de 84 3d
       0.059171896 0.1084715 0.024642508 0.06487771
000120 66 55 36 bd ad dd 26 3d f2 6f 95 bc e6 50 ff bd
       -0.044515036 0.04073875 -0.018241856 -0.12466602
000130 a7 85 9b 3d 67 eb 30 bd b2 b5 1b bd e9 72 12 be
       0.075938515 -0.043193247 -0.038015075 -0.14301647
000140 73 3b 9a bd 06 87 c6 bd 36 1d bf bd ec 04 55 bc
       -0.0753087 -0.096937224 -0.093317434 -0.013001662
000150 e9 25 56 3c e5 7a 59 3d 17 29 9e 3d 92 3f 2f bd
       0.013070562 0.053095717 0.07722681 -0.042785235
000160 1f c6 d1 bc 53 3a 4c 3d bb 57 27 bd c6 42 82 3d
       -0.025607167 0.04986031 -0.04085515 0.06360392
000170 27 24 0f 3c 0a 11 6f bd c4 7d 4e bd e6 e7 e2 bd
       0.008736647 -0.05836586 -0.05041291 -0.11079387
000180 77 8a 15 3d ec ac af bc a6 33 b9 3d 7f d9 e1 3c
       0.036509003 -0.02144476 0.09043054 0.02756953
000190 0f 67 bc bd 36 af 76 3c 14 c4 e1 bd d3 fd e4 bd
       -0.09199344 0.015056422 -0.11023727 -0.11181226
0001a0 a4 2d 57 bc 51 81 90 bd 11 02 c9 bc 72 a8 17 be
       -0.01313344 -0.07055915 -0.024537118 -0.1481035
0001b0 8c ab 95 3d 30 fb 3a bd 2b 06 c3 bd b8 91 76 3d
       0.073081106 -0.045649707 -0.09522661 0.060197562
0001c0 7a c8 ff bd b6 0b 1f be ed 2d 0a 3c 39 21 2b bd
       -0.1248941 -0.15531811 0.008433801 -0.04177973
0001d0 a4 1f 63 bd 74 b8 20 be 77 28 1d bd 73 ea a7 bd
       -0.055450097 -0.15695363 -0.03836867 -0.081990145
0001e0 58 91 6a 3d 2a 09 0f 3c 0d ed 9a bd 4b 75 12 be
       0.057267517 0.008730212 -0.07564745 -0.14302556
0001f0 98 50 06 be 84 f9 f0 bd 87 88 d7 3b 68 ee 4f be
       -0.13116682 -0.11766341 0.0065775546 -0.20305789
000200 ad f5 28 3d c3 82 11 be 22 dd 1a be 82 0f fc bd
       0.04124992 -0.14210038 -0.15123418 -0.123076454
000210 8e 55 2b bd 5c d3 d1 bc 5e 6b 95 3d dd 29 b1 bd
       -0.04182964 -0.02561348 0.07295869 -0.08650563
000220 8a cd c2 bd 2b 06 e8 bb 65 99 ff bd 86 73 53 3c
       -0.0951186 -0.0070808134 -0.124804296 0.012905961
000230 eb bc fa bc 75 91 c6 bd 44 f7 dc bd 3b 2f 7e bd
       -0.030607661 -0.096957125 -0.1078935 -0.06205676
000240 8d 8d 03 be 65 6e 63 bc 76 0c 59 3e a2 b3 9b bd
       -0.12846966 -0.013881301 0.2119616 -0.076026216
000250 a2 04 67 bd 56 8b 88 bd 04 37 3d bd b6 78 ea bd
       -0.056400903 -0.06667201 -0.046195045 -0.11448805
000260 b5 4b 14 3d 98 d1 82 3d 2e 2c 38 3d 3f 20 3c bc
       0.036205012 0.06387633 0.044964008 -0.011482297
000270 d2 6f 0f bd 48 13 90 bd 39 f3 ca 3c 9d 5d 03 be
       -0.03501875 -0.070349276 0.02477418 -0.1282868
000280 dc ea 1e be 8a ec 2d 3b 78 ec 4d bc 52 55 bf bc
       -0.15519279 0.0026538693 -0.012568586 -0.023356114
000290 fa 17 49 bd 5a ce 2f 3c 83 89 4c bd de c9 2e be
       -0.04909513 0.01073035 -0.04993583 -0.17069194
0002a0 27 04 9a bd 1c 79 c7 bd 13 01 ef 3c 91 72 bd 3c
       -0.07520323 -0.09739897 0.029175317 0.023125919
0002b0 c0 58 3f bd 06 6d 8d bd 9f e5 d6 bc a1 a8 3c 3d
       -0.046715498 -0.0690556 -0.026232539 0.046059255
0002c0 89 19 64 3d dc f9 4e 3b 1e 5f 31 3d 24 8a 0b be
       0.055688415 0.0031582033 0.0433036 -0.13626915
0002d0 26 9a 4b 3d 03 06 18 bd 8b e9 d4 bc f6 00 7a bd
       0.049707554 -0.03711511 -0.025990268 -0.061036073
0002e0 66 b4 96 bd 5b 39 29 be cb 6d 8f bc d4 17 12 bd
       -0.07358627 -0.16525786 -0.017508408 -0.035667256
0002f0 8c 72 6e 3d 19 64 d5 3c 28 29 2e be 90 ea 23 bb
       0.05821471 0.026048707 -0.17007887 -0.0025011636
000300 20 57 7d 3d 0e c1 5b bd 36 40 32 bd 90 1a 23 3d
       0.061850667 -0.05365091 -0.043518268 0.039820254
000310 ad 84 1e be 4f 01 c6 3a 8e ae 2f be 4f 84 97 bd
       -0.154803 0.0015106591 -0.17156431 -0.07398283
000320 bf 48 ec bc df ee dd bd ae 60 e9 bd b3 27 7b bd
       -0.028843282 -0.10836577 -0.11395393 -0.061317157
000330 7e 8c 81 bb ec fc 20 bd fc c4 2a bc af 88 2e bd
       -0.0039535156 -0.039303705 -0.010422941 -0.04261082
000340 9b 5c 85 3c d2 39 4e bd 45 1a a0 bd 98 cb a7 3c
       0.01627951 -0.05034811 -0.078175105 0.020482823
000350 6b 39 b7 bd 93 98 52 3d 54 89 0e 3c 0a d3 00 bd
       -0.089464985 0.051415037 0.008699734 -0.031451263
000360 94 cb f3 3d 21 54 30 3c 89 55 5e ba 26 d9 7c 3d
       0.11904064 0.010762245 -0.00084813737 0.061730526
000370 4d 79 63 3c 02 80 4e bc 27 c0 06 bd a7 31 4a 3d
       0.013883901 -0.012603762 -0.032898095 0.04936376
000380 84 64 04 be 13 57 5c bd 4f e8 01 3d 17 d9 11 bd
       -0.12928969 -0.053793978 0.031715687 -0.035607424
000390 90 d9 85 3d 04 d2 03 3e cc ff 90 bd f1 69 90 bd
       0.065356374 0.12873083 -0.070800394 -0.07051457
0003a0 e4 b7 99 bd d1 58 84 bc 3c c2 10 bd 4d fe c1 3a
       -0.075057775 -0.016155632 -0.035341486 0.0014800519
0003b0 6e f1 4b bd 1c 3d 5b 3d a4 fb a2 bd 7e b3 78 bd
       -0.049790792 0.053525075 -0.07958153 -0.060718052
0003c0 db 2a 96 3d db 1e bb bc 0c 7d 4f 3d cf 57 9f 3d
       0.07332393 -0.022841861 0.050656363 0.0778042
0003d0 a5 b9 dc bd 33 d9 39 3d ed c0 54 3d 0f cf 31 bd
       -0.107775964 0.045373153 0.0519418 -0.043410357
0003e0 3a ba 05 bd 18 2f 80 bd 75 2f 92 bd 5e c1 f8 bb
       -0.032648303 -0.062589824 -0.07137958 -0.0075914105
0003f0 4b d5 35 3d 94 57 b2 3d 39 0d d2 3d 5c c8 1d 3d
       0.044392865 0.087081105 0.10256428 0.038521156

lstm.bias_hh_l0 f4 [400]
000000 d6 e6 8b bb 40 d2 b2 bd 77 55 43 ba 38 67 ca 3c
       -0.004269461 -0.08731508 -0.0007451395 0.024707422
000010 63 14 e5 bd 7b 23 50 bd c4 18 de bb 78 32 35 3c
       -0.11185529 -0.050815087 -0.0067778546 0.011059396
000020 99 c6 1c bd a3 23 f5 3c 72 8a 15 bd 2a ca 4d 3d
       -0.038275335 0.02992422 -0.036508985 0.050241627
000030 c6 a2 22 bd b6 a7 91 bd e2 30 3d 3b c2 dd 17 3e
       -0.039706014 -0.071120664 0.0028868248 0.14830688
000040 2a db 6c bd 51 c4 2d 3c 9c 10 b7 bc 20 9b f3 bc
       -0.0578262 0.0106058875 -0.022346787 -0.029737055
000050 7b 6b 8c 3b 37 a1 36 3d ec cf d8 bc 4f f1 f5 bd
       0.0042852736 0.04458734 -0.026466332 -0.120089166
000060 ee 02 db 3b a1 21 00 3d 33 5b 18 3e 54 f8 dc bd
       0.006683699 0.03128207 0.1487854 -0.10789552
000070 b0 f3 2c 3d 44 af 04 bc cf ee 07 3d 77 54 88 3d
       0.042224586 -0.008098427 0.03318673 0.066567354
000080 bc ad c5 bd ff d6 80 3d 7b 3a ba 3d 71 46 11 bd
       -0.09652278 0.06291007 0.090931855 -0.03546757
000090 b7 88 61 bb 13 82 92 3c c4 25 cf bc 0c 0c fc bc
       -0.0034413764 0.01788429 -0.025286563 -0.030767463
0000a0 0b 46 4d bd 9e 64 a8 bd db 45 a3 bd c4 58 c2 3a
       -0.050115626 -0.08222316 -0.07972308 0.001482748
0000b0 94 0d f8 bd 5a c9 ce bc b8 03 e4 3d b3 52 9c bd
       -0.12111965 -0.025242496 0.11133522 -0.07632961
0000c0 08 89 e5 bc b4 6d 08 bd f3 9e 28 3d 52 e0 7e be
       -0.028019443 -0.033307746 0.04116721 -0.24890259
0000d0 54 82 8f 3c 4a 8c 0e 3c a0 1f 21 bd 02 36 98 bd
       0.0175182 0.00870044 -0.0393368 -0.07432176
0000e0 97 00 05 bd e6 37 bb 3b 9b 23 9c 3c ee 22 3f be
       -0.032471266 0.0057134507 0.019059947 -0.18665668
0000f0 40 e7 54 bc 18 56 7f 3d e5 00 d6 bd 5d b5 b8 3d
       -0.012994587 0.062337965 -0.10449389 0.09018967
000100 4a ab 30 bc 80 60 61 3c 84 ac c9 bc 1d 35 13 be
       -0.010783026 0.013755918 -0.024618395 -0.1437573
000110 e6 17 9b bd c6 ae d7 3d ac 74 38 3d f6 b7 01 bd
       -0.07572918 0.10531382 0.045033142 -0.03166958
000120 8a a0 f1 3d c3 47 86 bb d4 d2 77 bd d6 82 4a bb
       0.117981985 -0.00409791 -0.060503796 -0.0030900738
000130 54 48 c3 3c fa 86 e8 3b d5 8b 53 3d f9 2b 22 be
       0.0238382 0.0070961686 0.051647026 -0.15837087
000140 42 20 0b 3d a6 10 6d 3c 9e a3 8f bc 2f 54 99 bd
       0.03396631 0.014469301 -0.017534073 -0.0748676
000150 2a 72 ad bd b9 92 c8 bb fb 5d 88 bc 3d 6f d6 bd
       -0.08469041 -0.0061210063 -0.016646376 -0.10470436
000160 54 4a ef bd ea 8b a1 bd f7 21 86 bd a3 87 d6 3c
       -0.11684099 -0.078880146 -0.06549447 0.026187724
000170 c7 1e 47 bc 1c 38 b9 bd f4 cc 50 3d 98 1e 85 3d
       -0.012153334 -0.09043905 0.05097671 0.06499976
000180 6b f1 f8 bd 6f aa 69 3d b2 f2 7f bd ca f2 d2 bd
       -0.12155422 0.057047304 -0.06248731 -0.103002146
000190 07 69 96 bd 56 02 ce bd 44 22 54 3d 18 28 87 bd
       -0.07344251 -0.10059039 0.05179049 -0.06599444
0001a0 c5 1a 97 bd ea 2f 29 bd 18 91 d6 bd dc be 38 bd
       -0.07378153 -0.04130546 -0.10476893 -0.045103893
0001b0 17 ba 24 3d 29 b6 81 bd 6d 87 9f 3c 0f 22 62 3d
       0.04021653 -0.063335724 0.019473756 0.055208262
0001c0 86 48 fc bd 09 e9 03 be c8 c0 a7 3c 5e c3 e3 bd
       -0.1231852 -0.12881865 0.020477667 -0.11121248
0001d0 7d b2 12 be f3 ce 5d bd 1e 0b 0a 3b d0 42 e3 3b
       -0.143259 -0.05415244 0.0021063755 0.006935455
0001e0 d5 ec 68 bd 8c 5b 76 3d aa 0d 35 bd fd be 29 bd
       -0.056866486 0.0601459 -0.044202484 -0.041441906
0001f0 2c 0b 05 be dc 83 17 bc 87 11 d9 bd d6 e7 23 be
       -0.12992543 -0.009247746 -0.10599046 -0.16006407
000200 51 2d 95 bd 40 fa 93 bd 17 c5 83 3c 00 88 28 3c
       -0.07284034 -0.07225466 0.01608519 0.010286331
000210 12 37 84 bd c9 a6 86 3d 78 72 4b bc fe f8 b7 bd
       -0.06455816 0.065747805 -0.012417428 -0.08983038
000220 7f 33 4a bc d1 32 67 bd a5 88 2f bd f0 4f 29 be
       -0.012341379 -0.056444947 -0.042854924 -0.165344
000230 47 5e 47 3d 29 ec 86 bd a7 d8 93 bd e5 0b 05 3d
       0.048673894 -0.06588013 -0.072190575 0.032482047
000240 29 80 3f be 7f 54 b4 bc f6 ac 4a 3e 9c 8b fc bd
       -0.18701233 -0.022012947 0.19792542 -0.12331316
000250 db ec 3f bd 5f 69 15 3d 3c 67 b4 bd 9a 21 2b bd
       -0.046856742 0.036477443 -0.08808753 -0.04178009
000260 73 af ad bd c5 44 9e bd ab be 8e 3d 39 2b 23 bd
       -0.0848073 -0.077279605 0.06969961 -0.039836142
000270 6f 72 87 bd 0e 1e c9 bd a7 2f 20 be 56 eb 86 bd
       -0.06613623 -0.098201856 -0.15643178 -0.065878555
000280 a0 fa 0c be 70 f0 b0 ba e9 f9 0d be 8f ef 73 bd
       -0.13767481 -0.001349939 -0.13864864 -0.059554633
000290 6e 8c c0 bd 42 6b 93 bd ff 50 ba 3c 93 ff 09 bd
       -0.09401785 -0.07198192 0.0227437 -0.033691
0002a0 15 1e 73 bc ee 84 4a bd f5 dc b6 bd 11 c7 8d bd
       -0.014838715 -0.049443178 -0.08928863 -0.069227345
0002b0 c4 1f 1e be db f2 cf bd 31 c9 8d bd 89 5a 53 bd
       -0.15441805 -0.10153743 -0.0692314 -0.051600013
0002c0 96 1c 9c 3c 6f ce 66 bd 98 df 2f 3d f8 96 8a bd
       0.0190566 -0.056349214 0.042937845 -0.06767076
0002d0 11 9a d3 bc 26 85 ac bd 89 95 05 bc 26 8a 70 bd
       -0.0258303 -0.084238335 -0.008153328 -0.0587255
0002e0 7c 97 76 3c ec 6f 1e be fe 08 97 bd 66 90 cd bc
       0.015050765 -0.15472382 -0.07374762 -0.025093269
0002f0 b2 fb e6 bd 30 8b da bc 34 92 a8 bc 99 c6 77 bc
       -0.11278476 -0.026677698 -0.020577528 -0.015123033
000300 e5 6f 85 bd 35 bf 10 be 1e ea d7 bd c7 06 f1 bc
       -0.06515483 -0.1413544 -0.10542701 -0.029422177
000310 32 7c b3 bd b2 da 73 bd 78 f7 04 bd 17 9e fd 3c
       -0.08763923 -0.059534736 -0.032462567 0.030959172
000320 4d 82 49 bd 3b a3 c2 bc 4d 70 25 bb 5e 52 4f 3d
       -0.04919653 -0.023759475 -0.0025243938 0.05061566
000330 d7 7c 6f 3d 8a 53 8c 3d ca 03 53 3c c9 73 2a be
       0.058468666 0.06851871 0.012879321 -0.16645731
000340 6f 31 22 bd 3c 19 e9 3c a7 bd ad 3c b2 85 72 3d
       -0.039597925 0.028454416 0.021208597 0.059209533
000350 ef 92 a3 3d 02 13 01 bd 3a 35 33 bc 7c 8c 0f 3d
       0.0798701 -0.031512268 -0.010937983 0.035046086
000360 95 76 72 bc 41 9c 8e 3d 95 41 61 3d 60 e0 3b 3d
       -0.01479878 0.06963397 0.054994185 0.045868278
000370 87 84 03 3d c3 9e af bc ac bc 08 3c ff 7b e6 3c
       0.03210881 -0.021438008 0.008345764 0.028135298
000380 7b 95 f5 3c 3e 00 85 3d 3a ed f9 bd ef 1a 99 3c
       0.029978504 0.06494187 -0.122034505 0.0186896
000390 50 53 ab bd 8e 96 9f 3b de b6 95 3d 19 b8 b0 3d
       -0.083655 0.0048702424 0.0731027 0.08628864
0003a0 d8 50 8e bb e2 cc ec bc 6f 43 b6 3d 50 83 4a bc
       -0.0043431334 -0.02890629 0.08899581 -0.012360409
0003b0 86 d5 04 3a 38 4f 37 bd fe 19 9b bd d5 0c 19 3d
       0.0005067218 -0.044753283 -0.07573317 0.037365753
0003c0 3c a0 80 bd f9 8e 48 3d f6 ed 2e 3c 35 e3 01 3d
       -0.06280562 0.048964474 0.0106768515 0.031710822
0003d0 58 13 83 3d 43 9e f2 bc f2 c9 02 bd d9 8a 80 bd
       0.06400174 -0.02961648 -0.03193087 -0.06276483
0003e0 14 de ac 3a ac 61 82 bd 91 4e d5 bd 2b 3f 34 bd
       0.0013188743 -0.06366286 -0.10415376 -0.044005554
0003f0 2e 26 ba bd b6 24 c0 bb d8 bf 05 3d f2 48 e1 bd
       -0.090893134 -0.0058637513 0.03265366 -0.11000241

linear.weight f4 [1, 100]
000000 07 d2 a3 bc d1 94 8b bd cc 0e bf bd b1 b6 89 bc
       -0.01999761 -0.06815494 -0.09328994 -0.016810747
000010 70 86 01 bd 6b 03 a5 3d d3 ed e2 3b 58 79 ff bd
       -0.03162235 0.080572926 0.0069253235 -0.12474316
000020 7f 10 49 3c 9f 18 60 bd 3f 34 c7 bd d4 35 fb 3d
       0.012271999 -0.05471098 -0.09726762 0.12266126
000030 35 51 9a bd ae 9a 0c 3b 53 22 b5 bc d6 8f 63 3e
       -0.0753502 0.00214545 -0.022111094 0.22222838
000040 1b 43 e6 3d 9e a1 80 3d 67 89 cd 3d 7a 7e eb 3c
       0.11243268 0.06280826 0.10035973 0.028746832
000050 6a dd 56 bc ed 52 a3 3c 75 6c 8d 3b 5f 4e 39 bd
       -0.013114313 0.019937003 0.0043159076 -0.045240756
000060 5a e8 51 bd 8f cb 2b 3c c7 63 75 bd f6 40 a8 3d
       -0.05124698 0.010485544 -0.05990961 0.08215515
000070 b8 b7 80 bc 8a 94 82 3d f3 74 fd 3c ed 81 ae bd
       -0.015712604 0.06375988 0.030939555 -0.08520875
000080 62 f6 8d 3c 15 44 15 3b 35 97 21 be d0 51 d0 3c
       0.017329399 0.0022776176 -0.15780337 0.025429636
000090 a4 2d e7 bd ea 85 85 3d 7b 5f 83 bd 3b 7e 8d bb
       -0.11288002 0.06519683 -0.06414696 -0.0043180264
0000a0 e6 a0 b1 3b 7b ea f2 bb 82 bf 91 3d 81 96 91 3d
       0.005420792 -0.007413206 0.07116605 0.071087845
0000b0 8b 80 9f bc 04 42 ed 3c e9 07 87 3d 7e 33 d1 bc
       -0.019470474 0.028962143 0.065933056 -0.025537249
0000c0 19 6f cf 3b 06 a2 44 bd c9 10 f4 bd e7 92 43 bd
       0.0063303825 -0.04800608 -0.11917264 -0.04774752
0000d0 eb 56 70 bd b3 27 7c 3d 4c 21 d7 3d f7 f5 b0 bd
       -0.05867664 0.061561298 0.10504398 -0.08640664
0000e0 64 df 39 be 1a d4 10 bd 23 44 30 3d 4c e5 e1 3c
       -0.18151623 -0.035358526 0.04303373 0.027575158
0000f0 67 ea 32 3d c1 40 2b 3c 62 76 ad bd d9 bd ad 3c
       0.043680575 0.01045245 -0.08469845 0.02120869
000100 80 28 9b bd 4e 53 18 bc 95 da b0 bc fc ba 2d bd
       -0.07576084 -0.009297205 -0.021588603 -0.04241465
000110 90 24 68 bc af 67 f8 3d 9e 51 39 3d b3 4a 8c bd
       -0.014168873 0.12129151 0.04524385 -0.06850185
000120 83 e3 9b 3d 5e f6 b8 3d ff a0 9e bd 6d 8c b6 bd
       0.07611754 0.09031366 -0.07745551 -0.08913503
000130 29 9f c1 bd 05 cb bb 3c 04 5a 26 bd 3f 24 70 3d
       -0.094541855 0.022923956 -0.04061319 0.058628317
000140 d4 18 92 3d 69 b7 a0 bb 4e 64 15 3d fb 6c e5 bb
       0.07133642 -0.0049046767 0.03647261 -0.007001517
000150 ec 0a 91 3d 4a 21 e4 3d 58 ef a0 3c 78 07 c2 3d
       0.07082161 0.11139162 0.019645378 0.09474081
000160 07 78 b1 bd 66 84 2e 3d 1d c7 a9 bc c1 02 12 3c
       -0.086654715 0.042606734 -0.020724827 0.008911789
000170 a0 95 0c bd db 0f d9 bd 6a 54 9d 3d f8 e1 9b 3d
       -0.03432238 -0.10598727 0.07682116 0.076114595
000180 67 ff 76 3d 32 36 d9 3a 74 1d b2 bd 10 f9 5a bd
       0.060302164 0.0016571938 -0.08697024 -0.05346018
