model/1721473270_model-aapl.pth (torch, 174356 bytes, 5 tensors)

lstm.weight_ih_l0 f4 [400, 5]
0	0xbdceb739	-0.10093541
1	0xbe4f7d1a	-0.20262566
2	0xbe042e4b	-0.12908284
3	0xbe278b1a	-0.16361657
4	0xbe0c150a	-0.13679901
5	0xbdc8b70c	-0.098005384
6	0xbd86caea	-0.065816715
7	0xbded2ba1	-0.11580587
8	0x3c8966f4	0.016772725
9	0xba95d138	-0.001143015
10	0xbe5b9980	-0.21445274
11	0xbdd77323	-0.105200075
12	0xbd9b7f40	-0.075926304
13	0xbe6e1120	-0.2324872
14	0x3c302683	0.010751369
15	0xbda39590	-0.07987511
16	0xbb5a0c74	-0.0033271583
17	0xbc803f81	-0.015655281
18	0xbdf484d3	-0.11939397
19	0xbe51d788	-0.20492375
20	0x3cf3f4a9	0.029779749
21	0xbdf2a641	-0.11848117
22	0xbdaecf2b	-0.08535608
23	0xbd402391	-0.04690892
24	0x3d857938	0.06517261
25	0xbe8b11b5	-0.27161947
26	0xbe442775	-0.19155677
27	0xbe892bd3	-0.26791248
28	0xbe9eec6f	-0.3103976
29	0xbe134602	-0.14382175
30	0xbde263b9	-0.11054177
31	0xbc65010a	-0.0139772985
32	0xbd8741fe	-0.06604384
33	0x3d8682f2	0.065679446
34	0x3d345f10	0.04403597
35	0xbdb3cd09	-0.08779342
36	0x3d727625	0.059194703
37	0xbd7e51d3	-0.062089752
38	0x3d76cd96	0.060254656
39	0xbee14f7e	-0.4400596
40	0xbcd6bfbc	-0.026214473
41	0xbc813db6	-0.015776496
42	0xbbb57264	-0.005537318
43	0x3b8f53d3	0.0043740063
44	0x3dbb34c1	0.091409214
45	0xbe69f7ed	-0.22848482
46	0xbe1702f8	-0.14747226
47	0xbe16819c	-0.1469788
48	0xbe6935c6	-0.22774419
49	0xbe594968	-0.21219409
50	0xbdedc697	-0.11610144
51	0xbe83037b	-0.25588593
52	0xbe0ca9db	-0.1373667
53	0xbe526305	-0.20545585
54	0xbe7de6c9	-0.24795069
55	0xbcc7586f	-0.02433416
56	0xbe313046	-0.17303571
57	0xbcdbe8b8	-0.026844367
58	0x3c11dad3	0.008902269
59	0x3e0b0bd1	0.13578726
60	0xbd241011	-0.040054385
61	0x3d4e37b7	0.050346103
62	0x3c6402c2	0.013916673
63	0xbd07c14d	-0.03314333
64	0xbdc065e8	-0.09394437
65	0xbe51b441	-0.20478918
66	0xbddda6a3	-0.10822799
67	0xbe8755d9	-0.26432684
68	0xbe5a91d6	-0.21344694
69	0xbe9be55d	-0.30448428
70	0x3cef1b47	0.029187812
71	0xbe27cbfb	-0.16386406
72	0xbd9c0854	-0.07618776
73	0xbdba8b42	-0.091085926
74	0x3d145d0b	0.036221545
75	0xbdb9d3b2	-0.09073581
76	0xbe636102	-0.22204974
77	0xbe2c97d8	-0.16854799
78	0xbe4cfff0	-0.20019507
79	0xbeefdecd	-0.4684967
80	0xbb5e303d	-0.0033903264
81	0xbe3f64dd	-0.1869082
82	0xbdcc8dd9	-0.09987993
83	0xbd1a90d9	-0.037735794
84	0xbe332839	-0.17495812
85	0xbdd91920	-0.10600495
86	0xbd8aa9f1	-0.06770695
87	0xbc5861b3	-0.013206887
88	0xbc042f15	-0.008067866
89	0xbd810b9f	-0.06301045
90	0xbe092e95	-0.13396676
91	0xbe1e0771	-0.15432526
92	0xbe03e792	-0.12881306
93	0xbd968c1c	-0.073509425
94	0x3eb17401	0.34658816
95	0xbda059a4	-0.078295976
96	0xbda1856e	-0.07886778
97	0xbe15b8fe	-0.1462135
98	0xbcd72487	-0.026262535
99	0xbcef0509	-0.029177206
100	0xbe8392b3	-0.2569786
101	0xbe3eac4b	-0.18620412
102	0xbdefdedc	-0.11712429
103	0xbe679fd3	-0.22619562
104	0xbe28274e	-0.16421244
105	0xbdd2a5f4	-0.10285559
106	0xbd2eff9b	-0.042724233
107	0xbd6eb922	-0.058282025
108	0xbe07f6d3	-0.1327775
109	0xbebcdbc3	-0.36886415
110	0x3de8b8d4	0.11363378
111	0x3d80ed4c	0.06295261
112	0x3dc51d26	0.096247
113	0xbdaf6bd5	-0.08565489
114	0xbf7f5bec	-0.99749637
115	0x3c787774	0.015165199
116	0xbe050630	-0.12990642
117	0xbe0f5abe	-0.13999459
118	0xbcbe08cc	-0.023197554
119	0x3e5b0288	0.21387684
120	0xbdb6be55	-0.08923022
121	0xbdb714e6	-0.08939533
122	0x3dbf26f9	0.09333605
123	0x3cf0a6ba	0.029376376
124	0xbebf498d	-0.37360802
125	0xbe82b4d3	-0.25528583
126	0xbe302405	-0.1720124
127	0xbe80b583	-0.25138482
128	0xbe23147f	-0.15925787
129	0xbe93171e	-0.28728575
130	0xbe0e0818	-0.13870275
131	0xbe144a49	-0.14481463
132	0xbdcc15e2	-0.09965111
133	0xbe4b115d	-0.19830842
134	0xc0022c94	-2.0339708
135	0xbe0c59e2	-0.13706163
136	0xbdc8b476	-0.09800045
137	0xbd9a44da	-0.07532664
138	0xbe3522ab	-0.17689006
139	0xbddf029a	-0.10889168
140	0x3c940835	0.01807032
141	0xbe2005f8	-0.15627277
142	0x3d01d94c	0.03170137
143	0x3c118332	0.008881377
144	0x3e08aebb	0.13347904
145	0xbe00f0fd	-0.1259193
146	0xbdeb8525	-0.11500005
147	0x3d02341e	0.031787984
148	0xbdd08e54	-0.10183397
149	0xbdf2ce6a	-0.118557766
150	0xbe4ef4eb	-0.20210616
151	0xbd8c3ebc	-0.06847903
152	0xbd646f50	-0.05577022
153	0xbdc8ad84	-0.097987205
154	0xbec81289	-0.3907664
155	0xbd715559	-0.058919284
156	0xbe0217d6	-0.12704405
157	0xbe109dfc	-0.14122766
158	0xbd40f9a0	-0.04711306
159	0xbbf57ea9	-0.0074919057
160	0xbe4a7d76	-0.19774422
161	0xbdd93bb9	-0.10607094
162	0xbe6ca3d7	-0.23109375
163	0xbe3f88a0	-0.18704462
164	0xbf37b8e8	-0.7176652
165	0xbdf17440	-0.11789751
166	0xbe315b75	-0.17320044
167	0xbe216d72	-0.15764406
168	0xbd9e694d	-0.07734928
169	0xbe3459b5	-0.17612346
170	0xbe00817e	-0.12549397
171	0xbcf9c0f6	-0.030487519
172	0xbcef314b	-0.02919831
173	0xbd196b19	-0.037455652
174	0x3cc26c09	0.023733156
175	0xbe50ac63	-0.2037826
176	0xbe7f9299	-0.24958266
177	0xbe78fcd2	-0.24315193
178	0xbe7a0fef	-0.2442014
179	0xbe490681	-0.19631387
180	0xbe81b6c0	-0.2533474
181	0xbda683b9	-0.08130593
182	0xbd8aeb86	-0.06783204
183	0xbe7a8c9a	-0.24467698
184	0xbe85d163	-0.26136312
185	0xbe1ac677	-0.15114771
186	0xbe80baea	-0.25142604
187	0xbe22f0a1	-0.15912105
188	0xbe0354dc	-0.1282534
189	0xbe935c94	-0.2878157
190	0x3d122062	0.035675414
191	0x3dbd6ab1	0.092488654
192	0xbdbdbea7	-0.0926488
193	0xbda24606	-0.07923512
194	0xbeb7cf44	-0.3590032
195	0xbe0b26bf	-0.13588999
196	0xbe34fd60	-0.1767478
197	0xbe140d3b	-0.14458172
198	0xbdd594e2	-0.10428788
199	0xbcf6f209	-0.030144708
200	0xbe540791	-0.20706011
201	0xbe845bed	-0.25851384
202	0xbe26e935	-0.16299899
203	0xbe449cfa	-0.19200507
204	0xbd84863f	-0.06470918
205	0xbc554b2a	-0.013018409
206	0xbe08b768	-0.13351214
207	0xbdfae7b0	-0.12251222
208	0xbc0121d0	-0.007881597
209	0xbdba25c5	-0.09089235
210	0xbdf21b32	-0.11821593
211	0x3d45c6af	0.048285183
212	0x3b5aa673	0.0033363372
213	0xbc0e87f0	-0.008699402
214	0xbd05a8ea	-0.032631792
215	0xbe2a4b2b	-0.16630237
216	0xbe2a5f46	-0.16637906
217	0xbe087f65	-0.13329847
218	0xbdd0fa7d	-0.10204027
219	0xbe36bf05	-0.17846306
220	0xbe47b30b	-0.19501893
221	0xbde01757	-0.10941952
222	0xbe0bb1a1	-0.13641979
223	0xbd44ba9a	-0.04802952
224	0xbf2d0179	-0.6758037
225	0xbc0fe81a	-0.008783365
226	0xbdb3e105	-0.087831534
227	0xbd69e16a	-0.057099737
228	0x3c86e68a	0.016467351
229	0xbf06abfa	-0.52606165
230	0xbe2afa26	-0.16696987
231	0xbd6efb33	-0.05834503
232	0xbdde7d2e	-0.1086372
233	0xbd7dfc3c	-0.062008128
234	0xbe0d9225	-0.13825281
235	0xbd392c06	-0.045208
236	0xbcebe1c2	-0.028794173
237	0xbdd5951c	-0.10428831
238	0xbe636eae	-0.2221019
239	0xbe1806d6	-0.14846358
240	0x3d8774ac	0.0661405
241	0xbc900d19	-0.01758437
242	0xbdb1e3eb	-0.0868605
243	0xbd6dfdd9	-0.058103416
244	0x3d3b081a	0.045662023
245	0xbd9e9e90	-0.07745087
246	0xbe352f58	-0.17693841
247	0xbd2ee0ba	-0.042694785
248	0xbd6820fe	-0.05667209
249	0xbe4fd3ce	-0.20295641
250	0x3e0ea56d	0.13930292
251	0x3cb57454	0.022150196
252	0xbc814a06	-0.015782367
253	0x3cd36b43	0.025807982
254	0xbefa78e7	-0.48920366
255	0xbd44fa95	-0.048090536

lstm.weight_hh_l0 f4 [400, 100]
0	0x3e1e6b33	0.15470581
1	0xbbd82e86	-0.006597343
2	0xbdfcea63	-0.12349393
3	0x3db72275	0.08942119
4	0xbe1cecab	-0.15324657
5	0x3dedd326	0.11612539
6	0xbd515ac9	-0.05111197
7	0x3dd8fbf2	0.1059493
8	0xbd8c39dc	-0.06846973
9	0x3dd227ab	0.10261472
10	0xbce10a75	-0.027470807
11	0x3d918244	0.07104924
12	0xbb59207c	-0.0033130934
13	0xbda679e1	-0.08128715
14	0xbde07350	-0.10959494
15	0xbd3d3234	-0.046190456
16	0x3d01a3b7	0.03165027
17	0x3eaab541	0.3334141
18	0x3e251e2c	0.16124791
19	0xbddbda29	-0.1073497
20	0x3d95c8a9	0.073136635
21	0x3d40aed1	0.047041718
22	0x3cdf688e	0.027271535
23	0xbe2b9ab7	-0.16758238
24	0x3e6adf80	0.22936821
25	0x3d8f8dc2	0.0700946
26	0x3df0bbe9	0.11754591
27	0xbd770602	-0.060308464
28	0xbe022a0e	-0.12711355
29	0x3d095923	0.033532273
30	0x3d491075	0.04908796
31	0x3db996a1	0.09061933
32	0x3da885af	0.08228623
33	0xbd54361c	-0.051809415
34	0x3e2e2d69	0.1700951
35	0x3d74cba1	0.05976451
36	0x3dd9b462	0.106301084
37	0xbc90f33a	-0.017694104
38	0xbd770f55	-0.060317356
39	0x3c8714cd	0.01648941
40	0x3daf64e0	0.08564162
41	0xbca19ef9	-0.019729124
42	0xbb7da0a4	-0.0038700486
43	0x3e031fb1	0.12805058
44	0xbe06ed9a	-0.13176575
45	0x3e321c16	0.17393526
46	0x3cede6a3	0.02904064
47	0x3d57dcc0	0.052700758
48	0x3e4383d2	0.19093254
49	0xbd992d76	-0.07479374
50	0x3eba13ce	0.36343235
51	0xbdc83104	-0.09774974
52	0x3c0c3824	0.008558307
53	0x3e289be2	0.16465715
54	0xbe6bb40a	-0.23017898
55	0xbd7eb614	-0.062185362
56	0xbdb4f186	-0.088351294
57	0x3d89169c	0.066937655
58	0x3cfcb5fe	0.0308485
59	0xbd9c123f	-0.07620668
60	0xbda6ba0b	-0.08140954
61	0x3e131d93	0.1436675
62	0xbe7d6cdb	-0.24748556
63	0x3d523c23	0.051326882
64	0x3e42ee42	0.190362
65	0xbe0743f9	-0.13209523
66	0x3d291b7e	0.041285984
67	0x3d83df34	0.06439057
68	0x3e7ffeb9	0.24999513
69	0x3c4e0ed0	0.012576774
70	0xbe758beb	-0.23979156
71	0x3cf9d07e	0.030494925
72	0x3d722ad4	0.059122875
73	0xbe2d13dd	-0.16902108
74	0x3c260474	0.010132898
75	0x3da1c358	0.07898587
76	0xbdec3624	-0.11533764
77	0x3e595af9	0.2122611
78	0xbdc4fc96	-0.096184894
79	0xbba17eb4	-0.0049284343
80	0xbe71f210	-0.23627496
81	0xbdd37451	-0.1032492
82	0x3d8492ca	0.0647331
83	0x3dd3ab7d	0.10335443
84	0x3ea557f7	0.32293674
85	0x3d46ff68	0.048583418
86	0x3de4d703	0.11173823
87	0xbe1d4efc	-0.15362161
88	0xbdfaa046	-0.12237601
89	0x3d2c9550	0.042134583
90	0xbe9ff08e	-0.31238216
91	0xbe76c065	-0.2409683
92	0xbdba956e	-0.09110533
93	0xbd6f0bae	-0.058360748
94	0x3d92e595	0.071726955
95	0xbe0c583c	-0.13705534
96	0xbdee8c41	-0.11647845
97	0xbd2fdcb8	-0.042935103
98	0xbe0ab34c	-0.13544959
99	0xbdae716b	-0.085177265
100	0xbda581b5	-0.0808138
101	0x3d307959	0.043084476
102	0xbd29e9e7	-0.041482832
103	0xbcb62990	-0.022236615
104	0xbdde7be4	-0.10863474
105	0x3dc4845a	0.095955566
106	0xbe169505	-0.14705284
107	0x3dc95624	0.09830883
108	0xbd977260	-0.07394862
109	0x3de618a9	0.11235172
110	0x3d6e73e2	0.058215983
111	0xbdab5834	-0.08366433
112	0x3d5b53ec	0.05354683
113	0x3c47c48b	0.012192856
114	0xbc006f0b	-0.007838975
115	0xbd38a066	-0.045074843
116	0x3dd2d11f	0.10293793
117	0xbdcec73d	-0.100965954
118	0xbdaf76ac	-0.08567557
119	0xbc431de6	-0.011908984
120	0x3e0ab6a3	0.13546233
121	0xbbeb5219	-0.0071814177
122	0xbee0b2ea	-0.438865
123	0x3d3cfa60	0.046137214
124	0x3dbbd7d1	0.09172023
125	0x3d899a76	0.06718914
126	0xbcc54920	-0.02408272
127	0xbd5bb97e	-0.053643696
128	0x3cc92668	0.024554446
129	0x3d80eb59	0.06294889
130	0x3d1bdc93	0.038052153
131	0xbc8cdb64	-0.017194457
132	0xbb7ac4e1	-0.0038264322
133	0xbc2f04f9	-0.010682338
134	0x3dc97840	0.09837389
135	0x3e04f8f3	0.12985592
136	0xbce9d314	-0.028543033
137	0xbce5e7a1	-0.02806455
138	0xbe006014	-0.12536651
139	0xbda933f2	-0.08261861
140	0x3d27f2b9	0.041002963
141	0xbd2b9b32	-0.041896053
142	0x3dc2688e	0.094925985
143	0xbda3e2b9	-0.08002228
144	0x3d8541d7	0.065066986
145	0xbad4c378	-0.0016232571
146	0x3e093b54	0.13401538
147	0x3bd477f9	0.0064840284
148	0x3d0bbd0e	0.034115843
149	0xbd5cc2d2	-0.053896733
150	0xbcf6ef85	-0.030143509
151	0xbdf4db15	-0.11955849
152	0x3e0b6fd4	0.13616878
153	0xbde2c3e6	-0.11072521
154	0x3bdd1994	0.006747434
155	0x3dfdcc8d	0.123925306
156	0x3ddbfe0f	0.10741817
157	0x3c8ca3f2	0.017168019
158	0x3dc53c5e	0.09630655
159	0xbe069c4b	-0.13145559
160	0x3d051a21	0.03249562
161	0xbda0bbbb	-0.07848307
162	0x3e0fddaf	0.1404941
163	0x3d9e6a75	0.07735149
164	0x3d025234	0.031816676
165	0xbda89475	-0.08231441
166	0x3dc4d11b	0.09610196
167	0x3e0f50fc	0.13995737
168	0x3aa4e607	0.001258076
169	0xbb8feec3	-0.0043924763
170	0x3d759b60	0.05996263
171	0xbd9100d1	-0.07080234
172	0x3d9f38e6	0.077745244
173	0xbd31c9d2	-0.04340536
174	0x3e35311f	0.1769452
175	0xbd457282	-0.048204906
176	0x3cc72f64	0.02431459
177	0xb9bfcb68	-0.00036581908
178	0xbcf8a9eb	-0.03035446
179	0xbe01aa56	-0.12662634
180	0xbd8ec2c0	-0.06970739
181	0x3d658333	0.056033324
182	0xbd4bf7dc	-0.049796924
183	0x3d9c5bc1	0.07634688
184	0xbda639c6	-0.08116488
185	0x3dbaa82c	0.091141075
186	0x3c6d6142	0.01448852
187	0x3de98f0c	0.11404237
188	0x39e65be9	0.00043937497
189	0xbcd23d06	-0.025663864
190	0x3e216423	0.15760855
191	0xbd34c203	-0.044130336
192	0x3c664fa7	0.014057077
193	0xbd987d38	-0.074457586
194	0xbe34f7b7	-0.1767262
195	0xbc85f774	-0.016353346
196	0xbd38c987	-0.045114066
197	0xbde81e8a	-0.1133395
198	0xbde22e75	-0.11044017
199	0xbd54b421	-0.051929597
200	0x3da22f1c	0.07919142
201	0x3ac3a0cc	0.001492524
202	0x3b8c2987	0.0042774114
203	0x3e87cd5d	0.26523867
204	0xbdfc8ed5	-0.123319305
205	0xbccaf409	-0.024774568
206	0xbd21ba15	-0.039484102
207	0x3d1f32f7	0.038866963
208	0xbdeec1eb	-0.11658081
209	0x3e0cee70	0.13762832
210	0x3e0ecc40	0.13945103
211	0x3d7df2c6	0.061999105
212	0xbda1977e	-0.07890223
213	0xbb4b65d7	-0.0031036043
214	0xbe08a608	-0.13344586
215	0x3baf7768	0.0053548105
216	0xbc03afc3	-0.00803751
217	0xbdd1db8a	-0.10246952
218	0x3e5b8a26	0.21439418
219	0xbd439e10	-0.047758162
220	0x3d5d67a3	0.054053914
221	0x3cc05969	0.023480134
222	0x3e88534b	0.26626047
223	0xbd8a5558	-0.06754559
224	0x3dbfe36a	0.09369548
225	0x3ce6b5a0	0.028162777
226	0x3df91168	0.12161523
227	0x3dbebe17	0.093136005
228	0xbde8cc2b	-0.11367067
229	0xbd848d9a	-0.06472321
230	0x3d766d98	0.06016311
231	0x3d8b1364	0.06790808
232	0x3dd8f349	0.10593278
233	0xbc361e96	-0.011115691
234	0x3d83c8eb	0.064348064
235	0x3c9ca921	0.019123616
236	0x3de658f1	0.11247433
237	0xbd62005a	-0.055176117
238	0xbd6e342d	-0.058155227
239	0x3d826e54	0.063687
240	0xbd09eac5	-0.03367116
241	0xbe5802d0	-0.21094823
242	0x3c1693ef	0.009190544
243	0x3d8f808b	0.070069395
244	0xbdbd9407	-0.092567496
245	0x3ddff700	0.109357834
246	0xbe090267	-0.13379823
247	0xbd103747	-0.035208967
248	0x3de57c4b	0.112053476
249	0xbe24379e	-0.16036841
250	0xbe1d4611	-0.1535876
251	0xbd92b318	-0.07163066
252	0x3e295931	0.1653793
253	0xbd1286e1	-0.03577316
254	0xbd58acbc	-0.052899107
255	0xbde6ef6f	-0.11276137

lstm.bias_ih_l0 f4 [400]
0	0xbe37bb38	-0.17942512
1	0xbdad4b49	-0.08461625
2	0xbdf22ead	-0.11825309
3	0xbe0603a7	-0.13087331
4	0xbdd04f2a	-0.10171349
5	0xbe153d81	-0.14574243
6	0x3d10827e	0.035280697
7	0xbd037d38	-0.03210184
8	0xbdf67bc5	-0.12035326
9	0xbe2d95c7	-0.16951667
10	0xbe5c04de	-0.21486232
11	0xbd6386b5	-0.05554839
12	0x3ceb55d4	0.02872745
13	0xbdff90b3	-0.12478771
14	0xbd36ca44	-0.04462649
15	0xbe4af12d	-0.19818564
16	0xbc732ba8	-0.014841951
17	0xbcb67444	-0.022272237
18	0xbd875ce5	-0.06609515
19	0xbc9e00ce	-0.019287493
20	0xbe5d2933	-0.21597748
21	0xbda07ce1	-0.07836319
22	0x3d1c23ba	0.03812001
23	0x3c4ba357	0.01242908
24	0xbd32fa50	-0.043695748
25	0xbe25fdb2	-0.16210058
26	0x3e292437	0.16517721
27	0xbdc45e7c	-0.09588334
28	0xbd03547f	-0.032063004
29	0xbdde7923	-0.10862949
30	0xbe1e6c3c	-0.15470976
31	0xbdbdee0a	-0.09273918
32	0xbda6273e	-0.081129536
33	0xbd1f56a2	-0.03890098
34	0xbde3dcae	-0.11126076
35	0xbe0c6815	-0.13711579
36	0xbe99b830	-0.30023336
37	0xbdbc157c	-0.09183785
38	0xbe3ae5db	-0.18251745
39	0xbe2393d0	-0.15974355
40	0xbda3478a	-0.07972629
41	0xbdb725c4	-0.0894275
42	0xbd94b354	-0.072607666
43	0xbd592c62	-0.053020842
44	0xbdebbc10	-0.115104795
45	0xbcf083a4	-0.029359646
46	0xbd13f2f1	-0.03612036
47	0xbdb1b7df	-0.08677649
48	0x3c9b549a	0.01896124
49	0xbd86231a	-0.06549664
50	0xbe300f5b	-0.17193358
51	0xbe06deab	-0.13170879
52	0xbe0aeff3	-0.13568096
53	0xbe31aaa8	-0.17350256
54	0x3d380d92	0.044934817
55	0xbe1d4678	-0.15358913
56	0xbce4b525	-0.027918408
57	0xbc9d4949	-0.019199984
58	0xbd8327e6	-0.064040944
59	0xbda98c6e	-0.08278738
60	0xbdf9831c	-0.1218321
61	0x3bf5ecaf	0.0075050215
62	0xbe3ebf15	-0.1862758
63	0xbe0192e0	-0.12653685
64	0xbddb21ba	-0.10699792
65	0x3d65813a	0.056031443
66	0xbdc2dfa1	-0.0951531
67	0xbe3c57bb	-0.18392842
68	0x3d7a1a48	0.06106022
69	0x3c6b2cdd	0.014353958
70	0xbdc67176	-0.0968961
71	0xbe082a2e	-0.1329734
72	0xbe0818f3	-0.13290767
73	0xbda6d5be	-0.08146237
74	0xbd2047d8	-0.039131016
75	0xbe10b81d	-0.14132734
76	0xbe177377	-0.1479014
77	0x3d4a98c3	0.04946209
78	0xbdd6cc98	-0.10488242
79	0xbdf2e039	-0.11859173
80	0xbdafb0bd	-0.08578632
81	0xbcbeed15	-0.023306409
82	0xbd34023b	-0.04394744
83	0x3d8bc791	0.06825174
84	0xbd470f97	-0.048598852
85	0x3c5cb6a2	0.013471277
86	0x3d08c6d0	0.033392727
87	0x3d95a165	0.07306174
88	0x3cb52992	0.022114549
89	0xbdb289b5	-0.08717672
90	0xbe46670a	-0.19375244
91	0xbd829008	-0.06375128
92	0xbe40794c	-0.18796271
93	0xbe3b1616	-0.18270144
94	0xbd9043b6	-0.07044165
95	0xbe6ce842	-0.23135474
96	0x3cd39d0b	0.02583172
97	0xbe24ae2e	-0.1608207
98	0xbdb77d0d	-0.089593984
99	0x3d8bba97	0.068226986
100	0xbe1e8cec	-0.15483445
101	0xbc4ef998	-0.01263275
102	0xbda0f13f	-0.07858514
103	0xbe10cdde	-0.14141032
104	0x3aae9407	0.0013319262
105	0xbcdffee6	-0.027343225
106	0xbd55e9ac	-0.0522248
107	0xbe15d1ed	-0.14630862
108	0x3d5ea70b	0.054358523
109	0xbe11c32c	-0.14234608
110	0xbd909f2b	-0.07061609
111	0x3d9a393e	0.07530449
112	0x3d56d73e	0.052451365
113	0xbe35cdcb	-0.17754285
114	0x3d769705	0.060202617
115	0xbe3a9f21	-0.18224765
116	0xbe336542	-0.17519096
117	0xbe3c7a3a	-0.18406
118	0xba66235f	-0.00087790744
119	0xbd29e46b	-0.041477602
120	0xbe3e3ff8	-0.1857909
121	0xbe4078a5	-0.18796022
122	0xbeb3812b	-0.35059485
123	0xbd4adf61	-0.049529437
124	0x3d0532ac	0.032519028
125	0xbd19a7e4	-0.03751363
126	0xbc5e1801	-0.013555528
127	0xbe2bd0ba	-0.16778842
128	0xbdbd3b87	-0.092398696
129	0x3b77e134	0.003782344
130	0xbc08d76b	-0.008352141
131	0xbdbb2434	-0.091377646
132	0xbdeaacf4	-0.114587694
133	0xbdc63793	-0.09678569
134	0xbe0b8509	-0.13624968
135	0xbd796dc9	-0.060895715
136	0xbea47349	-0.32119206
137	0xbe106bf2	-0.14103678
138	0xbe5d72fb	-0.21625893
139	0xbe87036f	-0.26369807
140	0xbd7dcad6	-0.061961018
141	0xbda2532b	-0.07926019
142	0x3cd87915	0.026424924
143	0xbbc0d7ce	-0.005885101
144	0xbe64a105	-0.22327049
145	0xbe5df280	-0.21674538
146	0xbd04662e	-0.03232401
147	0xbe249d3a	-0.16075602
148	0x3d6a4c31	0.057201568
149	0xbe2a8547	-0.16652404
150	0xbcf39a59	-0.029736685
151	0x3d26c5dd	0.04071604
152	0xbdd4fc98	-0.10399741
153	0xbe0be3ec	-0.13661164
154	0xbd95755d	-0.07297776
155	0xbe32e9cb	-0.17471997
156	0xbde93e0b	-0.11388787
157	0xbc031793	-0.008001226
158	0xbdddbdf4	-0.10827246
159	0xbe4491b4	-0.19196206
160	0xbd99b2d5	-0.07504813
161	0xbe12b6cb	-0.14327542
162	0xbe3b6aa8	-0.18302405
163	0xbdaac969	-0.08339197
164	0xbe026a3c	-0.12735838
165	0xbc1f58bb	-0.009725745
166	0xbd0672a5	-0.032824177
167	0xbe491038	-0.19635093
168	0xbdc079e1	-0.093982466
169	0xbe2461b9	-0.16052903
170	0xbdb2267f	-0.08698749
171	0xbd3e2074	-0.04641767
172	0xbc45fc1c	-0.012084033
173	0xbd06bd6b	-0.032895487
174	0xbda8fa93	-0.08250918
175	0x3decdbcb	0.1156536
176	0xbe0a95b9	-0.13533677
177	0xbda0f09b	-0.07858392
178	0xbe6f5927	-0.23373853
179	0xbe16aaf8	-0.14713657
180	0x3d2b931b	0.041888338
181	0xbdb5f9d7	-0.08885544
182	0xbda84c3c	-0.082176656
183	0xbc90ad78	-0.017660841
184	0xbe046c8d	-0.12932034
185	0x3dbe3886	0.09288125
186	0x3dcfb73f	0.10142373
187	0xbe01c5b2	-0.12673071
188	0x3d711081	0.05885363
189	0xbdf5fa9f	-0.12010693
190	0xbe473c27	-0.1945654
191	0xbdeb3eb7	-0.11486571
192	0xbe3346d3	-0.17507486
193	0xbde032f8	-0.109472215
194	0xbde4487c	-0.11146638
195	0xbe4b8a14	-0.19876891
196	0xbda36c06	-0.07979588
197	0xbd011dda	-0.03152261
198	0x3cbbd74a	0.022929806
199	0x3d8fa124	0.07013157
200	0xbaa33e8c	-0.0012454554
201	0x3cadd955	0.021221796
202	0xbc209acd	-0.009802532
203	0xbd0aedb9	-0.033918116
204	0x3d5c2114	0.053742483
205	0x3d50700c	0.050888106
206	0x3d76344f	0.06010848
207	0x3c378262	0.011200519
208	0x3d24b32a	0.040209927
209	0xbdbb76dc	-0.0915353
210	0xbd292c65	-0.041302104
211	0x3c7d2096	0.015449664
212	0x3d4d7cb6	0.05016776
213	0xbd473488	-0.048634082
214	0xbcac9d78	-0.02107118
215	0xbd3bd032	-0.045852847
216	0x3ddb3f9e	0.107054934
217	0x3d21c988	0.039498836
218	0xbd81a098	-0.06329459
219	0x3cc7c6f2	0.024386857
220	0xbd0c16fd	-0.03420161
221	0xbd8b1504	-0.06791118
222	0x3d4e603f	0.050384756
223	0x3cada91f	0.021198807
224	0xbc2d7b55	-0.010588487
225	0x3cf08363	0.029359525
226	0xbbd7565e	-0.006571575
227	0x3c2c62bb	0.010521586
228	0x3dbaea94	0.091267735
229	0xbda696cd	-0.08134232
230	0x3b8dffc0	0.0043334663
231	0xbd8eb0d5	-0.06967322
232	0xbdccde16	-0.10003297
233	0x3cdbde33	0.026839351
234	0x3cc9e25c	0.02464407
235	0xba25f95f	-0.00063314097
236	0x3c938bc6	0.018010985
237	0xbbdc1ede	-0.006717547
238	0x3ce9391e	0.028469618
239	0x3db8677b	0.09004112
240	0xbd25f819	-0.040519807
241	0xbd970695	-0.07374302
242	0x3d143460	0.03618276
243	0xbd147946	-0.036248468
244	0xbcd69e57	-0.02619855
245	0x3cb003b1	0.021486135
246	0x3caf04f6	0.02136467
247	0x3d10f7ea	0.03539268
248	0xbd62141b	-0.055194955
249	0x3cf8d1ec	0.030373536
250	0xbc56bfae	-0.013107223
251	0xbb012c90	-0.00197104
252	0xbd50eb23	-0.051005494
253	0xb9ca6cad	-0.00038609412
254	0x3dcecee8	0.10098058
255	0x3d3f63fe	0.04672622

lstm.bias_hh_l0 f4 [400]
0	0xbda05acd	-0.07829819
1	0xbcce0802	-0.025150303
2	0xbd58fff9	-0.05297849
3	0x3b319d6a	0.0027101883
4	0xbc3a4e6f	-0.011371239
5	0xbe1b7f53	-0.15185289
6	0xbdb821b7	-0.089908056
7	0x3d689a04	0.056787506
8	0xbbc5ef23	-0.00604047
9	0xbe4f8d2d	-0.20268698
10	0xbe6aa644	-0.22914988
11	0xbdbc3f06	-0.09191708
12	0xbc2010eb	-0.009769659
13	0xbe5a9bbe	-0.21348473
14	0xbdad6bc6	-0.08467822
15	0xbdf0ca34	-0.11757317
16	0xbd970019	-0.073730655
17	0x3b34a790	0.0027565695
18	0x3c97771a	0.01848941
19	0xbd9cb261	-0.076512106
20	0xbe8775b2	-0.26456982
21	0xbddc1185	-0.10745529
22	0x3e13e409	0.14442457
23	0xbd437cd2	-0.04772646
24	0x3d8d613d	0.06903312
25	0xbd941167	-0.07229882
26	0x3cacfbaa	0.021116097
27	0xbddaa9c9	-0.10676915
28	0x3d2e92e3	0.04262055
29	0xbd0fa52b	-0.035069626
30	0xbe5bca62	-0.21463922
31	0xbcd74ef2	-0.026282761
32	0xbdd99b4a	-0.10625322
33	0xbdb0b541	-0.086283214
34	0xbdf17416	-0.1178972
35	0xbc4ad188	-0.012379058
36	0xbe8256cd	-0.2545685
37	0xbdc7f822	-0.097641245
38	0xbe872f47	-0.26403257
39	0xbe5e1583	-0.21687894
40	0xbd602d85	-0.05473091
41	0xbe0d4211	-0.13794734
42	0xbd75a482	-0.05997134
43	0xbdf3bde0	-0.1190145
44	0xbde6de94	-0.11272922
45	0x3d11e91b	0.035622697
46	0xbc8d9227	-0.017281605
47	0xbdc77993	-0.09739985
48	0xbce7263a	-0.02821647
49	0xbdd2dad0	-0.102956414
50	0xbe3a244f	-0.18177913
51	0xbb82ae94	-0.0039880965
52	0xbd26bab6	-0.040705405
53	0xbd3b92c0	-0.04579425
54	0x3c5a6889	0.013330587
55	0x3babdbb0	0.0052446947
56	0xbd13b5c7	-0.03606203
57	0xbd064b02	-0.032786377
58	0xbe078cec	-0.13237351
59	0xbe36477a	-0.17800704
60	0xbcc4785d	-0.023983175
61	0x3cb6aa5c	0.02229803
62	0xbce5edcb	-0.02806749
63	0xbc3a688b	-0.011377464
64	0xbe3b6a7e	-0.18302342
65	0xbc709f50	-0.014686421
66	0xbc7891aa	-0.015171448
67	0xbe1c8808	-0.15286267
68	0x3d961f8a	0.07330234
69	0x3da431d5	0.08017317
70	0xbe4d9ec2	-0.20080093
71	0xbdd3f613	-0.10349669
72	0xbda91238	-0.08255428
73	0xbd61b070	-0.055099905
74	0xbd98c0f7	-0.0745868
75	0xbd27be05	-0.0409527
76	0x3ce15f2a	0.027511198
77	0x3d66fd73	0.05639405
78	0xbe257cb0	-0.16160846
79	0xbd0cbcc7	-0.03435972
80	0xbdfc304a	-0.12313898
81	0xbcb45825	-0.022014687
82	0xbd6eaf2b	-0.058272522
83	0xbd57b226	-0.05266013
84	0xbd46cd0d	-0.048535395
85	0x3cafa314	0.021440066
86	0x3dc0c12b	0.09411844
87	0xbc0b9843	-0.008520189
88	0x3da4452e	0.080210075
89	0xbd94b39d	-0.07260821
90	0xbccbce07	-0.024878515
91	0xbc3fc84d	-0.01170547
92	0xbdf40774	-0.11915484
93	0xbdd64f2b	-0.10464319
94	0xbdf8e1fc	-0.12152478
95	0xbe63c726	-0.22243938
96	0xbdc09a6c	-0.09404454
97	0xbe2308c4	-0.15921313
98	0x3ab29061	0.001362335
99	0xbd64fb9d	-0.05590402
100	0xbd9609a8	-0.073260605
101	0xbd0c89c0	-0.034311056
102	0xbe5a8998	-0.2134155
103	0xbcc3cb95	-0.023900786
104	0x3d8ada25	0.06779889
105	0xbdbabcad	-0.09118018
106	0xbd4ffb99	-0.05077705
107	0x3d10b772	0.035331197
108	0xbdd50ba7	-0.10402613
109	0xbe5ea466	-0.217424
110	0xbe100557	-0.14064537
111	0xb99cc542	-0.00029901607
112	0xbb16288f	-0.0022912358
113	0xbdac1ace	-0.0840355
114	0xbca23032	-0.019798372
115	0xbd0e5d2d	-0.034756828
116	0xbd71cf82	-0.059035785
117	0xbe12a830	-0.14321971
118	0x3cace40d	0.021104837
119	0xbb35e507	-0.002775492
120	0xbe79e381	-0.24403192
121	0xbe15d9ff	-0.1463394
122	0xbed9438c	-0.42434347
123	0x3c830ba2	0.015996758
124	0xbd7f9948	-0.06240204
125	0xbd82707b	-0.0636911
126	0xbde0e6ac	-0.10981497
127	0xbd9a890f	-0.07545673
128	0xbdd169e5	-0.10225276
129	0xbd878396	-0.06616895
130	0xbd762712	-0.060095854
131	0xbdd11d38	-0.10210651
132	0xbd34a753	-0.044104885
133	0xbe32d66f	-0.17464612
134	0xbde37c58	-0.11107701
135	0xbda0cee5	-0.07851962
136	0xbe5bda40	-0.21469975
137	0xbcbc2064	-0.022964664
138	0xbe7ec1ea	-0.2487866
139	0xbe598292	-0.21241215
140	0xbe611949	-0.21982302
141	0x3d335083	0.043777954
142	0xbd1d7468	-0.03844109
143	0xbda02e00	-0.07821274
144	0xbe42ba0f	-0.19016288
145	0xbdba8ec8	-0.091092646
146	0xbdb0286d	-0.086014606
147	0xbdf23704	-0.118269
148	0x3cf291fe	0.02961063
149	0xbe32ec01	-0.17472841
150	0xbd9ea441	-0.07746173
151	0xbd94c580	-0.07264233
152	0xbe0b711f	-0.13617371
153	0xbdbedd55	-0.093195595
154	0xbc48ee60	-0.012263864
155	0xbdf742fc	-0.12073323
156	0xbcb33d66	-0.021879863
157	0xbd4745e8	-0.048650652
158	0xbe281c79	-0.16417111
159	0xbe1b7a36	-0.15183339
160	0xbd885a5f	-0.06657862
161	0xbda70650	-0.08155501
162	0xbe6ac92c	-0.22928303
163	0xbe0346d0	-0.12819982
164	0xbe0ab5e2	-0.13545945
165	0xbdb9cb5c	-0.09071991
166	0xbdcdf542	-0.10056545
167	0xbc9f61a0	-0.01945573
168	0xbc812c9e	-0.015768345
169	0xbe9bcee0	-0.3043127
170	0xbdb9c624	-0.090709955
171	0xbcbcda83	-0.023053413
172	0xbe2a8fb5	-0.16656382
173	0xbdef7ac1	-0.11693335
174	0xbddec49d	-0.10877345
175	0x3bc04eba	0.00586876
176	0xbdcb4a55	-0.09926287
177	0xbca0fd22	-0.019651953
178	0xbe30b923	-0.17258124
179	0xbe230722	-0.1592069
180	0xbe0e2b10	-0.13883615
181	0xbde7b856	-0.11314456
182	0xbe116c3e	-0.14201447
183	0x3be5f094	0.0070172045
184	0xbe506eb2	-0.20354727
185	0x3d0cdbd3	0.03438933
186	0x3c26a5c3	0.010171357
187	0xbd308ee7	-0.043105032
188	0x3d40dc63	0.047085177
189	0xbba2a83d	-0.004963903
190	0xbd814fba	-0.06314035
191	0x3c09977d	0.008397934
192	0xbe55d484	-0.2088185
193	0xbe22c147	-0.15894042
194	0xbdd62858	-0.10456914
195	0xbe2ebd1c	-0.17064327
196	0xbdc3572e	-0.095381126
197	0xbbfc978d	-0.007708496
198	0x3cd22850	0.025653988
199	0xbdbf01d4	-0.093265206
200	0x3da6e64f	0.08149397
201	0x3d3dbc5a	0.046322204
202	0x3daaba2b	0.0833629
203	0xbcbd5bdb	-0.02311509
204	0x3dc925d3	0.098216675
205	0xbdb590f3	-0.088655375
206	0x3dce97e3	0.10087564
207	0xbd896b4c	-0.067099184
208	0x3dcecfce	0.10098229
209	0x3ca31c11	0.019910844
210	0x3c804654	0.015658535
211	0xbc0f169a	-0.008733416
212	0x3d3980c6	0.045288824
213	0x3d401d9a	0.04690323
214	0x3d734190	0.059388697
215	0x3d36d176	0.04463335
216	0xbd140fdb	-0.036147933
217	0xbcbbee1e	-0.022940692
218	0x3ca611f1	0.020272227
219	0x3de66fcf	0.112517945
220	0x3d2c78eb	0.042107504
221	0x3bbb7e8f	0.005721874
222	0x3e564020	0.20922899
223	0x3dcd791d	0.10032866
224	0xbd7368e6	-0.05942621
225	0xbd6bd8cf	-0.05757981
226	0x3dbb5c3c	0.09148452
227	0xbda19370	-0.078894496
228	0x3d28a9bf	0.041177507
229	0x3dd54e41	0.104153164
230	0xbdb59a15	-0.088672794
231	0x3cbbd3c3	0.022928124
232	0xbca1dcce	-0.019758608
233	0xbcfddbab	-0.030988535
234	0xbd91e025	-0.0712283
235	0xbdc572a3	-0.09641006
236	0x3cd62be8	0.026143983
237	0x3ce231f3	0.027611708
238	0xbd68b58f	-0.056813773
239	0xbda39ae8	-0.079885304
240	0x3c87cf8c	0.016578458
241	0x3dc3969f	0.09550213
242	0xbbe5e802	-0.007016183
243	0x3c803c57	0.015653772
244	0xbb9ce65f	-0.0047882046
245	0xbde5dcaf	-0.11223733
246	0x3ba1718f	0.0049268673
247	0xbccd2341	-0.025041224
248	0xbd80b080	-0.06283665
249	0x3d274e04	0.040845886
250	0x3c51b524	0.012799535
251	0xbcf1412f	-0.029450027
252	0xbd0bbc9d	-0.034115423
253	0x3e00ce06	0.12578592
254	0x3dd9fbf4	0.10643759
255	0x3d8a038c	0.06738958

linear.weight f4 [1, 100]
0	0x3d573153	0.052537274
1	0x3e03cea4	0.12871796
2	0x3bb2dfd0	0.0054588094
3	0xbc5ead14	-0.01359107
4	0x3d07e397	0.03317603
5	0xbd9d89bc	-0.07692286
6	0x3db630ee	0.08896051
7	0xbd95f6b0	-0.073224425
8	0x3df5b109	0.119966574
9	0xbd8533a9	-0.06503994
10	0xba902d9e	-0.0010999923
11	0xbe225dcd	-0.15856095
12	0x3dcb0d50	0.099146485
13	0xbca9559e	-0.020670708
14	0x3dfedd6e	0.12444578
15	0xbd299796	-0.04140433
16	0xbe0f36b5	-0.13985713
17	0xbb31840a	-0.0027086758
18	0xbe30dd65	-0.17271955
19	0x3d975762	0.07389714
20	0xbc9a97fc	-0.0188713
21	0xbd5cc354	-0.053897217
22	0x3e9456ce	0.28972477
23	0x3dcfdb9a	0.101493075
24	0xbdc07d24	-0.09398869
25	0xbdaa1146	-0.08304076
26	0xbe3977f2	-0.18112162
27	0x3d0a8def	0.033826765
28	0x3d88874f	0.06666433
29	0x3d05932e	0.032611065
30	0xbbd37d32	-0.0064541334
31	0xbddf10a3	-0.10891845
32	0x3d3d3600	0.046194077
33	0xbc944d68	-0.018103316
34	0xbdd7936b	-0.105261646
35	0xbd4178b3	-0.04723425
36	0xbb5867d6	-0.0033020875
37	0x3d980528	0.074228585
38	0x3cd3d542	0.025858525
39	0x3c81b7bb	0.01583468
40	0xbd311f1e	-0.043242566
41	0x3d1a13d1	0.037616555
42	0x3b2a8528	0.0026019309
43	0x3d829ad3	0.063771866
44	0x3cf2a9f6	0.02962206
45	0xbdf7b506	-0.12095074
46	0xbd9f858c	-0.07789144
47	0x3cbe1765	0.023204515
48	0xbe08ab3a	-0.13346568
49	0xbc47a21c	-0.012184646
50	0xbd888a8e	-0.06667052
51	0x3dbaad50	0.09115088
52	0xbcbaf8ef	-0.022823779
53	0x3b997d8d	0.0046841563
54	0x3de7f206	0.11325459
55	0x3ceb95de	0.028757986
56	0x3d9e4a4e	0.07729016
57	0xbc4bbe25	-0.012435471
58	0xbd135579	-0.035970185
59	0x3d67e7cd	0.056617547
60	0x3dd46030	0.10369909
61	0x3b80bb7c	0.0039286
62	0x3dffa4c1	0.12482596
63	0xbda6f94d	-0.08153019
64	0xbbfe2f3e	-0.0077570966
65	0x3dc5130c	0.096227735
66	0xbdadfffc	-0.08496091
67	0x3b597b48	0.0033185054
68	0xbdfa3ae4	-0.12218264
69	0xbdb7d3e0	-0.08975959
70	0x3c443c36	0.011977246
71	0x3ca64353	0.020295775
72	0xbc29160c	-0.010320198
73	0x3dbc07fd	0.09181211
74	0xbdb3f0c7	-0.08786159
75	0xbde6e414	-0.11273971
76	0xbd2d946b	-0.04237787
77	0xbe012628	-0.12612212
78	0xbd420d59	-0.04737601
79	0x3d68039c	0.056644067
80	0x3d99d867	0.075119786
81	0xbc9b1c50	-0.018934399
82	0xbded1e68	-0.11578065
83	0xbde85a89	-0.11345393
84	0xbd100ba2	-0.035167344
85	0x3dfeaeee	0.12435709
86	0xbe085dbf	-0.13317011
87	0x3df02d1f	0.11727356
88	0x3e19f927	0.1503645
89	0x3c8a97b5	0.016918043
90	0x3d511cc0	0.05105281
91	0x3dacfbf6	0.08446495
92	0x3cf1ed4c	0.029532097
93	0xbd1812fd	-0.037127484
94	0xbd189b47	-0.03725746
95	0x3d1222f8	0.03567788
96	0x3db6858a	0.08912189
97	0x3d38c20e	0.04510694
98	0x3de3339e	0.110938296
99	0x3d9bc871	0.076065905
