model/1721470733_model-aapl.pth (torch, 174356 bytes, 5 tensors)

lstm.weight_ih_l0 f4 [400, 5]
-0.075954415 -0.09775924 -0.07010381 -0.020356443 -0.09378421 -0.054371625 0.013962674 -0.11800466
0.020572482 -0.05718332 -0.12540217 -0.016878026 -0.06713996 0.01585625 0.4245324 -0.020776754
-0.0930207 -0.039136212 -0.15867174 -0.5681623 0.040804494 -0.09468444 0.016108966 -0.0045290748
-0.068514675 -0.054795228 -0.10175805 0.0330793 -0.12718876 -0.08622293 -0.13853316 -0.13799587
0.02049313 0.02351894 -0.08685207 -0.19566739 -0.14106536 -0.09892367 -0.061684284 0.2880174
-0.07706174 -0.07674786 -0.08629634 -0.13014562 -0.02465835 0.16105399 0.06472266 0.0068960916
-0.010305244 -0.16357294 0.018407876 -0.1178236 -0.00069487264 -0.09015946 -0.10349474 -0.051395763
-0.020124385 -0.039356455 -0.13564879 -0.043899704 -0.11584593 -0.19485942 -0.07842192 -0.07548783
0.009879334 0.02753677 0.13572294 0.04227272 0.08011471 0.102621965 0.04497865 0.09143998
0.026413187 0.101667695 0.04027009 0.027424099 -0.11212202 -0.0463084 -0.059430063 0.03386453
-0.030961249 -0.075393215 0.008663499 -0.10339228 0.059351634 -0.11453355 -0.044469647 0.024629068
-0.0286133 -0.11284926 0.005876808 0.09025057 0.14027816 -0.01620999 0.17969126 -0.025713466
-0.0697549 -0.1034069 -0.111825265 -0.14101626 -0.143674 -0.15924095 -0.1671727 -0.04777892
-0.46755964 0.010856747 -0.13388216 -0.12386065 0.05605701 -0.014837123 -0.08559533 -0.16783555
0.0146735255 -0.039569236 -0.48639733 -0.00029317848 -0.12517712 -0.024292776 -0.069960006 -0.042291142
-0.10448908 0.038471766 -0.04584751 0.038977712 0.092566505 -0.07245301 0.056589864 -0.090024
0.019677639 -0.0637031 -0.04492518 -0.012500789 0.043961596 -0.13135377 -0.056476004 0.003132508
-0.07092172 -0.111089 -0.017654862 -0.0053397533 -0.07523695 -0.16054142 -0.022303885 -0.108033195
-0.14621648 -0.07336771 -0.0046533747 -0.009535593 -0.014211703 0.07590579 0.00596648 -0.037126433
-0.0037762767 0.011892227 -0.23310782 -0.08170521 -0.016040696 -0.0019080138 -0.038988017 0.04870854
0.044084497 -0.08851142 0.032898497 0.033284865 -0.6797526 0.0014882835 -0.038918603 -0.07787749
-0.067932814 -0.026976893 -0.06049615 -0.08386222 -0.1333302 -0.16013834 -0.12497544 -0.019859467
-0.042262632 -0.03803825 -0.090102494 0.077896155 -0.108615756 0.05768186 -0.0068465136 0.049059104
0.03571083 -0.06864248 -0.17200269 -0.21471064 -0.17373376 -0.016182363 0.055390183 0.061988786
0.09360897 -0.037089895 -0.035802692 -0.17952606 -0.1922846 -0.09389948 -0.22398688 0.12617745
-0.11539415 -0.11512986 0.0038835367 -0.06693399 -0.51695335 -0.09160859 -0.0122534335 -0.06845581
-0.06712229 0.035715986 0.018230097 -0.08302196 0.04069717 -0.048956957 -0.037481543 -0.036323972
-0.14052983 -0.010639367 -0.061567593 -0.0905196 -0.11418129 -0.019479563 -0.17273802 -0.06985127
-0.00099052 -0.049108487 0.00021662939 0.007914358 -0.12266019 0.48575395 -0.16479187 -0.062794425
-0.018889295 -0.1721764 -0.22966391 -0.046816852 0.044747267 0.037228934 0.053502947 0.22862835
-0.05040477 -0.1023002 0.040532082 0.029789438 0.031867772 -0.110861816 -0.11963781 -0.047196027
-0.11093412 0.04489219 -0.16689329 -0.078615405 -0.13199368 -0.11707379 0.08439485 -0.04462817
00000000: fd8d 9bbd ff35 c8bd 9692 8fbd 8ec2 a6bc
00000010: f011 c0bd c8b4 5ebd b3c3 643c 6dac f1bd
00000020: 9f87 a83c 0f39 6abd 6d69 00be c943 8abc
00000030: ad80 89bd f7e4 813c 505c d93e 0334 aabc
00000040: a381 bebd 4b4d 20bd d87a 22be 1673 11bf
00000050: 9d22 273d eae9 c1bd f3f6 833c a268 94bb
00000060: 6c51 8cbd f670 60bd 8666 d0bd 297e 073d
00000070: c53d 02be a695 b0bd a3db 0dbe ca4e 0dbe
00000080: 35e1 a73c cbaa c03c 80df b1bd 085d 48be
00000090: 7073 10be 7e98 cabd a9a8 7cbd 0477 933e
000000a0: 8cd2 9dbd fb2d 9dbd 23bc b0bd e544 05be
000000b0: 4f00 cabc 56eb 243e 508d 843d 9cf8 e13b
000000c0: 53d7 28bc aa7f 27be 1dcc 963c 804d f1bd
000000d0: 1d28 36ba 86a5 b8bd 0df5 d3bd 5d84 52bd
000000e0: e5db a4bc 3c34 21bd 84e7 0abe 2dd0 33bd
000000f0: a240 edbd 3a89 47be ac9b a0bd 5d99 9abd
00000100: eedc 213c cb94 e13c f4fa 0a3e 2926 2d3d
00000110: 2e13 a43d 772b d23d 883b 383d e244 bb3d
00000120: 7860 d83c 2737 d03d 40f2 243d 81a8 e03c
00000130: 3ba0 e5bd e0ad 3dbd f06c 73bd 89b5 0a3d
00000140: 72a2 fdbc c267 9abd 59f1 0d3c 55bf d3bd
00000150: b31a 733d 9190 eabd ce25 36bd e6c2 c93c
00000160: 7066 eabc 831d e7bd 3d92 c03b 4ad5 b83d
00000170: 14a5 0f3e d0ca 84bc fc00 383e 0ca5 d2bc
00000180: a8db 8ebd ffc6 d3bd a504 e5bd 9166 10be
00000190: 471f 13be 0f10 23be 522f 2bbe d4b3 43bd
000001a0: fa63 efbe 7fe0 313c 6818 09be a7aa fdbd
000001b0: 099c 653d 6817 73bc 9b4c afbd 15dd 2bbe
000001c0: 3a69 703c 5a13 22bd 1209 f9be c0b5 99b9
000001d0: 6e2e 00be a501 c7bc 3147 8fbd 7a39 2dbd
000001e0: 5ffe d5bd 9294 1d3d 99ca 3bbd 18a7 1f3d
000001f0: 8293 bd3d 3e62 94bd c6ca 673d 815e b8bd
00000200: 0033 a13c c576 82bd 7703 38bd 1cd0 4cbc
00000210: 1311 343d 9a81 06be 6253 67bd c34a 4d3b
00000220: 683f 91bd a182 e3bd eea0 90bc 19f9 aebb
00000230: d415 9abd f864 24be a3b6 b6bc 8240 ddbd
00000240: c6b9 15be cf41 96bd 567b 98bb 2d3b 1cbc
00000250: 34d8 68bc 7f74 9b3d 7682 c33b e311 18bd
00000260: 697b 77bb 9ed7 423c d1b3 6ebe 1055 a7bd
00000270: c767 83bc 5216 faba e6b1 1fbd 9b82 473d
00000280: f291 343d 7a45 b5bd 93c0 063d b655 083d
00000290: 4404 2ebf 8212 c33a 1d69 1fbd 3c7e 9fbd
000002a0: 5c20 8bbd a5fe dcbc d0ca 77bd f5bf abbd
000002b0: b687 08be 4efb 23be 20f3 ffbd 52b0 a2bc
000002c0: 951b 2dbd ffcd 1bbd a887 b8bd 0588 9f3d
000002d0: f071 debd d043 6c3d b858 e0bb 33f2 483d
000002e0: 8545 123d 6e94 8cbd 7921 30be 1bdd 5bbe
000002f0: 43e7 31be e090 84bc d1e0 623d f4e7 7d3d
00000300: 0fb6 bf3d 93eb 17bd d8a5 12bd aed5 37be
00000310: 41e6 44be 5f4e c0bd d15c 65be a934 013e
00000320: c553 ecbd 34c9 ebbd ef82 7e3b b014 89bd
00000330: 0e57 04bf 499d bbbd a0c2 48bc 8f32 8cbd
00000340: 6977 89bd ed4a 123d 4957 953c 6b07 aabd
00000350: 13b2 263d 1787 48bd 3f86 19bd 72c8 14bd
00000360: 0de7 0fbe bd50 2ebc 4d2e 7cbd 5762 b9bd
00000370: e1d7 e9bd 9b93 9fbc 3ce2 30be 2f0e 8fbd
00000380: 56d4 81ba fb25 49bd 0227 6339 39ab 013c
00000390: 4435 fbbd beb4 f83e 33bf 28be 5d9a 80bd
000003a0: b9bd 9abc 034f 30be 042d 6bbe 07c3 3fbd
000003b0: e948 373d 5e7d 183d e825 5b3d 8d1d 6a3e
000003c0: 3b75 4ebd c482 d1bd f804 263d fb08 f43c
000003d0: c887 023d 850b e3bd ab04 f5bd 9f50 41bd
000003e0: 6e31 e3bd dfe0 373d 13e6 2abe 1d01 a1bd
000003f0: 5a29 07be 62c4 efbd 35d7 ac3d 07cc 36bd

lstm.weight_hh_l0 f4 [400, 100]
-0.020984728 0.021809032 0.09185316 0.10073055 0.07145343 -0.14352642 -0.06917311 -0.051606454
0.02450133 0.03323868 -0.041740596 -0.032320514 0.11110949 0.017612208 -0.007863939 -0.0030018138
-0.017132044 -0.12579979 0.11058716 0.12062583 0.034313515 0.053019945 -0.017212152 0.03237321
0.030568639 -0.063037075 -0.10471724 -0.027769428 0.0632394 -0.109699234 -0.14186114 0.030609941
-0.017813697 0.06593636 -0.033929765 -0.015892707 0.042838935 -0.12346567 0.124049045 0.03090302
0.021390243 0.1302076 0.115988195 -0.013177963 0.0008627184 0.026709568 0.1610185 0.01524797
-0.058633234 -0.0025302365 -0.01697775 -0.0042771776 -0.04442305 -0.074934915 -0.07154157 0.0015252173
-0.010972299 -0.09901266 -0.04594254 0.026812142 -0.07659933 -0.037666064 0.08064913 0.041090425
0.055516686 0.026895886 -0.011973867 -0.05133473 0.01648869 -0.01908822 0.06535686 0.045173064
0.022333289 0.022098005 0.054016832 0.012926144 0.15625596 0.044125866 -0.08472216 -0.072461024
0.13097113 0.105804294 0.12116472 -0.024502978 -0.09227928 -0.0053027743 -0.006997804 0.15906645
0.14159496 0.017711224 -0.018447805 -0.10384717 0.08438893 -0.09825526 0.30456495 -0.10350254
0.10453237 0.008028591 0.039268654 0.006356094 0.006548164 -0.021378951 0.14503077 0.104533985
-0.029500514 -0.121243656 -0.07592667 -0.009141138 0.014183173 0.03260479 -0.087729886 -0.021632507
-0.04739662 0.11173983 -0.0156982 0.07343694 0.01984866 -0.13704821 0.22724289 0.008533838
0.044197228 0.13143907 -0.14267018 0.009057578 0.08760692 0.11202852 -0.11310702 -0.063347794
0.09356764 -0.07121315 -0.06981827 -0.09588088 0.15420595 0.12743737 -0.15277587 0.04316739
0.021931753 -0.074333504 0.14825718 -0.08846087 0.067668244 -0.061112434 0.07907766 0.019017654
-7.0306625e-05 -0.122598805 0.022896713 0.048565328 0.006691298 0.13133241 -0.15689574 -0.061801124
0.017747419 -0.091003194 -0.031940375 0.0061415834 -0.019385267 -0.062396087 -0.12992789 -0.1101176
-0.11180772 -0.044605136 -0.0014186378 -0.08343512 0.005901621 -0.02619631 -0.0419691 -0.16010891
0.10059376 -0.14280567 -0.06854583 -0.1348997 -0.0829378 0.1761076 0.05253166 0.0029128648
0.10948766 0.131908 -0.14243646 0.0047703176 0.057684228 0.023222042 0.005965911 0.14908549
-0.04212767 0.121742 0.066149235 0.05496303 -0.057104737 -0.0063915714 0.08835728 -0.05304318
-0.027978193 0.025459766 -0.03427306 -0.11682195 0.009453877 -0.15661101 -0.098867975 0.07790235
-0.09211972 -0.07490968 -0.13060175 -0.24465045 -0.20159706 0.14900458 0.12314412 -0.05203488
0.30545986 0.022196716 -0.09073644 0.062837616 0.102595806 -0.02031289 0.05022265 0.059182994
0.074392736 0.16190587 -0.04990372 -0.26045027 0.12865993 -0.02302049 0.05075213 0.049370054
0.062661536 0.07425833 0.006183561 0.02196664 -0.03378408 -0.070830695 0.13276148 0.03564845
-0.15872104 -0.18418 0.19487303 0.074995056 -0.018436069 0.11292463 0.04072243 -0.059441693
-0.056628365 -0.091435485 -0.15399984 0.2769732 -0.038806964 -0.015707154 -0.057384416 0.025331622
-0.015513369 -0.0409425 0.10585353 0.01837942 -0.12037342 0.110027336 0.07754151 -0.00647861
00000000: 2ae8 abbc dba8 b23c 821d bc3d d24b ce3d
00000010: 2d56 923d 97f8 12be a2aa 8dbd 4a61 53bd
00000020: 03b7 c83c 4825 083d 30f8 2abd 8462 04bd
00000030: 5f8d e33d 7a47 903c c0d7 00bc 14ba 44bb
00000040: 8058 8cbc a9d1 00be 857b e23d ad0a f73d
00000050: 548c 0c3d 712b 593d 8000 8dbc c599 043d
00000060: 156b fa3c 9519 81bd fe75 d6bd b67c e3bc
00000070: a983 813d fea9 e0bd 0c44 11be b3c1 fa3c
00000080: 08ee 91bc a409 873d f0f9 0abd 6c31 82bc
00000090: e177 2f3d 92db fcbd 6d0d fe3d 5528 fd3c
000000a0: 973a af3c 2455 053e 388b ed3d 62e8 57bc
000000b0: 0d28 623a 06ce da3c 09e2 243e 9fd2 793c
000000c0: 6729 70bd 53d2 25bb ec14 8bbc 9127 8cbb
000000d0: f2f4 35bd 7a77 99bd 6384 92bd cde9 c73a
000000e0: 28c5 33bc 26c7 cabd 3f2e 3cbd 23a5 db3c
000000f0: 1ce0 9cbd bb47 1abd 5f2b a53d 6f4e 283d
00000100: 7765 633d c354 dc3c 0a2e 44bc 5e44 52bd
00000110: 4a13 873c e65e 9cbc d1d9 853d 6407 393d
00000120: 4df4 b63c e006 b53c c140 5d3d 2dc8 533c
00000130: 9001 203e 53bd 343d d082 adbd 7266 94bd
00000140: 4c1d 063e ecaf d83d 3525 f83d 78ba c8bc
00000150: ebfc bcbd e5c2 adbb d64d e5bb 51e2 223e
00000160: 45fe 103e 2117 913c da1f 97bc d3ad d4bd
00000170: 1ad4 ac3d 0e3a c9bd f0ef 9b3e 24f9 d3bd
00000180: 1115 d63d 5a8a 033c 2bd8 203d c846 d03b
00000190: fb91 d63b e922 afbc f282 143e ea15 d63d
000001a0: 10ab f1bc 984e f8bd 717f 9bbd b6c4 15bc
000001b0: 8a60 683c 9a8c 053d baab b3bd a836 b1bc
000001c0: f522 42bd dad7 e43d 8399 80bc 1b66 963d
000001d0: a899 a23c 5e56 0cbe 5cb2 683e 83d1 0b3c
000001e0: 2708 353d f797 063e 2218 12be 3c66 143c
000001f0: 426b b33d 356f e53d a7a4 e7bd 7dbc 81bd
00000200: 64a0 bf3d 33d8 91bd e2fc 8ebd 325d c4bd
00000210: 2ae8 1d3e f17e 023e 4771 1cbe 4ad0 303d
00000220: 38aa b33c 2a3c 98bd bbd0 173e f92a b5bd
00000230: a695 8a3d 0851 7abd 78f3 a13d e9ca 9b3c
00000240: 9571 93b8 1515 fbbd e391 bb3c 70ec 463d
00000250: ad42 db3b 017c 063e 47a9 20be 2d23 7dbd
00000260: 0963 913c e25f babd e9d3 02bd 563f c93b
00000270: dacd 9ebc 0a93 7fbd d10b 05be 5685 e1bd
00000280: 72fb e4bd e0b3 36bd 96f1 b9ba 08e0 aabd
00000290: 6362 c13b a599 d6bc cae7 2bbd 97f3 23be
000002a0: 1a04 ce3d a63b 12be c261 8cbd 2623 0abe
000002b0: 4bdb a9bd 8d55 343e 702b 573d c3e5 3e3b
000002c0: 113b e03d e412 073e ddda 11be 5350 9c3b
000002d0: 4c46 6c3d 273c be3c b07d c33b dea9 183e
000002e0: 108e 2cbd df53 f93d 4079 873d ea20 613d
000002f0: a8e6 69bd 6370 d1bb a9f4 b43d ce43 59bd
00000300: 8632 e5bc 0091 d03c e861 0cbd 5940 efbd
00000310: 6fe4 1a3c a35e 20be 4b7b cabd 448b 9f3d
00000320: 44a9 bcbd 3f6a 99bd 77bc 05be a685 7abe
00000330: 766f 4ebe a894 183e fc32 fc3d 8722 55bd
00000340: 3c65 9c3e e3d5 b53c 07d4 b9bd 02b1 803d
00000350: c01d d23d 3867 a6bc 44b6 4d3d de69 723d
00000360: 385b 983d a7ca 253e d867 4cbd bd59 85be
00000370: 6ebf 033e 7795 bcbc 77e1 4f3d 4138 4a3d
00000380: b154 803d c014 983d 789f ca3b 62f3 b33c
00000390: 2d61 0abd af0f 91bd a0f2 073e 1c04 123d
000003a0: c587 22be af99 3cbe cc8c 473e 0297 993d
000003b0: 3d07 97bc 0745 e73d 90cc 263d 2279 73bd
000003c0: 25f3 67bd 8742 bbbd 22b2 1dbe 6ecf 8d3e
000003d0: 0df4 1ebd 4aac 80bc ec0b 6bbd 4384 cf3c
000003e0: c92b 7ebc 53b3 27bd bcc9 d83d 7090 963c
000003f0: 5786 f6bd 0356 e13d 15ce 9e3d 854a d4bb

lstm.bias_ih_l0 f4 [400]
-0.02413011 -0.0319229 -0.060365975 -0.034742605 -0.04289742 -0.13590854 -0.1094621 -0.07573601
-0.025365587 0.17948289 0.06531137 0.02819111 -0.14876826 -0.004853412 0.08017 -0.09873895
0.022680052 -0.13337477 0.03755387 -0.097067036 -0.14067723 -0.009267449 -0.012855647 -0.068521015
0.042068638 -0.09064594 -0.08008513 0.054491676 -0.11509628 0.0745413 -0.09777138 -0.0026505971
0.10251236 -0.090650864 -0.022069644 -0.08788747 -0.09252972 -0.067694575 0.07412631 -0.15530613
-0.031707183 0.07366727 -0.06817358 -0.15028448 0.02131463 -0.010880819 -0.113179326 0.041887417
0.06549374 -0.04677782 -0.035236184 -0.04665675 -0.030593736 -0.024859767 -0.08981338 -0.06361869
-0.051800963 -0.07771701 0.028186861 -0.11181811 -0.11645138 -0.072916806 0.06387124 -0.12719384
-0.079729564 -0.12043757 -0.11185498 0.05110029 -0.15275939 -0.07646531 -0.08180191 -0.014593039
-0.11221854 -0.1344982 -0.03751844 -0.12349738 -0.10833209 -0.10605508 -0.13422284 0.0631923
-0.007957396 0.06358369 -0.13820001 0.15019248 -0.003739092 -0.022776207 -0.07461192 0.09632202
-0.20919266 -0.05609211 -0.024684953 0.046869583 -0.08560944 -0.091957465 0.106323905 0.04316924
0.101537816 -0.0023655773 0.016036963 -0.06645044 0.057240676 0.04874144 -0.078152105 -0.23640597
-0.09002154 0.031061534 0.036595434 -0.045715936 0.058006436 -0.003765781 -0.012138227 -0.013713374
-0.101748176 0.04029897 0.067593835 -0.045976155 -0.03727987 -0.13774179 -0.04063801 0.057092257
-0.12556379 0.0056847604 -0.06543257 -0.07685767 -0.027543286 -0.10086873 -0.056043554 0.023669932
0.004314858 -0.07009136 -0.035004377 -0.0901504 -0.019792955 0.034538362 -0.087725714 -0.11250878
-0.12113968 -0.08196888 0.07601235 -0.0103363665 -0.118513346 -0.1045441 -0.04146098 0.02076032
-0.15726934 0.04912426 -0.15987298 -0.15764083 -0.040149488 0.042429913 -0.05548668 -0.13027525
-0.021788802 0.004920105 -0.08035247 -0.04450555 -0.061686493 -0.03563272 0.005407748 0.0142318485
-0.06354601 -0.06681025 0.02779433 0.06198952 -0.13662384 0.023734547 -0.19353765 -0.0325606
-0.049030315 -0.0025844437 -0.034118135 -0.18477051 0.05982773 -0.018645044 -0.006584906 -0.041846212
-0.036662288 -0.14803521 -0.08825878 -0.10440451 -0.11472379 -0.007049072 -0.19663464 -0.048400022
-0.06484636 -0.10425109 -0.012917206 -0.10011796 -0.10436813 -0.15136155 0.011073485 -0.026765691
-0.1760463 -0.08102581 0.09036493 0.066995285 -0.05069049 0.007303224 -0.059615057 -0.049361374
-0.0029408021 0.10686512 -0.12541355 0.0001333853 -0.05852315 -0.046683423 -0.06639693 0.10459058
-0.04906282 -0.054656602 0.029038789 0.027976546 -0.0094851 0.046254072 -0.015738944 0.080449015
-0.016792905 -0.03535223 -0.11354155 -0.022912059 0.018924747 -0.06126015 -0.043495256 -0.043500345
-0.024624284 -0.015296629 0.05491863 -0.11568733 0.032944545 0.07444311 0.059283268 -0.08573017
0.053694684 -0.027740816 0.026824262 -0.08785226 0.044646095 0.13307132 -0.07063988 -0.10944325
0.078542806 -0.09780968 -0.081616774 0.06251465 0.0009342552 0.02829713 -0.020539206 0.017180042
-0.015593985 0.0065582637 -0.015261514 0.051988605 0.057644345 0.07728945 0.025306536 -0.049529955
00000000: 82ac c5bc 96c1 02bd 5042 77bd 434e 0ebd
00000010: 34b5 2fbd 9c2b 0bbe aa2d e0bd 7b1b 9bbd
00000020: 7ecb cfbc 5dca 373e f8c1 853d 0bf1 e63c
00000030: b556 18be 5f09 9fbb 2b30 a43d a637 cabd
00000040: 84cb b93c 6593 08be 16d2 193d 15cb c6bd
00000050: b10d 10be 80d6 17bc 7ea0 52bc bf54 8cbd
00000060: 2a50 2c3d 94a4 b9bd ac03 a4bd aa32 5f3d
00000070: 99b7 ebbd 1ca9 983d 5c3c c8bd a4b5 2dbb
00000080: 00f2 d13d 29a7 b9bd 66cb b4bc 59fe b3bd
00000090: 3980 bdbd 74a3 8abd 89cf 973d 9208 1fbe
000000a0: 64df 01bd dede 963d 979e 8bbd 2de4 19be
000000b0: 059c ae3c 7645 32bc 90ca e7bd 2492 2b3d
000000c0: 9521 863d 199a 3fbd d153 10bd 261b 3fbd
000000d0: b79f fabc b6a6 cbbc 14f0 b7bd 844a 82bd
000000e0: 3f2d 54bd 192a 9fbd 22e8 e63c e500 e5bd
000000f0: 107e eebd 6855 95bd edce 823d 1a3f 02be
00000100: 4149 a3bd f9a7 f6bd 3914 e5bd 8a4e 513d
00000110: f56c 1cbe d899 9cbd c387 a7bd a417 6fbc
00000120: d5d2 e5bd e5b9 09be f0ac 19bd 32ec fcbd
00000130: 37dd ddbd 6833 d9bd b671 09be f76a 813d
00000140: bd5f 02bc 2a38 823d 4e84 0dbe 0fcc 193e
00000150: 8e0b 75bb 2b95 babc 22ce 98bd 7b44 c53d
00000160: 9a36 56be d7c0 65bd 1938 cabc 52fa 3f3d
00000170: 0154 afbd 3254 bcbd 59c0 d93d 3bd2 303d
00000180: 0ff3 cf3d cd07 1bbb f35f 833c 2b17 88bd
00000190: 3375 6a3d 1ba5 473d 360e a0bd 6814 72be
000001a0: 375d b8bd c274 fe3c 18e5 153d a240 3bbd
000001b0: 2898 6d3d 52cb 76bb 6adf 46bc 0fae 60bc
000001c0: 5961 d0bd 8810 253d a36e 8a3d 7e51 3cbd
000001d0: c7b2 18bd 2f0c 0dbe 0b74 26bd 92d9 693d
000001e0: cb93 00be 3a47 ba3b 8301 86bd 8e67 9dbd
000001f0: 75a2 e1bc 4494 cebd ed8d 65bd 72e7 c13c
00000200: a763 8d3b 0f8c 8fbd c060 0fbd c6a0 b8bd
00000210: d624 a2bc 1978 0d3d 8aa9 b3bd 016b e6bd
00000220: 1518 f8bd 4ddf a7bd 5dac 9b3d dd59 29bc
00000230: 20b7 f2bd 381b d6bd fdd2 29bd 8c11 aa3c
00000240: 370b 21be 8536 493d beb5 23be 996c 21be
00000250: ca73 24bd fdca 2d3d 0046 63bd e066 05be
00000260: 6e7e b2bc d538 a13b d68f a4bd 744b 36bd
00000270: faaa 7cbd 9df3 11bd 7a33 b13b b32c 693c
00000280: 6924 82bd d0d3 88bd efb0 e33c b9e8 7d3d
00000290: 1fe7 0bbe f46e c23c bc2e 46be 445e 05bd
000002a0: 03d4 48bd c55f 29bb 75bf 0bbd 7b34 3dbe
000002b0: ec0d 753d 7ebd 98bc 32c6 d7bb ef66 2bbd
000002c0: 322b 16bd 8b96 17be 05c1 b4bd 08d2 d5bd
000002d0: 4ef4 eabd e7fb e6bb 975a 49be 1a3f 46bd
000002e0: 2bce 84bd 9881 d5bd b0a2 53bc a50a cdbd
000002f0: f5be d5bd 86fe 1abe 906d 353c b943 dbbc
00000300: 7b45 34be dcf0 a5bd 4011 b93d d334 893d
00000310: d5a0 4fbd e24f ef3b eb2e 74bd 272f 4abd
00000320: 79ba 40bb 1adc da3d 696c 00be 58dd 0b39
00000330: f8b5 6fbd 1e37 3fbd 1dfb 87bd 9633 d63d
00000340: 18f6 48bd 9adf 5fbd c1e2 ed3c 122f e53c
00000350: 6567 1bbc e974 3d3d f5ee 80bc 74c2 a43d
00000360: 4691 89bc 80cd 10bd 7988 e8bd 12b2 bbbc
00000370: 1208 9b3c eceb 7abd 1528 32bd 6b2d 32bd
00000380: deb8 c9bc b69e 7abc 5bf2 603d 7bed ecbd
00000390: dcf0 063d a175 983d 03d3 723d 4d93 afbd
000003a0: f5ee 5b3d b540 e3bc 8ebe db3c e3eb b3bd
000003b0: d3de 363d d943 083e a4ab 90bd c823 e0bd
000003c0: 0ddb a03d 7150 c8bd b226 a7bd ae07 803d
000003d0: cee8 743a 62cf e73c d641 a8bc 29bd 8c3c
000003e0: ea7d 7fbc b4e6 d63b 6e0b 7abc 01f2 543d
000003f0: 7a1c 6c3d ee49 9e3d a74f cf3c ecdf 4abd

lstm.bias_hh_l0 f4 [400]
0.0076326556 -0.12912497 -0.10825625 -0.08510307 0.07116641 -0.16180305 -0.11143057 -0.053439055
0.037510246 0.13373329 -0.08596631 -0.07753355 -0.06690486 0.15124708 -0.027007908 -0.037060443
-0.062357973 -0.024941282 0.19681762 0.04836821 -0.17826991 -0.09813409 0.010267757 -0.028947074
-0.0867045 -0.05401002 0.05658847 -0.046531457 0.041826256 0.10754351 -0.013293624 0.0033623572
0.23053999 -0.055717498 -0.0994649 0.012942424 -0.045613986 -0.10719502 0.046668075 -0.16370612
-0.019523993 -0.008919778 0.047359776 -0.024407165 -0.116212465 -0.07719616 -0.08374013 -0.012879649
-0.08822553 0.019257193 -0.018133221 -0.08337389 0.0018353752 0.1010446 -0.025202505 0.003546194
0.07926593 -0.040091712 -0.0036064768 -0.10012124 -0.0059884624 -0.116538815 -0.08018742 -0.100474305
-0.004612399 0.06629164 -0.071466066 -0.04858119 -0.11670757 0.06655237 -0.10077606 -0.03916056
-0.071373604 -0.18067624 0.01795223 -0.10796695 -0.043554675 -0.0358521 -0.13853903 -0.081709795
-0.06940617 -0.11741779 -0.09033593 0.10846268 -0.09956389 -0.048304144 -0.13931961 -0.020539004
-0.20163614 0.07999829 -0.008117942 -0.024644084 -0.09128433 0.02679494 0.057314873 0.096163936
-0.061907332 -0.015593551 -0.10820662 -0.12841876 0.03823186 0.0036022572 -0.04107952 -0.19495341
-0.01784086 -0.003357815 -0.018757304 -0.014456017 -0.023076477 -0.12168486 -0.09002273 -0.069263496
-0.09147497 0.057871178 -0.07985858 -0.11864109 0.014415438 -0.13460982 -0.11742596 0.062720016
-0.015077881 -0.102015555 -0.0028361392 -0.11422537 -0.12320118 0.051576488 -0.10039647 -0.0989901
0.01452845 -0.012823471 -0.060509738 0.04582169 -0.14814207 -0.0540358 -0.011489718 -0.0439508
0.0031894036 -0.03757193 0.010316348 -0.18391316 -0.16433302 0.020344874 0.004744726 -0.051038653
-0.15749684 0.008184731 -0.065374464 0.0004400366 0.06219777 0.021237034 -0.018121766 -0.038148437
-0.060567 0.009236003 -0.08395321 -0.04513587 0.09561243 -0.17690095 -0.034514334 -0.07769738
-0.08867306 0.020124989 0.016787833 -0.11226297 -0.09603923 -0.025188651 -0.13846001 -0.13033822
-0.108171865 -0.11671569 -0.010002644 -0.07160097 -0.08495047 -0.09480625 0.0497728 -0.09747008
-0.09569188 -0.04930251 -0.13527273 -0.047687676 -0.058229223 -0.10301356 -0.19369982 0.011533703
-0.13532458 0.030943504 -0.14467882 -0.11323822 -0.13417414 -0.119882524 0.006953921 -0.033739768
-0.17198761 -0.13047238 0.1405817 -0.057768486 0.08624665 -0.06471754 -0.02341674 -0.022665316
-0.034272633 -0.040420823 0.06232401 -0.07175249 0.0046770675 -0.008160816 0.08377711 -0.008107624
0.014271806 0.04873337 0.01376992 -0.050437134 -0.012349139 0.015334205 -0.0063201734 -0.092445746
-0.07624662 -0.02169597 0.016279196 0.03633513 -0.03851313 0.0815014 -0.11436736 -0.06977146
-0.03488925 -0.09376092 0.009288617 0.03570046 0.025831364 -0.011607421 -0.0026481685 0.03427216
0.004602688 0.037464965 -0.047340564 -0.091601215 -0.08163205 0.0039965827 0.062123053 -0.014576867
0.0007604201 0.011576371 0.06910749 -0.0467098 -0.061465394 0.00034045655 0.07441663 -0.075820096
-0.036372148 -0.05679784 0.07514692 -0.091621466 -0.11226852 -0.09379971 -0.017464174 0.07706065
00000000: 5b1b fa3b 5639 04be 74b5 ddbd 854a aebd
00000010: b2bf 913d b3af 25be b635 e4bd e9e2 5abd
00000020: 58a4 193d 61f1 083e 1b0f b0bd e9c9 9ebd
00000030: 6a05 89bd 84e0 1a3e b03f ddbc b1cc 17bd
00000040: 136b 7fbd a951 ccbc 8f8a 493e bf1d 463d
00000050: 638c 36be 87fa c8bd 183a 283c 6a22 edbc
00000060: 2192 b1bd 9c39 5dbd 50c9 673d c597 3ebd
00000070: 0252 2b3d c63f dc3d 80cd 59bc fe5a 5c3b
00000080: ad12 6c3e 0838 64bd 41b4 cbbd 760c 543c
00000090: bbd5 3abd 1089 dbbd 0627 3f3d 94a2 27be
000000a0: c8f0 9fbc 4324 12bc 53fc 413d 89f1 c7bc
000000b0: cd00 eebd 0519 9ebd f27f abbd 2a05 53bc
000000c0: 96af b4bd 43c1 9d3c 1f8c 94bc eebf aabd
000000d0: f990 f03a 79f0 ce3d 7c75 cebc 4367 683b
000000e0: 2d56 a23d 3537 24bd a45a 6cbb 5d0c cdbd
000000f0: dd3a c4bb e7ab eebd 4d39 a4bd 79c5 cdbd
00000100: 9b23 97bb e9c3 873d cd5c 92bd 12fd 46bd
00000110: 6104 efbd 9c4c 883d ae63 cebd d366 20bd
00000120: 532c 92bd 3103 39be 8e10 933c c71d ddbd
00000130: 6366 32bd a7d9 12bd 2ddd 0dbe 7757 a7bd
00000140: d224 8ebd bd78 f0bd 0b02 b9bd ae21 de3d
00000150: 27e8 cbbd 91da 45bd cda9 0ebe 6a41 a8bc
00000160: b479 4ebe 25d6 a33d 1e01 05bc 64e2 c9bc
00000170: 47f3 babd 1081 db3c 00c3 6a3d 99f1 c43d
00000180: 8b92 7dbd 187c 7fbc 6f9b ddbd 3580 03be
00000190: 0399 1c3d d913 6c3b 0043 28bd dea1 47be
000001a0: ff26 92bc ca0e 5cbb eba8 99bc eed8 6cbc
000001b0: e10a bdbc e935 f9bd d65d b8bd 05da 8dbd
000001c0: 3b57 bbbd 540a 6d3d e58c a3bd 1afa f2bd
000001d0: bb2e 6c3c 28d7 09be 067d f0bd 5a73 803d
000001e0: 3709 77bc 88ed d0bd 85de 39bb feee e9bd
000001f0: e650 fcbd de41 533d aa9c cdbd 52bb cabd
00000200: bc08 6e3c 8919 52bc 0fd9 77bd 86af 3b3d
00000210: 8eb2 17be a554 5dbd 5f3f 3cbc c105 34bd
00000220: 5005 513b 06e5 19bd e605 293c bb53 3cbe
00000230: ea46 28be 4baa a63c a579 9b3b e80d 51bd
00000240: da46 21be 4019 063c 0ce3 85bd b6b4 e639
00000250: 17c3 7e3d 4af9 ad3c 1974 94bc 8941 1cbd
00000260: 1a15 78bd 9b52 173c a9ef abbd 64e0 38bd
00000270: 73d0 c33d 8625 35be e75e 0dbd ce1f 9fbd
00000280: 399a b5bd 29dd a43c a386 893c 21ea e5bd
00000290: 37b0 c4bd 6e58 cebc 76c8 0dbe 6277 05be
000002a0: 3689 ddbd a308 efbd 21e2 23bc 88a3 92bd
000002b0: 83fa adbd c729 c2bd 90de 4b3d 659e c7bd
000002c0: 1bfa c3bd 6ef1 49bd ef84 0abe 2754 43bd
000002d0: c481 6ebd c6f8 d2bd 3f59 46be dbf7 3c3c
000002e0: 8792 0abe 3b7d fd3c af26 14be 71e9 e7bd
000002f0: f264 09be f884 f5bd b8dd e33b b632 0abd
00000300: 851d 30be 8d9a 05be a6f4 0f3e a69e 6cbd
00000310: 15a2 b03d a18a 84bd 77d4 bfbc 9dac b9bc
00000320: 7661 0cbd 4e90 25bd 7647 7f3d f8f2 92bd
00000330: 1642 993b f1b4 05bc 5593 ab3d d7d5 04bc
00000340: 4bd4 693c a49c 473d 3b9b 613c 2b97 4ebd
00000350: 0b54 4abc 513c 7b3c 7519 cfbb 3254 bdbd
00000360: 3027 9cbd bfbb b1bc f35b 853c 25d4 143d
00000370: f2bf 1dbd 35ea a63d 6f39 eabd 57e4 8ebd
00000380: 08e8 0ebd ba05 c0bd 492f 183c a53a 123d
00000390: 4c9c d33c 0d2d 3ebc e58c 2dbb f760 0c3d
000003a0: 25d2 963b dd74 193d 2ee8 41bd 6b99 bbbd
000003b0: b42e a7bd c4f5 823b be74 7e3d d0d3 6ebc
000003c0: ee56 473a d2aa 3d3c 3a88 8d3d c652 3fbd
000003d0: 23c3 7bbd 4e7f b239 bf67 983d 9147 9bbd
000003e0: f6fa 14bd daa4 68bd a1e6 993d 09a4 bbbd
000003f0: 0aed e5bd 101a c0bd 0711 8fbc f9d1 9d3d

linear.weight f4 [1, 100]
-0.008393624 0.055375688 -0.11827412 0.06659176 -0.049058653 -0.007571044 0.002377806 0.093274556
-0.038968816 -0.15328498 0.015352662 0.01795164 0.05794094 0.1195788 0.03261916 -0.04143543
-0.030853914 0.030567031 -0.1540698 -0.08567763 -0.06505276 -0.028445916 0.03909641 -0.0889937
0.0002483419 -0.06820882 0.06841184 -0.03321486 -0.0026126334 0.095239826 0.011342691 0.026441073
-0.14362343 -0.040708426 0.043084238 -0.0915489 -0.0008464981 0.080682434 0.0036328835 -0.064277
-0.055675786 -0.10496118 -0.00013053852 0.045490667 -0.05909607 0.15841813 0.011840513 -0.09625158
-0.05423726 -0.051815305 0.08310885 0.023068491 -0.04823575 0.059194323 0.020026678 0.04670167
-0.0006635691 -0.06454698 0.0071337335 0.07343436 0.0841587 0.07933562 -0.08621273 0.04449113
0.08442543 0.06664691 -0.050819777 0.018956067 0.09608327 -0.038268518 0.05233134 0.10204514
0.045049183 -0.028385596 0.06962413 0.058036584 -0.11548698 -0.054609098 0.0004456286 0.039464463
-0.12212703 -0.035330363 -5.0111732e-05 -0.13917392 -0.0070190774 -0.051222056 0.00567192 0.080399826
0.065623514 0.06658724 -0.020966271 -0.0790595 -0.0057991524 0.08624462 0.14422294 -0.06278381
-0.012013559 -0.087682374 -0.08839077 0.0005870983
00000000: 6985 09bc 9ed1 623d b439 f2bd 4361 883d
00000010: baf1 48bd 8516 f8bb f7d4 1b3b bb06 bf3d
00000020: c49d 1fbd bdf6 1cbe bb89 7b3c 510f 933c
00000030: 7b53 6d3d bbe5 f43d ab9b 053d 33b8 29bd
00000040: 59c1 fcbc b667 fa3c 79c4 1dbe c177 afbd
00000050: 623a 85bd 6907 e9bc 8f23 203d 5442 b6bd
00000060: e333 8239 11b1 8bbd 821b 8c3d 4e0c 08bd
00000070: b738 2bbb 190d c33d b2d6 393c f39a d83c
00000080: 0512 13be e1bd 26bd 1979 303d fd7d bbbd
00000090: 87e7 5dba d53c a53d ac15 6e3b a9a3 83bd
000000a0: 4b0c 64bd e3f5 d6bd 2be1 08b9 6c54 3a3d
000000b0: b80e 72bd 5d38 223e b6fe 413c 8c1f c5bd
000000c0: e427 5ebd 493c 54bd f934 aa3d 22fa bc3c
000000d0: da92 45bd bf75 723d fd0e a43c 404a 3f3d
000000e0: 5ef3 2dba 3531 84bd 18c2 e93b c164 963d
000000f0: 665b ac3d b77a a23d 4d90 b0bd 553c 363d
00000100: 3de7 ac3d 2d7e 883d 6628 50bd c149 9b3c
00000110: 4ec7 c43d 73bf 1cbd 6359 563d 0bfd d03d
00000120: 7e85 383d e988 e8bc 1997 8e3d c5b7 6d3d
00000130: 7084 ecbd caad 5fbd 42a3 e939 7da5 213d
00000140: bc1d fabd 92b6 10bd 102f 52b8 9c83 0ebe
00000150: 4a00 e6bb 38ce 51bd 83db b93b aaa8 a43d
00000160: 9f65 863d e45e 883d 75c1 abbc f2e9 a1bd
00000170: d106 bebb 05a1 b03d 2eaf 133e cc94 80bd
00000180: 85d4 44bc d192 b3bd 3806 b5bd 80e7 193a
