model/1721471368_model-aapl.pth (torch, 174356 bytes, 5 tensors)

lstm.weight_ih_l0 f4 [400, 5]
-0.21797073 -0.21605568 -0.22771396 -0.09635288 -0.30650085 -0.1892425 -0.22538157 -0.21680872
-0.1557331 -0.47059342 -0.049273483 -0.086358555 -0.038125157 -0.11409556 0.096484244 0.016043207
-0.10538818 -0.02803901 -0.15949996 -0.12818265 -0.08508044 -0.027144246 -0.016018473 -0.05475446
-0.10417987 -0.005851294 -0.12043451 -0.10854742 -0.071961924 -0.08518267 -0.109990776 0.026007988
-0.049684934 0.015412191 -0.018794568 -0.09215963 -0.08799386 -0.02689027 0.09146104 -0.6286658
-0.1434428 -0.085138746 -0.0008111169 -0.09919642 0.018029857 0.06573298 0.030444745 -0.09050309
0.07419492 -0.2622265 -0.1385481 -0.0731286 0.0116365235 -0.101779625 0.1870973 -0.13750038
-0.14361939 -0.042228505 -0.12369993 0.17009512 -0.038770173 -0.05624013 -0.15088636 -0.02461377
-0.16866535 -0.031565223 0.032927055 0.10769792 0.13626376 -0.0011025562 -0.046261474 -0.06906672
-0.20897385 -0.09637818 -0.09609206 -0.12591855 -0.114237316 -0.100184046 -0.09200265 0.019959133
-0.19938423 -0.12615544 -0.05730496 -0.066167355 -0.07310231 -0.15689956 -0.0320871 -0.11276727
0.027022664 -0.27228037 -0.08036473 -0.022160625 -0.17240845 -0.034273796 -0.21621814 -0.12977628
-0.049073957 0.0016063603 -0.012303536 -0.14619678 0.05540137 0.05974936 0.21860518 0.17186442
-0.5143445 -0.033373103 -0.072246976 0.0010309644 -0.033589367 -0.16638957 -0.22081313 -0.17080347
-0.07394226 -0.22583762 -0.18911147 4.7933103e-05 -0.15295838 -0.10879796 0.008965374 0.031887915
-0.16827534 0.00061305135 -0.00794868 -0.107780285 -0.19682926 -0.093944386 -0.037899166 -0.11260514
-0.038751584 0.17156863 -0.0352299 0.0009214529 -0.12500274 -0.019442689 -0.37522677 0.006727016
-0.04390102 -0.11104466 0.014569724 -0.037499413 -0.14053418 -0.012320112 -0.07255536 -0.13704008
-0.03915775 -0.07498228 -0.12996505 -0.017438186 -0.005622612 0.007926958 -0.10429579 -0.12400612
0.059931543 0.0021740168 -0.099231206 -0.056157775 -0.19708876 0.03669625 -0.16462512 -1.2436925
-0.17679943 -0.18780886 -0.09235784 -0.24095884 -0.09863175 -0.14131735 -0.039697353 -0.070865706
-0.10878754 -0.3782954 -0.029520676 0.0125473505 0.000861054 -0.12913127 0.13747662 0.01834089
-0.12492152 -0.041589156 0.02612767 0.05663923 0.08808894 -0.08123898 -0.049407583 -0.10010752
0.1669232 -0.07222281 0.023037583 -0.05060376 -0.09995859 0.08427834 -0.11172852 -0.20516333
-0.14845106 -0.15411073 -0.118649036 -0.04680999 -0.19026306 -0.15758358 -0.17937578 -0.22786479
-0.09308755 -0.0923929 -0.09363106 0.011424188 0.105303034 -0.12505105 -0.16931568 -0.090269715
-0.17747998 -0.58611274 -0.07488719 -0.087586164 -0.10013736 -0.05274436 -0.42978543 -0.07110461
-0.044670478 -0.11869601 -0.111673854 -0.37509447 -0.103465684 -0.11128515 -0.017480534 -0.037940618
0.12514153 -0.0005822257 -0.010044572 -0.010065518 -0.045249514 0.07851495 -0.18594302 -0.35090223
-0.22822058 -0.35063466 0.19609077 -0.15636939 -0.14258426 -0.008630592 -0.09515326 -0.16768424
-0.055336613 -0.0862473 -0.12066234 -0.052204125 0.0799687 0.033737633 -0.026999325 0.06523853
-0.00015430278 -0.04988162 -0.081773 -0.069648765 0.004165691 -0.028157307 -0.37042812 -0.012720386
00000000: b833 5fbe b33d 5dbe d92d 69be a954 c5bd
00000010: aeed 9cbe c9c8 41be 6dca 66be 1b03 5ebe
00000020: 7f78 1fbe 9ff1 f0be fed2 49bd c1dc b0bd
00000030: 2029 1cbd efaa e9bd 8899 c53d 0b6d 833c
00000040: c2d5 d7bd 11b2 e5bc f553 23be 5042 03be
00000050: a73e aebd 9c5d debc 2c39 83bc 3646 60bd
00000060: 415c d5bd 36bc bfbb 5ea6 f6bd 1c4e debd
00000070: c660 93bd 4074 aebd d842 e1bd b40e d53c
00000080: 6e82 4bbd 6a83 7c3c 11f7 99bc 30be bcbd
00000090: 2036 b4bd fc48 dcbc ed4f bb3d 3ef0 20bf
000000a0: abe2 12be 395d aebd 22a1 54ba 7e27 cbbd
000000b0: 5ab3 933c 039f 863d 4267 f93c af59 b9bd
000000c0: 82f3 973d 8d42 86be 8edf 0dbe 73c4 95bd
000000d0: 1ea7 3e3c d671 d0bd 6f96 3f3e e6cc 0cbe
000000e0: f610 13be ccf7 2cbd 6456 fdbd 6a2d 2e3e
000000f0: 79cd 1ebd 0d5c 66bd f481 1abe d1a2 c9bc
00000100: 9cb6 2cbe 894a 01bd 85de 063d ba90 dc3d
00000110: ba88 0b3e a683 90ba ac7c 3dbd da72 8dbd
00000120: 3efd 55be ec61 c5bd eacb c4bd cbf0 00be
00000130: 41f5 e9bd 4b2d cdbd e36b bcbd 5681 a33c
00000140: 612b 4cbe e42e 01be 9bb8 6abd c082 87bd
00000150: aab6 95bd 47aa 20be c36d 03bd 87f2 e6bd
00000160: a25e dd3c 5568 8bbe 4396 a4bd 338a b5bc
00000170: d78b 30be ae62 0cbd 4a68 5dbe 13e4 04be
00000180: c601 49bd 828c d23a c594 49bc 9cb4 15be
00000190: 8cec 623d bfbb 743d 09da 5f3e 3afd 2f3e
000001a0: 15ac 03bf 3cb2 08bd 39f6 93bd 6d21 873a
000001b0: 0195 09bd 0762 2abe d61c 62be 1be7 2ebe
000001c0: 0a6f 97bd fa41 67be 70a6 41be c70b 4938
000001d0: 1fa1 1cbe 77d1 debd 81e3 123c e79c 023d
000001e0: 5f50 2cbe 2eb5 203a 2e3b 02bc e9bb dcbd
000001f0: 9c8d 49be ea65 c0bd 283c 1bbd 869d e6bd
00000200: fbb9 1ebd b0af 2f3e 3a4d 10bd a88d 713a
00000210: b800 00be 4646 9fbc b91d c0be 4d6e dc3b
00000220: 8ed1 33bd 626b e3bd dab5 6e3c fc98 19bd
00000230: 31e8 0fbe 4cda 49bc e897 94bd 3c54 0cbe
00000240: e063 20bd 4f90 99bd 8f15 05be 87da 8ebc
00000250: e33d b8bb 12e0 013c 0899 d5bd ecf6 fdbd
00000260: c77a 753d f379 0e3b bb39 cbbd b205 66bd
00000270: a3d1 49be cf4e 163d 7d93 28be 5131 9fbf
00000280: e90a 35be f750 40be 1b26 bdbd eabd 76be
00000290: 71ff c9bd 7fb5 10be b199 22bd 0a22 91bd
000002a0: 00cc debd efaf c1be 58d5 f1bc 6793 4d3c
000002b0: 5bb8 613a fd3a 04be acc6 0c3e a23f 963c
000002c0: dbd6 ffbd 6459 2abd b209 d63c 8afe 673d
000002d0: f967 b43d 9f60 a6bd 9b5f 4abd 2c05 cdbd
000002e0: eaed 2a3e 8de9 93bd 50b9 bc3c e345 4fbd
000002f0: 17b7 ccbd 1f9a ac3d ecd1 e4bd 5616 52be
00000300: 8e03 18be 34cf 1dbe 44fe f2bd d5bb 3fbd
00000310: 52d4 42be 975d 21be 49ae 37be 6355 69be
00000320: afa4 bebd 7d38 bdbd a4c1 bfbd 842c 3b3c
00000330: 1ea9 d73d 620d 00be 1761 2dbe 54df b8bd
00000340: 50bd 35be 7c0b 16bf 745e 99bd 6060 b3bd
00000350: d114 cdbd 780a 58bd d60c dcbe 4b9f 91bd
00000360: 64f8 36bd e516 f3bd 43b5 e4bd 620c c0be
00000370: d1e5 d3bd 78e9 e3bd 5633 8fbc 9f67 1bbd
00000380: 1a25 003e 81a0 18ba fd91 24bc d8e9 24bc
00000390: 8e57 39bd 72cc a03d d967 3ebe 75a9 b3be
000003a0: a8b2 69be 6386 b3be 05cc 483e 4c1f 20be
000003b0: 9c01 12be 5467 0dbc b6df c2bd 6bb5 2bbe
000003c0: a5a8 62bd 6da2 b0bd d11d f7bd fed3 55bd
000003d0: a1c6 a33d 7930 0a3d b02d ddbc c79b 853d
000003e0: 56cc 21b9 ab50 4cbd 9a78 a7bd 03a4 8ebd
000003f0: 5980 883b 27aa e6bc c1a8 bdbe 2a69 50bc

lstm.weight_hh_l0 f4 [400, 100]
0.08869215 0.035686977 0.10527549 0.038112782 -0.07490985 -0.18140717 -0.11432917 -0.027433967
-0.12561323 0.22107925 0.20249785 0.11793365 0.05049036 0.24312729 0.0847006 0.09453062
0.039607517 -0.06275241 -0.051167227 -0.07244627 -0.009616708 0.12896383 0.06816947 -0.14353909
-0.03894588 -0.20919025 0.25395572 0.0020749243 0.17163408 -0.20962468 0.12897167 -0.026168793
0.03599616 0.13910994 -0.20870237 0.03385593 0.22328962 -0.20869537 0.026165932 0.06120979
0.11689747 0.182764 -0.042796027 0.09678871 0.18676716 0.08858544 -0.08926643 -0.10284365
-0.16687112 -0.12683693 0.067106284 0.085085385 0.18016869 -0.25909027 0.12568344 -0.1097275
0.15438211 0.080746636 -0.0019487989 -0.07073848 -0.054552842 0.092721 -0.13295537 0.17058472
0.09752117 0.014928274 0.012705761 -0.08529669 0.031154247 0.13376074 0.12672108 0.042382684
-0.05038676 -0.19511907 -0.030629426 -0.20715576 -0.075552836 -0.06102706 -0.13388327 -0.09937135
-0.19284509 -0.05344854 -0.123629 -0.21680756 0.03144759 0.0018434618 -0.08145684 0.18946104
0.18309769 -0.13552657 -0.07505964 -0.15503043 -0.046179898 -0.089779384 0.15359935 0.08201879
0.18013199 -0.09224606 -0.03269668 0.0489251 0.06265161 -0.028802056 -0.042951643 0.03623226
-0.093827665 -0.044708777 -0.063414566 -0.07156299 -0.072600186 0.10945832 0.10977466 0.030319495
0.037208904 -0.011394378 0.08009229 -0.060361754 0.00151775 0.079764575 -0.024604974 -0.11977705
0.057701226 0.076372094 0.020107044 0.08637703 -0.07998962 -0.021322623 0.09253482 0.107874066
0.10277947 -0.049351778 0.06579003 -0.10755176 -0.04222299 0.03255707 -0.11607496 -0.021010716
0.27470127 -0.0068659903 0.07019025 -0.022844115 0.13425449 0.085186 -0.32784852 0.014358638
0.09124318 0.09615303 -0.09942195 -0.082666844 -0.19814244 0.010252194 0.12854087 0.2264413
0.12820116 -0.12439936 0.018740276 -0.091532774 0.09306268 0.024695849 0.06422173 -0.12980056
-0.062425386 0.013196593 -0.12269058 0.1558645 0.04011906 -0.033798847 -0.16035439 0.090330906
0.030456236 -0.3814692 0.02695838 0.15222764 -0.031239856 0.0018040286 -0.15450244 -0.14687432
-0.06655244 -0.11495078 -0.11945478 0.038424466 -0.15515943 -0.07132154 0.028733557 -0.033966012
0.046537366 0.040280603 -0.08626796 0.11199044 0.1798567 -0.16302708 -0.07445869 -0.110505134
-0.012671679 -0.14008054 0.04022321 -0.11329432 0.07088645 -0.101131245 -0.07222188 0.08983194
0.20609187 0.1661649 0.104813546 0.137554 0.03221019 -0.048976604 -0.014347513 0.02020839
0.017367417 -0.07264868 0.13567843 0.020479964 -0.042994756 -0.07324266 0.040434796 0.000261182
-0.07038348 -0.19145033 -0.07789195 -0.109212294 0.12723385 0.06688955 -0.025341714 0.088666774
0.04152421 -0.12589727 -0.15939705 0.11801664 0.14869523 0.0092986645 0.03833497 -0.1096353
-0.019823901 0.06502628 -0.03912203 -0.07352299 0.078130595 -0.025522515 -0.06429007 -0.0955719
-0.029396025 -0.002159815 -0.12794985 0.178262 -0.01120811 0.10032069 -0.029229235 -0.0100011695
-0.062388025 -0.008503414 0.006027975 0.10098324 0.06519488 -0.020301523 0.033404645 -0.016657615
00000000: 3ba4 b53d 822c 123d ad9a d73d 261c 1c3d
00000010: 566a 99bd cdc2 39be 6925 eabd 33bd e0bc
00000020: c1a0 00be 9962 623e 995b 4f3e 3387 f13d
00000030: fbce 4e3d 5cf6 783e 8277 ad3d 4599 c13d
00000040: 7e3b 223d 5684 80bd ba94 51bd b65e 94bd
00000050: 668f 1dbc 180f 043e 6f9c 8b3d e9fb 12be
00000060: b785 1fbd f835 56be 7c06 823e 74fb 073b
00000070: d8c0 2f3e daa7 56be 2611 043e f05f d6bc
00000080: b670 133d d672 0e3e 13b6 55be 84ac 0a3d
00000090: 09a6 643e 3db4 55be f059 d63c 1eb7 7a3d
000000a0: f167 ef3d 7c26 3b3e e34a 2fbd 2939 c63d
000000b0: e43f 3f3e 486c b53d 51d1 b6bd b19f d2bd
000000c0: 43e0 2abe 8ae1 01be 056f 893d 3f41 ae3d
000000d0: 247e 383e 7ba7 84be 29b3 003e d0b8 e0bd
000000e0: 5816 1e3e 7e5e a53d d76e ffba 56df 90bd
000000f0: cd72 5fbd 82e4 bd3d 7425 08be c3ad 2e3e
00000100: 2eb9 c73d b895 743c d32b 503c 08b0 aebd
00000110: 3137 ff3c 93f8 083e 2cc3 013e 7799 2d3d
00000120: 5962 4ebd 4bcd 47be 90ea fabc a420 54be
00000130: 72bb 9abd 83f7 79bd b218 09be 3583 cbbd
00000140: 2f79 45be dbec 5abd 3331 fdbd cd02 5ebe
00000150: 30cf 003d 50a0 f13a d8d2 a6bd 1302 423e
00000160: f67d 3b3e 7ac7 0abe deb8 99bd 4cc0 1ebe
00000170: 2227 3dbd 41de b7bd 2649 1d3e 78f9 a73d
00000180: 8574 383e 81eb bcbd f4ec 05bd b065 483d
00000190: 7d4f 803d 4af2 ebbc 10ee 2fbd 4768 143d
000001a0: b828 c0bd 8d20 37bd 7fdf 81bd 9e8f 92bd
000001b0: 68af 94bd af2b e03d 89d1 e03d 9760 f83c
000001c0: 5d68 183d 7caf 3abc 6d07 a43d e33d 77bd
000001d0: 3def c63a 9c5b a33d 5f90 c9bc ac4d f5bd
000001e0: 1f58 6c3d f968 9c3d 87b7 a43c 71e6 b03d
000001f0: 99d1 a3bd c8ac aebc e582 bd3d 14ed dc3d
00000200: 0b7e d23d 1725 4abd ecbc 863d 1944 dcbd
00000210: 04f2 2cbd 905a 053d b5b8 edbd aa1e acbc
00000220: a5a5 8c3e 1afc e0bb e8bf 8f3d 9523 bbbc
00000230: 027a 093e ff75 ae3d c3db a7be 7e40 6b3c
00000240: b4dd ba3d e1eb c43d bc9d cbbd 3c4d a9bd
00000250: dae5 4abe d1f8 273c 38a0 033e 3ae0 673e
00000260: 2a47 033e 17c5 febd 3585 993c 8975 bbbd
00000270: a597 be3d f34e ca3c af86 833d 70ea 04be
00000280: c3b1 7fbd 8636 583c 3345 fbbd f29a 1f3e
00000290: e253 243d a970 0abd f133 24be 69ff b83d
000002a0: 5b7f f93c ee4f c3be d2d7 dc3c 90e1 1b3e
000002b0: baea ffbc 2875 ec3a e335 1ebe 3966 16be
000002c0: a54c 88bd 516b ebbd b5a4 f4bd f962 1d3d
000002d0: 1de2 1ebe 0711 92bd a362 eb3c f21f 0bbd
000002e0: f79d 3e3d 46fd 243d 42ad b0bd 3e5b e53d
000002f0: 5b2c 383e 92f0 26be cc7d 98bd 8450 e2bd
00000300: e09c 4fbc 4671 0fbe 18c1 243d da06 e8bd
00000310: ea2c 913d e61d cfbd 11e9 93bd cff9 b73d
00000320: bf09 533e 2227 2a3e 7ca8 d63d f5da 0c3e
00000330: d5ee 033d b19b 48bd d511 6bbc 118c a53c
00000340: 1d46 8e3c d5c8 94bd 49ef 0a3e 99c5 a73c
00000350: 451b 30bd 3f00 96bd f59e 253d 41ef 8839
00000360: 3725 90bd 8e0b 44be d185 9fbd b2aa dfbd
00000370: 9749 023e 63fd 883d 6d99 cfbc ed96 b53d
00000380: 4a15 2a3d 37eb 00be fb38 23be b5b2 f13d
00000390: 9043 183e 6d59 183c 2105 1d3d 7988 e0bd
000003a0: bc65 a2bc 802c 853d 6c3e 20bd 3993 96bd
000003b0: ef02 a03d 9814 d1bc 83aa 83bd 33bb c3bd
000003c0: efcf f0bc af8b 0dbb 4905 03be 508a 363e
000003d0: 38a2 37bc ef74 cd3d 2672 efbc f2db 23bc
000003e0: 968a 7fbd e751 0bbc 5286 c53b 4dd0 ce3d
000003f0: e584 853d 614f a6bc 4fd3 083d 8d75 88bc

lstm.bias_ih_l0 f4 [400]
-0.0642775 -0.13235444 0.029051451 -0.17445031 -0.14723592 0.044730783 0.084244765 -0.052537534
-0.056518123 -0.06572224 -0.046539936 -0.039703883 -0.023394786 0.09788372 -0.12069108 -0.06282296
-0.14076051 -0.19431537 -0.021857815 0.024259418 0.16539526 0.022722546 -0.13173337 -0.11300966
-0.21984512 0.03287235 -0.100615785 -0.0545573 0.058897663 -0.01269458 0.012196542 0.16176009
-0.053996276 -0.042670008 -0.04308142 0.00018559501 -0.087128386 -0.00533767 -0.24960394 -0.1211549
-0.03180411 -0.12700838 -0.11672525 -0.17386484 0.003586707 -0.027715689 -0.007000143 -0.15067624
0.07457103 0.07498402 -0.19596134 0.061532635 -0.07819162 0.08042296 -0.06446559 0.007608104
-0.056956336 -0.050697293 -0.14374074 -0.09440125 0.0510116 -0.016653303 -0.15929827 -0.018942868
-0.1905473 -0.11651887 0.077843525 0.06718096 -0.068847895 0.10080669 0.008582469 -0.105309
-0.06981761 0.021400772 0.04590024 0.036698855 0.016009623 0.07943852 -0.026005996 -0.056050602
-0.09940501 -0.19578022 -0.08561167 0.0012439884 -0.2237452 0.024681302 0.041678376 -0.015351804
-0.08579224 0.035724476 -0.1773153 -0.11812875 -0.14020704 -0.11935286 -0.0087424535 0.0013820727
0.04274804 -0.044303857 -0.071569696 -0.06481314 -0.1302915 -0.08851088 -0.0006182746 -0.09135398
-0.021434829 -0.100058906 0.05696687 -0.1408021 -0.029083055 -0.053638317 -0.06370479 -0.08479403
-0.031475607 -0.0040478893 -0.24020705 -0.10913575 -0.18254045 -0.0187916 -0.11725878 -0.13921975
-0.25924185 0.026788756 -0.088437155 0.019524936 -0.19513097 -0.09074108 -0.085959844 -0.015821094
-0.109948166 -0.09073451 0.011329165 -0.025202192 -0.108103625 -0.16014768 0.048896708 -0.11788048
-0.1367588 -0.113718405 -0.07078418 -0.04913178 -0.033788946 -0.14209989 -0.09671137 -0.12029357
-0.11841073 0.021909544 -0.19733657 -0.14096566 0.04675225 -0.05878104 -0.10051841 0.031080902
0.02663589 0.07117692 -0.056655724 -0.10088287 -0.022258503 0.035185896 -0.12484604 -0.07532113
-0.048073635 -0.15398575 -0.07214892 -0.045723908 -0.067454174 -0.028454574 -0.14559151 0.011629783
-0.12847148 0.20002295 -0.13822225 -0.15174457 -0.13977318 -0.027462922 0.033311494 -0.11402212
-0.11547184 -0.109616354 -0.15711758 -0.05427559 0.01827901 -0.19885884 -0.06668718 0.048991974
-0.17559424 -0.11929217 -0.011010034 -0.07994998 -0.105993256 -0.03919418 -0.050040442 -0.012863538
-0.03654715 -0.05759439 -0.03241762 -0.004179383 -0.019459782 0.04395022 -0.13857172 -0.09174942
-0.034926057 0.03285977 -0.05772322 0.045454293 0.050118383 0.037739187 0.045469712 -0.013379103
0.052224483 -0.022979572 -0.10270597 -0.042693503 -0.06847504 0.01127892 -0.03465295 0.04541219
0.028481556 -0.051037133 -0.05295566 -0.02186914 0.12267999 -0.123965554 -0.08575287 0.0005887287
-0.00028683356 0.06028973 -0.03394478 -0.079709835 0.0104456935 0.028974934 -0.10884789 4.072371e-05
-0.00417917 0.02298207 -0.02918938 -0.008313391 -0.08646536 0.032148935 0.05655148 0.122783646
2.6969938e-06 0.011929368 0.025311776 0.08181621 -0.11467597 0.036953453 -0.010642878 0.11195319
0.07855036 -0.010650087 0.049559273 -0.1292409 -0.0792103 0.024119655 0.023040403 0.02309164
00000000: eca3 83bd ec87 07be 4ffd ed3c 1aa3 32be
00000010: 03c5 16be a037 373d 8588 ac3d 9931 57bd
00000020: 8c7f 67bd 6299 86bd a9a0 3ebd 8aa0 22bd
00000030: 6ca6 bfbc 4377 c83d e32c f7bd 53a9 80bd
00000040: 8623 10be 9cfa 46be 290f b3bc b0bb c63c
00000050: 605d 293e a224 ba3c 1de5 06be 9c71 e7bd
00000060: 141f 61be 28a5 063d a60f cebd 7a77 5fbd
00000070: ad3e 713d edfc 4fbc 01d4 473c 70a4 253e
00000080: 332b 5dbd bfc6 2ebd 2576 30bd 489c 4239
00000090: 5e70 b2bd 9fe7 aebb 2d98 7fbe 0f20 f8bd
000000a0: 0745 02bd 7c0e 02be a60d efbd a009 32be
000000b0: f50e 6b3b 030c e3bc 7561 e5bb df4a 1abe
000000c0: b2b8 983d 3991 993d 17aa 48be a509 7c3d
000000d0: ee22 a0bd cbb4 a43d 8906 84bd 674d f93b
000000e0: 0c4b 69bd f7a7 4fbd c630 13be 7155 c1bd
000000f0: 8af1 503d 826c 88bc 161f 23be 132e 9bbc
00000100: d51e 43be 72a1 eebd 6d6c 9f3d 2c96 893d
00000110: 2000 8dbd bd73 ce3d 7c9d 0c3c 3fac d7bd
00000120: 89fc 8ebd ac50 af3c e401 3c3d 8a51 163d
00000130: 9d26 833c aab0 a23d 870a d5bc 5195 65bd
00000140: db94 cbbd 9c7a 48be 2c55 afbd 530d a33a
00000150: 761d 65be 7130 ca3c f2b6 2a3d 2286 7bbc
00000160: d8b3 afbd d453 123d 2492 35be 7ced f1bd
00000170: 6f92 0fbe 466f f4bd 823c 0fbc aa26 b53a
00000180: 9218 2f3d f677 35bd 2293 92bd c0bc 84bd
00000190: 236b 05be 3145 b5bd b513 22ba cc17 bbbd
000001a0: 1898 afbc afeb ccbd 1856 693d 6d2e 10be
000001b0: 963f eebc dab3 5bbd a877 82bd 7ea8 adbd
000001c0: 91ec 00bd 28a4 84bb d6f8 75be 9082 dfbd
000001d0: e2eb 3abe d7f0 99bc 5f25 f0bd 9f8f 0ebe
000001e0: 59bb 84be 1874 db3c 8a1e b5bd c2f2 9f3c
000001f0: 6ad0 47be 76d6 b9bd b70b b0bd 3d9b 81bc
00000200: 812c e1bd 04d3 b9bd f69d 393c d474 cebc
00000210: 6f65 ddbd c1fd 23be ea47 483d 526b f1bd
00000220: 800a 0cbe 32e5 e8bd 4cf7 90bd 683e 49bd
00000230: 4766 0abd a282 11be 9c10 c6bd 7a5c f6bd
00000240: 5381 f2bd a57b b33c 9912 4abe 4d59 10be
00000250: 4a7f 3f3d 63c4 70bd 99dc cdbd 609d fe3c
00000260: 8333 da3c 34c5 913d d50f 68bd ae9b cebd
00000270: 7757 b6bc 161f 103d 48af ffbd f741 9abd
00000280: dce8 44bd 71ae 1dbe d0c2 93bd fe48 3bbd
00000290: 6a25 8abd 9119 e9bc f115 15be d88a 3e3c
000002a0: 078e 03be d1d2 4c3e 228a 0dbe ee62 1bbe
000002b0: b320 0fbe ecf9 e0bc a271 083d 6e84 e9bd
000002c0: 807c ecbd 8a7e e0bd 6ee3 20be 1550 5ebd
000002d0: ddbd 953c a7a1 4bbe 4a93 88bd cfab 483d
000002e0: face 33be 744f f4bd 6e63 34bc d1bc a3bd
000002f0: fe12 d9bd 148a 20bd 35f7 4cbd 97c1 52bc
00000300: 77b2 15bd 18e8 6bbd 57c8 04bd 35f3 88bb
00000310: 1f6a 9fbc 2505 343d bfe5 0dbe 1fe7 bbbd
00000320: a00e 0fbd f797 063d 2f6f 6cbd 482e 3a3d
00000330: ef48 4d3d 6894 1a3d 733e 3a3d 0634 5bbc
00000340: 57e9 553d a83f bcbc 8257 d2bd 62df 2ebd
00000350: a43c 8cbd 38cb 383c 40f0 0dbd 2202 3a3d
00000360: 2752 e93c 500c 51bd 09e8 58bd e926 b3bc
00000370: a63f fb3d a7e1 fdbd 339f afbd ea54 1a3a
00000380: 2662 96b9 5df2 763d ae09 0bbd e93e a3bd
00000390: 6a24 2b3c d75c ed3c a4eb debd c0ce 2a38
000003a0: 6bf1 88bb e544 bc3c 911e efbc e434 08bc
000003b0: c014 b1bd 9aae 033d 86a2 673d fe75 fb3d
000003c0: 00fe 3436 6573 433c a45a cf3c 428f a73d
000003d0: 3cdb eabd 815c 173d 775f 2ebc b747 e53d
000003e0: 03df a03d b47d 2ebc aafe 4a3d ba57 04be
000003f0: 0339 a2bd 9596 c53c 3abf bc3c ae2a bd3c

lstm.bias_hh_l0 f4 [400]
-0.16965626 -0.12554467 -0.088254504 -0.07129895 -0.13631845 0.04850216 0.04557915 0.12242766
0.057480752 -0.041594747 -0.10734124 -0.055256687 -0.031110883 0.09585317 -0.010006908 -0.08089494
-0.11689135 -0.15892416 -0.030343596 -0.085693054 0.031119157 -0.038753405 -0.107819356 -0.022457257
-0.083098374 -0.08619822 -0.10492344 0.06990181 -0.10399902 -0.024607614 0.01068079 0.034445636
-0.16754554 0.0036464438 0.072746485 -0.016909925 -0.03266971 0.077277966 -0.24091654 -0.11545663
-0.10906372 -0.10023524 -0.048234764 -0.19479962 0.07998526 0.058139306 -0.1087633 -0.022028778
0.051511217 0.014732009 -0.027052939 -0.060697306 0.0011834968 -0.01626638 -0.13224414 0.06729347
0.06731909 -0.12866247 -0.07362413 -0.25507295 -0.012530324 -0.05550395 -0.19200812 -0.103909634
-0.044695657 -0.1182358 0.05725945 0.037058562 -0.13607474 0.012821798 -0.042129163 -0.10699605
-0.12388705 0.033121374 -0.085736305 -0.051700868 0.076524705 0.08298005 -0.051630046 -0.0329579
-0.019898664 -0.17433247 -0.13086672 0.06167037 -0.08947311 -0.1635855 -0.106905274 0.071148254
-0.03385753 0.021443611 -0.11493876 -0.17855379 -0.10676826 -0.17139891 0.01741735 -0.064489335
-0.043179713 -0.07972372 -0.035713043 0.020271871 -0.096988074 -0.1395067 -0.029604327 -0.10238943
0.02148334 -0.05680549 -0.0063147326 -0.13857947 0.014748339 -0.13849024 -0.1005832 -0.03991496
-0.10729447 0.0794804 -0.14237885 -0.04019531 -0.05250837 -0.052019864 -0.21959655 -0.087743826
-0.20698266 -0.048357956 -0.14520296 -0.11772527 -0.17842203 -0.024691476 0.012868034 -0.011614044
0.019697404 -0.0952731 -0.0058077388 -0.092359416 -0.036848802 -0.19288652 -0.086527206 -0.1829311
-0.12435513 -0.053133573 -0.1326365 -0.14047913 -0.02726283 -0.22657561 -0.10902954 -0.10563038
0.023621107 -0.052806754 -0.16820861 -0.11131318 0.04386258 -0.021289583 -0.21434395 0.03824704
-0.0977356 0.03396461 -0.053569596 -0.027984723 -0.045238875 0.047407053 -0.018117994 -0.22936618
-0.017267656 -0.06946065 -0.09877387 -0.033460703 -0.11222579 -0.06433274 -0.05453505 -0.034943152
-0.13276312 0.24320222 -0.06816116 -0.16150983 -0.022857571 0.0150581375 -0.06530304 -0.13787156
0.014216248 0.027688606 -0.11028822 -0.08039328 0.048120584 -0.114275545 -0.16672044 -0.09170363
-0.18859202 -0.16174507 -0.07150254 0.04396187 -0.05088954 -0.12172974 -0.16656929 -0.056682583
-0.046386 -0.12972641 -0.1960433 -0.0575552 0.025983965 -0.05173404 -0.1315404 -0.029147265
-0.043021075 0.04728121 -0.033950172 0.03209486 -0.006728339 -0.037225597 0.054211307 0.040925186
0.039573688 -0.029632103 -0.079693705 0.022477891 -0.05267768 -0.046192028 0.08157242 -0.04951039
-0.08026305 0.027989453 -0.05141869 0.0018935199 0.008893834 -0.0021075052 -0.009308757 0.056926306
-0.028395334 -0.0045138085 0.08501441 -0.0007430202 -0.034687076 0.08231748 0.06107187 0.04162755
0.104130715 -0.030846328 0.06432713 -0.1242646 -0.11476426 0.09837077 0.04095433 -0.07101662
-0.07897429 -0.013942552 0.03790207 -0.07157362 -0.09482639 -0.08515909 0.050758466 -0.030670138
-0.03729391 0.097319186 0.0033090925 -0.013156937 -0.004773614 0.05783071 0.010146802 0.07287418
00000000: 5fba 2dbe c88e 00be c7be b4bd 2f05 92bd
00000010: 1097 0bbe 33aa 463d 34b1 3a3d 5abb fa3d
00000020: f070 6b3d 415f 2abd b9d5 dbbd d654 62bd
00000030: 40dc febc ab4e c43d 04f4 23bc 3fac a5bd
00000040: bb64 efbd 04bd 22be 2293 f8bc d77f afbd
00000050: 9aed fe3c e4bb 1ebd 65d0 dcbd 48f8 b7bc
00000060: 7b2f aabd b188 b0bd 1ae2 d6bd ae28 8f3d
00000070: 70fd d4bd e895 c9bc 7bfe 2e3c de16 0d3d
00000080: 0f91 2bbe 2df9 6e3b 1cfc 943d af86 8abc
00000090: add0 05bd e943 9e3d d3b2 76be 8774 ecbd
000000a0: cd5c dfbd 2248 cdbd d191 45bd 8d79 47be
000000b0: 50cf a33d 7b23 6e3d 4bbf debd b275 b4bc
000000c0: 6dfd 523d 865e 713c 209e ddbc bd9d 78bd
000000d0: 901f 9b3a 1241 85bc 026b 07be 29d1 893d
000000e0: 97de 893d 18c0 03be 3fc8 96bd ec98 82be
000000f0: fd4b 4dbc 1c58 63bd c79d 44be 93ce d4bd
00000100: cb12 37bd 9c25 f2bd e388 6a3d b8ca 173d
00000110: 2d57 0bbe 8512 523c a18f 2cbd bf20 dbbd
00000120: 7eb8 fdbd 47aa 073d 8496 afbd 4ac4 53bd
00000130: fcb8 9c3d 72f1 a93d 077a 53bd ddfe 06bd
00000140: 8602 a3bc 3684 32be ed01 06be 129a 7c3d
00000150: ae3d b7bd f582 27be 27f1 dabd 2db6 913d
00000160: 32ae 0abd 83aa af3c 0365 ebbd ced6 36be
00000170: 51a9 dabd 3283 2fbe d5ae 8e3c fc12 84bd
00000180: 36dd 30bd 3146 a3bd d747 12bd 3211 a63c
00000190: afa1 c6bd d8da 0ebe c684 f2bc 8db1 d1bd
000001a0: d4fd af3c e0ac 68bd d1eb cebb c7e7 0dbe
000001b0: 04a3 713c 63d0 0dbe 91fe cdbd de7d 23bd
000001c0: 34bd dbbd 9fc6 a23d c3cb 11be d6a3 24bd
000001d0: 0413 57bd c812 55bd ebdd 60be 09b3 b3bd
000001e0: 43f3 53be fe12 46bd 16b0 14be f219 f1bd
000001f0: 44b4 36be c745 cabc 72d4 523c d548 3ebc
00000200: 735c a13c 8b1e c3bd d84e bebb ef26 bdbd
00000210: c5ee 16bd 0b84 45be 2d35 b1bd 4a52 3bbe
00000220: e7ad febd 97a2 59bd ddd1 07be c3d9 0fbe
00000230: 4c56 dfbc 7003 68be e14a dfbd be54 d8bd
00000240: 0d81 c13c e54b 58bd e13e 2cbe 2af8 e3bd
00000250: 40a9 333d 7e67 aebc fb7c 5bbe eea8 1c3d
00000260: 9a29 c8bd 7a1e 0b3d cb6b 5bbd 3840 e5bc
00000270: 664c 39bd e62d 423d 306c 94bc f8de 6abe
00000280: e674 8dbc 6341 8ebd f449 cabd 170e 09bd
00000290: a3d6 e5bd e2c0 83bd 2560 5fbd 8d20 0fbd
000002a0: 0ef3 07be 010a 793e 1498 8bbd d562 25be
000002b0: cd3f bbbc 68b6 763c 9abd 85bd 342e 0dbe
000002c0: 44eb 683c 37d3 e23c cade e1bd 3ba5 a4bd
000002d0: 171a 453d 4c09 eabd c3b8 2abe 1dcf bbbd
000002e0: 441e 41be 80a0 25be ec6f 92bd 5d11 343d
000002f0: 8d71 50bd 714d f9bd 2491 2abe ff2b 68bd
00000300: 3fff 3dbd 00d7 04be 93bf 48be 00bf 6bbd
00000310: 53dc d43c 13e7 53bd 87b2 06be 3fc6 eebc
00000320: de36 30bd f1a9 413d 560f 0bbd e675 033d
00000330: 6679 dcbb de79 18bd ad0c 5e3d 2ba1 273d
00000340: 0518 223d 06bf f2bc 7436 a3bd 8e23 b83c
00000350: 8dc4 57bd da33 3dbd 710f a73d 68cb 4abd
00000360: f460 a4bd 234a e53c 679c 52bd fc2f f83a
00000370: 72b7 113c 121e 0abb c283 18bc 8f2b 693d
00000380: 559d e8bc 92e8 93bb 091c ae3d 3ec7 42ba
00000390: 0914 0ebd 1196 a83d 7f26 7a3d a681 2a3d
000003a0: 7c42 d53d 70b1 fcbc f1bd 833d 707e febd
000003b0: 8609 ebbd 9d76 c93d babf 273d 2971 91bd
000003c0: 46bd a1bd 4d6f 64bc 333f 1b3d 3195 92bd
000003d0: 5734 c2bd e467 aebd 1ce8 4f3d f13f fbbc
000003e0: 80c1 18bd 484f c73d 5cdd 583b 3290 57bc
000003f0: fa6b 9cbb e5df 6c3d c63e 263c 0f3f 953d

linear.weight f4 [1, 100]
-0.021942262 -0.059796136 -0.07785462 0.008939399 -0.014044964 0.022697162 0.070423566 0.10115118
0.09182595 -0.13789096 -0.13054053 -0.100199655 0.031716563 -0.14673309 -0.094309054 -0.051939406
-0.024133 0.058795463 -0.025759382 -0.041345466 0.18908723 0.00020630672 -0.047466073 0.11394836
0.047423795 0.13428287 -0.06122797 -0.029283516 -0.10245701 0.10497085 -0.042243958 -0.23287146
0.05109029 -0.064087905 0.096940495 -0.097557954 -0.072715126 0.12285384 0.06036962 -0.07589675
-0.11330758 -0.07693665 -0.030112227 -0.018279491 -0.09478562 -0.11793367 0.09951838 0.010622256
0.09939541 0.10073434 0.039633278 -0.059888124 -0.12728646 0.07115112 -0.06309721 0.0799949
-0.109765306 0.024018407 0.017193899 0.073306516 0.11350456 -0.009583254 0.035305087 -0.08218233
-0.011840238 0.06406385 -0.08297943 0.052807923 0.0059416676 -0.15848783 -0.10555285 -0.07458487
0.055229697 0.13823916 -0.056354627 0.1076618 0.06924798 0.1253778 0.043750614 0.07576455
0.09956916 0.033686444 0.011767903 0.09930503 0.007382706 0.042145655 0.08593155 -0.119904704
-0.06899067 0.106721826 -0.009429965 0.04339106 0.07056357 0.049840957 -0.076192655 -0.064941354
-0.08702235 0.11215398 0.014790639 -0.023687644
00000000: 42c0 b3bc cbec 74bd 3e72 9fbd 8f76 123c
00000010: d91c 66bc 66ef b93c 3b3a 903d 5a28 cf3d
00000020: 3e0f bc3d 4a33 0dbe 6bac 05be 7a35 cdbd
00000030: 3ae9 013d 3341 16be 1b25 c1bd 6abe 54bd
00000040: 92b2 c5bc 83d3 703d 5705 d3bc dd59 29bd
00000050: 15a0 413e 0a54 5839 c96b 42bd c25d e93d
00000060: 743f 423d 7381 093e 2eca 7abd fce3 efbc
00000070: fbd4 d1bd f5fa d63d 0008 2dbd db75 6ebe
00000080: 0d44 513d 8540 83bd bd88 c63d 77cc c7bd
00000090: abeb 94bd cb9a fb3d 2246 773d c16f 9bbd
000000a0: ce0d e8bd f690 9dbd ebad f6bc dfbe 95bc
000000b0: f71e c2bd 3587 f1bd 4bd0 cb3d f908 2e3c
000000c0: d28f cb3d ce4d ce3d 8156 223d 404d 75bd
000000d0: 6257 02be aeb7 913d 1c39 81bd 5ed4 a33d
000000e0: a2cc e0bd 40c2 c43c 38da 8c3c ba21 963d
000000f0: 1475 e83d 1503 1dbc 119c 103d 364f a8bd
00000100: 8ffd 41bc e833 833d 1ff1 a9bd 1f4d 583d
00000110: 52b2 c23b a24a 22be 182c d8bd f4bf 98bd
00000120: 8938 623d 918e 0d3e 1cd4 66bd ca7d dc3d
00000130: e3d1 8d3d 0a63 003e d833 333d 722a 9b3d
00000140: eaea cb3d ccfa 093d 2ace 403c 7060 cb3d
00000150: a0ea f13b eca0 2c3d e1fc af3d 9990 f5bd
00000160: fb4a 8dbd f990 da3d 2480 1abc d3ba 313d
00000170: a283 903d 0826 4c3d e50a 9cbd f9ff 84bd
00000180: c638 b2bd fcb0 e53d 7054 723c 970c c2bc
