model/1721473041_model-aapl.pth (torch, 174356 bytes, 5 tensors)

lstm.weight_ih_l0 f4 [400, 5]
0.05593714 -0.0815388 0.041311868 0.0019778505 0.18986544 -0.077009656 0.009210129 0.0009915931
-0.118478075 -0.15156344 0.035828374 -0.08378165 0.042273067 -0.021780927 -0.10579032 -0.061148014
-0.10035051 -0.07171044 0.037903957 -0.30893537 0.08089833 0.11369854 -0.014251377 0.115328036
-0.124838695 -0.20667052 -0.058797263 -0.13963129 -0.22219181 -0.37133232 -0.093440965 -0.008601692
-0.033914626 -0.076067105 -0.085851334 0.03667767 0.02337461 0.016866785 -0.021730172 -0.10003769
-0.21828365 -0.30102652 -0.18470064 -0.22014745 -0.48916727 -0.041311935 -0.05894548 -0.13858727
-0.026235748 0.056555 -0.20513639 -0.2166014 -0.1901843 -0.25170478 -0.51004505 -0.053076
-0.19167024 -0.035284285 -0.14708984 -0.6928928 -0.021847298 0.02111881 0.013697745 -0.07980538
0.07047725 -0.035775907 -0.034543093 -0.073732406 -0.037428323 0.08365693 -0.14313716 -0.10954756
-0.046465877 -0.12301244 -0.016782677 -0.022055233 -0.09077199 -0.09871197 0.04813219 0.026465822
-0.007459136 -0.011956675 0.1559366 0.087685436 -0.91825634 -0.09962827 -0.1109811 -0.028868923
-0.13459846 -0.46622133 0.040202137 -0.00040060122 0.023274386 -0.12613823 -0.084111914 -0.039873093
-0.090202965 -0.08514047 -0.09297203 -0.18816103 0.03716286 -0.024328463 -0.081135914 -0.028423274
-0.12426729 -0.0585882 -0.080837026 -0.019427754 0.03091463 0.017136293 0.0211603 -0.04557128
-0.03721772 -0.06825251 0.0812894 -0.1832532 -0.21006648 -0.073113255 -0.055709057 -0.0052546337
-0.048791617 -0.0099465335 -0.06318385 -0.14262475 -0.11287774 -0.079401724 -0.12958784 -0.24265823
-0.1689602 0.03331769 0.019663485 -0.035575435 0.14826883 -0.008405168 0.034461726 -0.043408714
-0.21017396 -0.011792561 -0.04958913 -0.9147239 -0.11775028 -0.11423112 -0.018239459 -0.12903357
-0.048979852 -0.2547323 -0.22881794 -0.07379704 -0.16906095 -0.21207964 -0.16794267 -0.11142222
-0.18122959 -0.21986303 -0.015962152 0.03856951 -0.12678628 0.09561166 -0.020625886 -0.5375242
-0.07249251 -0.09192724 -0.09577324 -0.058483087 -0.32192045 0.0087587135 -0.018904809 -0.15071183
-0.011948471 -0.1820016 0.042093635 -0.1429997 -0.12132527 -0.004774009 0.10276896 -0.10747729
-0.13093835 0.01417783 -0.1362955 -0.074297324 -0.08284511 -0.08560284 -0.11658017 -0.094107896
-0.0924063 -0.0665358 -0.011810206 0.006263427 -0.10291511 -0.051628955 -0.19049382 -0.20293395
-0.117730245 -0.1901494 -0.61881214 -0.08125056 -0.04389033 -0.05776569 -0.12934442 0.03826734
0.028894857 -0.081810795 -0.0020962972 0.10202362 -0.094834134 -0.01543729 -0.01645184 -0.081445925
-0.086929776 0.02797007 -0.14341949 -0.00094440975 -0.05634982 -0.15687567 -0.1413293 -0.032420322
-0.03987855 -0.050394803 0.0030799424 0.018225817 -0.09352071 -0.115552425 -0.05776813 -0.18204853
-0.17581716 -0.052983873 0.043340407 0.050986096 0.055354144 -0.14407593 -0.15276241 -0.15341915
-0.105041206 -0.039047044 -0.16709958 -0.10792078 0.023074528 -0.04156285 -0.013826677 0.11405848
-0.022215081 -0.08281421 0.065328486 -0.062403224 -0.5096229 -0.08794163 -0.18499069 -0.16851889
-0.056381434 0.12772147 -0.108794145 -0.06438024 0.008256352 -0.0016219441 -0.20010583 0.013131738
00000000: 581e 653d d0fd a6bd a236 293d d39e 013b
00000010: 166c 423e 3db7 9dbd 15e6 163c 58f8 813a
00000020: a2a4 f2bd 7233 1bbe c6c0 123d b795 abbd
00000030: 8626 2d3d ea6d b2bc 98a8 d8bd 5776 7abd
00000040: 9184 cdbd ecdc 92bd 2e41 1b3d c72c 9ebe
00000050: 06ae a53d c8da e83d 9c7e 69bc 1b31 ec3d
00000060: 6eab ffbd 70a1 53be 66d5 70bd 81fb 0ebe
00000070: 4086 63be 451f bebe fa5d bfbd 1cee 0cbc
00000080: 10ea 0abd 12c9 9bbd d3d2 afbd 533b 163d
00000090: 1c7c bf3c 362c 8a3c 7903 b2bc 8fe0 ccbd
000000a0: c085 5fbe 2620 9abe 2a22 3dbe 556e 61be
000000b0: 2274 fabe b436 29bd d170 71bd d2e9 0dbe
000000c0: 5aec d6bc 37a6 673d 460f 52be c2cc 5dbe
000000d0: acbf 42be 73df 80be 5092 02bf 3866 59bd
000000e0: 3445 44be 4186 10bd b89e 16be 6c61 31bf
000000f0: 1bf9 b2bc 5b01 ad3c 826c 603c 0171 a3bd
00000100: 6056 903d c289 12bd 0f7d 0dbd 0401 97bd
00000110: 714e 19bd 5354 ab3d 8c92 12be 795a e0bd
00000120: 0153 3ebd f2ed fbbd d37b 89bc 2dad b4bc
00000130: aae6 b9bd 8029 cabd 4226 453d dace d83c
00000140: c56b f4bb eee5 43bc d8ad 1f3e 6c94 b33d
00000150: d912 6bbf e809 ccbd 0f4a e3bd 857e ecbc
00000160: 2ed4 09be 90b4 eebe ffaa 243d c907 d2b9
00000170: eda9 be3c 612a 01be de42 acbd f851 23bd
00000180: 55bc b8bd 205e aebd 1f68 bebd 49ad 40be
00000190: 1538 183d 7c4c c7bc 962a a6bd edd7 e8bc
000001a0: d97f febd 2efa 6fbd e28d a5bd f426 9fbc
000001b0: ae40 fd3c 6961 8c3c 5e58 ad3c f3a8 3abd
000001c0: 9c71 18bd f9c7 8bbd 0f7b a63d baa6 3bbe
000001d0: ab1b 57be 67bc 95bd 2e2f 64bd 102f acbb
000001e0: b8d9 47bd c9f6 22bc 8966 81bd 390c 12be
000001f0: 722c e7bd 5f9d a2bd adb2 04be 667b 78be
00000200: e703 2dbe 2178 083d 5115 a13c 8cb7 11bd
00000210: c9d3 173e d4b5 09bc bd27 0d3d 56cd 31bd
00000220: d837 57be 9635 41bc f91d 4bbd 582b 6abf
00000230: 0f27 f1bd 01f2 e9bd eb6a 95bc 6021 04be
00000240: 199f 48bd 466c 82be 404f 6abe e722 97bd
00000250: 501e 2dbe 682b 59be 2af9 2bbe 5531 e4bd
00000260: 4094 39be c623 61be 0fc3 82bc 10fb 1d3d
00000270: 43d4 01be 0cd0 c33d 9ef7 a8bc 309b 09bf
00000280: f476 94bd 5944 bcbd c324 c4bd f68b 6fbd
00000290: c2d2 a4be b580 0f3c 42de 9abc 3454 1abe
000002a0: 85c3 43bc a15e 3abe 606a 2c3d 836e 12be
000002b0: 6279 f8bd 4a6f 9cbb 8878 d23d 0e1d dcbd
000002c0: b414 06be 214a 683c 0c91 0bbe 3229 98bd
000002d0: b2aa a9bd 8b50 afbd 96c1 eebd a4bb c0bd
000002e0: 843f bdbd ec43 88bd 987f 41bc 6f3d cd3b
000002f0: 28c5 d2bd e278 53bd d010 43be ebcd 4fbe
00000300: 8e1c f1bd 86b6 42be 796a 1ebf b266 a6bd
00000310: 59c6 33bd b79b 6cbd dd72 04be 37be 1c3d
00000320: e8b4 ec3c 6b8c a7bd 0862 09bb c2f1 d03d
00000330: 6638 c2bd b0ec 7cbc 02c6 86bc 1fcd a6bd
00000340: 3d08 b2bd 7d21 e53c 8fdc 12be 4492 77ba
00000350: 12cf 66bd 04a4 20be a1b8 10be 2ccb 04bd
00000360: b157 23bd c86a 4ebd dcd8 493b 4f4e 953c
00000370: c987 bfbd c0a6 ecbd 469e 6cbd ee6a 3abe
00000380: 6a09 34be 9e05 59bd b685 313d ccd6 503d
00000390: 07bb 623d a488 13be c06d 1cbe e919 1dbe
000003a0: d81f d7bd cbef 1fbd 271c 2bbe 9205 ddbd
000003b0: cb06 bd3c cf3d 2abd 4989 62bc 7e97 e93d
000003c0: 67fc b5bc 7f9a a9bd f1ca 853d 869a 7fbd
000003d0: a576 02bf be1a b4bd 336e 3dbe 3790 2cbe
000003e0: 38f0 66bd 6bc9 023e 77cf debd cad9 83bd
000003f0: a645 073c 6a97 d4ba 8be8 4cbe 8026 573c

lstm.weight_hh_l0 f4 [400, 100]
-0.058325727 0.08525987 0.04511752 0.009727562 -0.07641953 0.092270866 -0.041304465 0.08950223
-0.10063859 -0.12800923 -0.1539117 0.008291067 -0.058947816 0.05737144 -0.12487418 0.058875706
0.123219475 0.020181678 0.044897288 -0.029918693 0.043983486 -0.008933875 0.028758617 -0.034739222
0.067331426 0.029814763 0.07351698 0.032727666 0.09363111 -0.09016691 -0.08476965 0.07705035
0.102783225 0.031236636 0.09031835 0.012903116 0.111692585 -0.02619981 -0.11491117 0.10246961
-0.1065903 0.01673202 -0.03619451 0.014806993 -0.075688235 -0.049258795 -0.044521946 0.07972177
0.12669352 0.034110874 0.07074464 -0.030709155 -0.13741446 -0.036607478 0.118400306 0.0100518195
-0.07131364 -0.008682506 -0.09477918 -0.17155908 0.09719174 -0.04948074 0.0066553857 0.005954613
-0.059893947 0.11140127 0.02526039 -0.022558533 0.087095134 -0.124272846 0.04258699 -0.046909228
0.08572952 -0.120397314 0.09746823 0.037177414 -0.08354242 0.040460214 0.102516495 -0.012188581
0.018749034 -0.08286697 0.06081356 0.08353413 -0.08219139 -0.1074582 0.060157053 0.057683438
-0.055577446 0.008317617 0.1711057 -0.06594485 0.09362178 0.024765313 -0.07747297 0.019646723
0.090659104 0.008214228 -0.025694704 0.06321719 0.1476289 -0.036062606 0.03352023 0.104797386
-0.13724062 0.12509228 -0.18703893 0.0336531 0.0046472033 -0.023675978 0.12981166 0.16578582
-0.08004715 -0.117236555 0.011745245 -0.02328087 0.077804975 -0.18966603 -0.027442018 0.1053281
-0.05708577 0.14198568 -0.09771106 -0.044888876 -0.00031954728 0.027827399 0.26055813 -0.005994658
-0.018049428 0.11628324 -0.006469766 -0.08069272 -0.018462615 0.064812474 0.08784107 -0.03293447
0.017890455 0.07679123 0.13151258 0.012351836 0.16562638 0.043700326 -0.10116196 -0.04915081
0.14814353 0.07391155 -0.04208172 0.06838468 -0.015838088 0.0036967932 -0.05030998 0.0777239
0.07946903 0.11134925 0.107726865 -0.0044300617 -0.024402538 0.08376738 -0.027045092 0.03024486
0.1060871 0.14156988 0.052787296 0.48270807 -0.0007252266 -0.10084115 -0.081723265 -0.20169888
-0.05591283 0.048399206 -0.13935392 -0.13387977 -0.050907012 0.020686269 -0.14495209 0.0034020669
0.08644346 -0.083182685 -0.03528887 -0.052850258 -0.05280252 0.1913964 0.039168335 0.1604574
0.094241574 0.21258065 0.0035172165 0.037690762 0.0015328572 -0.012403972 -0.017895086 -0.044220746
-0.04274141 -0.15352294 -0.15952863 -0.043183252 -0.15038666 -0.07217656 0.09170923 -0.15330182
0.023831798 -0.033839494 -0.10668449 0.11632417 0.04535447 -0.021982703 -0.12552433 -0.10525834
0.107900776 -0.076763645 -0.021930603 0.04517459 -0.038289234 0.005936146 -0.06318215 0.027738879
0.09450216 0.029928286 0.0017229936 0.1420766 -0.097241215 0.14057252 0.034896124 -0.1365306
0.023301095 -0.038788315 0.1005218 -0.11434093 -0.11868058 0.10358983 0.13777503 -0.06799289
-0.092088245 0.07328087 -0.026947271 0.0990918 -0.05954004 0.121891834 -0.02421879 -0.06481264
-0.01223815 -0.01761932 0.0005122686 0.094385535 0.05522452 -0.013650256 0.09292579 0.107903235
0.055903085 0.10015931 0.06765144 -0.015991196 0.05867971 0.0035298176 0.124243915 0.05047461
00000000: f5e6 6ebd ba9c ae3d 26cd 383d 5a60 1f3c
00000010: d881 9cbd 82f8 bc3d df2e 29bd f24c b73d
00000020: 9b1b cebd da14 03be 079b 1dbe 41d7 073c
00000030: 4473 71bd 51fe 6a3d 09be ffbd a727 713d
00000040: 7e5a fc3d 0c54 a53c 38e6 373d 0c18 f5bc
00000050: 0728 343d 635f 12bc 3197 eb3c b74a 0ebd
00000060: 0fe5 893d 173e f43c 1290 963d 720d 063d
00000070: abc1 bf3d 6ea9 b8bd b69b adbd 93cc 9d3d
00000080: 0380 d23d f9e3 ff3c d4f8 b83d 9767 533c
00000090: 15bf e43d fca0 d6bc 8c56 ebbd 96db d13d
000000a0: 044c dabd 9711 893c b240 14bd 0899 723c
000000b0: 6f02 9bbd 97c3 49bd a55c 36bd 2b45 a33d
000000c0: f2bb 013e d8b7 0b3d 91e2 903d c491 fbbc
000000d0: 60b6 0cbe b9f1 15bd dc7b f23d 63b0 243c
000000e0: e30c 92bd 1241 0ebc 961b c2bd 2fad 2fbe
000000f0: 770c c73d 51ac 4abd 6c15 da3b ea1e c33b
00000100: 5b53 75bd 5926 e43d e1ee ce3c accc b8bc
00000110: ef5e b23d c382 febd b26f 2e3d e423 40bd
00000120: f592 af3d de92 f6bd 6c9d c73d 5847 183d
00000130: 4a18 abbd 9cb9 253d 2bf4 d13d 9db2 47bc
00000140: 9397 993c 28b6 a9bd a417 793d f113 ab3d
00000150: f653 a8bd 0b13 dcbd 3e67 763d 7845 6c3d
00000160: 2da5 63bd 9d46 083c 5536 2f3e 180e 87bd
00000170: c7bc bf3d a0e0 ca3c 26aa 9ebd 2af2 a03c
00000180: 7bab b93d f894 063c b37d d2bc 0478 813d
00000190: 082c 173e 62b6 13bd 824c 093d 03a0 d63d
000001a0: ce88 0cbe 3118 003e 2287 3fbe d5d7 093d
000001b0: 9147 983b 20f4 c1bc 59ed 043e c2c3 293e
000001c0: c3ef a3bd b819 f0bd 216f 403c 86b7 bebc
000001d0: 3758 9f3d d037 42be 15ce e0bc 42b6 d73d
000001e0: c5d2 69bd b264 113e bc1c c8bd 66dd 37bd
000001f0: e988 a7b9 49f6 e33c e067 853e d66e c4bb
00000200: 65dc 93bc e825 ee3d 5500 d4bb 3a42 a5bd
00000210: e93e 97bc 67bc 843d 05e6 b33d 4be6 06bd
00000220: 018f 923c b844 9d3d 3cab 063e 5b5f 4a3c
00000230: f699 293e 1dff 323d 002e cfbd 5c52 49bd
00000240: f0b2 173e f05e 973d e25d 2cbd 440d 8c3d
00000250: e1be 81bc e645 723b d611 4ebd b52d 9f3d
00000260: a9c0 a23d 130b e43d e79f dc3d 0d2a 91bb
00000270: d5e7 c7bc 3b8e ab3d ab8d ddbc 12c4 f73c
00000280: 3244 d93d b2f7 103e 7e37 583d 8325 f73e
00000290: 221d 3eba ce85 cebd 875e a7bd 278a 4ebe
000002a0: da04 65bd 3f3e 463d cbb2 0ebe c717 09be
000002b0: df83 50bd 4076 a93c 526e 14be 36f5 5e3b
000002c0: 4509 b13d af5b aabd 108b 10bd 8379 58bd
000002d0: 7547 58bd 6bfd 433e fa6e 203d f24e 243e
000002e0: ba01 c13d beae 593e 1a81 663b a161 1a3d
000002f0: 27ea c83a 083a 4bbc b798 92bc d020 35bd
00000300: 9e11 2fbd 1e35 1dbe 795b 23be ece0 30bd
00000310: f6fe 19be 4ed1 93bd 0cd2 bb3d 27fb 1cbe
00000320: e73a c33c 489b 0abd 667d dabd 5e3b ee3d
00000330: 9cc5 393d 1215 b4bc 7389 00be af91 d7bd
00000340: 15fb dc3d 4236 9dbd cfa7 b3bc fe08 393d
00000350: 2cd5 1cbd 0084 c23b a565 81bd a53c e33c
00000360: 598a c13d 2a2c f53c 12d6 e13a 877c 113e
00000370: 6726 c7bd 3ef2 0f3e 3def 0e3d adce 0bbe
00000380: f0e1 be3c 7fe0 1ebd 60de cd3d 942b eabd
00000390: ce0e f3bd e826 d43d e614 0d3e db3f 8bbd
000003a0: c398 bcbd 4814 963d 86c0 dcbc a4f0 ca3d
000003b0: 42e0 73bd 6da2 f93d 7c66 c6bc 7dbc 84bd
000003c0: 8682 48bc 6456 90bc c449 063a 344d c13d
000003d0: 1b33 623d 53a5 5fbc e04f be3d 5ffc dc3d
000003e0: a2fa 643d 5320 cd3d d78c 8a3d f8ff 82bc
000003f0: 235a 703d 8354 673b 9873 fe3d 77be 4e3d

lstm.bias_ih_l0 f4 [400]
-0.04316239 -0.030222483 0.022387825 0.17182262 -0.025409535 -0.14679624 0.04264245 -0.13400638
-0.036534294 0.06936101 -0.15165128 -0.19695652 0.050396945 -0.0063138604 -0.021804776 -0.11805803
0.07494756 -0.07380327 0.010212924 0.04918728 0.03441193 0.02657716 -0.11369436 -0.064555235
-0.082755096 -0.10429031 0.05822582 0.097683705 -0.14624277 -0.07332786 -0.10864186 -0.048216768
-0.193767 0.010864537 0.032662336 -0.08896015 -0.09901412 0.026225967 -0.10485788 0.08908829
-0.117330834 -0.0066707917 -0.01423329 -0.14249687 -0.014038112 -0.13842791 -0.0564877 -0.014175852
0.041586973 -0.13701816 -0.062577374 0.08962924 -0.22748931 0.09107261 -0.022993244 0.08791629
-0.006659875 -0.04533153 -0.015648583 0.06311606 -0.029714273 -0.12336563 -0.2505224 0.09791258
-0.028634144 -0.11268902 -0.029904095 -0.04155666 -0.120435685 0.0151497265 -0.002820621 -0.047695395
0.055754703 -0.06363407 -0.0018837715 -0.1396304 -0.26930013 -0.12570034 -0.11972313 -0.20606938
-0.14229874 -0.12665588 0.087252975 0.053009145 -0.16140921 -0.13265347 -0.12062564 -0.07605372
0.011354046 -0.10657368 0.018078638 -0.07905994 -0.015594953 0.05488712 -0.068573445 0.035797454
0.15021583 -0.17040798 -0.030577952 -0.08873352 0.0676836 -0.06209012 -0.14714168 -0.04710117
-0.090399005 -0.19971722 -0.10298376 -0.14557987 -0.11516387 0.04605285 -0.025253715 -0.19446054
-0.019462362 -0.11982202 -0.03554099 -0.06587871 -0.31986985 -0.15503053 0.06037471 -0.07465634
-0.06945559 -0.011861314 -0.04875176 -0.046071414 -0.07942527 -0.19764592 0.09197107 -0.009458846
-0.02615483 -0.08967681 -0.06350935 0.010456385 -0.1016856 0.00074735156 -0.11363715 -0.050068755
-0.042826753 -0.015433134 -0.1829191 -0.058720972 -0.083444126 -0.0717526 -0.1101104 -0.037324123
0.013413492 -0.18064596 -0.16205256 0.004497914 -0.08535029 -0.08694438 -0.09076443 -0.01976053
-0.087319486 -0.102251776 -0.13365796 -0.047298383 -0.09498734 0.009185985 -0.042041276 -0.18616606
-0.10157315 -0.025252568 -0.24832977 0.112224974 -0.13071033 -0.0994895 -0.047783196 -0.11946613
-0.11266802 -0.05459898 0.056348596 -0.03731398 -0.0036751567 -0.06620915 -0.045775056 -0.07708196
-0.2466556 -0.0002566717 -0.15936068 -0.19142124 -0.006806759 -0.15779299 0.013069326 0.03701751
-0.13496546 -0.017156936 -0.09854333 -0.15237719 0.06493173 0.007882427 -0.109762125 -0.067326725
0.017672608 -0.09364881 -0.13156813 -0.13787939 0.04685228 -0.16675219 -0.09754176 -0.13917388
-0.04092279 -0.046283856 0.02807553 0.098722234 0.07792905 -0.0053346483 0.08771467 0.040166795
0.034702335 0.11069609 0.11777574 -0.04737543 -0.033515345 0.059583895 -0.0031686586 -0.06954102
-0.08975888 0.015572687 -0.00944813 0.01650026 0.06344935 -0.03530688 0.09447155 -0.088755846
-0.019742368 0.05883962 -0.00425392 -0.009034766 0.010988063 -0.007784008 0.034740567 0.033517774
-0.049137224 -0.040293954 0.032036092 0.07382687 0.025900993 -0.018862171 0.11109242 -0.02835075
-0.089704 0.015419873 0.04288703 0.024927055 -0.017608996 -0.11439133 -0.013331604 -0.101975694
-0.03106693 -0.04063649 -0.012353382 0.0026084431 0.09087202 0.0014273461 -0.058853045 -0.008927419
00000000: 0ccb 30bd 2495 f7bc ac66 b73c 45f2 2f3e
00000010: a827 d0bc c151 16be daa9 2e3d f838 09be
00000020: fca4 15bd 250d 8e3d 794a 1bbe f8ae 49be
00000030: 076d 4e3d 80e4 cebb ee9f b2bc 69c8 f1bd
00000040: 1b7e 993d 2b26 97bd 1c54 273c 9a78 493d
00000050: 86f3 0c3d 58b8 d93c 97d8 e8bd 8935 84bd
00000060: 817b a9bd 2896 d5bd 337e 6e3d 650e c83d
00000070: aac0 15be eb2c 96bd a07f debd f27e 45bd
00000080: db6a 46be 2c01 323c f1c8 053d bd30 b6bd
00000090: eac7 cabd d7d7 d63c babf d6bd ec73 b63d
000000a0: 264b f0bd a896 dabb bf32 69bc b3ea 11be
000000b0: 1c00 66bc 0cc0 0dbe a65f 67bd d541 68bc
000000c0: 1a57 2a3d 7d4e 0cbe 9128 80bd 898f b73d
000000d0: f5f2 68be 4784 ba3d 545c bcbc 750d b43d
000000e0: 153b dabb 8ead 39bd 7531 80bc fe42 813d
000000f0: 596b f3bc 1fa7 fcbd 7944 80be 6486 c83d
00000100: 2792 eabc 80c9 e6bd 6ff9 f4bc 5137 2abd
00000110: fca6 f6bd 8f36 783c 2bda 38bb 3f5c 43bd
00000120: 0b5f 643d 9452 82bd e2e8 f6ba 46fb 0ebe
00000130: b5e1 89be 97b7 00be 6631 f5bd da03 53be
00000140: c3b6 11be 14b2 01be b0b1 b23d 1e20 593d
00000150: 7548 25be 50d6 07be 930a f7bd 0ec2 9bbd
00000160: 5206 3a3c 4d43 dabd a719 943c 2eea a1bd
00000170: f981 7fbc 51d1 603d 3c70 8cbd 5aa0 123d
00000180: 2ed2 193e 6e7f 2ebe 9d7e fabc ebb9 b5bd
00000190: b39d 8a3d 3652 7ebd 4fac 16be 28ed 40bd
000001a0: 1d23 b9bd ac82 4cbe 26e9 d2bd e412 15be
000001b0: 09db ebbd eaa1 3c3d e1e0 cebc aa20 47be
000001c0: 886f 9fbc 3f65 f5bd 6e93 11bd 6beb 86bd
000001d0: fbc5 a3be 53c0 1ebe 794b 773d 6ce5 98bd
000001e0: bb3e 8ebd f555 42bc edaf 47bd 61b5 3cbd
000001f0: b7a9 a2bd b163 4abe 545b bc3d 47f9 1abc
00000200: a742 d6bc 7aa8 b7bd 3111 82bd 4251 2b3c
00000210: 8a40 d0bd eae9 433a 98ba e8bd e514 4dbd
00000220: 1b6b 2fbd 41db 7cbc 254f 3bbe 6785 70bd
00000230: c1e4 aabd 07f3 92bd 9081 e1bd 2ee1 18bd
00000240: 43c4 5b3c 41fb 38be 1bf1 25be 3d63 933b
00000250: 22cc aebd e50f b2bd b4e2 b9bd d6e0 a1bc
00000260: 8fd4 b2bd 6169 d1bd a2dd 08be f3bb 41bd
00000270: b988 c2bd d080 163c 7933 2cbd 51a2 3ebe
00000280: 9505 d0bd 79de cebc 294a 7ebe 35d6 e53d
00000290: eed8 05be 27c1 cbbd 50b8 43bd a9aa f4bd
000002a0: 7ebe e6bd 2ea3 5fbd c9cd 663d 8bd6 18bd
000002b0: e6da 70bb aa98 87bd a07e 3bbd 26dd 9dbd
000002c0: 4993 7cbe e491 86b9 722f 23be ee03 44be
000002d0: 3c0b dfbb 7c94 21be ba20 563c ac9f 173d
000002e0: 6334 0abe b48c 8cbc 16d1 c9bd c408 1cbe
000002f0: edfa 843d 4c25 013c f7ca e0bd 98e2 89bd
00000300: 25c6 903c f3ca bfbd ccb9 06be 4130 0dbe
00000310: 2de8 3f3d 16c1 2abe f9c3 c7bd 9983 0ebe
00000320: a89e 27bd 2494 3dbd a7fe e53c e22e ca3d
00000330: 4499 9f3d 46ce aebb c0a3 b33d f085 243d
00000340: 0924 0e3d a2b4 e23d 6834 f13d bd0c 42bd
00000350: 6347 09bd 3e0e 743d 45a9 4fbb 866b 8ebd
00000360: 81d3 b7bd 9524 7f3c 54cc 1abc 8e2b 873c
00000370: bcf1 813d f29d 10bd 4d7a c13d a0c5 b5bd
00000380: bfba a1bc d001 713d 7864 8bbb 8e06 14bc
00000390: 4707 343c fe10 ffbb 204c 0e3d ef49 093d
000003a0: 1d44 49bd 460b 25bd 4738 033d 8b32 973d
000003b0: 522e d43c d784 9abc 6c84 e33d d53f e8bc
000003c0: bbb6 b7bd a3a3 7c3c 4faa 2f3d d333 cc3c
000003d0: be40 90bc 0046 eabd cd6c 5abc a2d8 d0bd
000003e0: 1380 febc 7372 26bd d765 4abc 6af2 2a3b
000003f0: 1c1b ba3d ca15 bb3a e40f 71bd 4f44 12bc

lstm.bias_hh_l0 f4 [400]
-0.0006722717 -0.015216578 0.0029897513 0.12942372 -0.014425572 -0.06014169 0.009475496 0.02379925
-0.08051072 -0.022184148 -0.119886704 -0.015628923 0.0509323 -0.07223142 -0.14205785 -0.12976076
-0.008755746 -0.07089219 0.03179839 -0.051887333 -0.0013299003 -0.031183872 0.005186338 0.017278273
-0.19056971 -0.106774524 0.056202322 0.11695284 -0.09369891 -0.08106931 -0.15831429 0.020639658
-0.047350977 -0.10000728 -0.118276544 -0.07774513 -0.10096978 0.09866459 -0.14498386 -0.09646851
-0.15645498 0.05505577 -0.051738612 -0.16384783 -0.020323966 -0.16627887 -0.20599763 0.058389924
0.06651974 -0.20332672 -0.10882861 -0.06953 -0.17304666 0.07234328 -0.08455224 -0.0812134
-0.06964721 -0.09969669 -0.18727723 0.0297351 0.002848946 -0.12137858 -0.13596544 0.16758676
0.012547955 -0.043186873 0.054504808 -0.18341216 -0.14289089 -0.05948775 -0.09555499 -0.0030631456
0.1319537 0.0043728007 0.02306473 -0.051217254 -0.07231073 -0.08542933 -0.17190835 -0.171775
-0.13799013 -0.04457522 0.0017755242 -0.050553337 -0.11988944 -0.16869602 -0.15288705 -0.06405893
0.06626261 -0.08305218 0.061850425 0.0027179995 0.008625353 -0.062488537 -0.10339519 0.023432918
0.09985333 -0.12453476 0.06945526 0.0050929333 -0.09152105 0.006539582 -0.124940716 0.03410904
-0.087580785 -0.14605993 0.052828528 -0.09452344 -0.152151 0.007298339 -0.16215649 -0.04081797
-0.09291958 0.010072025 0.018278847 -0.13988942 -0.3308557 -0.18072726 -0.12620434 -0.026492834
-0.040264238 -0.017494958 -0.052886162 -0.17139259 -0.20058767 -0.16598769 0.042023063 -0.10529446
-0.14647372 -0.19161835 -0.0253463 0.026971139 -0.14034994 -0.11502404 -0.041838724 0.037336778
-0.043171495 0.0018742704 -0.04157183 -0.03972521 -0.18188615 -0.054595705 -0.14616257 -0.14156759
0.019179057 -0.100661084 -0.1690409 -0.12344904 -0.03271935 -0.070645444 0.03839435 0.041624676
-0.09848938 -0.032735627 -0.04847979 -0.06661057 -0.115727715 -0.1182832 -0.062229183 -0.14287935
-0.120375834 0.0351014 -0.23577787 0.1924274 -0.12626846 -0.073142365 -0.08446352 -0.04494151
-0.08475205 -0.05170385 0.014117988 -0.054387014 -0.13892585 -0.09169731 -0.059961736 -0.048637323
-0.09332462 -0.049266223 -0.035308383 -0.14828368 0.030161116 -0.03409253 -0.035377365 -0.11856801
-0.0229894 0.0030945775 -0.034334388 -0.08674806 -0.02005693 -0.009732843 -0.18319187 -0.00802608
-0.04562545 -0.15587585 -0.18501349 -0.17762202 -0.049539734 -0.102994464 0.0045879357 -0.08205979
-0.061297987 -0.021856874 0.024247332 -0.055124175 0.028826246 -0.039731734 -0.09128912 0.0088265585
0.07427298 -0.0073029264 0.0070228507 0.06393547 0.047504187 -0.018242285 0.02804703 -0.085648164
-0.09474603 -0.022952989 0.07491957 -0.029952988 0.020229151 -0.011566207 -0.004773299 0.024859358
0.082895435 -0.104081035 -0.02927019 -0.08112048 -0.08477415 -0.080272675 -0.03509351 -0.029321307
0.033382393 -0.023152262 -0.06641018 0.0277135 -0.02447968 -0.029487113 0.015595874 -0.09423572
-0.050334387 0.092220195 0.07442443 -0.0014751982 0.036035445 -0.0020812233 0.054861635 -0.03389745
-0.021587322 0.03741647 -0.10173537 -0.066334106 -0.065699935 -0.07791587 0.026220528 -0.06474096
00000000: 643b 30ba f44e 79bc b4ef 433b a787 043e
00000010: 3c59 6cbc 2257 76bd 1c3f 1b3c a5f6 c23c
00000020: cee2 a4bd 88bb b5bc 2987 f5bd 3a08 80bc
00000030: 639e 503d 11ee 93bd 9d77 11be 01e0 04be
00000040: 4374 0fbc ed2f 91bd 073f 023d d087 54bd
00000050: 0d50 aeba 5275 ffbc 28f2 a93b 2a8b 8d3c
00000060: b524 43be 9aac dabd 6834 663d f884 ef3d
00000070: 37e5 bfbd ab07 a6bd 241d 22be 8014 a93c
00000080: 19f3 41bd 9ed0 ccbd f93a f2bd d738 9fbd
00000090: 3ec9 cebd a910 ca3d a676 14be 4891 c5bd
000000a0: bc35 20be 2982 613d deeb 53bd bac7 27be
000000b0: 727e a6bc 0245 2abe 0bf1 52be 462a 6f3d
000000c0: 803b 883d e134 50be 89e1 debd bf65 8ebd
000000d0: 2533 31be b728 943d ba29 adbd 3653 a6bd
000000e0: 32a3 8ebd c72d ccbd 9ac5 3fbe 0697 f33c
000000f0: 62b5 3a3b 5595 f8bd 863a 0bbe dd9b 2b3e
00000100: f095 4d3c b8e4 30bd 6f40 5f3d 66d0 3bbe
00000110: fd51 12be 6da9 73bd 56b2 c3bd 0ebf 48bb
00000120: df1e 073e b649 8f3b 3ff2 bc3c 2fc9 51bd
00000130: a617 94bd 93f5 aebd be08 30be c9e5 2fbe
00000140: 494d 0dbe 8294 36bd b5b8 e83a 0411 4fbd
00000150: 9888 f5bd a6be 2cbe 6c8e 1cbe 5431 83bd
00000160: b1b4 873d 4317 aabd df56 7d3d 7720 323b
00000170: 5a51 0d3c fbf3 7fbd dbc0 d3bd 64f6 bf3c
00000180: e77f cc3d 150c ffbd 8f3e 8e3d 9fe2 a63b
00000190: 636f bbbd fd49 d63b ebe0 ffbd ecb5 0b3d
000001a0: 8e5d b3bd bc90 15be ba62 583d 8195 c1bd
000001b0: 79cd 1bbe e826 ef3b 5a0c 26be be30 27bd
000001c0: 9f4c bebd 2205 253c 85bd 953c 2c3f 0fbe
000001d0: eb65 a9be 9110 39be b63b 01be 8007 d9bc
000001e0: 1dec 24bd 9651 8fbc 299f 58bd 8a81 2fbe
000001f0: db66 4dbe adf8 29be 6020 2c3d 9fa4 d7bd
00000200: 35fd 15be 9a37 44be 0ba3 cfbc 94f2 dc3c
00000210: e5b7 0fbe b991 ebbd 155f 2bbd 73ee 183d
00000220: 98d4 30bd 14aa f53a 3947 2abd e7b6 22bd
00000230: 5d40 3abe bf9f 5fbd a4ab 15be 18f7 10be
00000240: 661d 9d3c 6627 cebd 0f19 2dbe dad2 fcbd
00000250: ba04 06bd 8fae 90bd 6543 1d3d a37e 2a3d
00000260: cdb4 c9bd cb15 06bd bf92 46bd 1f6b 88bd
00000270: a702 edbd 763e f2bd 07e4 7ebd f74e 12be
00000280: 9b87 f6bd 7cc6 0f3d c16f 71be b00b 453e
00000290: 854c 01be aacb 95bd 36fb acbd 9714 38bd
000002a0: 7c92 adbd 6bc7 53bd 224f 673c ebc4 5ebd
000002b0: 9442 0ebe cdcb bbbd 709a 75bd ee37 47bd
000002c0: fa20 bfbd 61cb 49bd 869f 10bd add7 17be
000002d0: 7214 f73c 9ca4 0bbd dbe7 10bd c9d3 f2bd
000002e0: 4454 bcbc 65ce 4a3b 37a2 0cbd f8a8 b1bd
000002f0: 6e4e a4bc 8176 1fbc a696 3bbe d27f 03bc
00000300: c0e1 3abd eb9d 1fbe 2d74 3dbe 8ce2 35be
00000310: 2dea 4abd c3ee d2bd 6556 963b f70e a8bd
00000320: 9913 7bbd 300d b3bc 57a2 c63c e3c9 61bd
00000330: 0525 ec3c bebd 22bd caf5 babd 459d 103c
00000340: 6f1c 983d 634d efbb f11f e63b 9af0 823d
00000350: c093 423d d870 95bc e3c2 e53c 4e68 afbd
00000360: 350a c2bd e807 bcbc 6e6f 993d f85f f5bc
00000370: 9bb7 a53c 3080 3dbc 5669 9cbb daa5 cb3c
00000380: 15c5 a93d 7028 d5bd 0ac8 efbc 7f22 a6bd
00000390: 129e adbd 0066 a4bd 36be 0fbd 3d33 f0bc
000003a0: fabb 083d d0a9 bdbc 0f02 88bd 6c07 e33c
000003b0: 9c89 c8bc f58e f1bc d685 7f3c a8fe c0bd
000003c0: 6e2b 4ebd f1dd bc3d d66b 983d 705b c1ba
000003d0: e799 133d 2265 08bb 98b6 603d 0dd8 0abd
000003e0: e5d7 b0bc 0342 193d a25a d0bd 2dda 87bd
000003f0: b08d 86bd 5b92 9fbd 6fcc d63c e996 84bd

linear.weight f4 [1, 100]
-0.12390014 0.0042696227 -0.03497524 -0.16877 0.112972096 -0.05110554 0.11962104 -0.04115411
-0.005211324 0.07082139 -0.030369028 -0.05097802 0.1250003 0.03248981 0.043569535 -0.061639182
-0.1726199 0.15909809 0.04425581 0.094248846 -0.006064506 -0.11792578 0.11117339 -0.066727415
-0.014833643 -0.057866804 -0.1414987 0.1557974 0.004628003 0.038467556 0.0139146065 0.103412904
0.020728603 0.046686783 -0.062992 0.07801188 -0.066701844 0.103001215 0.0024250108 -0.08681326
-0.04032092 0.0803306 -0.009582441 0.0022593627 -0.015141207 -0.0429947 0.0092848465 -0.04646548
-0.1508024 -0.08324712 0.006769424 -0.14160188 0.014690084 -0.11399894 -0.027734352 -0.119024456
0.10796421 -0.0022235748 -0.044922493 0.16393635 -0.0810614 0.005738631 0.0075857653 -0.20302494
0.060838018 -0.042364977 0.07191859 0.06425388 0.09125567 0.048249826 0.048693653 -0.06612429
-0.11938813 0.023588192 -0.051232588 0.039716966 0.07725198 -0.011585125 0.01376715 -0.05417992
0.043043204 -0.07557492 -0.0011241464 -0.045997266 -0.046960466 -0.020709952 0.023543498 -0.06126863
0.06122573 0.034135707 -0.11410463 0.09406872 0.10277095 0.0866239 0.049687997 0.0732444
0.25874186 -0.012599659 -0.037091784 0.02104056
00000000: 5bbf fdbd 31e8 8b3b 3242 0fbd 0bd2 2cbe
00000010: ea5d e73d 0b54 51bd e0fb f43d 3691 28bd
00000020: c1c3 aabb ce0a 913d 78c8 f8bc 54ce 50bd
00000030: 1400 003e 0914 053d f875 323d 5e79 7cbd
00000040: 45c3 30be 9cea 223e 9545 353d 8a05 c13d
00000050: c3b8 c6bb 1283 f1bd e0ae e33d 62a8 88bd
00000060: cf08 73bc be05 6dbd 09e5 10be 5b89 1f3e
00000070: 81a6 973b 2890 1d3d 17fa 633c 25ca d33d
00000080: 08cf a93c a43a 3f3d f301 81bd b1c4 9f3d
00000090: fa9a 88bd 4df2 d23d eeec 1e3b 27cb b1bd
000000a0: 8d27 25bd 5f84 a43d acff 1cbc d111 143b
000000b0: d312 78bc 361b 30bd 781f 183c 9652 3ebd
000000c0: f26b 1abe 777d aabd 0bd2 dd3b 1500 11be
000000d0: aeae 703c 4778 e9bd 2733 e3bc 18c3 f3bd
000000e0: 571c dd3d 65b9 11bb a600 38bd eede 273e
000000f0: 8503 a6bd 200b bc3b 0392 f83b c5e5 4fbe
00000100: 4931 793d e686 2dbd 0e4a 933d 8a97 833d
00000110: 41e4 ba3d 9ca1 453d ff72 473d 2c6c 87bd
00000120: c481 f4bd 063c c13c 43d9 51bd 42ae 223d
00000130: 4936 9e3d 89cf 3dbc 9d8f 613c c4eb 5dbd
00000140: 124e 303d 06c7 9abd 1858 93ba a167 3cbd
00000150: 9e59 40bd eba7 a9bc 4bde c03c d1f4 7abd
00000160: d5c7 7a3d e2d1 0b3d b0af e9bd 1aa7 c03d
00000170: 9379 d23d df67 b13d a485 4b3d 2901 963d
00000180: d079 843e cd6e 4ebc 8eed 17bd 415d ac3c
