model/1721470943_model-aapl.pth (torch, 174356 bytes, 5 tensors)

lstm.weight_ih_l0 f4 [400, 5]
000000 bd ca 06 be 7f aa 43 bd 7d ed 04 be 58 b7 e2 bd
       -0.13163276 -0.04777002 -0.1298122 -0.11070126
000010 a3 04 e4 3d c6 93 ab bd fa df 2e 3b a3 dd 06 bd
       0.11133697 -0.08377795 0.0026683793 -0.032926213
000020 05 b8 13 bd 38 ef 89 3d e8 bc 3f be 57 8e e2 bd
       -0.036064167 0.067350805 -0.18724406 -0.110623054
000030 e9 c6 eb bd 4e 8d c3 bd bf 23 86 bc e3 7b 0c 3d
       -0.115125485 -0.09548436 -0.016374467 0.034297835
000040 a4 ae 89 bd 4e c4 ea bd ec e9 f8 bc 45 2f c1 3c
       -0.06722763 -0.114632234 -0.03038498 0.02358211
000050 42 09 bd bd d8 e7 38 bd 67 85 9d bd 9d f5 9b bd
       -0.092302814 -0.04514298 -0.0769146 -0.076152064
000060 36 ea 89 3e 96 f5 36 bd 43 ca 88 bd 02 38 c1 3c
       0.269365 -0.044667803 -0.06679203 0.023586277
000070 d3 30 a0 bc c7 1c f5 bc 61 83 21 be 71 df 1f be
       -0.019554531 -0.029920949 -0.15772773 -0.1561258
000080 50 e5 b4 bd e7 23 82 be 4a 19 3b be d9 dc 6b 3c
       -0.088328004 -0.25418016 -0.18271366 0.014395916
000090 aa b7 01 bc 03 9f 52 bd 78 99 9f 3d a9 f4 ce be
       -0.007917324 -0.051421177 0.07792944 -0.40421036
0000a0 1c 5f 78 bd 86 da 27 bc 80 51 f6 bc 33 ad c3 bd
       -0.06063758 -0.010244971 -0.03006816 -0.095545195
0000b0 8c 56 98 be fd 58 1a be 93 2d c4 bd fb cb 19 be
       -0.2975353 -0.15073009 -0.09579005 -0.15019219
0000c0 30 e1 06 be 93 d5 35 bd fd 37 70 3d 5a 03 97 bd
       -0.1317184 -0.044393133 0.058647145 -0.07373686
0000d0 84 53 72 3d 36 54 be bd d9 8d f8 3d 87 d8 b2 bc
       0.059161678 -0.09293406 0.1213643 -0.021831764
0000e0 4c 81 b5 3c 11 09 e5 3c ef c1 19 3d a1 b8 a1 bc
       0.02215638 0.027958425 0.037538465 -0.019741358
0000f0 06 08 94 bd 93 ab e7 bd 19 b7 88 bd 2d f0 b5 bd
       -0.07228093 -0.11312022 -0.06675548 -0.088837005
000100 6a 73 2e 3d 0d 92 45 be 58 65 c3 bd b3 7b 3a be
       0.042590536 -0.19293995 -0.09540814 -0.1821125
000110 1e fe 56 be e0 8a a2 3e 57 e6 3f bd 43 6c 92 bd
       -0.20995376 0.31746578 -0.04685053 -0.071495555
000120 de 09 82 bd e4 a8 69 bd 53 38 fd be f1 70 ed bd
       -0.06349538 -0.057045832 -0.49457034 -0.115938075
000130 1f 7d 68 bd aa 10 82 3c 97 71 06 3d b9 5c 9d 3e
       -0.05675995 0.015877087 0.03282317 0.30734804
000140 68 2d bf 3c 2a 3c 5a bd d8 2f 9d bc 06 dc 83 3d
       0.023337081 -0.053280033 -0.019187853 0.064384505
000150 f3 7a 80 3d d7 e5 20 bc 6b 92 fc 3d d3 d5 87 bc
       0.06273451 -0.009820423 0.123326145 -0.016581452
000160 09 a3 a9 3d 04 95 c4 bd bf 8f e3 bd 28 d4 12 bc
       0.082830496 -0.09598735 -0.11111402 -0.008961715
000170 e4 49 71 3d 5b 6b 57 bd a7 35 ce bd e5 ca 19 3d
       0.05890836 -0.052592617 -0.10068827 0.03754701
000180 0c 1f 8d bd a3 7b 03 bc 46 08 16 bd 77 d3 84 bd
       -0.06890687 -0.008025083 -0.036628984 -0.06485646
000190 44 d2 10 be 2d 5b c2 bc 87 a4 e4 bd 72 a9 57 be
       -0.1414271 -0.023725117 -0.111641936 -0.21060732
0001a0 8f 16 95 bd 58 e9 f8 bc be b9 0c be 60 7c dc bd
       -0.07279693 -0.030384704 -0.1374273 -0.1076591
0001b0 c2 0a cb bd a9 9f 2b 3b 98 6d 9d bd 50 f8 e2 3b
       -0.09914161 0.0026187694 -0.07686919 0.006926574
0001c0 1f bb ee bd ac f9 59 bd 73 a8 86 bd f9 69 c9 bd
       -0.11656784 -0.05321662 -0.06575098 -0.09834666
0001d0 37 fb 16 bd 72 62 71 3d 39 5b 1f 3d f0 84 9d bc
       -0.03686067 0.058931775 0.038905356 -0.019228429
0001e0 ff 2c 28 3d 24 52 cf bd 91 b9 18 be cf 10 17 be
       0.041058537 -0.10123089 -0.14914538 -0.14752506
0001f0 8d 6e 84 be 98 2b 03 3e 66 d8 c5 3d 48 60 1a 3e
       -0.25865594 0.12809598 0.09660415 0.15075791
000200 5f f8 e5 3c 36 d6 ee be 28 7c 79 bd 39 d8 d2 bd
       0.028072534 -0.46647805 -0.06090942 -0.102951474
000210 51 fe bc bd a6 fc 48 bd 28 0d cd bd 84 e7 f4 bd
       -0.092281945 -0.04906907 -0.10012275 -0.119582206
000220 d6 e0 be 3c cd 6b 14 bd 7c f8 01 be ea 9e b6 bd
       0.02330057 -0.03623562 -0.12692446 -0.08917029
000230 0c 1c 93 3d 27 a6 13 bd 78 d5 0d 3d d2 3b 39 bb
       0.07183084 -0.036047127 0.034627408 -0.0028264415
000240 8b a7 30 bd f4 bc 80 3c 1f c4 fe 3d 1c cf c9 3d
       -0.04312853 0.0157151 0.12439751 0.09853956
000250 a5 71 63 3d 97 3c a3 bc b8 bc e5 bd 7f 7f b5 3c
       0.0555283 -0.019926352 -0.11217636 0.022155521
000260 b1 7b 01 be 51 d4 1c 3d cc a4 b9 3c 48 dd f5 bd
       -0.12644841 0.03828842 0.02266159 -0.12005097
000270 d5 6f ba bd f8 d8 35 bc 08 dd b3 bd 5b 78 e8 bd
       -0.091033615 -0.011099093 -0.08782393 -0.11351081
000280 f6 cb 85 bb 6c ee 52 3d 27 73 1c bd 0d 23 9d bd
       -0.004083152 0.051496908 -0.038195755 -0.07672701
000290 62 47 09 3e cf 30 4c bd 3e 70 14 be 0d e9 44 bd
       0.13406137 -0.049851235 -0.14495942 -0.048073817
0002a0 5e af 80 bb e2 93 12 3f 1b 11 08 3b 41 ec 82 bc
       -0.0039271554 0.572569 0.0020762149 -0.015981795
0002b0 1f 0c b5 bd 55 8a d9 bd 46 1a 83 3d 23 ec 57 bd
       -0.088402025 -0.10622088 0.06401496 -0.052715432
0002c0 92 dc 57 bd b8 9a 18 be 39 30 4a bd b8 85 1c bd
       -0.052700587 -0.1490277 -0.049362395 -0.03821346
0002d0 3e 26 36 bd 0a 10 af 3c 24 da cd 3c ea a2 d2 bd
       -0.044470064 0.021369953 0.025128432 -0.1028498
0002e0 01 9e c1 bb ea 4e c7 bd ef cc d2 bc f4 10 db b9
       -0.005908728 -0.097318485 -0.025732486 -0.00041783566
0002f0 0b f8 c0 bc 0c 87 18 bd a2 1b 02 be 35 0d 55 3d
       -0.023555776 -0.037238166 -0.12705854 0.05201455
000300 eb 41 4f 3d 0e 7c af bd 30 df c1 bd 64 43 fd bd
       0.050599974 -0.085685834 -0.09466398 -0.12366369
000310 c1 40 c8 bd 5d 1b da bd 8d 67 f3 bd 81 92 26 3d
       -0.09777976 -0.106497504 -0.11884985 0.04066706
000320 17 90 5a 3c f2 b8 00 be 04 37 79 3d ce 79 d5 bd
       0.013340018 -0.12570551 0.060843483 -0.10423623
000330 84 4d 48 3d 3b 3d ac bd 36 fe 1b be 77 e4 c8 bd
       0.04890205 -0.08410116 -0.15233693 -0.09809201
000340 90 ac 15 bc bd c0 a7 3e 30 bd 89 bd 08 e0 4c be
       -0.00913538 0.32764235 -0.06725538 -0.20007336
000350 ee 41 42 be 20 f9 83 bd df 0a 9a 3e c9 5d 52 3d
       -0.18970463 -0.06444001 0.3008642 0.05135897
000360 39 aa 4e bd 0a cf f2 3c aa a4 e4 bd 1c 1a 7c 3d
       -0.050455306 0.02963974 -0.1116422 0.061548337
000370 fa 8a 8a bd 18 eb 8e bc d2 0d 78 bb d6 c8 71 bc
       -0.06764789 -0.017446086 -0.0037850034 -0.014757356
000380 04 7b d5 bd a8 af 16 3c 26 81 be bd d7 09 9b bd
       -0.10423854 0.009197153 -0.09301977 -0.07570236
000390 d7 87 1d 3d 45 b9 9d bd d0 fc 19 bd 21 e3 cc bc
       0.038459625 -0.07701353 -0.037594616 -0.025010647
0003a0 5c b8 08 be 5c 75 fc bd 50 f7 32 be fd a7 88 3d
       -0.13351578 -0.12327072 -0.17477155 0.06672666
0003b0 b1 6d d6 bc d2 ad c5 bd bc e7 86 3d e3 9b 54 3c
       -0.026175352 -0.09652294 0.065871686 0.012976619
0003c0 18 7d ee bd d4 36 76 be ff 3b 70 bd d8 e8 c8 bd
       -0.116449535 -0.24044353 -0.058650967 -0.098100364
0003d0 83 8e 61 be 82 9d 94 bb a5 35 3a bd 38 e6 88 bb
       -0.2202702 -0.004535378 -0.045461316 -0.004177835
0003e0 5c 43 91 3d ae ec 15 bd d2 f6 d4 bd 24 91 23 3c
       0.07092926 -0.03660267 -0.1039864 0.009983335
0003f0 6f e0 47 bd 60 81 a8 bd e7 97 75 3e da 21 07 be
       -0.04879802 -0.08227801 0.23983727 -0.13196507

lstm.weight_hh_l0 f4 [400, 100]
000000 13 8b 6e bc 57 07 f7 bc 13 e8 28 bd 35 7b c1 3d
       -0.014559525 -0.030154867 -0.04123695 0.09447328
000010 ae 45 11 be a4 f1 f8 bd 8c 68 eb 3d 89 ba 3c 3d
       -0.14186737 -0.12155464 0.1149455 0.04607633
000020 9e 31 66 3d c1 72 b8 3d e6 1e 82 3c ab 80 9c 3c
       0.056199662 0.090062626 0.015883874 0.019104322
000030 5a 3e 0b 3d d7 50 76 bd cb 9a b0 bd 03 82 cd 3d
       0.03399501 -0.06013569 -0.086232744 0.100345634
000040 00 52 a4 b5 23 51 11 bd 1e da b6 3d 38 1e c8 bd
       -1.2242817e-06 -0.03547777 0.08928321 -0.09771389
000050 ac 56 20 be e7 4d 31 3d 38 8c 48 3b 6d 6b 59 3d
       -0.15658063 0.043287184 0.0030601155 0.053080965
000060 96 c9 57 3e 8e 2f de bd 8d 3b a7 3c bc 7c 51 3d
       0.21072993 -0.10848914 0.020414138 0.051144347
000070 7d 20 90 3c 6d 4f b2 bd e5 2e eb bc 16 da 15 3e
       0.017593617 -0.087065555 -0.028708884 0.14633974
000080 d2 ea b2 3d 70 73 1b 3b 7c fb 76 bb a1 88 ef bd
       0.08736195 0.002371993 -0.0037686517 -0.11695982
000090 10 0f ad bc e2 e5 d3 3c 18 85 90 bc 80 45 da bd
       -0.021125346 0.025866453 -0.017641589 -0.10657787
0000a0 31 23 46 bd 8a 15 09 bd 40 f1 96 3d 4f c4 32 3d
       -0.048373405 -0.033467807 0.073702335 0.043644246
0000b0 52 3e e1 3b 33 1c 4a 3d f7 a8 99 3c 3f f3 86 bc
       0.0068738842 0.0493433 0.018757327 -0.01647341
0000c0 db 96 d9 3c 76 e9 58 3d d5 20 1d 3e d1 1a 93 3d
       0.026561191 0.05295702 0.15344556 0.07182849
0000d0 ee 05 0b 3c ec c3 96 3d 2b fb 89 3d b8 b8 b2 bd
       0.0084853005 0.07361588 0.067373596 -0.087266386
0000e0 a6 30 27 bf e2 35 e3 3d 75 95 46 3d 53 76 cd bd
       -0.65308607 0.11094262 0.048482377 -0.10032334
0000f0 04 5a 04 3d b1 61 82 3c 5a ec 8e bd 7d c9 04 3d
       0.032312408 0.015915724 -0.06978674 0.032418717
000100 81 a4 c8 bc e0 90 51 bd f8 12 cc bd ec 0d f5 bd
       -0.024492504 -0.051163554 -0.099645555 -0.11965546
000110 e4 dd 49 3c 13 d4 f3 3c ca 1c 4f 3e 6b 27 2f bd
       0.012320969 0.02976421 0.20225826 -0.0427622
000120 49 f9 75 3d ba e2 7a bd a2 31 8a 3a 1d 74 85 3d
       0.06005219 -0.06125138 0.0010543356 0.065162875
000130 d2 37 f7 bd c7 95 a4 3c e7 20 16 bd 1f 34 2b bd
       -0.12071194 0.02009095 -0.036652472 -0.041797753
000140 9c a2 44 3d 16 3e 31 3e 66 bc 17 be 57 2b 25 be
       0.04800664 0.1730884 -0.14817962 -0.16129814
000150 8e ad c7 bd 32 2c 05 3e 4c a1 7e 3d 6f b9 a2 3d
       -0.097499 0.1300514 0.062165543 0.07945525
000160 09 49 80 3b df ef 0b be d5 0f f1 38 77 38 0a bd
       0.0039149565 -0.13665722 0.000114947245 -0.033745255
000170 10 7b a2 3d e1 c9 19 3e fe 9a 43 bd 4e ae dd bd
       0.079336286 0.15018417 -0.047755234 -0.108242616
000180 bc c8 aa bd 56 4c 80 bd 99 15 ba bc 45 b7 81 bc
       -0.08339068 -0.0626456 -0.022715377 -0.01583446
000190 71 28 05 bd 5a 0a e6 3d ca bd 04 be 0c 90 c2 bd
       -0.03250927 0.11232443 -0.12963024 -0.09500131
0001a0 18 a6 22 bd 10 06 df bc 03 e6 a6 bc 1a 0f c6 3d
       -0.03970918 -0.02722457 -0.02037335 0.09670849
0001b0 2a bd d0 bd 56 fa 58 bd a6 80 47 bd 39 f4 7a bd
       -0.1019233 -0.052973114 -0.048706673 -0.061268065
0001c0 03 a5 40 3d 6f 57 02 3e 05 23 67 3d 95 4c 12 bd
       0.047032367 0.12728666 0.05642988 -0.035717566
0001d0 c8 42 e5 3c 39 73 23 3e 98 7c a3 bd a0 a7 6f 3d
       0.027985945 0.15961923 -0.07982749 0.05850947
0001e0 be 60 ee 3d 01 f3 c6 3c f8 6c 16 3d ea 76 ff bc
       0.11639546 0.024285795 0.036725014 -0.031184632
0001f0 e2 8f f2 bb 54 3e 13 3e 7c c1 13 3d 79 10 42 3d
       -0.007402406 0.14379245 0.036073193 0.04737899
000200 5d a7 2a bb 65 b0 9c 3d 43 5b 06 3e 9a cc fe bd
       -0.0026039698 0.07650832 0.13120751 -0.124413684
000210 3b 13 8b bd 25 11 6a bd 3f 7c fb bc 26 0f 33 bc
       -0.06790777 -0.057145257 -0.030698894 -0.010928905
000220 bb 8f e9 bd 44 48 89 bd 9b 8e 05 3d b6 51 47 bd
       -0.114043675 -0.06703237 0.032606702 -0.04866191
000230 d2 59 e6 3d d5 5c a8 3c eb 1f e7 3c 77 df 84 bd
       0.112476006 0.020552078 0.028213462 -0.06487935
000240 25 45 1d 3a 2b 68 04 bc 0d 0f 03 be 76 f8 88 bc
       0.0005999378 -0.008081476 -0.1279871 -0.016720038
000250 8d 45 b4 3c 79 c4 eb bd ea 39 5c bb 9a 9a 24 3d
       0.02200582 -0.115120836 -0.0033603855 0.040186502
000260 0a 88 2f bc da e5 8d 3d 6c 0e 16 bd 5d 5d 25 bd
       -0.010713587 0.06928606 -0.036634848 -0.04037224
000270 89 80 c4 bd d7 16 d6 bd e2 f7 a9 3c 40 cb 0a bc
       -0.09594829 -0.10453575 0.020748083 -0.00847131
000280 7a 4f 1b bd ff 94 af 3d d3 df 3f 3d 16 fd 17 be
       -0.03791759 0.085733406 0.046844315 -0.14842638
000290 35 7a 4a 3d 6b 35 ab bc 70 fc 26 bc c3 e8 0f 3e
       0.049432952 -0.020899495 -0.010192022 0.14053635
0002a0 50 c8 2d bd 82 6f 08 3d 8b 87 7b 3c af f7 7c 3d
       -0.04242736 0.033309467 0.01535214 0.061759647
0002b0 8a ca 9d bd e5 83 23 3e c1 9f ec bc 4a cc cf 3c
       -0.07704647 0.15968283 -0.02888477 0.025365967
0002c0 02 1c 42 bc 4e fe 6e 3d fb d7 2c bd 7a e9 9c 3d
       -0.011847498 0.058347993 -0.042198163 0.076617196
0002d0 70 da c3 bc 38 7b 1f be 0e 20 d0 3d d4 bb 6a bc
       -0.02390787 -0.15574348 0.10162364 -0.014327008
0002e0 b3 6a 9d 3d 84 f9 e4 3c dc 0d 85 bc aa 3b 00 be
       0.07686367 0.02795101 -0.01624196 -0.1252276
0002f0 46 52 a8 bd 06 f3 89 bc 23 8e 85 3d 86 31 bf bd
       -0.082188174 -0.016839515 0.06521251 -0.09335618
000300 58 fd a3 bd 3b ed 50 bd 3b 81 ec bc 2b 07 20 3c
       -0.08007306 -0.05100749 -0.028870216 0.009767334
000310 44 75 b8 3d 78 3b 8e 3d 4d d7 cf 3d 52 8f 92 3c
       0.09006742 0.069449365 0.10148487 0.017890606
000320 84 90 e7 3b 72 5e 11 3e 41 a9 e8 3c bf 2e 38 be
       0.007066788 0.14196184 0.028401019 -0.17986582
000330 bd a4 54 3d c5 0f 30 3d 1f d3 13 be 70 51 9b bd
       0.05191492 0.04298379 -0.14436005 -0.07583892
000340 36 41 27 3e a9 53 ad 3d 93 4c fd bd 55 34 cb 3d
       0.1633347 0.084632225 -0.12368121 0.09922091
000350 96 04 71 3d 56 54 a5 bc d5 77 7c bd 1e ab c6 bd
       0.058842264 -0.020181816 -0.06163772 -0.09700607
000360 7e 78 1f bd 6d d1 86 bd c7 92 e5 bd e8 86 3f 3c
       -0.03893327 -0.065829135 -0.11209636 0.011689879
000370 04 ce 9e bd d7 05 f1 3d 66 cc f1 3d 0c 37 ed 3c
       -0.07754138 0.11768692 0.11806564 0.028956912
000380 83 5c df 3b 08 44 af bc 3f 39 2a bd af b4 04 be
       0.006816448 -0.021394745 -0.0415585 -0.1295955
000390 46 9f 5e 3b 7b a9 14 be c3 b3 ef 3d 67 5d 1e bd
       0.0033969446 -0.14517777 0.11704209 -0.038663294
0003a0 90 22 c0 3d 84 7b 6e 3e 72 ac 3e 3e fd e7 83 bd
       0.09381592 0.23289305 0.1862047 -0.06440733
0003b0 d7 e0 07 3e 72 2c d6 b8 5b c6 f4 3d 2f f7 6c 3d
       0.13269363 -0.00010212594 0.11951896 0.05785292
0003c0 1b 92 f8 3d 67 3a 23 bd 26 23 8b 3b af 4f f0 3c
       0.121372424 -0.03985062 0.0042461334 0.029334871
0003d0 ec bd 02 3e 0c c9 ce bd 16 82 10 be a0 65 0c 3e
       0.12767762 -0.100969404 -0.14112124 0.13710642
0003e0 0e 9f be 3d 99 3e 99 bd b4 78 77 bd f7 20 32 bd
       0.09307681 -0.07482643 -0.060417846 -0.04348847
0003f0 67 d6 c0 bd 0a 3e 40 be e3 ce 44 3e 68 67 2e 3e
       -0.09415894 -0.18773666 0.19219546 0.17031634

lstm.bias_ih_l0 f4 [400]
000000 52 46 ce 3d e2 8e 5e 3b 2d 20 c9 bd 5a 78 b2 bd
       0.10072006 0.0033959677 -0.0982059 -0.087143615
000010 d8 b7 a5 ba f7 57 a9 bd 43 bb 82 bd a9 f6 00 be
       -0.0012643291 -0.08268731 -0.063833736 -0.12594093
000020 3e 2e 3d be b0 05 2f bc 32 35 95 3d 0d 85 22 bd
       -0.18474671 -0.010682508 0.07285537 -0.03967767
000030 7a 06 37 3d 1b 7a 1f be 9c 70 f6 3b cb c7 89 3d
       0.04468391 -0.15573923 0.0075207483 0.067275606
000040 e5 b5 1c 3c a4 80 ed 3c 17 41 bd 3c e2 7b a0 bc
       0.009564851 0.028992005 0.023102326 -0.019590322
000050 a1 eb a8 bd e8 e8 3c be fa a3 af bc 29 60 94 3d
       -0.08248068 -0.18448222 -0.021440495 0.072449036
000060 ac 2a e6 bd b9 81 cf 3d dc 15 b3 bd 89 61 67 3d
       -0.11238608 0.101321645 -0.08744404 0.0564895
000070 90 cc bd bd 66 0b 69 bd ac 0a 97 bd 78 28 7a bb
       -0.09267533 -0.056895636 -0.073750824 -0.0038171094
000080 ed 44 14 be 88 ae c2 39 95 a3 9f 3d 09 35 12 bd
       -0.14479418 0.000371326 0.07794873 -0.03569511
000090 77 11 fe bc 14 d2 b2 3c 07 b4 3d 3d ad 66 a4 3c
       -0.031014187 0.021828689 0.046314266 0.02006849
0000a0 79 b1 a0 bd e7 03 ed bd e0 03 f2 bd 20 aa f7 3c
       -0.0784635 -0.1157301 -0.11817145 0.03023249
0000b0 3b d7 91 3b b8 cb f8 bd 88 39 81 3a f4 14 cf bd
       0.0044507063 -0.12148231 0.0009859065 -0.10111418
0000c0 cd cb 4e be ca f4 01 3c 82 ef 83 3d 19 d5 40 3d
       -0.20194931 0.007931897 0.06442167 0.047078226
0000d0 57 06 ed bd 70 a1 bc bd 7c 52 4e bd 6c cc 92 3c
       -0.11573475 -0.09210479 -0.050371632 0.017919742
0000e0 1a f6 c3 3d 11 1e eb bd 91 1a a3 3c 85 2e 9c 3d
       0.095684245 -0.11480344 0.019910129 0.076260604
0000f0 86 73 13 3d a3 56 a5 bd 8e 3c e8 bd 23 b6 6f 3c
       0.035998844 -0.08073165 -0.11339675 0.014630827
000100 56 3c 16 3e 43 df b8 3d e8 a2 1b 3a f4 d2 a1 3c
       0.14671454 0.09026959 0.00059370557 0.01975391
000110 25 d6 e6 bd 67 93 ac bd e5 54 29 3c 44 a3 22 3d
       -0.112713136 -0.08426552 0.010335182 0.039706483
000120 f2 6f 9e ba ee 55 41 bd c1 69 94 bd ab ca b4 bd
       -0.0012087806 -0.04720109 -0.072467335 -0.08827718
000130 d8 99 82 bc 86 ab 48 bd d4 89 a8 bd f6 e6 74 bc
       -0.015942499 -0.048991702 -0.08229414 -0.0149476435
000140 c4 32 f1 bd c0 c6 d0 bd 41 71 91 3d 78 e6 fc bc
       -0.11777261 -0.101941586 0.071016796 -0.030871615
000150 3c e4 c5 3c be c4 9e 3c 0b 28 d5 bd be f6 18 3d
       0.024156682 0.019380923 -0.10408028 0.037344687
000160 77 2e e7 bd e3 da 5a bd 7b 89 c7 bd 56 69 a8 bd
       -0.11288159 -0.053431403 -0.09743019 -0.08223216
000170 ec 09 ca bc ed 43 84 3b 71 a5 13 bd 5b 2f 13 be
       -0.024662934 0.0040364177 -0.03604645 -0.14373533
000180 05 c4 b3 3c 49 f8 4c 3d 1b ec fe bd dd d9 cb bd
       0.021944055 0.05004147 -0.12447377 -0.099536635
000190 fd 64 8a bb 2f 92 f4 bd 1a f9 08 be b0 08 03 bc
       -0.0042234645 -0.11941945 -0.13376275 -0.007997677
0001a0 c6 40 b5 3c 4a d3 bf bd ed 80 59 bd 9e 2e 35 be
       0.022125613 -0.09366472 -0.05310147 -0.17693564
0001b0 bb 9f 46 bd ad 7a 75 bc 00 ed d2 bd e9 0f 2b 3d
       -0.048492175 -0.0149828615 -0.102991104 0.04176322
0001c0 a5 de b6 bd c7 fb 79 bd ce 00 d8 bd 4d 53 8f 3d
       -0.08929185 -0.06103113 -0.105470285 0.0699831
0001d0 20 aa 1c 3d e4 b2 33 3d ad d3 62 3c 5f b6 61 3d
       0.03824818 0.043871775 0.013844413 0.055105563
0001e0 25 43 3f be bc ec b4 bd ad ff e7 bd 87 26 dc bc
       -0.18677957 -0.08834216 -0.11328063 -0.02687384
0001f0 06 4d 63 be 0d 27 3b bd e6 b2 e4 3c 52 dd 18 bd
       -0.22197351 -0.04569154 0.027917337 -0.037320442
000200 bb 9e 2e bc 9d 14 31 bd b7 1f 86 bd 13 29 cb bd
       -0.0106579615 -0.04323255 -0.06549018 -0.09919944
000210 48 fc 1b be e7 db 83 bd 6a e0 67 3d 61 bf 44 bd
       -0.15232956 -0.064384274 0.056610502 -0.048034076
000220 16 c3 e6 bc a7 c6 62 3b 9b 19 7c 3c 43 ee 16 3d
       -0.028169196 0.003460327 0.015386964 0.036848318
000230 89 4a cf 3b 5c 91 1b be 50 20 21 b9 70 91 8f bd
       0.006326024 -0.15192169 -0.00015366194 -0.07010162
000240 3f 42 f2 bd d2 a9 0b be a1 04 4d bc c6 5e b4 bc
       -0.11829042 -0.13639 -0.012513311 -0.022017848
000250 d9 c9 75 bc de 2e 57 bd 16 bd 2e be f3 63 66 bd
       -0.0150017375 -0.05253493 -0.17064318 -0.056247663
000260 66 1e 6a bd b1 d0 fd bd 12 70 9d bc 27 eb bf 3c
       -0.057157896 -0.1239332 -0.019218478 0.023427559
000270 de 1a b0 bd 99 7f a4 ba b0 06 01 bd 6b 7e 5c bc
       -0.085988745 -0.0012550234 -0.03150052 -0.013457875
000280 6f 0a 88 bd f8 90 f7 3c c4 c9 1f be 01 e6 88 bd
       -0.06642615 0.030220494 -0.15604311 -0.06684495
000290 be d2 a4 bc f1 fa 95 bd d9 c8 00 be bf f2 b2 bd
       -0.020120021 -0.07323254 -0.12576617 -0.087377064
0002a0 6d 4c 74 bd c2 05 cd bd 72 fb cd bd 04 64 57 3d
       -0.059643198 -0.10010864 -0.10057725 0.052585617
0002b0 c0 db 28 be 34 76 07 be 93 b3 04 3d 6c dc a2 bd
       -0.16490078 -0.13228685 0.032397818 -0.079521984
0002c0 5b 63 47 3d 6c 0b cf bd 07 da 64 bd c5 dc ce bc
       0.048678737 -0.101096004 -0.05587199 -0.025251755
0002d0 25 58 21 3d da 82 cf 3c 24 04 4a 3d c2 84 11 be
       0.0393907 0.02533095 0.049320355 -0.142108
0002e0 aa 69 a1 bd 74 a2 0f 3c b1 74 04 be eb d5 7c bb
       -0.07881482 0.008766759 -0.12935139 -0.0038579653
0002f0 9b 12 44 be c8 ad 67 bc a5 0e 3f 3d 2e fe 87 bd
       -0.19147722 -0.014140554 0.046644825 -0.06640278
000300 1c 83 05 be 91 12 95 bd 18 0d 82 3d 04 5f cd bd
       -0.13038296 -0.07278932 0.06350154 -0.100278884
000310 e1 5c 50 3c 3f 53 8a bd 2e 92 8e 3c 04 0d 03 be
       0.012717457 -0.06754159 0.017403688 -0.12797934
000320 db ed 05 bd 3a a3 75 3d 10 cf bc bd f8 6b bb 3d
       -0.03269754 0.059970118 -0.092191815 0.09151453
000330 86 5a e0 3d 01 5b d6 3a e7 8e 09 3c 43 32 89 bc
       0.10954766 0.0016354026 0.008395887 -0.0167476
000340 f3 5e d6 3c 32 cf 8d 3d c9 67 53 3d 3e 18 c7 3d
       0.026168322 0.06924285 0.05161265 0.09721421
000350 4c 3f 25 3d 1b 30 37 3e be e7 aa bc 8c 0b 21 3e
       0.040343568 0.17889445 -0.020862456 0.15727061
000360 c5 20 8c 3d 41 65 30 bd eb 03 9e 3d f5 8c 66 bd
       0.06842188 -0.043065313 0.07715591 -0.05628677
000370 6d 3d 80 bd ab 0f 68 bd 39 a6 1b bd 62 4d 79 bd
       -0.06261716 -0.056655567 -0.03800032 -0.060864814
000380 60 57 ab 3c 58 48 62 bc 19 f0 0a bd 59 69 61 3d
       0.020915687 -0.013811193 -0.03392038 0.055032108
000390 6a 8a 63 3d 75 c6 34 3d db 87 a6 3b ca 4d 96 bd
       0.055551924 0.044134576 0.005082113 -0.07339056
0003a0 ad 23 f4 bc 31 9f d8 bd 4c 47 99 bd bc 64 81 bd
       -0.029802168 -0.10577238 -0.07484302 -0.06318042
0003b0 b2 da 65 bd a2 1b d1 bc bd f6 0c bd 2d 38 1d bd
       -0.056116767 -0.025525872 -0.034414995 -0.03838365
0003c0 70 ca 70 3d d2 6e 41 bc 08 6b c1 3d 2a 49 48 bd
       0.05878681 -0.011806207 0.09444243 -0.0488979
0003d0 57 a4 94 bd 62 a5 19 bd 31 86 44 bd e6 2b 2e bd
       -0.07257908 -0.037511237 -0.047979537 -0.042522334
0003e0 ee f1 5d bd 6b cc f8 3c 49 bd e1 3b 37 f2 e7 3c
       -0.0541858 0.030370912 0.0068890196 0.02831374
0003f0 d2 45 a0 bd ab a9 e1 3d 7a d8 89 3d 1e 2f e5 bc
       -0.07825817 0.1101869 0.06730743 -0.027976569

lstm.bias_hh_l0 f4 [400]
000000 97 a0 4c 3d 84 b4 0e bc 31 35 e9 bd bb 74 bb 3d
       0.049957838 -0.0087100305 -0.113870986 0.09153124
000010 50 18 ed bd 24 d8 fb 3c 13 e3 f6 bd 9f df c4 bd
       -0.11576903 0.030742712 -0.1205503 -0.09612965
000020 e5 b1 1d be 8b 85 fb bc 9c fd 7e 3d c7 a3 80 3a
       -0.15399893 -0.030703327 0.06225358 0.0009814434
000030 aa ce 0d bd 9a 1b b4 bd ef 42 6c 3d b8 7f 21 3c
       -0.03462092 -0.08794327 0.05768102 0.009857111
000040 a1 af 00 bd c4 42 63 bd 25 58 ff bb 07 ad 16 bd
       -0.031417493 -0.055483595 -0.00779249 -0.036786105
000050 4f 59 74 be 37 cd 62 bc 23 fd 8a bd af 27 72 3d
       -0.23862194 -0.013842872 -0.06786563 0.059119876
000060 74 b3 c1 bd 22 e2 69 3e ae 59 00 3d ec 4e 98 3c
       -0.09458056 0.22840169 0.031335525 0.01859232
000070 da cf ba 3d e9 0d 91 bc 0d 91 b3 bd aa 86 42 bc
       0.09121676 -0.017706828 -0.087679006 -0.011872927
000080 c1 27 a4 bd a2 66 b0 3d 47 9a 5f 3d b8 fa 14 be
       -0.08015395 0.08613326 0.05459049 -0.14548767
000090 36 4c 5a 3d f3 07 53 bb 85 f9 99 bd 0b 60 f2 3b
       0.053295337 -0.0032200783 -0.07518295 0.007396703
0000a0 68 83 70 bd cf 28 1a bd 1c 07 03 be b5 b2 8c bd
       -0.05871907 -0.037636574 -0.12795681 -0.06870023
0000b0 ab c3 f9 bc 97 ac 5a bd c3 5b 02 bd 2c 8f c3 bd
       -0.03048881 -0.05338725 -0.031825792 -0.09548792
0000c0 83 75 db bd ee 05 a8 bc e1 ac 59 bc 3a 4e ee bd
       -0.10715773 -0.02051064 -0.013285846 -0.11636014
0000d0 aa 6e 1b 3c a8 d0 c8 bd 38 be be bd 16 9e e1 bd
       0.009486834 -0.09805423 -0.09313625 -0.110164806
0000e0 27 88 7b 3e a1 45 b7 bd d4 6e bc 3b be d3 80 bd
       0.24563657 -0.089488275 0.0057505164 -0.062903866
0000f0 a1 19 56 bc 2c 04 52 bd a5 dc 19 be ab 51 20 bd
       -0.013067634 -0.05127351 -0.15025575 -0.039140385
000100 66 1c fe 3b a4 ec d8 3d 30 7d 76 bd 28 01 4a bd
       0.00775485 0.105920106 -0.06017798 -0.04931751
000110 49 9b 96 bd fb 42 96 3c 39 b2 43 3c f4 2d ec bb
       -0.07353837 0.018342486 0.011944347 -0.0072076265
000120 15 a7 43 3d 68 1f 40 bd 12 3f 6d bd 25 72 4c 3d
       0.047766764 -0.04690495 -0.057921477 0.049913544
000130 c2 65 06 3d 99 a0 93 bc 22 b0 fa bc 7b a1 c1 bd
       0.032811888 -0.018020915 -0.030601565 -0.09454628
000140 6c 93 6f 3d df a1 0d bd db b0 dc bd d8 52 0b be
       0.0584902 -0.0345782 -0.1077592 -0.13605821
000150 94 b1 bb bd a4 c5 00 bd 9d c8 f9 bd 62 ac e8 bc
       -0.0916473 -0.031438485 -0.12196467 -0.028402511
000160 7f 84 85 bd 15 13 6c bc 9f 64 92 bd 15 f6 da bd
       -0.06519412 -0.014408846 -0.07148098 -0.10691468
000170 5f 59 b8 3c f8 5c 5d bb ae db 81 3c eb 32 01 be
       0.022503553 -0.0033777338 0.015851822 -0.1261708
000180 e2 b6 84 bd 63 99 a0 3d 1e 2c d7 bc 94 45 33 be
       -0.06480195 0.07841756 -0.026266154 -0.1750701
000190 61 5f 8f bd 9e ac cc bc 14 f0 25 3c 3d 52 b7 bd
       -0.07000614 -0.024984654 0.01012804 -0.089512326
0001a0 18 57 99 bd 09 7f ed 3c d4 57 2b be 9a ee 9a bd
       -0.07487315 0.02899124 -0.16732723 -0.07565041
0001b0 ff 72 4e bd 03 6f b5 bc 3e de d3 bd 02 84 03 bd
       -0.050402638 -0.022147661 -0.10345124 -0.032108314
0001c0 12 38 bb 3c 81 38 58 bc c7 8e 1a be ee 48 bc 3c
       0.022853885 -0.013197065 -0.15093528 0.022983994
0001d0 56 ac e3 bd 3e 29 0a bd 78 55 77 bd 21 d2 8d 3d
       -0.11116855 -0.033730738 -0.060384244 0.069248445
0001e0 0f 9b 2d be ea 52 1d be e8 3d c0 bd 96 98 80 bd
       -0.16953681 -0.1536366 -0.09386808 -0.062791035
0001f0 6c ca 73 bd 9b 33 fd bd 87 95 a1 bc 3d 8f 29 bd
       -0.059519216 -0.123633586 -0.01972462 -0.04139637
000200 f9 d9 eb bc ef 5b 06 be ea bb f7 bd 5e f6 39 3c
       -0.02879046 -0.13121007 -0.12096389 0.011350242
000210 b6 41 ea bc 04 e8 37 3c 31 9f 32 3c ab 59 d2 3c
       -0.028595787 0.01122475 0.010902212 0.025677523
000220 4a be 9f bd 8c 60 c6 bd c2 68 73 3d 68 8e ea ba
       -0.07799967 -0.096863836 0.059426077 -0.0017895224
000230 d4 d3 ed bb af 5e 9e bd 0d be 51 bb be 30 2d 3d
       -0.007257918 -0.07732903 -0.0032004148 0.042282812
000240 10 18 18 bd 45 84 eb bd ca 9c e1 3c 9c e3 a0 bd
       -0.037132323 -0.11499838 0.027540583 -0.07855913
000250 be a9 b8 bd 11 43 97 bc c0 fc 04 be 8f 77 4f 3a
       -0.09016751 -0.018464597 -0.12987041 0.0007914239
000260 28 3e b0 bb c7 d1 7a bc ba 88 1f 3d f6 64 35 bd
       -0.0053785034 -0.015308804 0.038948752 -0.044285737
000270 ae 1a b9 3c cc ad 61 bd fd b5 6f 3d aa 21 9a bd
       0.02259573 -0.055097386 0.058523167 -0.07525952
000280 70 e4 31 bd 99 7f 95 3d b7 12 d3 bc 2a e4 9a 3b
       -0.043430746 0.07299728 -0.02576576 0.0047269063
000290 cc 7d bc bd d9 c2 85 3d 58 3f 0b be f8 02 09 3c
       -0.09203681 0.06531305 -0.13598382 0.008362524
0002a0 a8 07 12 be f0 af 22 3d ea 3c 0d bd 33 81 2b 3c
       -0.14260733 0.03971857 -0.03448192 0.010467815
0002b0 f9 6c d9 bd 2c 9b ce 3c 9e 80 e0 bd 7a af 88 3d
       -0.10616488 0.025220476 -0.10962032 0.066740945
0002c0 90 72 7e 3d 0d 06 13 be 3f 4a a8 3b eb e7 17 bd
       0.062120974 -0.14357777 0.005135804 -0.03708641
0002d0 eb 4c 43 bd d9 8f d7 bc 0f 12 13 bd 58 a5 92 bd
       -0.047680777 -0.02631371 -0.035905894 -0.07160443
0002e0 ee 26 d6 bd 1a 13 76 bd 66 1c e3 bc cc d1 09 be
       -0.10456644 -0.06007681 -0.027723502 -0.13458937
0002f0 ef 92 4e be 98 96 82 bc 05 6f 09 bd a7 94 e4 bd
       -0.20173238 -0.01594095 -0.033553142 -0.11161166
000300 8e 3d ce 3c f6 43 40 be 25 25 ae bd 23 87 88 3c
       0.025175836 -0.18775925 -0.085031785 0.016666
000310 1e 4f 44 3d 87 4a 85 bd bd b3 04 3d ab 57 a4 bd
       0.047927015 -0.065083556 0.032397974 -0.08024534
000320 28 51 b5 3d cf 2b b5 bd 29 37 56 bc 72 b0 a6 3d
       0.0885337 -0.088462465 -0.013074675 0.08139123
000330 8b 85 cb ba bb 9a a1 3d 38 9c 22 3e bc db f5 3c
       -0.001552747 0.078908406 0.15879905 0.030012004
000340 ba 35 92 bd 73 5c 15 3d a9 39 a5 3d dc fe a2 bd
       -0.07139154 0.03646512 0.080676384 -0.07958767
000350 13 10 b6 bd d3 54 3e 3d e4 66 45 3c 47 41 d3 bc
       -0.08889785 0.046467613 0.012048457 -0.025787963
000360 92 a8 e5 bb ef f8 06 3d 35 02 b3 bd f5 8c fd bc
       -0.0070086205 0.032952245 -0.08740655 -0.030951003
000370 2a eb 1e 3d 21 e5 33 3d 5e 7e dc bc 6f 16 d6 bd
       0.03879849 0.043919686 -0.026915725 -0.104534976
000380 26 ee d0 3c 42 f3 5e bd 2b 8a 63 3c bf ef 7b bc
       0.025504183 -0.054431207 0.013887922 -0.015376984
000390 0f 61 b5 3c b9 d3 cd bd 7f 24 96 bd c7 ac 23 3d
       0.022141008 -0.100501485 -0.0733118 0.039959695
0003a0 e6 5f f5 3c 3b 05 f8 bd 93 f3 04 3d f4 6c 89 3c
       0.029952955 -0.12110373 0.032458853 0.016775586
0003b0 e6 09 2b 3d f1 b6 d4 bd ba cc 5d 3d d4 f6 25 3c
       0.041757487 -0.10386456 0.05415032 0.010129649
0003c0 aa 72 89 bd 98 95 4b bd 71 ec c6 bc e7 5e c8 3c
       -0.067113236 -0.04970321 -0.024282666 0.024459315
0003d0 3b 95 9d 3d 62 81 42 3d 8a e5 c8 3c 50 3c 2b bb
       0.07694479 0.04748667 0.024523515 -0.0026128478
0003e0 4e 64 bd bc a7 64 2b 3c cf 1e cb 3d 01 f3 00 3d
       -0.023119118 0.010461009 0.09917986 0.031481747
0003f0 26 a8 cd bd 63 f7 cc 3d c0 6f e8 bd fd ae bf bd
       -0.100418374 0.10008123 -0.113494396 -0.09359548

linear.weight f4 [1, 100]
000000 9e 14 d3 3d 96 33 96 bd 6e 21 7e bd 2d d3 f5 3d
       0.10306667 -0.07334058 -0.0620436 0.12003169
000010 87 60 63 3d 1f bd db 3a ac 90 c9 3c 3e 04 a8 bd
       0.055511978 0.0016764737 0.024605118 -0.08203934
000020 2a 22 8f 3c a1 ff 04 3d 58 78 dc 3d b2 89 4b bd
       0.017472345 0.03247035 0.10765141 -0.049691863
000030 b3 39 bf bc c0 1d e2 3d 40 48 6b 3d 8b 61 c5 3d
       -0.023342943 0.110408306 0.05744195 0.096377455
000040 c3 4d b4 3d ef 92 80 bd 75 03 0a bc 60 3c 9e bd
       0.08803894 -0.06278025 -0.008423676 -0.07726359
000050 3e 65 cb 3a 64 12 87 3c 03 cd 01 bd c4 82 a6 bd
       0.0015517843 0.016488262 -0.031689655 -0.0813041
000060 ae b5 0d 3d 54 f5 1f be 5f 03 4e bc 40 f0 20 3c
       0.03459709 -0.15620929 -0.012574046 0.009822905
000070 b8 27 86 3d c1 64 8a bd 2a 75 a7 bb 89 95 13 bc
       0.065505445 -0.067574985 -0.0051104026 -0.00900782
000080 6c 17 e2 bc d9 55 07 be bb 38 69 bd e1 21 43 3c
       -0.027599059 -0.13216342 -0.056938868 0.011909933
000090 1c 36 b5 3c 94 41 78 bd 7b 6b 71 bd bc 93 5d bd
       0.022120528 -0.060609415 -0.058940392 -0.05409597
0000a0 67 1f 3c bd 66 e7 fb bd b6 47 04 3e d7 f7 d2 ba
       -0.045928385 -0.12299995 0.1291798 -0.001609559
0000b0 bc c2 57 bd ca 96 2e bb d6 90 35 3d 35 2f 4e bd
       -0.052675948 -0.002664017 0.04432758 -0.05033799
0000c0 9b 13 1a bd 48 ef 46 3d 9f b6 b8 3d 71 65 9a bb
       -0.037616353 0.04856804 0.09019207 -0.0047118
0000d0 ef f0 e1 bd 00 98 d1 3d 2b 11 02 bd 50 eb 12 bd
       -0.110322826 0.1023407 -0.031754654 -0.035868943
0000e0 ec 82 76 be 35 3f ad 3d 67 e1 f5 3c 47 a9 c1 bd
       -0.2407338 0.084593214 0.030014707 -0.09456115
0000f0 be f2 80 3d ed f6 65 bd 85 b0 14 bc 9b b1 11 3c
       0.062962994 -0.05614369 -0.009075289 0.008892442
000100 a8 6e c4 bd d4 2d 35 3d 65 74 e9 bd 96 a4 b8 bd
       -0.095914185 0.04423316 -0.113991536 -0.09015767
000110 e0 ca c1 3d f5 90 ac 3d 4f 04 64 3d e1 7c 97 bd
       0.094625235 0.08426086 0.05566817 -0.07396866
000120 f6 f7 b1 3d 85 c8 d9 bc 89 28 f3 bd 39 28 73 bc
       0.08689873 -0.026584873 -0.11872966 -0.014841133
000130 4b 8b d1 3a 78 ba 10 bd dd 34 77 3d 62 94 eb 3c
       0.0015986947 -0.03533408 0.06035315 0.028757278
000140 7d 96 5e 3d b4 3b ad bc e0 8b 6d 3d df b6 19 3d
       0.054342736 -0.021146633 0.057994723 0.037527915
000150 d5 97 a6 bd 49 7a 84 3c d2 58 8d bd d4 96 04 3e
       -0.081344284 0.016171591 -0.06901707 0.12948161
000160 ac 0e 18 3d 0b 60 2d bd a5 78 3a 3b 4d 54 ce 3c
       0.037123367 -0.04232792 0.0028453257 0.025186682
000170 06 65 0b 3d 47 83 eb bc 11 ce 7b 3c 2d a8 6f bd
       0.03403189 -0.028749121 0.015368954 -0.058509994
000180 e9 92 a3 3c 55 3e b5 3c 1e 51 2d bd 51 7e 6b 3d
       0.019967513 0.022124449 -0.042313688 0.05749351
