model/1721471618_model-aapl.pth (torch, 174356 bytes, 5 tensors)

lstm.weight_ih_l0 f4 [400, 5]
0.012322603 -0.029060341 -0.009325037 -0.01378832 0.05889883 -0.14609276 -0.13363469 -0.071491234
-0.20222086 -0.27342716 -0.014345368 -0.1025178 -0.1508074 -0.01615243 -0.30224022 -0.0055804644
0.05164623 -0.11004106 -0.06340813 -0.13461515 -0.1587364 -0.10521081 -0.113270864 -0.051244967
-0.079600945 -0.14987653 -0.10782912 -0.14958094 -0.20447257 0.22280002 0.038696676 0.1539263
0.1556171 -0.003178227 -0.45038682 -0.100659356 0.032449055 -0.08162537 -0.01414644 -0.08423203
-0.20237616 -0.14992636 -0.2616309 -0.20772147 0.10067159 0.016130669 0.021581428 0.03306855
-0.002405573 -0.102517836 -0.13476564 -0.1023806 -0.05776559 0.04640564 0.1504663 -0.13058561
-0.037394222 -0.10793591 -0.026722796 -0.1420059 0.012667119 -0.11267637 0.013409987 -0.020617744
0.0059016612 -0.1722062 -0.026251225 -0.09272186 0.008178634 -0.021887474 -0.19913049 -0.028849905
-0.14165314 -0.15736575 -0.17675251 -0.054798644 -0.09770921 -0.07252963 -0.024255777 0.015933465
-0.0825675 -0.019144604 -0.13222447 -0.014886379 0.25431976 0.03497394 0.015495914 -0.12358171
-0.04830547 0.068559185 -0.09622581 0.0051816893 0.00077123847 0.06776803 0.10462656 -0.067552045
-0.03126888 -0.056938417 -0.05085687 -0.0059596584 -0.01163197 0.030225188 -0.0813745 -0.0014359159
0.031496037 0.024208713 -0.12107824 -0.11872648 -0.10157501 -0.10187364 -0.045481175 0.0562266
0.04468946 -0.06720511 0.06402264 -0.024069492 -0.17306744 -0.18236905 -0.15660708 -0.41531458
-0.035994336 -0.20988362 -0.13576338 -0.2297498 -0.18121104 -0.07335126 0.007526742 -0.021604722
-0.08713196 0.26613092 -0.055224713 -0.07964025 -0.080323905 -0.103912465 0.0459118 -0.062482875
0.007827976 -0.09707258 -0.007987344 0.3415918 -0.036613878 -0.055806708 -0.07081158 -0.025148395
-0.3809132 -0.05921791 -0.089017406 -0.08028802 0.016602032 -0.045514505 -0.083466716 -0.0053171385
-0.04623944 -0.017631734 -0.32138285 -0.20776702 -0.19980684 -0.2424698 -0.17306484 -0.16751553
-0.1048686 -0.045126032 -0.06633141 -0.12721127 -0.32129577 -0.071657136 -0.016966788 -0.08497954
-0.030547539 0.6632589 -0.09977379 -0.013954513 -0.037858374 -0.15882604 -0.28676572 0.050179396
0.006030966 -0.04748048 0.0042575034 0.012561796 -0.19872886 -0.108303785 -0.19988722 -0.15207945
-0.31642956 -0.31775254 -0.30896887 -0.27130553 -0.19359183 -0.010758734 -0.13125323 -0.0016980985
0.05295437 0.029031683 0.015800137 0.034472615 0.018280257 0.016797928 -0.10762605 -0.12247318
-0.056961194 -0.15508606 0.0048144097 -0.049010865 0.22457841 -0.004621039 0.006816782 0.0056527806
0.01178546 0.07810812 0.028350212 0.006489223 -0.09588366 -0.10714882 0.12549998 -0.023706205
0.04313463 -0.07213021 -0.041692127 -0.028825093 -0.12617595 -0.074601926 -0.1350505 -0.044751633
0.049180675 -0.014447294 -0.029605363 -0.16922146 -0.113087416 -0.018058356 -0.0899888 -0.13497278
-0.03871552 -0.047607813 0.35761523 -0.0925528 0.0025237326 -0.04861935 -0.074444264 0.13176827
0.016102035 -0.03339624 0.015792204 -0.036698177 0.14591514 -0.022143088 -0.026045935 -0.053615633
-0.14603023 -0.07204542 -0.14678837 -0.079276346 -0.013737046 -0.117372915 -0.09564333 -0.07214067
00000000: bee4 493c f40f eebc 0ac8 18bc 68e8 61bc
00000010: e63f 713d 5799 15be 88d7 08be ff69 92bd
00000020: fc12 4fbe a5fe 8bbe d608 6bbc daf4 d1bd
00000030: 416d 1abe 1a52 84bc 3bbf 9abe 54dc b6bb
00000040: ff8a 533d 355d e1bd 1fdc 81bd 8ed8 09be
00000050: cb8b 22be c478 d7bd 8efa e7bd 3ee6 51bd
00000060: d205 a3bd 3c79 19be 83d5 dcbd bf2b 19be
00000070: 4261 51be b025 643e 6880 1e3d db9e 1d3e
00000080: 175a 1f3e cd49 50bb 1a99 e6be 7e26 cebd
00000090: 4de9 043d 342b a7bd 78c6 67bc d881 acbd
000000a0: b23b 4fbe 4c86 19be 7cf4 85be f0b4 54be
000000b0: e82c ce3d 7724 843c 89cb b03c e372 073d
000000c0: d1a6 1dbb dff4 d1bd 0100 0abe ecac d1bd
000000d0: 9c9b 6cbd d713 3e3d d613 1a3e 3cb8 05be
000000e0: af2a 19bd 810d ddbd c4e9 dabc ff69 11be
000000f0: bf89 4f3c dec2 e6bd 90b5 5b3c 8be6 a8bc
00000100: b962 c13b d256 30be cf0c d7bc f5e4 bdbd
00000110: adff 053c 5c4d b3bc dde8 4bbe a356 ecbc
00000120: 850d 11be 7d24 21be 9cfe 34be 8b74 60bd
00000130: c41b c8bd 6a8a 94bd 0db4 c6bc e686 823c
00000140: 2619 a9bd 25d5 9cbc da65 07be 00e6 73bc
00000150: 3336 823e d640 0f3d 93e2 7d3c 6818 fdbd
00000160: f5db 45bd c268 8c3d 0a12 c5bd 29cb a93b
00000170: f02c 4a3a f7c9 8a3d 7346 d63d ba58 8abd
00000180: cc13 00bd 4238 69bd 4b4f 50bd 3d49 c3bb
00000190: 0594 3ebc d09a f73c ada7 a6bd 5835 bcba
000001a0: fd01 013d 5a51 c63c def7 f7bd de26 f3bd
000001b0: 8f06 d0bd 21a3 d0bd 784a 3abd dd4d 663d
000001c0: 4c0c 373d d5a2 89bd 4d1e 833d 622d c5bc
000001d0: 9738 31be f4be 3abe 9b5d 20be 1da4 d4be
000001e0: cc6e 13bd bbeb 56be 8e05 0bbe 8843 6bbe
000001f0: 638f 39be 2f39 96bd e3a2 f63b 63fc b0bc
00000200: 3e72 b2bd 5042 883e 4f33 62bd 6d1a a3bd
00000210: dc80 a4bd 0fd0 d4bd 030e 3c3d 0bee 7fbd
00000220: e940 003c fdcd c6bd 59dd 02bc 1fe5 ae3e
00000230: 6ff8 15bd 9395 64bd a905 91bd 0204 cebc
00000240: 0e07 c3be 7b8e 72bd c24e b6bd 0c6e a4bd
00000250: fc00 883c 6b6d 3abd 99f0 aabd 643b aebb
00000260: 9165 3dbd 6d70 90bc 4b8c a4be e1c0 54be
00000270: 2a9a 4cbe 014a 78be e937 31be 3189 2bbe
00000280: 59c5 d6bd 13d6 38bd c3d8 87bd ac43 02be
00000290: e180 a4be fac0 92bd effd 8abc c109 aebd
000002a0: d53e fabc 56cb 293f 3356 ccbd 78a1 64bc
000002b0: 6211 1bbd 4ba3 22be f5d2 92be e988 4d3d
000002c0: 699f c53b e47a 42bd 8782 8b3b fecf 4d3c
000002d0: 947f 4bbe 60ce ddbd 3caf 4cbe b7ba 1bbe
000002e0: 0e03 a2be 76b0 a2be 2b31 9ebe 8fe8 8abe
000002f0: f03c 46be 6745 30bc 3f67 06be bb92 deba
00000300: aee6 583d dad3 ed3c 4a6f 813c 2833 0d3d
00000310: 7ac0 953c cf9b 893c 0c6b dcbd 38d3 fabd
00000320: 2450 69bd e1ce 1ebe 32c2 9d3b 9ebf 48bd
00000330: e2f7 653e 166c 97bb 505f df3b f63a b93b
00000340: cd17 413c 26f7 9f3d b43e e83c 8ca3 d43b
00000350: a75e c4bd d770 dbbd 1183 003e 8433 c2bc
00000360: f0ad 303d 01b9 93bd 5dc5 2abd 9a22 ecbc
00000370: 4534 01be e5c8 98bd ae4a 0abe 7d4d 37bd
00000380: ad71 493d 58b4 6cbc f286 f2bc 6448 2dbe
00000390: 609a e7bd 1eef 93bc 0c4c b8bd 4e36 0abe
000003a0: 2a94 1ebd 6900 43bd 5819 b73e 538c bdbd
000003b0: 3565 253b 1525 47bd 3c76 98bd 43ee 063e
000003c0: 6ae8 833c 7fca 08bd a75e 813c d450 16bd
000003d0: c76a 153e 6c65 b5bc 495e d5bc 119c 5bbd
000003e0: f388 15be 8d8c 93bd b14f 16be a35b a2bd
000003f0: 5911 61bc 3661 f0bd a6e0 c3bd 7dbe 93bd

lstm.weight_hh_l0 f4 [400, 100]
0.07490128 -0.0872528 -0.088433534 0.12862495 0.020124465 -0.030292844 0.08284838 0.06977332
0.06514216 -0.09679001 -0.093631744 -0.13845949 -0.03654511 -0.0019899877 0.007999005 -0.061624065
-0.017274382 -0.09495601 -0.04516732 0.027951157 0.05543162 -0.15239327 0.054760817 0.1632456
0.036288947 0.03440683 -0.08173868 0.106547356 0.04186621 0.020531109 0.04429263 -0.042163577
-0.056455936 -0.027385281 0.14048338 0.08487149 0.09813358 0.10804781 0.0050125276 -0.051828366
0.06904226 7.073677e-05 -0.10122872 0.10669906 0.05237378 0.082616694 -0.009726483 0.06499463
-0.107232 0.09968058 -0.023550348 -0.08136884 -0.0020684123 -0.06282631 0.08654351 0.14553839
0.0459734 0.12403809 0.033899426 -0.15024924 -0.08751054 0.102859385 -0.006247941 0.12796263
-0.033437874 -0.027093727 -0.09800107 -0.076810084 0.16366449 0.043208335 -0.015010829 -0.04354512
0.05474322 -0.10845318 0.14666383 0.018156847 0.052453194 0.093692884 0.018921575 -0.1104501
0.00078317896 -0.013397419 -0.038859054 -0.10752502 0.13374788 0.097007915 0.09644546 0.040113047
-0.006470957 0.027150065 0.062470004 0.07862379 -0.079526305 0.0472691 0.045330722 -0.026898686
0.17662498 0.08511429 0.00823033 -0.12522942 -0.016062455 -0.058559857 0.06924137 -0.0080703655
-0.12519693 -0.09777828 -0.09758322 0.039452143 0.061232194 0.027294945 -0.094306916 -0.07615059
-0.096824974 -0.016147852 0.112112276 -0.12173085 -0.16254468 -0.0020604806 0.06872503 0.008887432
0.018845418 -0.0014111865 0.13421333 0.13928023 -0.0041838917 -0.030665064 0.013102437 0.10082687
-0.009872036 -0.0825144 0.09683888 -0.0024142636 -0.0009583416 0.0020816557 0.047913555 0.17363216
-0.031344187 0.0150066735 -0.098758176 -0.00863625 0.07490646 0.13956948 -0.07454573 -4.4439883e-05
0.1141513 0.1342306 -0.03872672 -0.07320145 -0.18931893 0.111235 -0.13780844 0.019912193
-0.020254299 0.0019866861 -0.12560052 0.13401416 -0.023843016 0.0016967684 0.14646481 0.04092665
-0.09125311 -0.09313466 -0.018371647 0.123719186 0.02092294 -0.03223905 -0.015498292 -0.042605232
-0.12483676 0.019507855 0.0063385763 0.009674782 -0.07735711 -0.13605833 0.035603892 0.061730694
-0.060973525 0.13254817 0.05789093 -0.06234243 -0.15044428 0.035798084 -0.016110083 -0.1400277
-0.03161191 0.070260465 -0.048893925 -0.1775012 -0.021245454 -0.01594411 0.065858305 0.018450532
0.11370353 0.04567512 0.10603222 0.02677671 -0.0034433333 -0.013449918 -0.028582277 -0.055606104
0.20075396 0.01619342 0.07027563 0.22478025 -0.13963333 -0.03745751 -0.062339947 -0.08580589
-0.039662194 -0.053169645 -0.056882437 0.11345159 -0.016488003 -0.06223748 0.1506508 -0.08158876
-0.11510878 -0.083540194 0.19668455 -0.013220947 0.009349492 0.18828282 0.098922 0.048585307
0.079874255 0.011995759 -0.17381744 -0.11814127 0.014958802 -0.06895263 -0.057281476 0.033362795
0.0932602 0.2985166 0.042367257 0.14293298 0.015443408 0.09001629 -0.28221676 -0.09221133
0.107851714 0.04856487 -0.03743418 -0.022654817 0.008050442 0.17224099 0.032153007 -0.16791295
-0.043348853 -0.030998968 -0.057153262 -0.042558577 0.033423554 0.061807465 -0.13978508 -0.05945284
00000000: d865 993d 99b1 b2bd a41c b5bd 42b6 033e
00000010: 10dc a43c b328 f8bc 69ac a93d 50e5 8e3d
00000020: 4169 853d d739 c6bd 00c2 bfbd 53c8 0dbe
00000030: 53b0 15bd 746a 02bb 420e 033c 8469 7cbd
00000040: 0183 8dbc 4c78 c2bd 5e01 39bd d3f9 e43c
00000050: 440c 633d fb0c 1cbe e14c 603d db29 273e
00000060: b8a3 143d 2dee 0c3d 9c66 a7bd 8035 da3d
00000070: e77b 2b3d db30 a83c 306c 353d b7b3 2cbd
00000080: 573e 67bd 1957 e0bc e0da 0f3e 1bd1 ad3d
00000090: 42fa c83d 2c48 dd3d 2140 a43b fb49 54bd
000000a0: 0766 8d3d 8458 9438 0151 cfbd 0985 da3d
000000b0: e485 563d f132 a93d d45b 1fbc e81b 853d
000000c0: 739c dbbd 5525 cc3d a9ec c0bc b5a4 a6bd
000000d0: 338e 07bb 15ab 80bd b93d b13d 0408 153e
000000e0: 9b4e 3c3d af07 fe3d 20da 0a3d f0da 19be
000000f0: ba38 b3bd f1a7 d23d 87bb ccbb a308 033e
00000100: 27f6 08bd aaf3 ddbc c9b4 c8bd 9b4e 9dbd
00000110: aa97 273e 39fb 303d fbef 75bc 5e5c 32bd
00000120: 6d3a 603d b31c debd 0b2f 163e abbd 943c
00000130: 29d9 563d 0ee2 bf3d 6b01 9b3c a933 e2bd
00000140: 404e 4d3a d980 5bbc ac2a 1fbd 1436 dcbd
00000150: 34f5 083e 16ac c63d 3385 c53d 944d 243d
00000160: 520a d4bb d069 de3c 8ce0 7f3d 8205 a13d
00000170: b0de a2bd 3e9d 413d b5ac 393d a25a dcbc
00000180: 2edd 343e 6750 ae3d 82d8 063c 243c 00be
00000190: 6995 83bc 76dc 6fbd 6bce 8d3d 9139 04bc
000001a0: a033 00be fb3f c8bd b6d9 c7bd 9298 213d
000001b0: 9cce 7a3d a699 df3c fc23 c1bd d7f4 9bbd
000001c0: 2c4c c6bd 8048 84bc 1f9b e53d 064e f9bd
000001d0: 1d72 26be 2109 07bb b5bf 8c3d 979c 113c
000001e0: b561 9a3c 90f7 b8ba 386f 093e 7a9f 0e3e
000001f0: 0719 89bb 4d35 fbbc 9bab 563c 517e ce3d
00000200: 52be 21bc 4ffd a8bd 7653 c63d 9f38 1ebb
00000210: 3739 7bba 636c 083b 0141 443d a1cc 313e
00000220: c362 00bd 8dde 753c ba41 cabd 0f7f 0dbc
00000230: 8f68 993d 4deb 0e3e 6fab 98bd f664 3ab8
00000240: 28c8 e93d bf73 093e e99f 1ebd a4ea 95bd
00000250: d2dc 41be 2dcf e33d a81d 0dbe e51e a33c
00000260: 58ec a5bc 1033 023b 6c9d 00be 023b 093e
00000270: 6e52 c3bc 1a66 de3a dffa 153e b4a2 273d
00000280: e9e2 babd 62bd bebd 2380 96bc 7c60 fd3d
00000290: 9666 ab3c 180d 04bd 8cec 7dbc d382 2ebd
000002a0: 6aaa ffbd f0ce 9f3c d5b3 cf3b fa82 1e3c
000002b0: 686d 9ebd e052 0bbe 63d5 113d 53d9 7c3d
000002c0: 60bf 79bd b5ba 073e 0a1f 6d3d c75a 7fbd
000002d0: 110e 1abe 03a1 123d 4bf9 83bc 6c63 0fbe
000002e0: 7d7b 01bd b8e4 8f3d ff44 48bd e0c2 35be
000002f0: f20a aebc 399d 82bc b8e0 863d 9225 973c
00000300: 65dd e83d d615 3b3d 6c27 d93d d55a db3c
00000310: 8ca9 61bb 0b5d 5cbc 6125 eabc 3ac3 63bd
00000320: 7292 4d3e 10a8 843c abec 8f3d cb2c 663e
00000330: 0afc 0ebe 0c6d 19bd 2c58 7fbd 00bb afbd
00000340: d374 22bd 6ac8 59bd 8ffd 68bd 4f59 e83d
00000350: d911 87bc baec 7ebd 3444 1a3e 0218 a7bd
00000360: 27be ebbd 1f17 abbd ad67 493e ac9c 58bc
00000370: 9d2e 193c 36cd 403e 9e97 ca3d 6301 473d
00000380: 1d95 a33d dc89 443c 33fd 31be 0df4 f1bd
00000390: c315 753c 0937 8dbd fb9f 6abd 6da7 083d
000003a0: 34ff be3d 2bd7 983e 4a89 2d3d 065d 123e
000003b0: 5906 7d3c 765a b83d b77e 90be 4bd9 bcbd
000003c0: 5ce1 dc3d f5eb 463d 9554 19bd 9896 b9bc
000003d0: 00e6 033c f15f 303e dfb2 033d 5ff1 2bbe
000003e0: 918e 31bd 8cf1 fdbc 8a19 6abd e751 2ebd
000003f0: 23e7 083d d329 7d3d d223 0fbe d284 73bd

lstm.bias_ih_l0 f4 [400]
-0.07658359 -0.1869888 -0.1189943 0.027883776 -0.08356588 -0.13142523 -0.022519024 -0.08992625
-0.04187433 0.009635291 0.08763528 -0.039937645 0.0014598758 -0.111880794 -0.10839909 -0.12951317
0.07499187 0.0077499244 -0.042533927 -0.034354985 0.0061608236 -0.13241227 0.07267729 -0.13886268
-0.06679136 0.023233917 0.01422507 -0.14263202 -0.06673032 -0.16288354 -0.12899654 -0.21453966
-0.16236317 0.035719596 -0.20568667 -0.07862494 -0.088116184 -0.07729632 -0.056931373 0.059004843
-0.13868876 -0.053396102 -0.06448721 -0.05694998 -0.18432115 0.013171333 0.06234787 -0.0834964
-0.09556953 -0.030358167 -0.11479821 -0.14574333 -0.10585112 -0.009672008 -0.16856755 -0.12935019
0.06262862 -0.024621338 0.033248473 -0.013268199 -0.031560738 -0.14165263 -0.015584128 -0.14806722
-0.13003562 -0.12609403 -0.02424585 -0.009792869 -0.008128802 -0.10680574 0.04437492 -0.08342652
-0.090737544 0.0562504 -0.023228375 0.15234785 -0.017534314 0.032997448 0.06495395 -0.009716374
-0.0386926 -0.083228424 -0.101328164 -0.08162223 0.016151978 -0.07779518 -0.16686077 -0.010243828
-0.07246318 0.027918331 -0.13644859 0.01304326 -0.02185398 -0.02407034 -0.0828305 -0.12692025
-0.16996649 -0.027244074 -0.1509856 -0.048529305 -0.055668708 -0.18984142 -0.01146956 0.008013613
-0.05302164 -0.06303722 -0.12165714 -0.06567522 -0.16842993 -0.06131506 -0.072627574 -0.14204337
-0.055671155 -0.19611737 -0.14343953 -0.022527823 0.0007048541 0.023956258 -0.11930815 0.034175504
-0.08749775 -0.10231052 -0.1270143 -0.17982143 -0.17038949 -0.20515601 -0.12259921 0.026250515
-0.107245885 -0.145117 -0.17920277 -0.22676255 -0.1649362 0.08684698 -0.09391776 -0.06851453
-0.11325417 -0.095422365 0.062951036 0.026082981 -0.065597855 -0.05907852 -0.04810989 -0.019180873
-0.14440408 0.008543833 -0.18454032 -0.010257557 0.020216616 -0.025771147 -0.10376619 -0.047634147
0.00029647653 -0.20694317 -0.028129945 -0.12048996 -0.04589787 -0.12711984 0.014755631 -0.04876351
-0.16024949 -0.08988555 0.010965128 -0.086196154 -0.015164406 -0.092562675 -0.032682177 -0.080495
-0.123896696 0.048395682 0.03383019 -0.111554876 -0.045314215 0.007550224 -0.058426045 -0.16690849
-0.12250788 0.020789174 -0.16418783 -0.08964225 0.0029989257 -0.13587253 -0.1633913 0.05277427
-0.0528589 -0.016851911 -0.025141118 -0.010830281 -0.14205672 0.004346081 -0.1130708 -0.03068132
-0.04770728 -0.05109778 -0.034739822 -0.06597685 -0.074786425 -0.12116221 -0.20672469 -0.20670754
-0.08633562 -0.007502164 0.029739786 -0.03482936 0.07318839 0.027635954 0.003926048 0.042281765
0.023269061 0.005362204 0.057622727 0.104017496 0.084785715 0.104945384 -0.046485223 0.14120966
0.08617789 0.04654521 -0.04881648 -0.05026067 0.03441696 -0.036835175 -0.046388645 -0.11767515
-0.02733833 -0.14691184 0.09804709 -0.002715364 0.039884247 -0.023623839 -0.015675835 0.07092898
-0.11523678 -0.07414202 -0.046225794 -0.03536732 -0.021895347 -0.0064013842 -0.053218655 0.04146653
-0.008939341 -0.047477875 0.03322308 -0.03628964 -0.03592838 -0.022119887 0.038661495 -0.00088088587
0.05829958 0.0030037079 -0.025050696 -0.08093871 -0.02043205 -0.070138164 0.11597893 -0.039432157
00000000: dbd7 9cbd fe79 3fbe 49b3 f3bd 846c e43c
00000010: 9724 abbd 5694 06be d179 b8bc 412b b8bd
00000020: 6b84 2bbd 57dd 1d3c 207a b33d a895 23bd
00000030: 4e59 bf3a c221 e5bd 5800 debd 1a9f 04be
00000040: 5695 993d 14f3 fd3b 0e38 2ebd d0b7 0cbd
00000050: bce0 c93b 1597 07be d5d7 943d 0532 0ebe
00000060: e9c9 88bd 0e55 be3c 4510 693c 210e 12be
00000070: e8a9 88bd f1ca 26be ab17 04be 49b0 5bbe
00000080: 8842 26be b64e 123d 879f 52be 1d06 a1bd
00000090: 4276 b4bd 884d 9ebd df30 69bd 10af 713d
000000a0: 6d04 0ebe dfb5 5abd df11 84bd 6244 69bd
000000b0: afbe 3cbe 93cc 573c 7b60 7f3d 2900 abbd
000000c0: f5b9 c3bd b1b1 f8bc 531b ebbd bd3d 15be
000000d0: 79c8 d8bd 5877 1ebc f99c 2cbe 6074 04be
000000e0: 6f43 803d b0b2 c9bc 8d2f 083d dc62 59bc
000000f0: d545 01bd 630d 11be 9254 7fbc ef9e 17be
00000100: 0f28 05be cb1e 01be 3c9f c6bc 4572 20bc
00000110: ab2e 05bc f8bc dabd 7ac2 353d 86db aabd
00000120: 9bd4 b9bd d266 663d 6f49 bebc 1301 1c3e
00000130: 1fa4 8fbc 5528 073d 9406 853d 6d31 1fbc
00000140: 227c 1ebd aa73 aabd 2485 cfbd 8e29 a7bd
00000150: 2751 843c 1453 9fbd 8ddd 2abe bbd5 27bc
00000160: 9367 94bd fcb4 e43c 2eb9 0bbe 66b3 553c
00000170: 1e07 b3bc 292f c5bc 0aa3 a9bd 62f7 01be
00000180: b20b 2ebe f72e dfbc f89b 1abe aac6 46bd
00000190: df04 64bd ca65 42be d2ea 3bbc 874b 033c
000001a0: 382d 59bd a819 81bd 6127 f9bd bb80 86bd
000001b0: e578 2cbe 8025 7bbd c4bd 94bd d173 11be
000001c0: 7007 64bd fed2 48be d0e1 12be 458c b8bc
000001d0: f5c5 383a ea3f c43c d557 f4bd 9dfb 0b3d
000001e0: 0532 b3bd 2e88 d1bd 0910 02be 1c23 38be
000001f0: 957a 2ebe 6b14 52be 4b15 fbbd 520b d73c
00000200: bba3 dbbd 8d99 14be ee80 37be 7134 68be
00000210: 09e5 28be d4dc b13d f457 c0bd 5951 8cbd
00000220: cdf1 e7bd cd6c c3bd 79ec 803d faab d53c
00000230: 2b58 86bd 51fc 71bd e00e 45bd 3521 9dbc
00000240: aade 13be 6ffb 0b3c 23f8 3cbe 500f 28bc
00000250: 519d a53c 031e d3bc 5e83 d4bd 061c 43bd
00000260: 6870 9b39 e9e8 53be c570 e6bc 71c3 f6bd
00000270: 68ff 3bbd b42b 02be 9ac1 713c 3fbc 47bd
00000280: 7118 24be ea15 b8bd 15a7 333c 9c87 b0bd
00000290: 2174 78bc 8091 bdbd bfdd 05bd 90da a4bd
000002a0: 8dbd fdbd 8d3a 463d 8691 0a3d e276 e4bd
000002b0: 669b 39bd df67 f73b 2650 6fbd 0fea 2abe
000002c0: 69e5 fabd 0f4e aa3c db20 28be 5b96 b7bd
000002d0: a089 443b 2b22 0bbe 0d50 27be d529 583d
000002e0: 9382 58bd 050d 8abc bff4 cdbc 7e71 31bc
000002f0: 5177 11be 9269 8e3b aa91 e7bd 6457 fbbc
00000300: b568 43bd e84b 51bd 584b 0ebd df1e 87bd
00000310: a029 99bd e523 f8bd a3af 53be 24ab 53be
00000320: bbd0 b0bd b7d4 f5bb daa0 f33c 3ba9 0ebd
00000330: cbe3 953d cc64 e23c 14a6 803b a52f 2d3d
00000340: c29e be3c 6db5 af3b cf05 6c3d 2007 d53d
00000350: 22a4 ad3d 9bed d63d 4a67 3ebd 4499 103e
00000360: 097e b03d 31a6 3e3d caf3 47bd 22de 4dbd
00000370: ccf8 0c3d 7be0 16bd 0502 3ebd abff f0bd
00000380: a2f4 dfbc 0f70 16be eacc c83d 40f4 31bb
00000390: aa5d 233d c886 c1bc 9c6a 80bc 3743 913d
000003a0: 4301 ecbd c5d7 97bd 4257 3dbd 53dd 10bd
000003b0: df5d b3bc b4c2 d1bb cefb 59bd cfd8 293d
000003c0: 5076 12bc 2978 42bd ed14 083d 72a4 14bd
000003d0: a329 13bd c434 b5bc 845b 1e3d 40eb 66ba
000003e0: 8acb 6e3d dbd9 443b 1e37 cdbc 32c3 a5bd
000003f0: 1d61 a7bc 99a4 8fbd 5c86 ed3d 9d83 21bd

lstm.bias_hh_l0 f4 [400]
-0.0646616 -0.039297484 -0.03133576 -0.050203238 -0.13171963 -0.018973723 0.01087022 -0.12794042
-0.075117156 0.08464831 -0.08999573 -0.07807844 -0.09741333 -0.024928167 -0.05293428 -0.12584543
0.020763226 0.046654336 -0.037932098 -0.06261083 -0.020440677 -0.17734353 -0.05149683 -0.057564028
-0.10549345 -0.00032460157 -0.0031678039 0.03279021 -0.07360932 0.012753079 -0.05663671 -0.0699371
-0.0068677342 0.0532713 -0.047758307 -0.03473936 -0.19690037 -0.08509241 0.050496418 -0.07357331
-0.14618818 0.08789506 -0.024174329 -0.101144835 -0.14179422 -0.07353437 -0.039098997 0.021741187
0.020355556 0.006466142 -0.09067663 -0.08231962 -0.028739043 -0.06603792 -0.172379 -0.10462016
0.09252633 -0.05246264 -0.0097284885 -0.03958742 0.08811006 -0.14491859 -0.10752811 -0.09792727
0.0017418849 -0.00025355033 -0.09936586 0.028798956 -0.056746814 -0.003518846 0.061062217 -0.13685857
-0.17439102 0.030912014 -0.03154051 0.024386534 -0.062951885 -0.11458317 0.08482107 -0.0165286
-0.022402693 -0.04195889 -0.1786348 0.06329213 -0.097472355 -0.05048371 -0.07516063 -0.0035839858
-0.01167489 -0.031174088 -0.05095158 -0.0019400408 -0.09823757 -0.05453221 0.06718117 -0.01448798
-0.15317613 -0.013732617 -0.18652451 -0.093618035 0.05000558 -0.04619262 -0.115122624 0.0018453689
0.008794764 -0.14308782 -0.059109762 -0.17565969 -0.15495047 0.019785551 -0.029964538 -0.14738189
-0.124621175 -0.16363624 -0.009483757 0.02647612 -0.008108011 -0.0074117486 0.007483502 -0.04254235
-0.007893989 -0.17970206 -0.075846285 -0.13113818 -0.18370537 -0.23415418 -0.06799979 -0.14265868
-0.109200396 -0.029340444 -0.0961768 -0.19965322 -0.024091497 0.18965948 -0.15773961 0.024064489
-0.13910371 -0.03479653 -0.044480395 0.058029626 -0.11206996 -0.13979034 -0.049796015 -0.0062536118
-0.11024431 0.019612214 -0.10403017 0.026668971 -0.11150942 -0.16331092 -0.083583765 -0.05427561
-0.037099466 -0.06778395 -0.18305852 -0.14620708 -0.07313658 -0.027917184 -0.022259353 -0.064986594
-0.060307745 -0.030459192 0.01928782 -0.04581777 -0.090673916 -0.12349455 -0.1376966 -0.021600312
-0.13429068 -0.05854701 -0.13040194 -0.08980964 -0.08746271 -0.10762411 -0.13921987 -0.01540762
-0.14590581 -0.10247067 -0.017307455 0.0031183844 -0.112053566 -0.17095983 -0.1654951 0.054263543
-0.08651702 -0.10727296 -0.15852658 0.015070366 0.025480743 -0.11145551 -0.11602461 -0.114781424
-0.029070923 -0.14679027 -0.0057008094 0.025429623 -0.09209901 -0.14230347 -0.16148758 -0.09437867
0.028805098 -0.01560836 0.0094351005 0.020825086 -0.09912605 0.030547103 0.051347718 0.10155974
-0.12556708 0.043710437 0.111672215 -0.06535487 0.08518021 -0.04440847 -0.026041197 -0.03137789
0.07098592 0.102597035 -0.037210584 -0.031432338 0.046541408 0.028274214 -0.054892514 0.015108528
0.11865436 -0.0085632065 -0.020034669 -0.09418997 -0.00896254 -0.013129291 -0.06629042 -0.015659347
0.06346449 0.09945964 0.024592396 -0.07640699 -0.09459864 -0.099715516 0.08021603 -0.038954224
-0.076334074 0.057935283 0.05894183 -0.09738887 -0.10465989 0.03517367 0.050603315 0.094648555
0.09260223 -0.049401898 -0.00056626654 0.052413527 0.052879646 0.064351775 -0.03882437 -0.06772678
00000000: 4d6d 84bd 66f6 20bd ed59 00bd e9a1 4dbd
00000010: 83e1 06be c86e 9bbc 0219 323c d002 03be
00000020: 06d7 99bd 185c ad3d ae4f b8bd 97e7 9fbd
00000030: a480 c7bd 2836 ccbc 9ed1 58bd a0dd 00be
00000040: a417 aa3c 9e18 3f3d b05e 1bbd 1b3a 80bd
00000050: 3573 a7bc 8b99 35be 57ee 52bd 42c8 6bbd
00000060: f30c d8bd 492f aab9 ee9a 4fbb 074f 063d
00000070: 7cc0 96bd 4af2 503c e5fb 67bd 2f3b 8fbd
00000080: bb0a e1bb 0233 5a3d 379e 43bd dc4a 0ebd
00000090: 40a0 49be ee44 aebd 55d5 4e3d 9bad 96bd
000000a0: 5bb2 15be 5302 b43d 3e09 c6bc 0625 cfbd
000000b0: 8132 11be 3099 96bd 4526 20bd 931a b23c
000000c0: b2c0 a63c eee1 d33b abb4 b9bd 3097 a8bd
000000d0: 246e ebbc e43e 87bd 1f84 30be 1843 d6bd
000000e0: 727e bd3d 11e3 56bd 3d64 1fbc 6b26 22bd
000000f0: 0c73 b43d 8a65 14be b337 dcbd 188e c8bd
00000100: f54f e43a f3ee 84b9 5480 cbbd caeb eb3c
00000110: 596f 68bd 709c 66bb 601c 7a3d a724 0cbe
00000120: 8f93 32be 313b fd3c 9f30 01bd 45c6 c73c
00000130: ebec 80bd 95aa eabd abb6 ad3d fd66 87bc
00000140: da85 b7bc 16dd 2bbd 0aec 36be 4e9f 813d
00000150: 969f c7bd 02c8 4ebd d1ed 99bd 4ee1 6abb
00000160: 0a48 3fbc cd60 ffbc 9bb2 50bd f848 feba
00000170: c730 c9bd 2b5d 5fbd 4896 893d fe5e 6dbc
00000180: 34da 1cbe c5fe 60bc 4800 3fbe d0ba bfbd
00000190: a7d2 4c3d 7934 3dbd 69c5 ebbd 4ee0 f13a
000001a0: ea17 103c 9d85 12be 141d 72bd 22e0 33be
000001b0: 56ab 1ebe 4f15 a23c 3178 f5bc 47eb 16be
000001c0: 6339 ffbd 4290 27be c361 1bbc 73e4 d83c
000001d0: 77d7 04bc 41de f2bb 2a38 f53b e340 2ebd
000001e0: ca55 01bc d103 38be 4c55 9bbd 1649 06be
000001f0: 431d 3cbe 1dc6 6fbe 7943 8bbd 1e15 12be
00000200: 75a4 dfbd 5f5b f0bc 58f8 c4bd e571 4cbe
00000210: 885b c5bc 1836 423e 7e86 21be e422 c53c
00000220: 3471 0ebe ce86 0ebd 1331 36bd 79b0 6d3d
00000230: ef84 e5bd 3325 0fbe e8f6 4bbd 19eb ccbb
00000240: c5c7 e1bd cba9 a03c c50d d5bd e378 da3c
00000250: 0d5f e4bd fa3a 27be f72d abbd 1a50 5ebd
00000260: 9cf5 17bd 50d2 8abd b173 3bbe 4fb7 15be
00000270: a2c8 95bd 94b2 e4bc 3f59 b6bc b117 85bd
00000280: 4105 77bd 8e85 f9bc 7e01 9e3c 6aab 3bbd
00000290: 3fb3 b9bd b6ea fcbd 5600 0dbe 23f3 b0bc
000002a0: 7f83 09be fdce 6fbd 1688 05be 1eee b7bd
000002b0: a61f b3bd 086a dcbd a78f 0ebe 3e70 7cbc
000002c0: 5568 15be 25dc d1bd 5dc8 8dbc cf5d 4c3b
000002d0: 577c e5bd 1810 2fbe 8c77 29be 7343 5e3d
000002e0: d62f b1bd edb1 dbbd cb54 22be b2e9 763c
000002f0: febc d03c c942 e4bd 509e edbd 8612 ebbd
00000300: 2526 eebc 3050 16be dbcd babb c951 d03c
00000310: 689e bcbd 00b8 11be 005d 25be 9b49 c1bd
00000320: abf8 eb3c 35ba 7fbc ae95 1a3c 5f99 aa3c
00000330: 9902 cbbd eb3d fa3c fc51 523d 8efe cf3d
00000340: a894 00be b709 333d 67b4 e43d c6d8 85bd
00000350: f672 ae3d a8e5 35bd 5954 d5bc 1a86 00bd
00000360: 1161 913d 651e d23d 206a 18bd 32bf 00bd
00000370: 34a2 3e3d 539f e73c f9d6 60bd c289 773c
00000380: 0f01 f33d b14c 0cbc bf1f a4bc ace6 c0bd
00000390: 9ed7 12bc 3d1c 57bc 46c3 87bd 0848 80bc
000003a0: acf9 813d 7fb1 cb3d fe75 c93c 457b 9cbd
000003b0: efbc c1bd a637 ccbd 4d48 a43d 778e 1fbd
000003c0: 0a55 9cbd 8c4d 6d3d fd6c 713d d173 c7bd
000003d0: ed57 d6bd 4412 103d 6c45 4f3d 1ad7 c13d
000003e0: 3da6 bd3d a559 4abd 8171 14ba 91af 563d
000003f0: 5498 583d ddca 833d 4d06 1fbd 57b4 8abd

linear.weight f4 [1, 100]
-0.07778772 0.012311122 -0.017650371 -0.092792 0.023895998 0.08863583 0.06847311 0.04812091
-0.09527993 0.06900746 0.115587644 0.003297426 0.06814109 0.069425054 -0.070602104 0.024953796
0.13782968 0.13128336 -0.046804205 -0.033979196 0.058124494 -0.028730081 -0.08482662 0.010025648
0.033276264 -0.110417895 0.103065364 0.04897168 -0.051198997 -0.024305489 0.00468491 0.019677818
0.0014206499 -0.16739969 -0.04116933 -0.036647923 -0.023617761 -0.05698091 0.098187126 0.06310641
-0.057576038 0.08770981 0.15391918 -0.04586835 -0.050896686 -0.06358341 0.07046989 0.111113586
0.12254155 0.010233579 -0.010538654 -0.018960243 0.054217093 0.040465552 -0.035243705 0.03565466
0.072502665 0.014579556 -0.090804055 0.0508797 -0.1047626 0.0628763 0.11413759 0.08705543
0.08280106 -0.054039363 0.07877248 0.13238901 0.07228057 -0.010599049 0.008198748 0.054919224
-0.015632633 0.043777116 0.038469117 0.17048171 0.0296853 -0.053766873 0.059218183 -0.029889334
0.1128259 0.041737054 -0.036621753 -0.018622441 -0.10866434 -0.0351581 0.022542335 0.06399188
0.061719704 0.10056086 0.015384334 -0.08366723 -0.054728642 -0.033021294 -0.14935052 0.01819274
-0.08020371 -0.1526598 0.030969784 -0.11016731
00000000: 2b4f 9fbd 97b4 493c 8397 90bc bb09 bebd
00000010: 8ac1 c33c b486 b53d a13b 8c3d 6e1a 453d
00000020: 2022 c3bd c853 8d3d 37b9 ec3d a119 583b
00000030: 8e8d 8b3d b92e 8e3d d697 90bd e76b cc3c
00000040: 3923 0d3e 256f 063e c4b5 3fbd c52d 0bbd
00000050: f313 6e3d 595b ebbc 94b9 adbd 9e42 243c
00000060: b14c 083d c722 e2bd ef13 d33d 8796 483d
00000070: 0ab6 51bd 4e1c c7bc e083 993b 6033 a13c
00000080: 1a35 ba3a d36a 2bbe 2ca1 28bd 221c 16bd
00000090: 097a c1bc d164 69bd 5516 c93d ef3d 813d
000000a0: dad4 6bbd 33a1 b33d fd9c 1d3e 73e0 3bbd
000000b0: 0b79 50bd 0538 82bd 8552 903d 858f e33d
000000c0: 10f7 fa3d beaa 273c 52aa 2cbc 8352 9bbc
000000d0: be12 5e3d 35bf 253d b45b 10bd 9f0a 123d
000000e0: 477c 943d 17df 6e3c 7af7 b9bd 3b67 503d
000000f0: c68d d6bd 4ac5 803d f8c0 e93d 1e4a b23d
00000100: 9a93 a93d 6158 5dbd 7753 a13d fc90 073e
00000110: d607 943d a2a7 2dbc 0b54 063c fbf2 603d
00000120: 0210 80bc a24f 333d cb91 1d3d c292 2e3e
00000130: 962e f33c a73a 5cbd c48e 723d 7ada f4bc
00000140: 4411 e73d 79f4 2a3d b100 16bd 178e 98bc
00000150: 698b debd f101 10bd b4aa b83c 2d0e 833d
00000160: cdcd 7c3d daf2 cd3d 930e 7c3c ba59 abbd
00000170: 242b 60bd 5641 07bd 58ef 18be f108 953c
00000180: d841 a4bd da52 1cbe 58b4 fd3c 669f e1bd
