model/1721472073_model-aapl.pth (torch, 174356 bytes, 5 tensors)

lstm.weight_ih_l0 f4 [400, 5]
000000 d0 40 e6 bd 93 77 f1 bd cf 64 56 bd 2d 96 61 bd
       -0.11242831 -0.11790385 -0.052342232 -0.05507486
000010 ed 01 29 bd 76 0d 15 be 85 1c 79 bd 22 c6 be ba
       -0.041261602 -0.14555916 -0.060818214 -0.0014554898
000020 1e f7 bd bd bf 38 08 be 9e 1f 97 bd ec 25 c9 bd
       -0.092756495 -0.13302897 -0.073790774 -0.09821686
000030 cd 31 94 bd c4 89 db bd 75 38 37 be e8 06 af bd
       -0.07236061 -0.10719636 -0.1789263 -0.08546239
000040 8b 68 96 bd 5f b6 1c bd 33 ea 15 be da 73 3f bd
       -0.07344159 -0.03825986 -0.14640121 -0.046741344
000050 fd 40 d3 bd bd 7d c9 3c ac bf d5 39 ac f4 e9 bd
       -0.1031513 0.02459609 0.00040769333 -0.114236206
000060 65 39 6b ba 82 4b f9 bd 46 a3 c6 bd be 0b 45 be
       -0.0008973091 -0.12172605 -0.09699111 -0.1924276
000070 ef 9b 1c be 69 31 93 3d 2c fc 35 be 5e 92 ed bd
       -0.15293859 0.071871586 -0.17771977 -0.11600183
000080 39 67 25 be 32 ae e9 bd 8a d8 39 bf 78 7c e6 bd
       -0.16152658 -0.11410178 -0.7259604 -0.11254209
000090 90 01 40 be d3 9a bf bd d5 56 34 be ac 84 98 bd
       -0.18750596 -0.09355702 -0.17611249 -0.0744718
0000a0 1e be 1d 3c ae 8f 83 bd 24 93 8d 3d 35 a1 b6 bb
       0.009627847 -0.06423889 0.069128305 -0.0055734166
0000b0 f8 4a 83 3d 95 e5 0f bd 6c 97 dd 3b 98 9a ae 3c
       0.064107835 -0.035131056 0.0067624357 0.02131395
0000c0 1e 21 09 bc 72 87 7f 3e c0 27 d4 bc a6 75 1d be
       -0.008369712 0.24954012 -0.02589786 -0.1537691
0000d0 56 27 e0 bd a1 6b 01 bc 54 2f 5f be c7 93 4c 3c
       -0.10945003 -0.007899196 -0.21795398 0.012486405
0000e0 bc 13 b3 bc 50 64 93 bd 5c 13 03 be 49 1a 0d be
       -0.021859996 -0.071968675 -0.12800354 -0.13779558
0000f0 0a 3d ec bd 23 36 48 be 1c 8c 52 be b4 ec bf bd
       -0.1153508 -0.19551902 -0.2056126 -0.093713194
000100 fb f5 5e be f6 88 28 bd c9 89 0e bc 3c 0f 7a 3c
       -0.21773522 -0.04114624 -0.008699843 0.015262421
000110 6c 90 91 bd 43 45 87 bb 12 02 e4 bd f1 b4 db bd
       -0.071076244 -0.0041281297 -0.111332074 -0.10727871
000120 50 7f b9 bb 58 6d 68 3d 22 62 df be 59 ad fb bd
       -0.005660929 0.056744903 -0.43629557 -0.12288923
000130 bf 18 33 bd b7 54 2e 3d de c5 80 3d fb 98 a6 bd
       -0.04372477 0.04256126 0.0628774 -0.081346475
000140 8d 00 23 be 67 4d 8e bd 88 0d 88 3a d8 b2 5a ba
       -0.15918179 -0.06948357 0.0010380009 -0.000834269
000150 05 1f 9e 3c d5 32 85 bd 62 2b 6a 3c 90 4a f8 bd
       0.0193019 -0.06503836 0.01429257 -0.12123597
000160 e0 05 ec bc a5 d5 07 be 78 b3 bf 3c d0 3b 20 3b
       -0.028811395 -0.13265093 0.023401007 0.0024449714
000170 cc 71 72 3d 2c 78 d5 bc 90 2b 54 3e c1 b3 db bd
       0.059190556 -0.026058279 0.20719743 -0.10727645
000180 71 1b 6b bd 14 c4 d5 3c 16 df c0 bd 16 06 80 bd
       -0.057399217 0.026094474 -0.0941755 -0.06251161
000190 47 87 e5 bd a9 f0 0c bc 68 45 ed 3a 78 b0 44 bc
       -0.11207443 -0.0086023 0.001810235 -0.012004964
0001a0 40 20 f8 bd 7c 69 e9 bd ab 1f f4 bd fe 40 93 bd
       -0.12115526 -0.11397073 -0.11920103 -0.07190131
0001b0 eb 0a 19 be 8b 85 d1 3d 8d 54 cf bd b8 b0 87 3b
       -0.14945571 0.102305494 -0.10123549 0.0041409396
0001c0 48 03 e9 bd d1 0c a1 bd 95 53 f8 bd 74 9f be be
       -0.11377579 -0.07863773 -0.12125317 -0.37231028
0001d0 6a 10 b0 be b7 e3 aa be 36 cf a8 be df bc bd 3c
       -0.34387523 -0.33376858 -0.3297059 0.02316135
0001e0 a0 23 19 bc 16 1e 00 be 3c e6 83 bd 82 ee 9f 3c
       -0.009346873 -0.12511477 -0.06440398 0.01952291
0001f0 5b 0f 52 bc 5d 8a 82 3d c4 5c 0f bc db 65 8f bd
       -0.012821044 0.06374047 -0.008750144 -0.07001849
000200 5f 1b 91 bd 4f af 4f be 12 79 b5 bd 19 a7 28 be
       -0.07085299 -0.20281719 -0.08860983 -0.16469993
000210 5b a7 13 3b e1 e9 0e be 77 a9 25 be 55 7d a3 bd
       0.0022530172 -0.13956405 -0.16177927 -0.079828896
000220 a5 95 3c 3d 53 4e 67 3d 7e c5 cb 3d 97 1e 96 be
       0.04604115 0.05647118 0.09949778 -0.29320213
000230 0f 72 0b bd 59 0c 2e bd cc e2 46 3d 34 67 20 3d
       -0.03404432 -0.042492244 0.048556134 0.039160922
000240 f8 d8 b3 bd da 12 7a bc a3 7a 9d bc 93 bb 15 bc
       -0.08781618 -0.015263284 -0.019223517 -0.009138959
000250 37 95 8c 3d 1c cc 74 3e 78 af 08 be da e3 fc bd
       0.06864398 0.23905987 -0.13348186 -0.12348147
000260 17 55 e2 bd e4 a4 3d be 07 a1 57 be 04 07 0a be
       -0.11051386 -0.18519932 -0.21057521 -0.13479239
000270 c0 c3 b9 bd ba 3f 66 bd 18 d3 15 be 1d 91 69 be
       -0.090705395 -0.056213118 -0.14631307 -0.22809263
000280 7b 63 86 3d 45 5d f2 3c 58 56 4f bc 9c 06 61 3d
       0.06561943 0.02958549 -0.012654863 0.054937944
000290 4a ff 3c bd ad e4 f8 bd 73 e5 32 be 9e e1 19 be
       -0.0461419 -0.121529914 -0.1747034 -0.15027472
0002a0 83 5d 28 be 25 6b 73 bd a4 f1 2f be ce 5d 48 be
       -0.16441922 -0.059428353 -0.17182022 -0.19567034
0002b0 95 8c 80 be ae dd 82 be 38 1d f2 be 1f 62 00 be
       -0.25107256 -0.25559753 -0.47287917 -0.1253743
0002c0 a5 dc 32 be 6c c8 48 bc fe 0e 04 be a0 ac 1c ba
       -0.17466982 -0.012254816 -0.12896344 -0.0005976651
0002d0 b3 6a 40 be b5 f7 4a be 3a 93 41 be ab 92 8c be
       -0.18790703 -0.19821055 -0.18903819 -0.2745565
0002e0 a4 66 d4 be 63 6d ec bd f7 04 0b be cd 7d 9e bd
       -0.4148456 -0.11544301 -0.13576113 -0.07738838
0002f0 1b e7 62 be 62 62 17 be 47 5f 83 ba 14 b0 09 3d
       -0.22158472 -0.14783624 -0.0010022902 0.033615187
000300 fa a4 c7 bd 09 b0 af 3c 44 11 a5 3c 56 58 07 be
       -0.09748264 0.021446245 0.020149834 -0.13217291
000310 9e fa b3 bd 89 e0 bc bd 48 6f 81 bb be d5 26 bd
       -0.08788036 -0.09222514 -0.0039500333 -0.040731184
000320 6c a5 ed bd 9a 36 7b bd 6e 7c 87 3c 06 56 1f be
       -0.11603817 -0.06133137 0.016538825 -0.15560159
000330 45 2b 2b 3b 1c 22 52 bd 47 e6 32 3d 15 17 2e 3d
       0.002611832 -0.05130206 0.04367664 0.04250248
000340 68 c6 37 bd 3a ae af bc 0f c6 7c bc f0 6d b9 3d
       -0.04486695 -0.021445382 -0.01542808 0.09054172
000350 bd 14 07 bd fc 9b 83 3d 5c f5 5b be 6d 39 bc bd
       -0.032978762 0.06426236 -0.21480316 -0.091906406
000360 f9 1c eb bd 0b 14 08 be c5 fe 05 be 1c 53 04 be
       -0.114801355 -0.13288896 -0.13085468 -0.12922329
000370 00 59 75 be df c5 9f be 08 50 7d be e3 37 04 be
       -0.23959732 -0.3120565 -0.24737561 -0.12911944
000380 f8 ce cd be e3 ca db 3c e7 ee c0 bc a5 42 5b bc
       -0.40196967 0.026830142 -0.023551418 -0.0133825885
000390 ff 1f 97 bd 45 73 03 be cc da 8e bd 36 97 e5 3c
       -0.0737915 -0.1283694 -0.06975326 0.028026205
0003a0 97 d2 96 3d f2 51 6c bc 0d 52 12 be 47 86 f6 bd
       0.073643856 -0.014423834 -0.14289112 -0.1203733
0003b0 71 eb 9a be d7 dd 59 be 06 47 df bd c0 0f c3 be
       -0.30257753 -0.21276031 -0.109022185 -0.38097954
0003c0 e6 af 97 bd e6 42 1d be 4c f3 93 bd 7a d6 e0 bd
       -0.07406597 -0.15357551 -0.072241396 -0.10978408
0003d0 8d 5e 50 3d 67 a8 43 be 74 dc 44 bd 13 ba 3d be
       0.05087142 -0.19107209 -0.048061803 -0.18528013
0003e0 0e 5b 3a be d6 32 4a bd 83 17 ab 3c 36 06 cf bd
       -0.18198797 -0.049364887 0.020885235 -0.101086065
0003f0 46 64 df 3c 23 d2 12 3c a1 3e 58 bd d6 d8 01 3c
       0.027269494 0.008961233 -0.052794103 0.007925233

lstm.weight_hh_l0 f4 [400, 100]
000000 a6 2e 94 bd ba 57 ca bd a9 ee a8 bc 3f 72 ad 3c
       -0.0723546 -0.09880014 -0.020621615 0.02117264
000010 d1 c1 78 3d f1 5e e2 bd a1 f7 cf bd 2f b8 8f 3a
       0.060731713 -0.11053265 -0.10154653 0.0010964925
000020 03 01 32 3e ea f4 06 3e d5 0b 5d 3b c4 8b d1 3d
       0.17383198 0.13179365 0.0033728976 0.10231736
000030 46 f2 b2 bd ce ae 0a bc b6 c0 fe bd be a9 8e 3c
       -0.08737616 -0.008464528 -0.124391004 0.017414924
000040 bc 28 36 3e 4b 53 1e be e6 40 83 bc 0c 5f f2 3c
       0.17788976 -0.15461461 -0.016022157 0.029586338
000050 54 fe 06 3e 94 ed 90 3d 2d a9 30 3c 41 b4 c7 bc
       0.13182956 0.070765644 0.010782522 -0.024377944
000060 04 b6 80 be 6d 38 0d 3b ba f0 ad 3d ce 9e fa bd
       -0.25138867 0.0021548525 0.084931806 -0.12237321
000070 fa 84 d2 3d 54 ac f2 3d 77 ec 30 bd b7 75 da 3d
       0.102792695 0.11849275 -0.04319426 0.106669836
000080 d3 48 33 be 97 c4 0f 3d 4b 59 ff b9 e3 5f 91 bd
       -0.17508249 0.035099592 -0.0004870392 -0.07098367
000090 fd 51 3b bd dc 27 70 bd 44 16 3e bb 1b 38 cb bd
       -0.045732487 -0.058631763 -0.002900497 -0.09922811
0000a0 69 8d 4b bd 1e ec 62 3d 40 67 dc bc b8 13 60 be
       -0.049695406 0.05540096 -0.026904702 -0.21882522
0000b0 da ef 0a be 48 37 d3 3d 4b 4a 0c 3e d0 20 e3 bd
       -0.13568059 0.103132784 0.13700216 -0.11090243
0000c0 10 44 98 bc 42 a7 9e bd a2 66 55 be 1a c8 dc 3d
       -0.018587142 -0.07746746 -0.20839933 0.10780354
0000d0 75 95 1a 3e 0f 41 d3 3d e7 c2 06 be 4c 8b 98 3d
       0.15096076 0.10315143 -0.13160287 0.07448444
0000e0 c2 1e 3b 3e 0c f9 08 3d 0e aa bc 3d ca 21 de 3d
       0.18273452 0.033440635 0.09212123 0.108462885
0000f0 b4 b3 1e 3d 1c 29 b5 bd fa 53 b4 be ca b0 e2 3d
       0.038745597 -0.088457316 -0.3522032 0.11068876
000100 2c 40 3d be 58 05 5f 3d ae f4 58 be 43 08 2d 3d
       -0.18481511 0.054448456 -0.21187088 0.042244207
000110 33 3f 77 bb c5 da 5e bd 1d 27 99 bd f1 af 4e be
       -0.0037726879 -0.054407854 -0.074781634 -0.20184304
000120 53 0c f8 3d ce 64 5d bd 3c 14 b5 bb dc bc 69 be
       0.12111726 -0.054051213 -0.0055260938 -0.2282595
000130 79 56 1a be ec cc b6 3d d7 2b 4b 3e a5 36 da 3c
       -0.15072049 0.089258045 0.19840942 0.026637385
000140 43 2e 87 3d 95 9c a6 bd 2c a8 a9 bd 0a 47 09 be
       0.066006206 -0.081353344 -0.08284029 -0.13406006
000150 aa e1 e1 bc 4f c3 b6 bd d3 bc 06 3e 8a 9f b3 bc
       -0.027573425 -0.08923971 0.13157968 -0.02192666
000160 cc 40 89 3e b4 3b 3a 3d 9e cf 3c 3e 84 67 48 3b
       0.2680725 0.045467094 0.18438575 0.0030579278
000170 50 5a 69 bd 4a e6 a8 3d 1e 21 e8 bd ef bc 05 3e
       -0.056970894 0.08247049 -0.113344416 0.13060354
000180 1f 36 72 3d 95 b2 58 bd 35 ad 01 be ef 50 ec 3d
       0.059133645 -0.052904684 -0.1266373 0.11538874
000190 b8 98 b1 3a 4a 7b 75 3b f2 77 74 3d 06 ff 0c 3c
       0.0013549542 0.003745752 0.0596847 0.008605724
0001a0 be 01 9f 3d da 15 af ba 4e be 18 be 9b 98 54 3d
       0.07764004 -0.0013357953 -0.14916345 0.05190335
0001b0 1d c3 06 3d 8e a2 00 3d 8c e0 6b 3d 4a 96 10 bd
       0.03290092 0.031405024 0.05758719 -0.035299577
0001c0 4c c7 1f be 47 16 88 3d 0b a6 02 be 67 42 06 3e
       -0.1560337 0.06644874 -0.12758653 0.13111268
0001d0 be 4f ee bc 2a 83 fc 3c 7a 8b d5 bd 92 50 88 3d
       -0.029090758 0.030824263 -0.10426994 0.066559926
0001e0 20 41 94 3d 6e 72 9d 3d 66 4e 89 bc 30 47 88 be
       0.07238984 0.07687841 -0.016761016 -0.26616812
0001f0 6b 4a 78 bd 78 7c 0a be 29 c1 18 3e f9 46 dc bd
       -0.060617846 -0.13524044 0.14917435 -0.107557245
000200 14 ad 67 3d a0 0f 77 3d 06 ab 68 bd 4c 6d 09 3d
       0.056561545 0.060317636 -0.056803726 0.0335515
000210 58 d8 54 bc 54 2a 9b 3e 66 4d f4 3c d1 e7 22 be
       -0.0129910335 0.3030573 0.029822063 -0.15908743
000220 22 34 1d 3c d1 3e a0 3d cb 11 eb bc 91 6d be ba
       0.009594949 0.07824481 -0.028695008 -0.0014528503
000230 89 e6 a1 3d bf 32 23 3e eb 65 0b 3e d2 f4 5d be
       0.07905299 0.15937327 0.13613097 -0.21675423
000240 3a 27 c1 3d 9e e1 9f 3d 4e 0c a4 3d 0f b1 b9 bc
       0.0943131 0.07806705 0.080101594 -0.022667436
000250 d5 34 22 bc e4 cc ee bd 68 d6 42 3d 53 73 0d 3d
       -0.009900291 -0.116601735 0.047567755 0.03453381
000260 a3 3c 3c 3e 6b 41 3c bd 2c bd d4 bb e6 ed 44 3c
       0.18382506 -0.045960825 -0.0064922776 0.01201961
000270 f6 97 cf 3d 05 16 3b 3c 0e 2e 03 38 d1 96 0c bd
       0.10136406 0.011418824 3.1275726e-05 -0.034323517
000280 74 dd 10 3e 9c 7a 0c be 2f b1 6d be f0 bb 86 3d
       0.14146978 -0.13718647 -0.23212121 0.06578815
000290 9a e5 0d be 0b 41 cd 3c 1f 0f 41 be fb f7 11 bd
       -0.13857117 0.025055429 -0.18853424 -0.035636883
0002a0 d8 07 4c 3d 8a 32 ee bd 17 13 40 bb 90 88 02 3e
       0.049812168 -0.11630733 -0.0029308253 0.12747407
0002b0 5a f8 9c 3d 98 9b 36 bc 73 d1 68 3d e4 53 d3 bd
       0.07664557 -0.011145495 0.05684037 -0.10318735
0002c0 1a 32 b5 3c 40 ea 17 3e 1a 54 4c 3e 25 d4 7e 3d
       0.022118617 0.14835453 0.19953957 0.062214036
0002d0 9b c7 dd 3d 25 3e b8 bd b0 cf 61 bd 8e b0 88 be
       0.10829087 -0.08996228 -0.055129707 -0.266972
0002e0 ea be 0f 3c b4 e9 47 bd 94 54 56 3e 13 12 a5 3d
       0.008773545 -0.04880686 0.20930701 0.08060088
0002f0 20 cd 4a 3e b7 cc 40 bd ba 3b b8 bd 70 e2 42 3a
       0.19804811 -0.04707023 -0.08995767 0.00074342545
000300 e2 b8 2e bd e5 d6 17 bc 0d 91 9b 3c ea 9d c7 3d
       -0.042656787 -0.009267543 0.018990064 0.097469166
000310 19 4a b2 bc f9 d1 91 3d 20 8c 9d be e6 da be 3e
       -0.021763848 0.07120127 -0.3077097 0.3727638
000320 2a ce d0 3d 88 91 34 3d 9f 9f ce 3d 1c ec 21 3d
       0.10195573 0.044084102 0.10089039 0.039531812
000330 91 46 23 be 91 41 4f bc 41 ea 6e 3d 63 7e 67 bc
       -0.15944888 -0.01264991 0.05832887 -0.014129254
000340 c6 80 7b bd 75 ed 5b 3c 03 49 d7 3d e3 9b ea bd
       -0.061402105 0.013423313 0.10511973 -0.11455514
000350 fc b6 29 3e 87 80 2d bc 88 15 9c 3d 15 05 b3 3d
       0.16573709 -0.010589725 0.07621294 0.08741204
000360 74 04 0c 3e 37 44 59 bd df d0 8d bb 59 87 bb bb
       0.13673574 -0.05304357 -0.004327878 -0.005722922
000370 b0 7d 03 bc dd 15 03 bd a6 20 8e bc 95 92 5e bd
       -0.008025572 -0.032003272 -0.017349552 -0.05433901
000380 9d b7 27 3c 0f 91 f7 ba 39 7f cb bd 69 34 b9 bd
       0.010236648 -0.0018887835 -0.09936375 -0.090431996
000390 35 57 06 3e b7 c7 b4 3d d8 ab 6e bc 0d 0e 6e 3d
       0.13119204 0.08827155 -0.014567338 0.05811887
0003a0 b8 36 6a 3d f7 aa 86 3c 94 36 fa 3d c9 e9 94 3d
       0.05718109 0.016438944 0.12217441 0.072711535
0003b0 b8 f0 84 bb 03 7f 2f bd 45 fe 12 3c 19 f6 e3 bd
       -0.004057016 -0.042845737 0.008971755 -0.11130924
0003c0 19 2f bd bc 4a ef d6 3c 99 c4 41 be b0 d9 8c bd
       -0.023093747 0.026237149 -0.18922652 -0.06877458
0003d0 5c 41 87 3b f8 6a d0 3c e1 b4 c6 bc fd 9c 6e 3d
       0.0041276645 0.025441632 -0.024256172 0.058255184
0003e0 c8 46 05 be 8a 63 f0 3d 6b a4 f9 3c 87 c4 9a 3d
       -0.13015282 0.117377356 0.030473908 0.07557016
0003f0 95 39 25 bd 07 b8 9e bd 5b 84 4e 3d f2 64 c8 bd
       -0.040338118 -0.07749944 0.050419193 -0.09784879

lstm.bias_ih_l0 f4 [400]
000000 75 6f d4 bd 44 90 d0 bd 38 9e 9a bd 1e 13 dc bd
       -0.10372821 -0.101837665 -0.07549709 -0.10745834
000010 c1 88 71 bd 6e 0d ce bd f6 dd 6a bd 40 0c 6a bd
       -0.05896831 -0.10061155 -0.057340585 -0.05714059
000020 16 ea 48 bd ce 3c 91 bd 30 da b7 bd 5b 75 b4 bd
       -0.049051367 -0.07091676 -0.08977163 -0.08811446
000030 db 4a 47 be 59 b4 8a bd 60 76 50 bd c0 ed a2 bd
       -0.19462149 -0.0677268 -0.05089414 -0.079555035
000040 8c a5 3e bd 8c d3 ce bd 1c 63 df 3a 30 72 fc bd
       -0.046544597 -0.10098943 0.0017043087 -0.12326467
000050 e1 ae f8 3d 0f b6 90 bd 3e e8 08 be bd 28 42 be
       0.121427305 -0.07065975 -0.13369843 -0.18960853
000060 28 e5 d3 3d b2 6e a2 bd 83 26 3b bd f1 03 c9 3d
       0.103464425 -0.0793127 -0.045691025 0.09815205
000070 23 42 26 3d b7 81 b7 3c 24 db fb bd fa c0 14 3e
       0.040590417 0.02240072 -0.12297657 0.1452674
000080 c9 08 a3 bd c3 d2 82 bd a4 77 84 bd d5 1c e2 bd
       -0.0796066 -0.06387856 -0.06468132 -0.110406555
000090 35 af 18 be 61 24 e0 bd c7 fa 69 bd 9c 2c 0c bd
       -0.14910586 -0.10944439 -0.057123926 -0.03422223
0000a0 81 0a b5 bd ff 82 a4 3d a8 ad 97 bd 00 23 9e bd
       -0.08839894 0.08032798 -0.07406169 -0.077215195
0000b0 47 46 4d be d7 03 8d 3d 2d b7 7f 3e ed b0 54 bd
       -0.2004634 0.06885498 0.2497222 -0.051926542
0000c0 82 72 85 bc 46 29 0f bd 55 1c c1 3c 22 2f 08 3d
       -0.016289953 -0.03495147 0.02357308 0.033248074
0000d0 78 7a 45 bc 46 5c 35 be b5 36 21 bd b2 8f 9b 3b
       -0.012053125 -0.17710981 -0.039358813 0.0047473544
0000e0 8e fc 60 bc 8e 94 b2 bd 39 25 b6 bd c2 c8 2c bd
       -0.013732089 -0.08719741 -0.088938184 -0.042183645
0000f0 fd 48 61 bd 63 e8 b1 bd 08 93 80 bc dc 09 88 bc
       -0.055001248 -0.086869024 -0.01569511 -0.016606264
000100 4b 43 fa 3d bb 23 ca bd 7c 95 ad 3c 72 ef af bd
       0.12219866 -0.09870096 0.021189444 -0.085905924
000110 5d 47 08 be 5d cd c0 3c 4d a5 85 3e b3 81 fa 3c
       -0.13308473 0.023535425 0.26102677 0.030579424
000120 b9 92 0a 3d ce c0 42 3d c2 70 5b 3d 72 49 b3 3b
       0.033831332 0.047547154 0.05357433 0.005471402
000130 37 2c 53 3c b1 99 bc bc 8f 2e c3 bd c6 e5 78 bd
       0.01288896 -0.023022505 -0.09530365 -0.060766004
000140 70 09 23 bd f2 11 0f 3d 49 db 4b 3e 26 d8 e7 3d
       -0.039803922 0.034929223 0.1990787 0.11320524
000150 e2 51 d5 3c e0 8c 04 3d 13 30 0e 3e 00 d1 8e bd
       0.026040021 0.03236091 0.13885526 -0.06973457
000160 71 b5 bd bc ce 21 b8 3d ad 19 c5 bd 30 fb 13 be
       -0.023157807 0.08990823 -0.09624038 -0.14451289
000170 61 eb 00 be aa 03 24 be 39 47 63 bd 1b dd d6 bd
       -0.1258979 -0.16017023 -0.055487845 -0.10491391
000180 89 c5 70 bd 28 0a c0 bd 0a d4 35 3d 1f e1 85 3c
       -0.058782134 -0.09376937 0.04439167 0.016342698
000190 3c 54 b3 bd c3 5b c2 bd d6 78 32 bd 34 19 cf bd
       -0.08756301 -0.094901584 -0.04357227 -0.10112229
0001a0 3e d0 cf bd 3f ef d3 bd c3 4d 04 bd 5a b3 af bd
       -0.10147141 -0.10348367 -0.03230072 -0.085791305
0001b0 d1 ba 3e bc eb 24 c2 bc b7 c0 e8 bc cf 78 d7 bd
       -0.01164122 -0.023699244 -0.028412206 -0.10521089
0001c0 f3 e5 0f be 32 3d 24 3d ec e4 6d bd aa b3 9e bd
       -0.14052562 0.040097423 -0.058079645 -0.07749112
0001d0 50 5e 18 3c a0 6b a2 bd 02 f3 dd bc 1d e0 74 3d
       0.00929983 -0.07930684 -0.027093414 0.059784044
0001e0 08 45 b9 bd 7f e4 92 3d 7c 6b 07 be 2a 5e 17 bd
       -0.0904637 0.071724884 -0.13224596 -0.036955036
0001f0 1d b3 08 be 71 a2 8c bc aa 38 a9 bd 16 25 7a bd
       -0.13349576 -0.017167302 -0.08262761 -0.061070524
000200 d0 c7 29 be f3 85 24 bd 80 db 04 be b9 0c 87 bd
       -0.16580129 -0.040166806 -0.12974358 -0.065942235
000210 81 17 3e 3d e8 e5 5e bd 4f 8d ed bd 74 65 34 be
       0.046409134 -0.054418474 -0.11599218 -0.17616826
000220 2a 28 1c be d1 24 4f be fa bd 15 be 2e ad e8 bd
       -0.15249696 -0.20228888 -0.14623252 -0.113611564
000230 59 74 90 bc 10 34 a6 bd 2e 54 00 be 8c 47 df bd
       -0.017633604 -0.08115399 -0.12532112 -0.10902318
000240 95 dd 49 bd 69 18 26 be 32 a6 3e be e3 ee 7b 3c
       -0.049283583 -0.16220249 -0.18618086 0.015376779
000250 46 97 0c 3c c4 ca cc bd 75 4d 13 bc a0 43 e3 bd
       0.008580988 -0.09999612 -0.008990635 -0.11096883
000260 bc 82 17 3d e0 da 59 ba 94 3b db 3b 2c 3e 5c bc
       0.036989912 -0.0008310508 0.006690452 -0.013442557
000270 6c 4c 03 be 94 d5 b8 bd c8 ac 36 bd c6 10 8f bc
       -0.12822121 -0.09025112 -0.04459837 -0.017464053
000280 af 1c 20 be 4b c4 44 bd b6 04 71 bd b1 e2 ea 3b
       -0.15635942 -0.048038762 -0.058842383 0.007168137
000290 ac dc 98 bd 1e f4 44 bd c9 49 81 bd f8 dd 0f be
       -0.07463965 -0.04808437 -0.063129015 -0.14049518
0002a0 b9 eb 15 be 26 95 86 bd 22 52 9c bd 3a 29 4a be
       -0.14640702 -0.065714166 -0.07632853 -0.19742289
0002b0 48 59 4d 3d d6 7f 29 be 25 7f 20 3b ba fd dc bd
       0.050133973 -0.16552672 0.0024489847 -0.10790582
0002c0 57 6a 27 be 64 39 13 be 04 73 aa 3d 0f 17 0d be
       -0.16349159 -0.14377362 0.08322719 -0.13778327
0002d0 92 2a 4b bc a9 05 a9 3c 18 44 2f bd 74 79 32 3e
       -0.012400286 0.020632582 -0.04278955 0.17429143
0002e0 b3 6c 1b be 6a 4b 59 bd 80 6c c8 3d bf 90 41 be
       -0.15178184 -0.053050436 0.0978632 -0.18902873
0002f0 29 83 10 be 45 eb fc 3c 4e 1e d1 3c bf 71 02 bc
       -0.14112534 0.030873904 0.025527146 -0.0079616895
000300 8d 80 49 bc 12 a6 ab bd c7 ef 7c bd dd 34 8b bd
       -0.012298715 -0.08381285 -0.061752107 -0.06797192
000310 6b d5 26 be 1b e0 d1 bc 10 00 ec 3d 81 d8 1e 3e
       -0.1629235 -0.025619557 0.115234494 0.15512277
000320 8b 38 b3 bc 68 d5 af 3c 58 ff 04 3c a1 a6 05 bd
       -0.021877548 0.021464065 0.008117519 -0.032629613
000330 8b 9d c2 3d 87 06 93 bd 1d 2a 4d bd bb 07 09 bd
       0.09502705 -0.07178979 -0.05008899 -0.033454638
000340 8f bf a7 bd 5b a0 9d bd 9b d3 6f 3d 02 56 8c bd
       -0.08190834 -0.07696601 0.058551412 -0.06852342
000350 83 7f bb bc e1 e1 4b bd 52 57 30 bd 02 e8 35 bd
       -0.02288795 -0.04977596 -0.043052025 -0.044410713
000360 dc fb f0 bb fd 5d 44 3d 24 f3 b5 3d bc 8c 78 3d
       -0.0073542427 0.047941197 0.08884266 0.06068109
000370 38 0f bd bc 53 9d a9 3d e7 c6 b2 3c 0d 1b ce 3c
       -0.023078546 0.0828196 0.02182336 0.025159383
000380 a0 1c ec 3d 61 24 b4 3b 4c 13 0d bd 64 e6 bf bc
       0.11528897 0.0054975008 -0.03444223 -0.023425288
000390 8c 6d bc bd b3 ab 0d be 07 24 21 3c 10 12 cf bc
       -0.09200582 -0.1383503 0.00983525 -0.025277168
0003a0 7b 05 2b bd 03 ca 5f 3d 0d 1c b8 3b a0 fb 7c 3d
       -0.041753273 0.054636013 0.0056185783 0.061763406
0003b0 15 30 b6 bd a4 6f 20 3d 3d e3 0e 3d 74 2b 0d 3d
       -0.0889589 0.03916897 0.03488468 0.03446527
0003c0 fb fb 52 3c 50 b5 6b bd 6c 9c a5 bd 6d 4f 78 bb
       0.01287746 -0.05754596 -0.08086476 -0.0037889138
0003d0 1e f8 47 3d c5 b6 73 bd 66 00 0c be 7f 3b bc bd
       0.048820607 -0.059500474 -0.13672027 -0.091910355
0003e0 a0 1d 35 bc 36 14 9b 3c c4 c5 b6 3d 80 2f 09 bd
       -0.011054426 0.018930536 0.089244395 -0.033492565
0003f0 8f 56 3b bd 17 69 19 3c 83 31 3d bc 93 bd 41 bc
       -0.045736846 0.009363434 -0.011547449 -0.011824983

lstm.bias_hh_l0 f4 [400]
000000 90 38 b8 bd ae f8 ef bd 3e 67 32 3d 16 c6 b6 bd
       -0.089951634 -0.11717354 0.04355549 -0.08924501
000010 36 6d 0d 3d dc 05 e1 bd 86 c6 6a bc 73 d9 ee bd
       0.03452798 -0.10987446 -0.014329558 -0.11662569
000020 82 67 41 bc 24 de 81 3d a5 c7 51 be 31 55 aa ba
       -0.011804463 0.06341198 -0.20486315 -0.001299536
000030 2e 62 1b be 03 37 8d bc 42 3a d2 3c 00 19 20 3d
       -0.15174171 -0.017238146 0.025662545 0.03908634
000040 74 39 a0 bd 49 1a ea bd 32 35 3c 3d 43 86 9f ba
       -0.07823458 -0.11430795 0.04594917 -0.001217075
000050 94 69 8b 3d f4 cb a4 bc a5 8c eb bd 56 51 d5 bd
       0.06807247 -0.020116784 -0.11501435 -0.10415904
000060 1f 0a 04 3c 38 a7 0f 3d 14 39 02 be a1 ec 09 3e
       0.008059054 0.03507158 -0.12717086 0.13469173
000070 99 18 40 bb 96 4f d5 3c d3 83 16 bd a6 42 2d 3d
       -0.0029311536 0.026038926 -0.03674681 0.04229989
000080 c9 fd 84 bd d8 7c 19 be ad 95 2d be 3f 30 14 3d
       -0.06493718 -0.1498903 -0.16951628 0.036178824
000090 6e 64 fb bd 03 8f 0c be 2a 95 c8 3d c5 9f 65 3c
       -0.12275015 -0.1372643 0.09794076 0.014015143
0000a0 72 17 5b be 89 44 ca 3d 71 5e 11 be 13 1c d0 3c
       -0.21395662 0.09876353 -0.14196183 0.025404012
0000b0 04 86 fc bd ed 0e 13 bd 0b f0 56 3e a9 c3 ce bd
       -0.12330249 -0.035902906 0.20990007 -0.10095913
0000c0 fb 40 0a be 35 bc 20 be ed c8 b9 bd 45 7f 20 bb
       -0.1350135 -0.15696795 -0.09071527 -0.002448992
0000d0 20 9a 11 bd 60 f7 c6 bd 1a aa 08 be c9 20 c9 bd
       -0.035547376 -0.09715152 -0.13346139 -0.098207064
0000e0 21 f6 c6 bc d8 1a 09 be 39 bd 82 3c e1 86 1e be
       -0.024287285 -0.13389146 0.015959369 -0.1548114
0000f0 d4 76 e9 3c 46 e7 0e be 9b f8 0c bc b6 c0 43 3d
       0.028499044 -0.13955411 -0.008604194 0.047791205
000100 e1 c3 41 3e 17 2e cc bd db 8a 9e bc d8 9e 20 be
       0.18922378 -0.099697284 -0.01935332 -0.15685594
000110 d0 90 b5 bc 0b 4c 4e bc 99 ac 33 3e a4 4f 2d 3d
       -0.022163779 -0.012591372 0.1754631 0.04231228
000120 93 8a 8f bb 4d a6 9b 3d 73 d5 39 3d 2b aa 04 bd
       -0.004380533 0.07600079 0.045369577 -0.032388847
000130 82 24 15 3b 70 98 c8 3c 9a 2c 8a bd ac 0e db bd
       0.0022757356 0.02448675 -0.06746788 -0.10696158
000140 59 af f3 bd ae 25 9b bd 03 72 19 3e 88 dc 3b 3e
       -0.11898679 -0.07575546 0.14984898 0.18345845
000150 01 62 fe bc 5e 93 bc bd 07 eb 32 3e af 20 37 be
       -0.031052591 -0.092077956 0.17472468 -0.17883562
000160 58 27 1f be 55 ff 78 bd c3 6e ed bd 14 b3 4f be
       -0.15542352 -0.06079038 -0.11593392 -0.20283157
000170 af 51 df bd 92 c5 12 be f8 f9 7d bc 5b a7 c8 3c
       -0.10904252 -0.1433318 -0.015501492 0.024493864
000180 9a ed 5c bd e7 13 37 bd 81 93 ca 3d 43 dc 1d be
       -0.053937532 -0.044696715 0.098914154 -0.15416054
000190 8b ec 81 bd ef d3 16 bd 75 8c 06 be 2a 68 87 bd
       -0.06343945 -0.03682321 -0.13139518 -0.066116646
0001a0 e0 97 6e be 27 47 1b be fa 25 da bd e2 b2 b1 bd
       -0.23300123 -0.15163861 -0.10651775 -0.08676697
0001b0 42 aa e5 ba 62 31 4b 3d f7 8e 84 bd e9 55 39 be
       -0.0017522054 0.049607642 -0.06472581 -0.18099178
0001c0 a2 62 de bd a5 7b 9f bd 02 8b 3d bd 9c c9 29 3d
       -0.108586565 -0.07787255 -0.046275146 0.041452035
0001d0 54 8d 07 be 47 eb 12 be ed d8 2c bc 07 b5 ab bd
       -0.13237506 -0.14347564 -0.010549766 -0.083841376
0001e0 7b a3 37 3c ba c5 29 bd 1a 53 bd bd bc 55 3c be
       0.01120841 -0.041448332 -0.09244366 -0.1839208
0001f0 0a f6 92 bd ce ca f9 bd 71 a6 86 bd 77 94 ef bd
       -0.071758345 -0.12196885 -0.06574715 -0.11698239
000200 de 2c a4 bb 89 08 cc 3c 9c f3 cb bd b1 fd 2f be
       -0.0050102314 0.024906414 -0.09958574 -0.1718662
000210 61 3a a2 3d a5 cb 32 be 37 fa 39 be e4 8a be bd
       0.07921291 -0.17460497 -0.18161856 -0.09303835
000220 37 70 de bd 89 5d 6a be 3f 93 ad bd e4 52 be bd
       -0.10861247 -0.22887243 -0.084753506 -0.09293154
000230 e5 20 a2 bd f4 1f 25 3d 80 dc bc bd 5f 2d 11 bd
       -0.079164304 0.040313676 -0.092217445 -0.03544366
000240 63 51 ef bd 2f 04 65 bd 7b 30 4b be 25 41 22 be
       -0.11685445 -0.055912193 -0.19842713 -0.15845163
000250 40 9d b5 bd 7a ea f2 bd 9f b3 94 bd 3e 94 ef bd
       -0.08867884 -0.11861129 -0.072608225 -0.11698197
000260 07 26 fc bc 37 7e 12 be f2 30 20 be 4e 3e 08 be
       -0.030779852 -0.1430596 -0.15643671 -0.13305017
000270 ce 26 08 bc ce 2e 83 bd 96 b2 ca bd 06 38 f7 3c
       -0.008310033 -0.06405412 -0.09897344 0.030178081
000280 17 da 17 be 65 31 3f bd 6d e9 1c be c6 00 42 3a
       -0.14829288 -0.046677966 -0.1532342 0.0007400628
000290 4d de 9f ba 67 2b 34 be 01 8f 87 bc ff 95 46 bd
       -0.0012196988 -0.17594682 -0.016547682 -0.04848289
0002a0 6a ab 8b bb c0 20 4e 3d 37 76 f9 3c ca 49 17 be
       -0.0042623775 0.0503242 0.030451877 -0.14774242
0002b0 ee c8 8b bd c0 a6 14 be 46 5a 41 bd bd ed 3f 3d
       -0.06825434 -0.14516735 -0.047205232 0.046857584
0002c0 b5 ae ae bd 9f 24 14 be 74 fa d1 3d 0a 6c d0 bd
       -0.085294165 -0.14467095 0.10252848 -0.10176857
0002d0 08 6c 17 be cd 44 e7 bd 8f ee da bd e0 20 21 3e
       -0.14787304 -0.112924196 -0.10690033 0.15735197
0002e0 d8 7f 66 bd 22 4b 10 be 09 e4 b2 bc 5c a6 c9 bc
       -0.056274265 -0.14091161 -0.021837251 -0.02461546
0002f0 0d 7e 3e bd e3 97 0a bd e4 61 f7 ba b6 67 b3 bd
       -0.04650693 -0.033836257 -0.0018873778 -0.08760016
000300 59 52 15 bd 14 02 3f be 63 3c 2d be fa 4b 17 bd
       -0.036455486 -0.18653136 -0.16917567 -0.03693769
000310 37 67 20 be a5 f3 af 3c 6f 84 63 3e b7 69 15 3e
       -0.15664373 0.021478483 0.22218488 0.14591108
000320 65 49 91 bb f0 71 b9 3c 19 fe 0f be 10 16 f0 3b
       -0.004433798 0.022637337 -0.14061774 0.007326849
000330 da 65 b7 bb ed ed 98 bc 45 0a 20 bc bc 22 a0 3d
       -0.0055968584 -0.01866814 -0.009768073 0.07819125
000340 b5 9c 49 bd bc b7 82 bc 3f 31 dc bc 5d 87 95 3c
       -0.049221713 -0.015956752 -0.026878951 0.018253023
000350 05 68 e0 bc e1 af 6c bd 1e e3 3f bd eb be f5 bb
       -0.02739335 -0.05778492 -0.046847455 -0.007499566
000360 32 20 65 bd 4f 7d 08 bd 86 49 b1 3d c5 f9 ff 3b
       -0.055938907 -0.03332263 0.086566016 0.0078117573
000370 76 b2 14 bd f9 73 87 bd ad df 1d 3d e9 da cd 3d
       -0.036303006 -0.06613917 0.038543392 0.100515194
000380 b8 fa 4b bd af a7 e5 3c 7a c5 d0 bb 39 23 4a 3c
       -0.04979965 0.02803406 -0.0063711973 0.012337499
000390 98 7d 5d 3c f7 0a 08 bd 21 0d 82 bd 8a bf fd bd
       0.013518713 -0.033213582 -0.063501604 -0.12390049
0003a0 22 ff 87 3d 28 5e ee ba dd e7 b9 bd f0 98 ad 3d
       0.066404596 -0.001818602 -0.090774275 0.08476436
0003b0 4d 6a 9d bd c9 85 ab bd 02 03 0a be dc 0c 9a 3d
       -0.07686291 -0.08375127 -0.1347771 0.07521984
0003c0 c8 76 6d bd 7e 70 b6 3c c5 52 24 3d 4a 5b b7 3b
       -0.057974607 0.022270437 0.040117998 0.0055955993
0003d0 07 41 ca 3d 84 e1 98 3d f7 49 e9 bd 50 03 dc ba
       0.09875684 0.07464889 -0.11391061 -0.0016785655
0003e0 bb 2a 6e bc 2c 16 32 3b 68 2c ab bc a8 55 16 3d
       -0.014536555 0.002717386 -0.020895198 0.036702782
0003f0 aa 6e 9c 3d 36 48 67 3b 48 67 17 bd 6c 24 10 3d
       0.07638295 0.0035290844 -0.03696373 0.035190985

linear.weight f4 [1, 100]
000000 39 10 08 bd c6 f1 81 bc 06 f1 ac bc a2 8b 7c bd
       -0.033218596 -0.015862357 -0.021111023 -0.0616566
000010 33 40 46 3d 25 d6 72 bd 58 bf 7d 3d a1 29 83 bd
       0.04840107 -0.059286255 0.061950058 -0.064044245
000020 0d 1b d8 bd b5 ab d9 bd 39 b0 4f 3c c3 1e ed bc
       -0.105520345 -0.10628454 0.012676292 -0.028945332
000030 65 ae 2e bd a0 eb 8d bd 7d cc 00 3e ec 70 b7 bd
       -0.042646784 -0.069297075 0.12578006 -0.08957085
000040 26 9d 90 bd 72 9a b3 39 0a 65 67 3d 7f bd ab bc
       -0.07061224 0.0003425661 0.056492843 -0.020964382
000050 c2 2d 02 be 75 6b c3 bd 97 29 4b bc c4 76 d4 3d
       -0.12712768 -0.0954198 -0.0124000525 0.10374215
000060 46 d3 f0 3d d2 2c 1f bd e8 f2 d4 3c 46 cb 07 3e
       0.11759047 -0.038861103 0.025994733 0.13261136
000070 cd 08 f2 bd b9 b5 85 bd 18 ea 30 3c 62 19 46 3c
       -0.11818085 -0.065288015 0.010798 0.012091013
000080 44 42 bf 3d 47 7c 95 ba da c7 ff 3c 98 7d 9b 3c
       0.09338811 -0.0011404835 0.031223226 0.018980786
000090 58 01 c1 bc b0 34 01 3d dd 03 ad bd fa 5f 1b 3d
       -0.023560211 0.031544387 -0.084480025 0.037933327
0000a0 e2 05 d2 3c 6f 21 d5 bd c6 68 2c bc 95 b1 b9 3d
       0.02563757 -0.104067676 -0.010523027 0.09067074
0000b0 6d e6 16 3d 24 48 3f 3d d4 12 08 be a4 28 a8 bc
       0.036840845 0.046699658 -0.13288432 -0.020527191
0000c0 ea f4 a8 3b d3 3b 47 bb 88 76 76 3d 65 14 30 3d
       0.005156149 -0.0030400648 0.060171634 0.0429882
0000d0 38 a6 f9 bd a5 ec 99 3b 74 0d 8a bc 62 b3 73 3b
       -0.12189907 0.0046973997 -0.016852118 0.0037185778
0000e0 07 c7 cc bd b2 72 e5 3d 93 b7 b1 bc 03 64 6a 3d
       -0.09998899 0.11203517 -0.02169398 0.057224285
0000f0 79 fc 21 3d d4 80 42 3c 6a f9 a3 3d be e8 8d 3d
       0.039547417 0.011871535 0.08006556 0.06929158
000100 9f fe ca 3d 84 1b 10 bc d4 04 17 3e 2e db 2c 3d
       0.09911846 -0.008795623 0.14747936 0.042201214
000110 0c a7 2e 3d 82 0b b4 3d cd 56 94 3d f5 03 07 3e
       0.042639777 0.087912574 0.072431184 0.13185103
000120 52 3d 23 bd 7e df 8b 3d 1b 93 09 bd 78 bd 04 3e
       -0.0398534 0.06829737 -0.033587556 0.12962902
000130 7b 5e 4a 3d 0f 94 a4 bd 63 93 9c bd 19 32 1b 3c
       0.04940651 -0.080360524 -0.07645299 0.009472393
000140 6f 31 a3 bc a4 b9 8e bd a5 25 d7 3d ed a1 1b 3e
       -0.019921033 -0.06969002 0.10505227 0.15198489
000150 aa c7 67 3c bc 67 65 3d fb 65 c3 be a6 0e ce bb
       0.014146725 0.056007132 -0.38163742 -0.0062883673
000160 46 2e 6d bd 9c 43 d9 bd 8c d0 83 bd 79 c7 0a bd
       -0.057905458 -0.106085986 -0.064362615 -0.03388164
000170 cb cb 38 3d 53 22 98 bd 84 7e af bc 37 3d 93 bd
       0.045116227 -0.07428422 -0.021422632 -0.0718941
000180 1b 24 62 bc df 3d 30 3d 04 b4 ec 3d 5d af b0 bb
       -0.0138025535 0.043027755 0.11557773 -0.0053919987
