model/1721471950_model-aapl.pth (torch, 174356 bytes, 5 tensors)

lstm.weight_ih_l0 f4 [400, 5]
-0.25525105 -0.22152166 -0.32909778 -0.1989183 -0.2048808 -0.13483772 -0.09886608 -0.01865625
-0.06234392 -0.11436839 -0.054418348 -0.1627275 -0.14554405 -0.0011391917 -0.027549738 -0.020711362
0.056724682 -0.06180475 -0.005464827 -0.035702698 -0.110465154 -0.15608928 -0.024153396 -0.13609609
-0.17773575 -0.03282258 -0.20200045 -0.13900878 -0.08471148 0.15563868 -0.15078075 -0.08341045
-0.099157125 -0.16550468 -0.06358641 0.082933314 -0.111734934 -0.08607183 -0.035958663 0.12559947
-0.15555286 -0.08619655 -0.035625998 -0.21454252 -0.9578112 -0.09734012 -0.043456618 -0.01758734
-0.13495599 0.06024855 -0.04811901 -0.07570162 -0.090704754 -0.16652803 -0.6325193 -0.31801307
-0.22459482 -0.27158943 -0.29045093 -0.2936313 -0.13581704 -0.038408417 -0.046835147 -0.12851334
0.011808603 -0.121467866 0.010978726 0.051511392 -0.06786276 -0.7124386 -0.07100876 -0.05384858
-0.023750538 -0.010851611 -0.023449637 0.13023388 0.011740258 0.11172723 0.14533274 -0.233555
-0.19638038 -0.13829336 -0.11193362 -0.107391335 -0.7574663 -0.15903181 -0.14606161 -0.2730752
-0.21659482 -0.42655396 -0.050668087 -0.099138685 -0.16610323 -0.11922423 -0.42632288 -0.034511793
-0.07718673 -0.104918234 -0.008519065 -0.29878184 -0.014529956 -0.07043195 -0.083524816 -0.054457955
0.044270337 -0.0054131965 -0.18345964 -0.14851734 -0.0828575 -0.22882633 -0.034113888 -0.1107689
-0.12861446 -0.10126003 0.016629811 -0.03581671 0.040629953 0.03730072 -0.11367216 -0.10825681
-0.18555103 -0.15729731 -0.09395316 0.00949055 -0.29967436 -0.060736652 -0.23999539 -0.07495516
-0.22974153 -0.39403135 -0.17344637 -0.18247972 -0.25935557 -0.09675944 -0.2867904 -0.027329272
-0.10910638 0.049715422 0.0011342873 0.08586211 -0.13017097 -0.06550489 -0.120983966 -0.22042067
-0.14989232 0.004995784 -0.041857693 0.033307936 -0.113106765 0.005019401 -0.30557585 -0.17516997
-0.28221083 -0.23285395 -0.40480474 -0.12203629 -0.15175621 -0.033469796 -0.09827069 0.20927714
-0.20166944 -0.12015997 -0.09845367 -0.21875422 -0.089055896 -0.09904913 -0.11543763 -0.10266174
-0.06506414 -0.20508854 -0.27262524 -0.20429116 -0.26360574 -0.121215455 -0.757878 -0.13738343
-0.1652213 -0.07772275 -0.2170382 -0.19633643 -0.14808537 -0.114871 -0.08760349 0.029257951
0.06457714 -0.21756533 -0.1923768 -0.071015134 -0.11150871 -0.10760107 -0.1921808 -0.2016181
-0.12843129 -0.104208164 -0.28376135 -0.05485795 -0.15218127 -0.008188836 -0.1703069 -0.40981063
-0.12281083 -0.08612552 -0.07808894 -0.08993453 0.022621013 -0.03872716 0.014040508 -0.077061616
-0.07645374 0.15126726 -0.13979329 -0.19826816 -0.032278832 -0.009818117 0.006076598 0.0028368873
0.0089978855 -0.09025067 -0.12403176 0.019071002 -0.003194351 -0.06417398 0.04903906 0.010427089
0.21309203 0.0061869016 0.11470212 -0.014970425 0.050423168 0.41013855 -0.23881806 -0.3114022
-0.2085356 -0.25804478 -1.1540773 -0.1179421 -0.016406357 -0.123117626 -0.02271135 -0.013679283
-0.10441545 -0.03711789 -0.014469733 -0.08978149 -0.042469442 -0.045046773 -0.19300623 -0.055710368
-0.053693675 -0.47805017 -0.11675423 -0.058252517 -0.08332498 -0.15636 -0.13812268 -0.11739697
00000000: 44b0 82be 93d6 62be 817f a8be 3db1 4bbe
00000010: 46cc 51be e612 0abe 4d7a cabd fed4 98bc
00000020: 575c 7fbd f939 eabd c6e5 5ebd 0aa2 26be
00000030: 8009 15be ee50 95ba fdaf e1bc e0aa a9bc
00000040: 2458 683d fa26 7dbd 4b12 b3bb fe3c 12bd
00000050: 8e3b e2bd ded5 1fbe 58dd c5bc c65c 0bbe
00000060: 5c00 36be f870 06bd 35d9 4ebe 5158 0ebe
00000070: 367d adbd bf5f 1f3e 4566 1abe 19d3 aabd
00000080: e412 cbbd 0f7a 29be 9739 82bd f1d8 a93d
00000090: 49d5 e4bd 6d46 b0bd 6449 13bd 269d 003e
000000a0: 4049 1fbe d187 b0bd 91ec 11bd 09b1 5bbe
000000b0: 1d33 75bf 425a c7bd 91ff 31bd 5313 90bc
000000c0: e731 0abe 2fc7 763d 7018 45bd 7309 9bbd
000000d0: 6ac3 b9bd 5386 2abe c9ec 21bf 9cd2 a2be
000000e0: 2ffc 65be c50d 8bbe fcb5 94be d756 96be
000000f0: 9f13 0bbe 2552 1dbd 36d6 3fbd 0099 03be
00000100: df78 413c 25c4 f8bd 1de0 333c 9cfd 523d
00000110: a1fb 8abd 6062 36bf 0a6d 91bd 5490 5cbd
00000120: 7d90 c2bc f5ca 31bc 7419 c0bc 085c 053e
00000130: 365a 403c 3fd1 e43d 1bd2 143e 0b29 6fbe
00000140: f017 49be c69c 0dbe 743d e5bd fdef dbbd
00000150: 50e9 41bf 3cd9 22be 2d91 15be 83d0 8bbe
00000160: 08cb 5dbe 4865 dabe 5789 4fbd 3909 cbbd
00000170: f716 2abe d52b f4bd fe46 dabe 3d5c 0dbd
00000180: 1414 9ebd 5fdf d6bd 8c93 0bbc eff9 98be
00000190: 0d0f 6ebc a03e 90bd 0f0f abbd 4e0f 5fbd
000001a0: d054 353d 2f61 b1bb d8dc 3bbe ee14 18be
000001b0: 31b1 a9bd 7351 6abe 01bb 0bbd ceda e2bd
000001c0: 82b3 03be 6b61 cfbd 3e3b 883c 8bb4 12bd
000001d0: 986b 263d a4c8 183d f3cc e8bd bfb5 ddbd
000001e0: 1701 3ebe 8c12 21be 846a c0bd 407e 1b3c
000001f0: eb6e 99be ffc6 78bd 5ac1 75be 1782 99bd
00000200: 5d41 6bbe 7abe c9be ed9b 31be f7db 3abe
00000210: 41ca 84be d029 c6bd 31d6 92be a3e1 dfbc
00000220: 2a73 dfbd 66a2 4b3d 5eac 943a 79d8 af3d
00000230: 8a4b 05be 6e27 86bd 71c6 f7bd f5b5 61be
00000240: 5f7d 19be acb3 a33b f972 2bbd e76d 083d
00000250: 85a4 e7bd ca79 a43b 7074 9cbe c25f 33be
00000260: f07d 90be 4471 6ebe 9142 cfbe 2aee f9bd
00000270: fb65 1bbe a017 09bd 2542 c9bd bf4c 563e
00000280: 6f82 4ebe 6e16 f6bd 14a2 c9bd 1b01 60be
00000290: f062 b6bd 45da cabd 906a ecbd 5140 d2bd
000002a0: 5940 85bd bb02 52be 8995 8bbe b431 51be
000002b0: 55f7 86be cf3f f8bd 4b04 42bf 3eae 0cbe
000002c0: c62f 29be 1b2d 9fbd 433f 5ebe 6b0c 49be
000002d0: b1a3 17be 7d41 ebbd 7569 b3bd 5fae ef3c
000002e0: 0541 843d 72c9 5ebe 6dfe 44be 6270 91bd
000002f0: ae5e e4bd f35d dcbd 0bcb 44be fa74 4ebe
00000300: 7e83 03be 176b d5bd 2b49 91be bbb2 60bd
00000310: 68d5 1bbe 782a 06bc ef64 2ebe b3d2 d1be
00000320: 3f84 fbbd 9462 b0bd 18ed 9fbd 982f b8bd
00000330: b44f b93c 5fa0 1ebd 290a 663c 7bd2 9dbd
00000340: c793 9cbd cee5 1a3e f925 0fbe cf06 4bbe
00000350: cf36 04bd 2bdc 20bc 331e c73b 12eb 393b
00000360: de6b 133c 58d5 b8bd 5d04 febd ca3a 9c3c
00000370: 5158 51bb a66d 83bd 2edd 483d 62d6 2a3c
00000380: cc34 5a3e 7ebb ca3b f2e8 ea3d 8346 75bc
00000390: 8688 4e3d aefd d13e b98c 74be 1c70 9fbe
000003a0: 5b8a 55be 721e 84be ceb8 93bf a18b f1bd
000003b0: a066 86bc 1825 fcbd 270d babc 121f 60bc
000003c0: c4d7 d5bd ee08 18bd 7612 6dbc 5cdf b7bd
000003d0: 70f4 2dbd f782 38bd 6da3 45be 8e30 64bd
000003e0: e6ed 5bbd fec2 f4be d71c efbd 319a 6ebd
000003f0: 4aa6 aabd d61c 20be 0870 0dbe d36d f0bd

lstm.weight_hh_l0 f4 [400, 100]
0.076862015 -0.099616185 0.070625715 -0.061688684 0.20445968 -0.08450177 0.1426671 -0.2083662
-0.12571219 0.27096787 -0.14079972 -0.18553075 0.06244968 -0.18565036 0.11525323 0.08549816
0.13660635 -0.018952053 -0.09718717 -0.044191852 0.049055114 -0.074962266 -0.17331712 0.14228205
0.082336225 -0.09046807 0.009411948 -0.2805163 0.012187759 -0.1633838 -0.05120116 -0.14263572
0.045920506 -0.018871492 -0.052914936 0.093456164 -0.17358619 0.07314348 -0.092240274 0.03008432
-0.0043057785 -0.085040204 0.0707448 -0.07697038 -0.1454254 0.43410423 -0.17532985 -0.09656595
0.083121106 -0.036112975 0.042737816 -0.10968502 -0.012157342 -0.11432158 0.029976437 -0.09775125
-0.09335337 0.1787716 -0.041477326 0.039417155 -0.17715026 0.06929984 0.07256738 -0.29098353
-0.021546759 -0.048069514 -0.12129876 0.081281565 -0.058841012 0.060928557 0.11013719 0.14721471
0.14480747 -0.104649656 -0.13748023 0.050399713 -0.1976688 0.07959352 0.035582274 -0.047645606
-0.061131537 0.06886636 -0.21431653 -0.04692745 -0.2344 0.017846484 -0.019132104 0.08418643
0.054907408 -0.061542172 -0.040640913 -0.034104668 -0.10049795 0.08222197 -0.11545047 -0.00019032971
-0.17672276 -0.20109755 0.06916585 0.14171964 0.11387253 -0.04911796 0.07431569 0.04388632
-0.04535062 -0.03765526 0.03776399 -0.09564272 -0.044714224 0.07501134 0.0028799705 -0.061963763
0.022758476 -0.074703276 -0.047795948 0.08740037 -0.17610298 0.06913965 -0.03993254 -0.072056726
0.021551564 0.107655 -0.110595465 0.09569502 -0.048107456 0.057587918 -0.15786383 -0.07918013
0.018802864 0.03834926 -0.09658429 0.047254417 -0.08513051 0.14328228 -0.11697985 0.017897159
-0.01390356 -0.09123919 0.09160557 0.045153018 -0.009074822 -0.033715263 0.042800367 -0.023041608
-0.075985365 0.07893577 -0.029862136 0.033787843 0.040722102 -0.14520884 0.13357097 0.0006728857
-0.06814751 -0.104768 -0.06337695 -0.07596165 0.006448608 -0.006495867 0.11562301 -0.13434666
-0.09167513 -0.0287245 0.11625748 -0.101706356 0.045949463 -0.09112227 0.05270878 -0.033247754
-0.011268228 -0.016224463 -0.14022887 0.1006893 0.026343187 -0.11641655 -0.09360194 -0.018416855
-0.10250382 -0.017678346 -0.12611054 -0.06593919 0.03783576 0.12182755 0.036665652 -0.0042150607
-0.13598235 -0.09816362 -0.15796794 0.050127216 -0.05682722 -0.023977906 -0.016064772 -0.014883399
0.048287567 0.0631965 -0.029854534 -0.082657814 -0.03286618 -0.03650959 0.06397333 -0.017832782
0.105102085 0.02352275 0.08553238 -0.038468402 0.09764889 -0.15644434 -0.040283844 -0.073722325
-0.07128238 -0.0068883277 0.06950966 0.0519504 -0.009594838 -0.08785428 0.06013667 0.20308848
0.033687685 -0.13549381 -0.015553152 -0.10346614 -0.10265958 0.0023867502 0.0034166859 0.07021112
-0.10766255 -0.024280636 0.039979145 -0.12347964 -0.010864912 -0.08468973 0.047558434 -0.08104186
0.025434637 -0.10277626 0.13478914 0.2004531 -0.07039555 0.03429336 -0.011648129 -0.13776627
0.011638123 -0.1582491 0.0036460028 0.063270815 0.078587115 0.09115781 -0.012214298 -0.067584515
0.10973404 -0.02113413 -0.05344634 -0.00012804836 -0.024359109 -0.019565793 0.10733369 0.021276781
00000000: d569 9d3d 9203 ccbd 37a4 903d 46ad 7cbd
00000010: e15d 513e 440f adbd 5317 123e f35d 55be
00000020: b2ba 00be 4dbc 8a3e cd2d 10be c6fb 3dbe
00000030: 3ccb 7f3d 211b 3ebe e309 ec3d a919 af3d
00000040: 89e2 0b3e 5641 9bbc 110a c7bd 8402 35bd
00000050: 04ee 483d d185 99bd 0b7a 31be 63b2 113e
00000060: e59f a83d 5347 b9bd 9234 1a3c d59f 8fbe
00000070: 2baf 473c 154e 27be 4fb8 51bd 190f 12be
00000080: 2417 3c3d 6398 9abc 55bd 58bd f265 bf3d
00000090: 94c0 31be 40cc 953d 78e8 bcbd 6473 f63c
000000a0: 7d17 8dbb 8f29 aebd a6e2 903d a6a2 9dbd
000000b0: 65ea 14be e942 de3e ab89 33be 5ec4 c5bd
000000c0: 663b aa3d 33eb 13bd d90d 2f3d 8aa2 e0bd
000000d0: 972f 47bc 6f21 eabd 2591 f53c cf31 c8bd
000000e0: 0d30 bfbd e70f 373e 21e4 29bd e273 213d
000000f0: e166 35be 13ed 8d3d 359e 943d cbfb 94be
00000100: d482 b0bc 8ae4 44bd 7c6b f8bd f376 a63d
00000110: 4603 71bd 3990 793d 9b8f e13d 74bf 163e
00000120: 6948 143e 8f52 d6bd 9ec7 0cbe ee6f 4e3d
00000130: b169 4abe ed01 a33d b8be 113d 0a28 43bd
00000140: 1065 7abd ce09 8d3d cb75 5bbe ff36 40bd
00000150: 8e06 70be ca32 923c eeba 9cbc ef69 ac3d
00000160: 97e6 603d a513 7cbd 1677 26bd 56b1 0bbd
00000170: dfd1 cdbd fe63 a83d 4c71 ecbd 3e93 47b9
00000180: d0f6 34be 84ec 4dbe d3a6 8d3d f41e 113e
00000190: 0036 e93d ea2f 49bd d332 983d 24c2 333d
000001a0: 92c1 39bd 673c 1abd 6aae 1a3d 55e0 c3bd
000001b0: 4326 37bd 8c9f 993d e3bd 3c3b b7cd 7dbd
000001c0: fc6f ba3c 08fe 98bd afc5 43bd f7fe b23d
000001d0: 5754 34be 1799 8d3d 4e90 23bd 7a92 93bd
000001e0: e88c b03c 3a7a dc3d e07f e2bd c0fb c33d
000001f0: 530c 45bd 4fe1 6b3d 0ea7 21be 3129 a2bd
00000200: 7708 9a3c 1d14 1d3d fccd c5bd d98d 413d
00000210: e858 aebd 97b8 123e 2293 efbd 109d 923c
00000220: c2cb 63bc 9ddb babd b39b bb3d 5ff2 383d
00000230: 90ae 14bc 0419 0abd 704f 2f3d c1c1 bcbc
00000240: 379e 9bbd 14a9 a13d 70a1 f4bc 1f65 0a3d
00000250: 38cc 263d a0b1 14be d4c6 083e 9864 303a
00000260: ec90 8bbd 9b90 d6bd c6cb 81bd c891 9bbd
00000270: d84e d33b 48db d4bb c2cb ec3d 2c92 09be
00000280: 2cc0 bbbd a54f ebbc 6718 ee3d 6c4b d0bd
00000290: 8135 3c3d 509e babd 29e5 573d cc2e 08bd
000002a0: 609e 38bc 2ae9 84bc 2898 0fbe 3136 ce3d
000002b0: abcd d73c cd6b eebd 60b2 bfbd f2de 96bc
000002c0: 86ed d1bd 2ed2 90bc 1f23 01be 200b 87bd
000002d0: abf9 1a3d b980 f93d b92e 163d 7e1e 8abb
000002e0: f53e 0bbe 020a c9bd 59c2 21be 3252 4d3d
000002f0: a9c3 68bd 506d c4bc 459a 83bc 80d9 73bc
00000300: 2fc9 453d 2b6d 813d 7f91 f4bc 8048 a9bd
00000310: b09e 06bd 148b 15bd 7304 833d 0e16 92bc
00000320: c33f d73d c8b2 c03c 9a2b af3d 0b91 1dbd
00000330: 24fc c73d f232 20be ac00 25bd bbfb 96bd
00000340: 7ffc 91bd 7bb7 e1bb 155b 8e3d f1c9 543d
00000350: ab33 1dbc f2ec b3bd de51 763d 6df6 4f3e
00000360: 19fc 093d e4be 0abe a6d2 7ebc 0ee6 d3bd
00000370: 303f d2bd 066b 1c3b 7aea 5f3b d9ca 8f3d
00000380: 2f7e dcbd 2fe8 c6bc 2cc1 233d e5e2 fcbd
00000390: be02 32bc cf71 adbd a2cc 423d 46f9 a5bd
000003a0: 4d5c d03c 5c7c d2bd 2a06 0a3e 9443 4d3e
000003b0: 8b2b 90bd 3277 0c3d cbd7 3ebc 9a12 0dbe
000003c0: d3ad 3e3c 0d0c 22be c7f1 6e3b 2194 813d
000003d0: 48f2 a03d f2b0 ba3d 7b1e 48bc c069 8abd
000003e0: 3ebc e03d 7c21 adbc 8dea 5abd b844 06b9
000003f0: c18c c7bc 7148 a0bc c4d1 db3d a54c ae3c

lstm.bias_ih_l0 f4 [400]
-0.14372061 0.016649209 -0.18556865 0.05862552 -0.18791161 -0.031018982 -0.07925725 -0.07666825
0.006347455 -0.0695698 -0.07591877 -0.14251275 -0.18374075 -0.07082516 -0.09209376 0.015749954
-0.093864225 -0.14533463 0.0167148 0.052296214 -0.05527458 -0.21258073 -0.039928693 -0.109869175
-0.05369972 -0.22836626 -0.2017846 0.03454893 -0.16525179 -0.08976213 -0.05826443 -0.14820774
-0.1630662 -0.16857843 -0.1137676 -0.16648239 0.05830863 -0.14740886 -0.054967612 -0.13613546
-0.14987852 -0.04279565 -0.0314184 0.034450896 -0.054114938 0.11234805 -0.0033165533 0.07795004
0.018840335 -0.11097347 0.023888549 -0.06241275 -0.031118015 -0.1540845 -0.13890558 -0.063379705
0.040706713 0.07565229 -0.16180176 -0.17545773 0.00855644 -0.11834236 0.058595628 -0.05272662
0.021850329 -0.0236025 -0.03311702 -0.049923744 -0.17465547 -0.08139076 0.024460163 -0.12847684
-0.07276833 0.008943094 0.021278435 -0.13359126 -0.031442534 -0.1346918 -0.16103038 -0.07012381
0.006142066 0.081889994 -0.025894135 -0.04339488 -0.047425646 -0.27611825 -0.20331334 0.14881285
-0.11472565 -0.065427125 -0.06553189 -0.0038723263 -0.10119037 0.05487743 0.05356597 -0.036278985
0.06766084 0.041496176 -0.1466077 -0.24557044 -0.09975628 0.034863755 -0.15507454 -0.04203969
-0.18293796 -0.1238046 -0.0059150653 -0.007841585 -0.14271894 -0.14539164 -0.25360548 -0.07645742
-0.04980749 -0.22897187 -0.08010159 -0.17775886 -0.10709542 -0.018335944 -0.108113006 0.0006114863
0.016778119 -0.027172385 -0.120149426 -0.102240294 -0.07741825 -0.29726124 -0.18942307 -0.14208163
-0.05569572 -0.11449788 -0.11355731 -0.053061657 -0.119977884 -0.19005232 -0.040195268 -0.17962502
0.007071704 -0.09955644 -0.17819922 -0.12513675 -0.18853982 -0.0033517797 -0.18369007 -0.12148797
-0.26249704 0.15690634 -0.14855295 -0.07632657 0.024065044 -0.022871599 -0.04879942 -0.09702039
-0.018941721 -0.18841778 -0.16522107 0.027329497 0.037784085 -0.0513433 -0.11588602 -0.12653142
-0.11019502 -0.18640986 -0.077629015 -0.16953939 -0.13903017 -0.118475236 -0.0012747373 -0.2654127
-0.16108367 -0.1354673 -0.10324679 0.048142157 -0.01224881 0.059125036 -0.027323881 -0.23076107
-0.2295125 -0.07037233 -0.25436932 0.03987077 -0.13786022 -0.017046507 0.03213924 0.02412279
-0.048692413 -0.28051987 -0.02075612 -0.2931965 -0.049284857 -0.015064862 0.013202432 -0.05334495
-0.07029905 -0.10715541 -0.12098781 -0.14877209 -0.045526788 -0.009666176 -0.18492824 -0.08610157
-0.0028151565 -0.048874218 -0.013810797 0.016651362 -0.0551345 -0.06793253 0.011627372 0.06621583
-0.0023568028 -0.10795541 -0.04433073 -0.046239477 0.017637499 0.018684724 -0.102386154 -0.022381771
0.0371705 0.0018372537 0.056695096 0.067848355 -0.028052082 0.033714175 0.09430663 -0.08749758
0.098476596 0.04589579 -0.030223267 0.00905836 0.029660834 0.05683498 -0.11571343 -0.022749756
0.0060016257 -0.060735498 0.024232091 0.066835485 0.08719091 0.12760985 -0.093863964 0.04007971
0.07739436 0.020101683 -0.08143801 0.04899353 0.02547777 0.010854759 0.08440202 0.086018
-0.09420784 -0.107693814 -0.044309344 -0.018927956 0.019796578 -0.057952844 0.0041307188 0.048107766
00000000: 7f2b 13be ec63 883c b505 3ebe 5021 703d
00000010: e76b 40be 851b febc a051 a2bd 3e04 9dbd
00000020: 50fe cf3b 9c7a 8ebd 4d7b 9bbd ddee 11be
00000030: 8926 3cbe c80c 91bd a79b bcbd 0c06 813c
00000040: e33b c0bd 9ad2 14be 7aed 883c 8e34 563d
00000050: 9967 62bd c3ae 59be 458c 23bd 1703 e1bd
00000060: 3df4 5bbd d8d8 69be 9fa0 4ebe 2e83 0d3d
00000070: c437 29be 35d5 b7bd afa6 6ebd c5c3 17be
00000080: d3fa 26be d39f 2cbe fdfe e8bd 5c7a 2abe
00000090: 08d5 6e3d 59f2 16be b825 61bd 1867 0bbe
000000a0: c179 19be 7e4a 2fbd 95b0 00bd 621c 0d3d
000000b0: a0a7 5dbd bc16 e63d 885a 59bb 45a4 9f3d
000000c0: 0c57 9a3c 0f46 e3bd ebb1 c33c 83a4 7fbd
000000d0: 35eb febc 54c8 1dbe 443d 0ebe 38cd 81bd
000000e0: 15bc 263d 96ef 9a3d 5caf 25be 31ab 33be
000000f0: 4f30 0c3c 7b5d f2bd f801 703d def7 57bd
00000100: 76ff b23c 085a c1bc b6a5 07bd d77c 4cbd
00000110: e2d8 32be 33b0 a6bd ae60 c83c 6f8f 03be
00000120: 9007 95bd 0e86 123c 1d50 ae3c 26cc 08be
00000130: e3c9 00bd a6ec 09be 26e5 24be 129d 8fbd
00000140: 6243 c93b f1b5 a73d f01f d4bc d4be 31bd
00000150: 6541 42bd 5f5f 8dbe 5f31 50be 6562 183e
00000160: 48f5 eabd a8fe 85bd 9535 86bd dbc6 7dbb
00000170: e63c cfbd 28c7 603d fe67 5b3d 4699 14bd
00000180: c491 8a3d e5f7 293d 5420 16be d176 7bbe
00000190: 054d ccbd 4ccd 0e3d dccb 1ebe cf31 2cbd
000001a0: 1754 3bbe 448d fdbd 2ad3 c1bb fe79 00bc
000001b0: ea24 12be 8ce1 14be 94d8 81be b595 9cbd
000001c0: f002 4cbd 9a77 6abe 4d0c a4bd 6b06 36be
000001d0: d854 dbbd 4335 96bc 5a6a ddbd 274c 203a
000001e0: 4472 893c 9f98 debc e710 f6bd 5c63 d1bd
000001f0: 768d 9ebd a032 98be 1ff8 41be d97d 11be
00000200: 3221 64bd dd7d eabd bc90 e8bd 2e57 59bd
00000210: f7b6 f5bd 139d 42be cba3 24bd 9fef 37be
00000220: c1b9 e73b 3fe4 cbbd db79 36be d923 00be
00000230: 9510 41be 88a9 5bbb 4019 3cbe afce f8bd
00000240: 0366 86be 0eac 203e 441e 18be 1b51 9cbd
00000250: 0e24 c53c 385d bbbc e7e1 47bd a0b2 c6bd
00000260: ab2b 9bbc 97f0 40be b62f 29be 1ce2 df3c
00000270: 7cc3 1a3d 5a4d 52bd a655 edbd 7491 01be
00000280: edad e1bd 3ae2 3ebe f6fb 9ebd bc9b 2dbe
00000290: ed5d 0ebe 25a3 f2bd 1615 a7ba 2ce4 87be
000002a0: 1ef3 24be f1b7 0abe 0e73 d3bd b630 453d
000002b0: 3caf 48bc 182d 723d 55d6 dfbc a14c 6cbe
000002c0: 5305 6bbe 5e1f 90bd b23c 82be 884f 233d
000002d0: 3b2b 0dbe 1ea5 8bbc 70a4 033d 289d c53c
000002e0: b271 47bd 4da0 8fbe bd08 aabc da1d 96be
000002f0: ebde 49bd 9cd2 76bc 034f 583c 3c80 5abd
00000300: f3f8 8fbd 4c74 dbbd 75c8 f7bd b657 18be
00000310: 4c7a 3abd e15e 1ebc d45d 3dbe 0556 b0bd
00000320: 7d7e 38bb 5530 48bd ae46 62bc 7068 883c
00000330: b7d4 61bd 3620 8bbd bc80 3e3c 2a9c 873d
00000340: 9774 1abb ba17 ddbd 2494 35bd 9b65 3dbd
00000350: 847c 903c b510 993c d5af d1bd fa59 b7bc
00000360: 1840 183d 01d0 f03a 1e39 683d 14f4 8a3d
00000370: 7bcd e5bc e017 0a3d d623 c13d ee31 b3bd
00000380: 19ae c93d 39fd 3b3d c996 f7bc 8469 143c
00000390: 47fb f23c cccb 683d 2afb ecbd b25d babc
000003a0: 49a9 c43b c9c5 78bd 6182 c63c 0be1 883d
000003b0: 2691 b23d 28ac 023e c03b c0bd 9f2a 243d
000003c0: ef80 9e3d 49ac a43c f9c8 a6bd 71ad 483d
000003d0: c2b6 d03c 29d8 313c f7da ac3d 352a b03d
000003e0: 0af0 c0bd 938e dcbd b77d 35bd cd0e 9bbc
000003f0: 6f2c a23c f65f 6dbd fb5a 873b a60c 453d

lstm.bias_hh_l0 f4 [400]
-0.14661668 -0.054443922 -0.0043546185 -0.003913112 -0.18897383 -0.16476838 -0.035492696 0.061630655
-0.11166632 -0.104327075 -0.005632835 -0.16499172 -0.05462933 -0.03392147 -0.03394788 0.07781873
-0.18661937 -0.14114791 -0.03327103 0.029001663 -0.10870731 -0.22930627 0.021184502 -0.12356151
-0.019516984 -0.1609405 -0.2907097 -0.10725201 -0.24973805 0.01975873 -0.06361272 -0.09764033
-0.17554437 -0.1571784 -0.034424514 -0.07829404 -0.053240187 -0.11150759 -0.091748945 -0.19934943
-0.033699702 0.031491004 -0.16952012 0.04578072 0.08488131 0.027529828 -0.11214093 -0.05882348
-0.08099647 0.0012006441 0.0017985151 0.04983582 -0.1839136 -0.05045995 -0.14292909 -0.05937018
-0.11474496 0.05013725 -0.013286297 -0.05710998 0.021989344 -0.06900489 -0.10793849 0.08194864
-0.006806477 0.036379438 -0.048807476 0.025206748 -0.21819681 0.016607825 0.03013629 -0.07019822
-0.062428936 -0.061344683 0.017934242 -0.031508952 -0.12748875 -0.1737805 -0.074757636 -0.0030160309
0.040904738 0.031962298 0.012703847 -0.09226498 -0.058704253 -0.2178575 -0.19366197 -0.021950431
0.007425206 0.078315854 -0.07625466 -0.0030462025 -0.044845864 -0.12574455 -0.08295689 -0.089594364
0.017421994 0.04098996 -0.024056004 -0.2537251 -0.038145084 -0.07308502 -0.023259783 -0.07519486
-0.21610081 -0.049383294 -0.026032045 0.04261257 -0.20061597 -0.10575879 -0.15725748 -0.06588522
-0.04897382 -0.17333242 -0.061797738 -0.1851767 -0.27064133 -0.12123577 -0.026567927 0.019742534
-0.08389323 -0.20907405 -0.06650758 0.024602856 -0.055123735 -0.19135581 -0.26391754 -0.021823132
-0.12971012 -0.108155124 -0.14700988 -0.06337337 -0.1885447 -0.19735657 -0.11786905 -0.1182964
-0.04941999 -0.10845048 -0.0001295979 -0.13780239 -0.016420491 -0.054723635 -0.08663264 -0.098875396
-0.18690404 0.26717252 -0.11466113 -0.0662836 -0.018995857 -0.015932167 0.036803897 -0.0807568
-0.18697403 -0.11405143 -0.07640753 -0.14027 -0.035669576 0.033752672 -0.06777918 -0.11314718
0.01124274 -0.17763487 -0.048313633 -0.085711144 -0.09939878 -0.080753215 -0.027490875 -0.1834315
-0.106173776 -0.059324756 -0.040508844 0.019195246 -0.09675995 0.030738154 -0.0050949166 -0.16640943
-0.29693067 -0.14891714 -0.27832124 0.014187178 -0.09861913 0.027849596 0.0044777524 0.023336723
-0.031375896 -0.10737611 -0.12785947 -0.24733675 -0.009526055 -0.028073972 -0.07233385 -0.074087866
-0.021266717 -0.025473846 -0.08202603 -0.19532213 -0.12858966 -0.073670894 -0.06960152 -0.26278147
-0.0035549707 0.06767557 0.040260624 0.069337524 -0.054575082 0.037047707 0.07658404 -0.047630597
-0.102954745 0.025817655 0.10839459 0.105313644 -0.022392103 0.06372238 -0.039264705 -0.07191244
-0.03543601 -0.09667083 -0.1038177 0.06035283 0.017147856 0.010468139 -0.022412052 0.011272166
-0.028254176 -0.048293192 0.023947319 0.03943694 0.0089821 -0.011263405 0.028391484 -0.048539605
0.05898207 0.0356086 0.086557984 0.050225705 -0.00374141 -0.013909066 0.033318263 -0.04380786
0.08865727 0.06923789 0.025082955 -0.03613692 0.018030465 -0.068169475 0.13753428 0.019248659
0.022399893 0.023706356 0.08424628 0.01807748 0.005156588 0.07042604 -0.042472847 -0.04753665
00000000: af22 16be 9700 5fbd 30b1 8ebb 9039 80bb
00000010: 5b82 41be 0bb9 28be ca60 11bd 6d70 7c3d
00000020: 50b1 e4bd 6fa9 d5bd a593 b8bb 97f3 28be
00000030: 01c3 5fbd 3df1 0abd ef0c 0bbd 6d5f 9f3d
00000040: 2619 3fbe 1489 10be 3447 08bd e594 ed3c
00000050: f0a1 debd 43cf 6abe 1f8b ad3c d10d fdbd
00000060: 15e2 9fbc 96cd 24be e7d7 94be f1a6 dbbd
00000070: 55bb 7fbe 0fdd a13c 6347 82bd a7f7 c7bd
00000080: e7c1 33be 60f3 20be b800 0dbd a058 a0bd
00000090: 6212 5abd 175e e4bd dfe6 bbbd 4222 4cbe
000000a0: b308 0abd b6fc 003d af96 2dbe 9084 3b3d
000000b0: 41d6 ad3d 3c86 e13c 25aa e5bd e4f0 70bd
000000c0: 7ae1 a5bd ee5e 9d3a 27bc eb3a a520 4c3d
000000d0: d953 3cbe 18af 4ebd 015c 12be 252e 73bd
000000e0: 68ff eabd b85c 4d3d c5ae 59bc 28ec 69bd
000000f0: ff22 b43c 7052 8dbd db0e ddbd b0d4 a73d
00000100: de08 dfbb 9b02 153d 59ea 47bd 627e ce3c
00000110: fc6e 5fbe 220d 883c 61e0 f63c 16c4 8fbd
00000120: 7cb5 7fbd 9044 7bbd d5ea 923c 880f 01bd
00000130: 698c 02be 84f3 31be 881a 99bd 9aa8 45bb
00000140: ba8b 273d e6ea 023d cc23 503c 6cf5 bcbd
00000150: df73 70bd 0916 5fbe 534f 46be 64d1 b3bc
00000160: 244f f33b 1064 a03d 672b 9cbd cca2 47bb
00000170: 4cb0 37bd 2ec3 00be 4de5 a9bd 407d b7bd
00000180: 92b8 8e3c 17e5 273d 1911 c5bc 42e8 81be
00000190: 053e 1cbd 99ad 95bd 4d8b bebc c3ff 99bd
000001a0: 8849 5dbe 2346 4abd 2841 d5bc 858a 2e3d
000001b0: 466e 4dbe 1198 d8bd 1b08 21be d5ee 86bd
000001c0: c698 48bd 0e7e 31be a01f 7dbd f69e 3dbe
000001d0: 8091 8abe 764a f8bd fba4 d9bc 18bb a13c
000001e0: 37d0 abbd 8217 56be 2035 88bd ee8b c93c
000001f0: 6dc9 61bd c7f2 43be 3320 87be 6dc6 b2bc
00000200: bbd2 04be 6f80 ddbd c289 16be e6c9 81bd
00000210: dd11 41be d717 4abe 5465 f1bd 6245 f2bd
00000220: 9e6c 4abd 491b debd ace4 07b9 121c 0dbe
00000230: 4484 86bc e425 60bd 746c b1bd 2f7f cabd
00000240: c663 3fbe d6ca 883e 74d3 eabd b2bf 87bd
00000250: 339d 9bbc 2d84 82bc afbf 163d d263 a5bd
00000260: 1f76 3fbe cc93 e9bd 8d7b 9cbd f0a2 0fbe
00000270: 431a 12bd 3e40 0a3d d0cf 8abd b5b9 e7bd
00000280: 7833 383c eae5 35be 84e4 45bd 5389 afbd
00000290: 9691 cbbd f161 a5bd 8b34 e1bc 78d5 3bbe
000002a0: a371 d9bd 84fe 72bd 9aec 25bd 593f 9d3c
000002b0: 152a c6bd 95ce fb3c 42f3 a6bb 3c67 2abe
000002c0: 4c07 98be bc7d 18be 1f80 8ebe 5671 683c
000002d0: d4f8 c9bd d624 e43c 1cba 923b a82c bf3c
000002e0: 0384 00bd 02e8 dbbd 98ed 02be d845 7dbe
000002f0: 2c13 1cbc 63fb e5bc c523 94bd 61bb 97bd
00000300: 8a37 aebc 87ae d0bc 43fd a7bd 8602 48be
00000310: 02ad 03be c4e0 96bd 3e8b 8ebd 4b8b 86be
00000320: 83fa 68bb 7d99 8a3d 53e8 243d d500 8e3d
00000330: 1f8a 5fbd 56bf 173d 18d8 9c3d 4d18 43bd
00000340: f0d9 d2bd 8c7f d33c fcfd dd3d aeae d73d
00000350: a56f b7bc e180 823d 07d4 20bd d446 93bd
00000360: 5a25 11bd 5bfb c5bd 609e d4bd 8734 773d
00000370: a979 8c3c 8f82 2b3c 7b99 b7bc e4ae 383c
00000380: 4d75 e7bc 15cf 45bd 2b2d c43c a188 213d
00000390: a829 133c 258a 38bc 4295 e83c 77d1 46bd
000003a0: 2f97 713d 53da 113d 5045 b13d 78b9 4d3d
000003b0: 7232 75bb dae2 63bc bb78 083d df6f 33bd
000003c0: f191 b53d 98cc 8d3d c57a cd3c 4f04 14bd
000003d0: a0b4 933c 709c 8bbd c9d5 0c3e 5daf 9d3c
000003e0: fb7f b73c d533 c23c 5089 ac3d 3917 943c
000003f0: 98f8 a83b 873b 903d 02f8 2dbd cab5 42bd

linear.weight f4 [1, 100]
0.055894174 0.058781363 0.02922389 0.078446075 -0.04640425 0.08182444 -0.09227138 0.18853877
0.10310482 -0.07841045 0.11433148 0.010356437 -0.0039393553 0.12489555 -0.021694684 -0.1672444
-0.0823924 0.03170893 0.082764015 -0.02988363 -0.13027054 0.04876184 0.03381559 -0.03370038
-0.105480164 0.05554458 0.023637975 0.12768026 -0.010400126 0.04769681 0.02345165 0.024509672
-0.04552723 -0.022014825 -0.0531643 -0.059088178 0.047866702 -0.0320173 0.0040405276 0.034717504
0.048133764 0.098511845 -0.054892614 0.064952694 0.05366656 -0.17617467 -0.13539124 0.057813667
-0.061561972 0.041119583 -0.014730623 0.034989923 0.013498636 0.08948889 -0.012529934 0.10640721
0.0668366 -0.09812491 -0.020442532 0.02354231 0.07061816 0.03840832 -0.06387142 0.13848744
-0.059786357 0.038056444 0.06004708 -0.025335073 -0.0103689125 -0.081083834 -0.1706261 -0.025945337
-0.0940419 0.050419338 0.0777793 -0.06706902 0.04590176 -0.037271228 0.044561405 0.036979195
0.009418186 -0.10904691 0.076345384 0.06774421 0.11806764 0.012086777 -0.045315336 -0.11761812
-0.03187201 0.12271714 0.013966209 0.03293631 0.07585855 -0.07063282 0.03247229 -0.07227532
0.18033704 0.055013157 -0.022691596 -0.042525623
00000000: 4af1 643d bac4 703d f066 ef3c 56a8 a03d
00000010: 6212 3ebd 9293 a73d c7f8 bcbd 4f10 413e
00000020: 9f28 d33d a895 a0bd 9f26 ea3d 0cae 293c
00000030: b515 81bb 3dc9 ff3d 0db9 b1bc 1e42 2bbe
00000040: 59bd a8bd 39e1 013d 2e80 a93d 84ce f4bc
00000050: a465 05be 7fba 473d 3782 0a3d 6909 0abd
00000060: fc05 d8bd b782 633d 6da4 c13c 9dbe 023e
00000070: 4a65 2abc bb5d 433d ad1d c03c 82c8 c83c
00000080: c37a 3abd 6f58 b4bc cfc2 59bd 7206 72bd
00000090: e00f 443d 9324 03bd 6766 843b f133 0e3d
000000a0: e927 453d 94c0 c93d 14d7 60bd eb05 853d
000000b0: 78d1 5b3d 2267 34be 00a4 0abe 06ce 6c3d
000000c0: 6828 7cbd 026d 283d b658 71bc 9851 0f3d
000000d0: 6229 5d3c f345 b73d 5a4a 4dbc 06ec d93d
000000e0: a1e1 883d b6f5 c8bd 1977 a7bc cddb c03c
000000f0: 41a0 903d 0b52 1d3d 05cf 82bd a7cf 0d3e
00000100: 8ae2 74bd 13e1 1b3d edf3 753d 808b cfbc
00000110: 5fe2 29bc 480f a6bd 9cb8 2ebe 518b d4bc
00000120: 0a99 c0bd 8284 4e3d c14a 9f3d 7b5b 89bd
00000130: 7c03 3c3d b7a9 18bd 0586 363d 7f77 173d
00000140: bc4e 1a3c fd53 dfbd f85a 9c3d 7abd 8a3d
00000150: 72cd f13d 9e07 463c 939c 39bd c5e1 f0bd
00000160: 3a8c 02bd 2053 fb3d 87d2 643c 39e8 063d
00000170: ba5b 9b3d f1a7 90bd aa01 053d 1505 94bd
00000180: 46aa 383e 7a55 613d bae3 b9bc 592f 2ebd
