model/1721470407_model-aapl.pth (torch, 174356 bytes, 5 tensors)

lstm.weight_ih_l0 f4 [400, 5]
00000000: 7945 8bbe 3cec 28be f143 8ebe c73a 7dbe
00000010: cc26 94be 0f19 8abd 7d85 ba3c 911e 16be
00000020: 5437 90bd af12 02be 7418 4bbe 79be 4cbe
00000030: 9c84 b8bd c569 41be f71d 1a3e 5ef9 8fbe
00000040: d248 46be 1c3e 35be 9831 66be 517d 50bd
00000050: d5db 02be dde6 72be cdc7 5bbd d55d 44bd
00000060: bbf0 d9be cf0d ccbd 3825 51bd c8e5 0bbd
00000070: 9dc3 a4bc 916e 92bd eaba a0bc d5ad df3d
00000080: 8ebd 123e 0fef beba e3b7 27bf cc25 533d
00000090: 1796 70bd 456d f9bc 7869 e6bd cf94 123b
000000a0: 3a70 e03c 2c25 44bc 92a8 8f3c e033 b6bd
000000b0: 1571 0a3c f647 78bc 6614 f7bc 5fb3 b93d
000000c0: 2c3c 81bc 8a47 8cbd 17ef 98bd 9a9a f4bd
000000d0: 1172 1d3d b488 00bc 5ce7 fbbc f0fe d0bd
000000e0: 5531 d2bd 020d 4fbe 7e8a ecbd 7eb8 92be
000000f0: 6ef8 05be 2b13 e5bd 9e05 39be 5cd3 78be
00000100: d3aa 90be d717 24bc 2967 ed3b f6d3 a0bd
00000110: 63d4 ad3c 99d6 39bd 631e 963c 949c e4bd
00000120: ba59 2d3d 6de2 653c 9e7b 10bf 66bb b3bd
00000130: 56e3 6abb abb7 193d 2540 aabd 05a8 803d
00000140: 6400 a0bd 012c 223d 9d62 e2bd 137d 4cbd
00000150: e0b3 e1bd 1a26 cd3c 8cea a1bd 902d 97bd
00000160: b1c6 803d 736a 08be 2506 7d3c 562a b3bd
00000170: e0b8 f4bd 9ce6 83bd 9e9c 60bd a02a edbc
00000180: 7de4 88bc 3372 17be 19f9 a1bd 70aa 23be
00000190: 4d38 763c 900c 3abe 3eaf 53bd 99c3 493d
000001a0: 3285 53be 5ede 49bd e822 5e3d 4a50 61bd
000001b0: 02ea 873c 72e6 dbbe 376e beba 1f4a 043d
000001c0: 2054 573d 6e12 d7bd 34d8 2bbe 46be 45bd
000001d0: fbbc 1ebd fae8 1abd 09aa e6bd 8c4d eabd
000001e0: 0e8b 573d 19c5 073e 6fcd 1a3d 822c 763b
000001f0: 8e18 913e 90da 19be 5d02 aebd a6b7 b23c
00000200: eb3f 95bd b3fd 50be f79d 803d 7040 11bd
00000210: 6cee 86bd 827b 633d 89cb a1bd 747f d6bc
00000220: 8cbb 1d3d 1e1b 99bd 3aa4 2b3c 99a8 56be
00000230: 2e55 f8bd dd5a 1cbe 80f7 b7bd 9af9 23be
00000240: 7101 3bbd 610e afbc 8b9e 75bd 2fc1 07be
00000250: 204f 283d 91fa ddbd dda5 8cbd 8bfb 51bd
00000260: 6761 023d 288e 87bd e7d9 043e a2f4 e2bd
00000270: 4f83 eebd be9b 4ebd 1586 27be 8f15 4cbd
00000280: 4da4 45bd 488e 03bd 7b40 f3bc 2502 e3bd
00000290: bd12 64be 96d1 92bd 400f c23a 3a2e a4bd
000002a0: cfed bebd 2f51 323d 0ce4 4ebd 1ee7 93bd
000002b0: be1c c43c a110 30bc 9258 4dbd 5583 23bc
000002c0: 3aa0 60bd 9933 f03d ad12 473d 7c07 9abe
000002d0: d001 d5bd f100 66bd 59fa aabc f3de 703b
000002e0: e8db 6c3b 7648 19be 9e13 16be 2b9b 89bd
000002f0: 0fd5 23bd 77f8 aabe 95a2 0dbe 02a1 4cbe
00000300: 6453 23be 759c abbd 7e1d 53bd 1812 4ebe
00000310: bff1 4cbe 888f 4dbe 344e bdbd 6caa b9bd
00000320: ce78 90bd 0f6b bcbd f642 14bd 83d9 cabd
00000330: 147d bb3d 7d65 12be d316 9dbd 4126 04be
00000340: b163 d13c 8198 89bc d69c aabc e5a1 11be
00000350: fccf 15bd 5c71 c5bd b417 bfbd 9eb0 b5bd
00000360: effe 85bd eaa7 87bd 897f 9d3d eb69 c43c
00000370: 5857 7cbd db50 92bc 7b70 143c 888f bbbd
00000380: dd6b 873d c28e 0dbe 19fa 6cbe 3d49 4bbe
00000390: 1402 56be 3098 9ebe 5ec0 efbd 5e36 99bd
000003a0: 72ed 59bd c2e9 f3bd 90b7 5ebd 2c1f 8fbd
000003b0: 1a00 92bc 93e1 fa3c 6aa7 9cbd 6dd1 183e
000003c0: 39a0 05be 5a44 c6bc 91bb 1abe 897a ecbc
000003d0: 638d f8bc c402 a7bd 5802 babc 31ea d0bc
000003e0: 1127 32be 8ce1 87bd 25b5 85bc 52e9 e0bd
000003f0: f28f a2bc 617d b13c cc5b 04bf 27a5 fabc
-0.2720144 -0.16496366 -0.2778621 -0.24729453 -0.2893585 -0.06743061 0.02276873 -0.14660098
-0.07041803 -0.1270244 -0.19833547 -0.19994535 -0.09009668 -0.18888004 0.15050493 -0.2811994
-0.19363716 -0.17699474 -0.22479856 -0.05090076 -0.12779172 -0.2372088 -0.05365734 -0.047941048
-0.42566475 -0.09963571 -0.051060885 -0.034154683 -0.020112807 -0.07149995 -0.019620378 0.10921828
0.14330122 -0.0014567095 -0.65514964 0.051549718 -0.058736887 -0.030447612 -0.11250585 0.002236653
0.027397264 -0.011971753 0.017536435 -0.08896613 0.008449812 -0.015153876 -0.030161094 0.090674154
-0.015775762 -0.068495825 -0.07467478 -0.119435504 0.03843886 -0.007845093 -0.03074997 -0.102048755
-0.102633156 -0.20219806 -0.11549853 -0.2865638 -0.1308305 -0.111852966 -0.18068549 -0.24299377
-0.2825533 -0.0100154495 0.0072449637 -0.07852928 0.021219438 -0.045370672 0.018325036 -0.111626774
0.042321898 0.014031035 -0.56438625 -0.08775978 -0.003584107 0.037528675 -0.08313016 0.06282047
-0.078125745 0.039592747 -0.11053965 -0.049923968 -0.110206366 0.025042582 -0.079060644 -0.07381737
0.062878974 -0.13321857 0.0154433595 -0.08748309 -0.119493246 -0.064404696 -0.05483686 -0.02895099
-0.016710514 -0.14789657 -0.0790884 -0.15982985 0.015028072 -0.18168855 -0.051680796 0.049258802
-0.20656279 -0.04928433 0.054232508 -0.05500821 0.016591076 -0.42949253 -0.0014528696 0.03229725
0.052570462 -0.10501562 -0.16781694 -0.048277162 -0.038754445 -0.03781984 -0.112629004 -0.11440572
0.052622847 0.1325878 0.037793573 0.003756315 0.28339046 -0.15024781 -0.084965445 0.021816086
-0.07287582 -0.20409279 0.062801294 -0.035461843 -0.06588444 0.055537708 -0.079001494 -0.026183821
0.038508937 -0.07475875 0.010476166 -0.20962752 -0.12125622 -0.15269037 -0.08982754 -0.16013184
-0.04565567 -0.021369161 -0.05996565 -0.13257287 0.041091084 -0.108388074 -0.068675734 -0.05126528
0.03183117 -0.06618911 0.12973748 -0.11081816 -0.11646139 -0.050441496 -0.16359742 -0.049825247
-0.048252393 -0.03211811 -0.029693833 -0.110843934 -0.22272773 -0.071688816 0.001480557 -0.080166295
-0.09322702 0.043534454 -0.05051045 -0.072218165 0.023939487 -0.010746152 -0.050133295 -0.009980042
-0.054840304 0.117285915 0.048601795 -0.30083835 -0.10400736 -0.05615324 -0.020871328 0.0036753982
0.0036141817 -0.14969048 -0.14655921 -0.06719049 -0.03999811 -0.3339269 -0.13831551 -0.19983295
-0.1594978 -0.08379451 -0.051541798 -0.2012409 -0.20014094 -0.20074284 -0.09243432 -0.090657085
-0.07054292 -0.09200107 -0.03619667 -0.09904768 0.09154716 -0.14296527 -0.07670369 -0.12905218
0.025560232 -0.016796352 -0.020826738 -0.14221914 -0.036575302 -0.09640762 -0.09330693 -0.08871578
-0.06542765 -0.06623824 0.07690341 0.023976287 -0.061606735 -0.01786082 0.009060021 -0.09158236
0.0661237 -0.13823989 -0.2314228 -0.19852157 -0.2089923 -0.30975485 -0.11706613 -0.07481073
-0.05320496 -0.1190982 -0.054374278 -0.069883674 -0.017822314 0.03062514 -0.07649119 0.1492364
-0.13049401 -0.024202514 -0.15110613 -0.028867023 -0.030340856 -0.081548244 -0.022706196 -0.025502296
-0.17397715 -0.066348165 -0.016321728 -0.10982002 -0.01984403 0.02166623 -0.5170257 -0.030596329

lstm.weight_hh_l0 f4 [400, 100]
00000000: 9de5 1abd fc17 f73a 3b6a 503e 7e26 173d
00000010: 161d 403d 849e 08be 8c3c 503d 901b 0f3d
00000020: b861 9a3b f0c1 153e 7940 803c ac7b 4c3d
00000030: 709a 59bd ee54 c83d 5e5a debc 3489 0fbc
00000040: 2fde c53d 9dfc dcbc d070 903c 02f9 053e
00000050: 4bbe 353d baf0 83ba 539c 4b3e 6730 c43d
00000060: bbd8 903c b760 9fbc d8f2 8abc 21a8 9e3d
00000070: c21e 1c3e 5507 a3bc 638e dcbd 55f4 3e3c
00000080: 4051 c1bd d082 043e 9c7c ebbd 63e6 283d
00000090: 6ef7 1b3d 0f32 663d 14a8 35bd 1a11 9b3c
000000a0: d694 2abe 3e42 29be 3312 7b3d 3ef5 443c
000000b0: 4e2e 2c3e c6f3 0e3d 8369 23bd b2ca fcbd
000000c0: 64a9 2d3e 1a7c d0bc bf83 653d 0530 663a
000000d0: 0c51 a5bd dc6b 403d e2a6 ba3c c59f 56bd
000000e0: 76ae 08bd a9d6 d53c 6096 50bd 4391 e9bd
000000f0: 2c55 26bd 18ef b23d 5645 4a3d a8ff 75bc
00000100: f975 25bd 1d66 acbd 7cc0 a1bd 8a5d a33d
00000110: 4ffe bebc cf28 be39 c886 3abd 489c e33d
00000120: 35ac 1cbc 2258 f6bd 77b2 9bbd 0f60 56bc
00000130: 0918 c33b 16e9 b8bd acf3 f93c 6d78 a63c
00000140: 01b1 763c 4962 d53d 462c 55bd db90 4c3d
00000150: 4cfc 2f3d 3bcc 853d 95df 4cbb 3fef a7bd
00000160: 18ca df3c 23b1 fabb 2bdc 89bd 1422 8cbd
00000170: 79b4 debd 6f27 12be 1bad 23be e6ba 623c
00000180: ec63 5d3d 55e3 d63d 477e 9c3c 70e3 1c3c
00000190: d081 d3bd 2fff 52bd d878 b8bd 25d1 e9bb
000001a0: e50f 11be 1e4d cd3a 8e0a 59be 71ed 94bc
000001b0: ecac 52bd 827b 34be 4837 d63c 4104 76bd
000001c0: 7b79 d5bd 272b 903d 366e c1bd 158b 86bc
000001d0: ae1e 06be 5b6a 313e a7e8 483d a2b5 b33c
000001e0: cdad 63bd 8e4f ce3c 12c8 ca3c b3cd 9e3c
000001f0: 6dd5 533d 4859 693c 2f84 0bbe 43a6 13bd
00000200: 4d2b 5e3d a717 2b3d 3d1d 24bd 9f97 513d
00000210: 9603 c63c 1418 f93d 9653 92bc 5ec1 5abd
00000220: ca53 013d dc6a 21bd dacc abbd a545 7abd
00000230: 96bd 153d 4e0c 3b3d 602e b83c 0c88 5e3d
00000240: 81b3 0c3e 0c64 e5bc efe4 eb3d 619e 0f3d
00000250: c9df 1d3b 1ec1 32bd 19bb afbb c1e3 23be
00000260: 2f87 5f3e 6cf2 34bd b9d7 3dbd 7c67 053d
00000270: ea01 d7bc 7240 a5bd 9408 27bd f66f 8a3b
00000280: 259b a23d e5a1 39bd cff3 5a3d 2c34 1cbd
00000290: 6c0a 6cbc 831b 253e 5515 adba e69b e73d
000002a0: 925e 003e 1663 e53b f851 85bd e7a1 2abb
000002b0: 5234 f5bd 5186 06be 057d 83bd ee9c 02be
000002c0: af57 7d3e fe5b 193d fc1f 033d ec1f c2bd
000002d0: 1bd1 8c3d ebb7 29bd 6551 8fbd 841d a63e
000002e0: 076f c33e f314 96bd b0c6 963c 9d44 2cbd
000002f0: 551f bbbd 164a b2bd bf30 bf3d 7e8e 80bc
00000300: 6c81 083d 9ad4 4d3d e17b c53d 55a3 2a3c
00000310: e7d9 273e df78 adbd 4c38 5fbe 238f 143d
00000320: 4081 b63d 8cf5 dabd 6351 bd3c 8ea6 26be
00000330: 820b b0bd 90a4 90bd ead0 143d a622 ad3d
00000340: b7c5 4dbe f426 d73c d912 67bd 86b0 36be
00000350: f61d 54be d5d6 bf3d 3848 c3bd c0cc b53d
00000360: e985 6ebd da02 403e d15f 213e 3ac4 0dbd
00000370: 2767 64be bfc6 2fbe 61c5 a03d ca8b 14bd
00000380: 2159 70be 5d57 9bbd 1c94 81bc 8cd0 e93d
00000390: d94c fabb 9f64 1dbe 6b34 9dbd 9fd7 0fbe
000003a0: c4b9 d83d 25af fe3d 4c13 1fbe 4580 4c3e
000003b0: 9c43 b83c a851 cebd 787b 463c 5f6d 023d
000003c0: 8533 babd 3171 7ebd 5bfc 193e 0f2b 983c
000003d0: efc3 1f3e a5ea 27bd 02f0 3f3e fc2e 60be
000003e0: 21c9 e93c 8b0f e23d d451 7bbd c0ad 4a3d
000003f0: 1065 65bc 1ebd 273e e44d 2a3e 3c82 6ebd
-0.037816633 0.0018851752 0.20353024 0.036901943 0.04690274 -0.13341719 0.050838992 0.034938395
0.004711356 0.14624763 0.015655743 0.04992263 -0.0531258 0.09781824 -0.0271427 -0.008760739
0.09661519 -0.026975924 0.017631918 0.1308327 0.04437093 -0.0010066249 0.19883852 0.095795445
0.01768147 -0.019455297 -0.0169615 0.07746912 0.15246108 -0.019900957 -0.107693456 0.011654933
-0.09439325 0.12940526 -0.11498377 0.04123534 0.038077764 0.056200083 -0.044349745 0.018929053
-0.16658339 -0.16529176 0.061296653 0.012021361 0.16814539 0.03490045 -0.039895546 -0.123433486
0.16959149 -0.025449801 0.056033846 0.0008780959 -0.08072099 0.046977863 0.022784654 -0.05239846
-0.033369504 0.026103335 -0.05092466 -0.114046596 -0.04060857 0.0873701 0.04938253 -0.0150145665
-0.04039571 -0.08417914 -0.078980416 0.079768255 -0.023314623 0.0003627003 -0.045538694 0.11113793
-0.009562542 -0.12028529 -0.07602399 -0.013084426 0.005953793 -0.090288326 0.0305117 0.020321095
0.015056849 0.10419137 -0.052044176 0.049942832 0.04296522 0.065330945 -0.0031261195 -0.081999294
0.027318045 -0.007650511 -0.06731447 -0.068424374 -0.10874266 -0.14272855 -0.15984003 0.013838505
0.05405037 0.10492579 0.019103182 0.00957571 -0.10327494 -0.051512893 -0.09007424 -0.0071355277
-0.1416622 0.0015663242 -0.21195433 -0.018179627 -0.051434442 -0.1762524 0.026149407 -0.06006265
-0.10423561 0.07039481 -0.09444849 -0.016423741 -0.13097641 0.17325728 0.04905 0.021937195
-0.05558567 0.025184419 0.024753604 0.019385194 0.05171721 0.014242478 -0.13624643 -0.03604723
0.054240514 0.041770604 -0.040066946 0.051169988 0.024171632 0.12162796 -0.017862123 -0.053407066
0.031574048 -0.03940855 -0.08388682 -0.061101574 0.036557756 0.04566603 0.02248305 0.054328963
0.1374035 -0.028001808 0.11518275 0.03506315 0.0024089685 -0.043641202 -0.00536288 -0.1600485
0.21828912 -0.044176504 -0.046348307 0.032569394 -0.02624603 -0.080689326 -0.040779665 0.0042247726
0.07939748 -0.04532041 0.05345517 -0.038135692 -0.014406782 0.16123776 -0.001320521 0.11309032
0.12536076 0.0070003374 -0.06509775 -0.0026036443 -0.1197287 -0.13137175 -0.0642033 -0.12755176
0.2474048 0.037441246 0.032012925 -0.09478745 0.06875821 -0.041435163 -0.06997947 0.32444394
0.38170645 -0.073282145 0.018405288 -0.042057622 -0.091368355 -0.08705537 0.093354695 -0.015692946
0.03332655 0.05025158 0.09642769 0.010414918 0.16391717 -0.0847032 -0.2179882 0.03626932
0.08911371 -0.106913656 0.023110097 -0.16274473 -0.08595945 -0.07062638 0.03633205 0.08453874
-0.20094953 0.026263691 -0.05641446 -0.17840776 -0.20714554 0.09367148 -0.09535259 0.088769436
-0.058233175 0.18751088 0.15759207 -0.034610964 -0.22304974 -0.1716566 0.07850147 -0.036266126
-0.234715 -0.075850226 -0.015817694 0.1141673 -0.0076385555 -0.15370415 -0.076760136 -0.14047097
0.10582307 0.1243575 -0.15534705 0.19970806 0.022493176 -0.100741684 0.012114398 0.031842586
-0.09091858 -0.062119666 0.15037672 0.01857522 0.15602086 -0.04099526 0.187439 -0.21892923
0.028538289 0.11038121 -0.061357334 0.049482107 -0.014001146 0.16380736 0.16631275 -0.05822967

lstm.bias_ih_l0 f4 [400]
00000000: d46e acbd 6586 dcbd 5c99 2fbd 4e6e 90bd
00000010: 0885 03bd e564 a5bd ba1d 013d f706 82bd
00000020: d2a5 983d 97bd 18be 90e4 4dbd 11fc 56be
00000030: 8c88 3abe 8b65 f4bd a3ae 0abd 08e9 a3bd
00000040: 894b f4bd e56f 4dbe a960 79bb 4ca4 82bd
00000050: 7701 0a3e 9ce1 6d3d 8407 58bd dc99 d0bd
00000060: 01a1 1b3e 150b 0dbe 66fb 3fbd e5ca 8bbd
00000070: 78af 8cbd 0b8c 2a3d e32f 9b3c 3049 ecbd
00000080: 38d3 f5bb 38c0 babd d5bc 3ebd 821c f93d
00000090: 21e6 e6bd e281 ffbd dc6a 28be 14ee d3bd
000000a0: 682c 20be b627 883d 05cb 8ebd 9949 863d
000000b0: 2829 06bd 57f3 39be ff74 123e af54 acbd
000000c0: a01a 4cbc aff1 d2bd 2e97 08be c3d0 23bc
000000d0: ac0b e6bd aa34 af3c 3384 803d cab6 c4bd
000000e0: 6ad1 4fbe 13b3 1cbd 0684 1c3d 10a3 48bd
000000f0: 86f1 89bd a927 febd e711 8bbd c0f9 be3d
00000100: 07c7 ffbd 6d96 73bd adce 29be 47c9 e7bd
00000110: f4d7 9bbd aef1 1abe 0813 9f3b fd90 0abe
00000120: fcf4 413d f22d 863d de88 b3bb 49c9 763c
00000130: 5904 38be cbd7 a3bd 375b edbd c296 36be
00000140: c071 0bbe 0edd 0bbe 2229 ddbd f67a 363c
00000150: 7914 bb3c a578 c0bc 29e0 993d 75a1 8c3c
00000160: 6a49 81bd 3ff2 9ebc 0e65 e0bd 8e95 79be
00000170: 3a9c b5bc be94 7e3c dda8 39be 7721 173b
00000180: 3407 1cbe c7e6 8fbc bcbb 1dbd 6f23 12be
00000190: 4d15 d0bd 10ef 7b3c 158c 91bd 6302 3bbe
000001a0: d154 85bc 6c6c 3c3d ea83 0bbd 6040 2fbd
000001b0: 5778 71bd 450c 05bd 7903 a4bd a891 05be
000001c0: eeff b2bd c0cf 03be 8337 55bd b30f eebc
000001d0: f72c e7bd 721b b8bd 4bfb 543d c6dc 13bd
000001e0: 9c78 23be 74f3 b2bd 846f 343b 7da0 f4bb
000001f0: 0a47 993e bc4c 2fbe 8164 0b3d c27b 99bd
00000200: 8514 73bd 7583 9d3c 6d58 24bd d4b3 74bc
00000210: bc69 1cbe 3f9f 8cbd 1ceb ccbd 47ef 35be
00000220: 15ba 45bd e858 6cbd 3029 9abd 5b38 eabc
00000230: 8083 d1bd 621c d2bd 1911 10bd 5ae3 843d
00000240: d660 d73c 8929 92bc a3b9 c1bd e44c 00bd
00000250: c692 02be 90f1 3d3b 81ed 06be 8569 b4bd
00000260: f145 83bd d762 163d 6585 51bd 8df2 6bbd
00000270: c23b 3abe 181d 5bbd b90b debd 9611 06be
00000280: 7776 1a3c 477a f1bd b605 423d c2cd ebbd
00000290: 41d5 0cba f8a1 15be fde0 31be f4e6 813d
000002a0: b98c 91bd d3b8 26be 6105 d9bd ee1f 9ebd
000002b0: ba37 cdbc 5331 65bd 2d05 01be c9c5 22be
000002c0: 4fd4 00bc 57f1 b2bc e7f4 c9bd 4fe3 27be
000002d0: f1dc 6a3c f815 523d 7652 89ba cba3 9b3c
000002e0: b0ea ff3a 6180 26be eeb5 50bc 4f76 cbbd
000002f0: 762a 3cbe 66f4 fdbc aea5 d7bd 5250 89be
00000300: d4da 09bc 178b afbd 0b25 67bd 7e31 54be
00000310: 0d71 aabd d1b5 14be ec74 633d 5f0b 5abe
00000320: 55b4 0bbe 3bb3 08bd 5563 123d d83e 043d
00000330: fb0d 16bd 6c27 223d af18 683b 3c60 97bd
00000340: d9f7 b83c ce2a 3b3d 2939 7cbc 5db3 923d
00000350: 8a36 123d 8804 94bd 4113 a83c 1da1 fd3b
00000360: c7d1 fd3d 57f3 513d 37f6 3d3d 0a65 383d
00000370: 805a 1bbd d08c 8bbc b89f bc3d 8f77 e53c
00000380: 1f23 ed3b ed23 453d 4293 313d d969 9ebd
00000390: 9fed 8b3d 5342 3e3d e739 953c 6812 e6bc
000003a0: 9cc1 02bd e309 4fbd 14c4 90bc 8c90 b7bc
000003b0: ef05 053d 52d5 a7bd 25b7 a0bd ada7 40bd
000003c0: ab5b b4bd 3f5d af3d c04e b93a 4133 bbbd
000003d0: 6924 d3bd 8fff 123d b74f 67bd 7877 673d
000003e0: cebd 7f3d f4b7 2a3d a5d6 e93c 60e3 c9bb
000003f0: 85b9 4abd 1d6c f8bb 0b9f 0ebd 10b1 f23c
-0.08419576 -0.10767821 -0.042870864 -0.07052289 -0.03210929 -0.08075885 0.03152249 -0.06348985
0.07453503 -0.14916073 -0.050266802 -0.20994593 -0.18216151 -0.1193343 -0.033857953 -0.080034316
-0.1192847 -0.20062216 -0.0038051999 -0.063789934 0.13477121 0.058076486 -0.052741542 -0.10185596
0.15198137 -0.13773759 -0.04687061 -0.068258084 -0.068694055 0.04163746 0.018943733 -0.11537397
-0.007501986 -0.09118694 -0.046566803 0.121636406 -0.11274362 -0.12475945 -0.16447014 -0.10348144
-0.1564194 0.06648199 -0.06972317 0.065570064 -0.032754093 -0.18159233 0.14302443 -0.084145896
-0.01245752 -0.10300004 -0.1333892 -0.009998503 -0.11232695 0.021387417 0.06275215 -0.09605177
-0.20294729 -0.038256716 0.038211845 -0.048983634 -0.0673552 -0.12409908 -0.06790524 0.0932498
-0.12489133 -0.05946963 -0.16582747 -0.113176875 -0.07609549 -0.15131256 0.0048545636 -0.13531871
0.047352776 0.06551732 -0.0054789623 0.015062639 -0.17970408 -0.080001436 -0.115896635 -0.17830947
-0.13617611 -0.13658544 -0.10798861 0.011137715 0.02283691 -0.023495028 0.07513458 0.017166832
-0.06312831 -0.019402621 -0.10956775 -0.24373457 -0.022169221 0.015538393 -0.18130822 0.0023060718
-0.15237123 -0.017566098 -0.038509116 -0.1427133 -0.10160313 0.015376821 -0.07106797 -0.18262629
-0.016275795 0.046001837 -0.03406135 -0.042786002 -0.058952656 -0.032482404 -0.08008475 -0.13043845
-0.08740221 -0.12872219 -0.052054893 -0.02906022 -0.11287873 -0.0898961 0.051997464 -0.036099218
-0.15963978 -0.08737841 0.0027532289 -0.0074654208 0.2993701 -0.17119116 0.034031395 -0.07494308
-0.05934574 0.019227723 -0.040123392 -0.0149354525 -0.1527471 -0.06866311 -0.10005781 -0.17767058
-0.048273165 -0.057701975 -0.07527387 -0.028591326 -0.1023016 -0.1025932 -0.035172556 0.06488676
0.026291292 -0.017842071 -0.094592355 -0.03132333 -0.12751302 0.0028983094 -0.13176538 -0.08809189
-0.06409825 0.036715355 -0.051152606 -0.05760436 -0.18186858 -0.053494543 -0.1084208 -0.13092646
0.009427658 -0.11790901 0.047368728 -0.115138546 -0.00053723535 -0.14612567 -0.17370982 0.06342879
-0.07106919 -0.16281442 -0.10596729 -0.07720934 -0.025050987 -0.055955242 -0.1259963 -0.15895762
-0.007863118 -0.021843595 -0.098611645 -0.16395305 0.014334903 0.051290482 -0.0010476846 0.018999001
0.0019524898 -0.1625991 -0.012738688 -0.09934675 -0.18375573 -0.031000327 -0.10529648 -0.26819092
-0.008413989 -0.08571451 -0.05643181 -0.20722005 -0.08322344 -0.14522482 0.055531427 -0.212934
-0.1364301 -0.033374052 0.03573926 0.032286495 -0.036634427 0.039588377 0.0035415103 -0.07391402
0.02257912 0.04569512 -0.015394487 0.07163117 0.035696544 -0.07227427 0.020516993 0.0077401535
0.123935275 0.051257458 0.046377387 0.045018233 -0.037928104 -0.017034918 0.092101514 0.028011112
0.007236853 0.048129965 0.043353327 -0.077350326 0.06832432 0.04644997 0.018216087 -0.028084949
-0.03192292 -0.050546538 -0.017671622 -0.022407793 0.03247636 -0.081949845 -0.07847432 -0.047034908
-0.08806547 0.08562707 0.0014137849 -0.09140635 -0.10309679 0.03588825 -0.056472506 0.05651042
0.06243687 0.041679338 0.028544733 -0.0061611384 -0.04949333 -0.0075812475 -0.034819644 0.029625446

lstm.bias_hh_l0 f4 [400]
00000000: 7b02 54bd 8553 34bc ba60 52bd fd7b b7bd
00000010: 74a2 35bd 53eb f4bd 571d 02bd a397 afbd
00000020: 4c3b 0e3d db56 e9bd afac 80bd db5a 18be
00000030: de83 0bbd 9a5b a5bc 8dbf 40bd 0e1c 30bc
00000040: 89b9 fabd ce73 cabd a341 00be 3e42 a1bd
00000050: bbc9 f03d 394e ce3d 2396 d63c 3f1f 39bd
00000060: 8a45 103d 3211 81bd d763 c9bd 121b 85bd
00000070: 4e4b 7abd 5454 e63c 5540 793d 33a4 8ebd
00000080: 0b8b 3fbe 3f91 2ebb 0a21 843d 5c00 4a3e
00000090: 2135 93bd fd33 ab3c abe9 18bc ac0f 4bbd
000000a0: 787d f6bd 51f9 123d 7a33 cebd 9d20 a4bd
000000b0: c367 0ebd b1c6 28be ea87 043d 931f afbd
000000c0: 4451 d93c a148 33bd cb48 43be 5bc6 f5bd
000000d0: 58aa 0abe 7c4d e13c e0d6 273c 781a 00be
000000e0: 105b 8cbd fc37 dbbd f7c1 babd 2e57 8dbd
000000f0: 6a64 ed3b 35e6 bfbd ebbe f9bd 6208 1bbc
00000100: b51a a9bd f5fd e2bd c769 53bd bb41 e0bd
00000110: 99d7 893c 9f9f efbd 5c9d bf3b 9384 29be
00000120: 15d1 d33d 31ec df3b 999b 85bc 04f9 58bd
00000130: de7e 70be 32a9 853d a53a f8bd 94f3 ccbd
00000140: 415b c7bd 1bed 4ebd ffcf b13c e505 97bd
00000150: 196b 66bd a66c 5bbd 85e0 babd a932 2abd
00000160: 7503 5bbe 4bc9 96bd bc0f 21be d814 64be
00000170: a4e1 85bd 4e47 b53d ef45 c6bd f4b5 c13d
00000180: ab90 b9bd d867 15be 28b7 adbd fbcc 18be
00000190: 446e 98bd b162 c8bd d59c f9bd aef4 dfbd
000001a0: 7544 37be 9d22 ccbd 60a3 4cbe 605e 743d
000001b0: 55e1 1d3d 2c72 3bbd 9b81 07bd e8e9 e73b
000001c0: 0565 2fbe fa3f 04bd e277 07be 92b0 11be
000001d0: 477f 1b3b 9058 24be a706 edbc 3508 423b
000001e0: 1fe7 b0bd 85f5 a63c ea71 9d3d 1e34 a0bd
000001f0: d1d7 763e 53f3 babd 93b5 6d3d 646c 413d
00000200: 1890 07be 2030 2bbd 92ae 443d 5b0d 51bb
00000210: fef1 2ebe 0467 d53b daed 69bd e611 05be
00000220: b0d0 a9bd 68c0 90bd b6b2 003d 4188 e5bc
00000230: 6d16 ebbc a31c cdbd d21e 27be 47ce abbc
00000240: 7cf0 78bd 7414 31be dc20 6cbe 26cb 5bbd
00000250: 63a7 48bd 44e0 bdbc a58d 1bbe f81f b1bd
00000260: 7ef1 13be de0e 01be ed8b 2bbd 431e bf3a
00000270: fc03 babd 2661 f93c 3b51 273d 8805 d7bd
00000280: e17b 0ebe 411e 253d 08bb ccbd c802 1cbe
00000290: 77ec d9b9 a1d5 a2bc 81fe 03be b1db d43c
000002a0: fd0b 97bd 95c0 dcbd 77ff b0bd 3148 2bbe
000002b0: 06cf 02be b6f2 02be ccaf 4ebb 11a0 e0bc
000002c0: 9371 0f3d 1bba 94bd 0abc a0bd 8196 d8bd
000002d0: 4150 a9bd 6df7 a93c ae2f 9dba aac5 25be
000002e0: 140c 23bd 876b 28be 0199 aabd a1b3 dabd
000002f0: 4214 2cbe 9296 e63c ada1 ecbd aa24 9cbe
00000300: 3dcc f0bd 5d4e 29be cc1a 1abe e642 fabd
00000310: 1075 c6bc 925f f03c 188c 873d 9bab 6cbe
00000320: 3adc ac3b 1a1a 3bbc 64cd 32bd 4370 983c
00000330: 446f 5b3b 0318 8a3d d6cb 88bc a316 4ebd
00000340: e718 adbb 81fc 5fbc 247f 88bd 2119 d23b
00000350: b2dc e33c 8dfb 6fbd 5b87 9c3c 0c02 9ebd
00000360: 090e 0cbd 4356 65bd c14e 80bd ebbe ad3c
00000370: ac5d 21bd 8b19 153d a8e1 32bd d7e0 b23c
00000380: 6de5 12bd d9ab fbbc 56d9 bb3d 90b1 703d
00000390: ceff 80ba 0b5a 73bd df20 b93d 4c31 6ebd
000003a0: d705 f13b 8e06 bd3a 5c55 e4bb 7e44 ebbc
000003b0: 00da 90bd 321a 133d 0544 afbc 3fdd 8d3d
000003c0: 2a57 2b3d abb8 053d 9ee0 203d eb3f 143d
000003d0: a3f0 a9bc fe39 03be 926f a8bd 9fdd 7f3d
000003e0: 1209 533c 05e6 8dbd 2a2f f9ba 63d0 983d
000003f0: 106f acbd 815c cb3c e0db 06bd 9205 813d
-0.051760178 -0.011006241 -0.051361777 -0.08959196 -0.04434438 -0.11958947 -0.031766262 -0.08573844
0.03472452 -0.113935195 -0.06282937 -0.14878409 -0.034061305 -0.02018528 -0.047057677 -0.010748876
-0.12242419 -0.09885369 -0.12525038 -0.07873963 0.11757227 0.100735135 0.026194638 -0.045195814
0.035222568 -0.06302108 -0.09833496 -0.06499304 -0.061106972 0.028116383 0.060852367 -0.06964912
-0.18705384 -0.0026636866 0.06451614 0.197267 -0.07187868 0.020898813 -0.009333055 -0.049575493
-0.1203565 0.035882298 -0.10068412 -0.08014033 -0.034766924 -0.16482045 0.03235618 -0.08550944
0.026528008 -0.043770436 -0.19070737 -0.12000724 -0.13541543 0.027502768 0.010244101 -0.12510097
-0.06853306 -0.107040375 -0.09119027 -0.06901394 0.0072446363 -0.093700804 -0.12194618 -0.009462448
-0.08257047 -0.11083595 -0.05161455 -0.10950037 0.016826438 -0.11700367 0.005847616 -0.1655448
0.103426136 0.006833576 -0.016309546 -0.052971855 -0.23485896 0.06526412 -0.121205606 -0.10007396
-0.09734202 -0.05051909 0.021705626 -0.07374171 -0.05625448 -0.053570412 -0.09124855 -0.04155222
-0.21388038 -0.07362612 -0.15728658 -0.22273576 -0.06537178 0.08851491 -0.096813075 0.09458533
-0.09060796 -0.14590394 -0.084822 -0.14921944 -0.074429065 -0.09784449 -0.121881165 -0.10935341
-0.17897208 -0.099675395 -0.19984198 0.059660316 0.03854497 -0.04576318 -0.033082586 0.0070774443
-0.1712838 -0.032287575 -0.13229325 -0.14227512 0.0023726986 -0.16049409 -0.028933836 0.0029606943
-0.08637833 0.020380745 0.07687743 -0.078224406 0.24105765 -0.09128442 0.05803449 0.04722251
-0.13238561 -0.041793942 0.048018046 -0.003189883 -0.170845 0.0065125246 -0.0571116 -0.12995109
-0.08291757 -0.070679486 0.031420432 -0.028019072 -0.028697217 -0.10015228 -0.16320351 -0.020972384
-0.06077622 -0.17292958 -0.2305941 -0.053660534 -0.048987757 -0.023178227 -0.15190752 -0.08648676
-0.1444759 -0.12603328 -0.04188149 0.0014581162 -0.09082791 0.030441832 0.04084895 -0.10499102
-0.13914444 0.040312055 -0.09996611 -0.15235436 -0.00041565645 -0.019877257 -0.12890054 0.025983663
-0.073753335 -0.107789196 -0.08642476 -0.16726758 -0.12774286 -0.127879 -0.0031537889 -0.027420076
0.035020422 -0.07262059 -0.078483656 -0.10575581 -0.0826726 0.020747865 -0.0011992359 -0.16188684
-0.03980644 -0.16447268 -0.083299644 -0.10678793 -0.16804603 0.02814797 -0.11554275 -0.30496722
-0.11757705 -0.165338 -0.15049285 -0.12219791 -0.024225742 0.029342446 0.06618518 -0.23112337
0.0052752765 -0.011419797 -0.043652907 0.018608218 0.0033483068 0.06742861 -0.016698759 -0.050314557
-0.0052825096 -0.0136710415 -0.06664875 0.006411687 0.027815197 -0.058589507 0.019107511 -0.07715234
-0.034193072 -0.05599047 -0.06265021 0.0212092 -0.039395973 0.036401313 -0.043672234 0.021835728
-0.03586333 -0.030721592 0.09172313 0.058763087 -0.0009841861 -0.059412044 0.09039473 -0.058152482
0.0073554325 0.0014421509 -0.0069681834 -0.028719183 -0.0707283 0.035913654 -0.021394739 0.06926965
0.041831173 0.032646816 0.03927671 0.03619377 -0.020744627 -0.12815091 -0.08224405 0.062467214
0.0128805805 -0.06928638 -0.0019011248 0.074616216 -0.08419621 0.024824383 -0.032924533 0.062998906

linear.weight f4 [1, 100]
00000000: da6e e0bc 7799 3abd 5f0e 5dbd 88e5 3c3d
00000010: 4452 a03d 8284 be3c 705b d8bd a20b c9bd
00000020: 4d97 8c3d 0ec3 47bb ec7e 913d ae0c 253d
00000030: 0c84 593a 5719 8fbd 336b 72bd 19c8 6cbd
00000040: 12a3 dd3c 0010 44bc 536c 66bd e31a 9bbd
00000050: ae36 203e 064a b53d 2363 f3bd 7b97 e3bc
00000060: 1798 1c3e abb2 b6bb e73e 8f3d 8a14 bfbd
00000070: c4c5 173d 44b0 063e a11d 323d b0f5 af3d
00000080: 2f35 04bd a713 89bd 56d7 cf3d 47f5 2ebe
00000090: ca3b 97bd 0113 5a3d 41d3 a0bc 4332 eabc
000000a0: b7b6 3d3d 49c1 8b3d b440 9cbc 5e45 f4bd
000000b0: c703 d4bd 9d80 29bb 4a27 08be aae6 dc3d
000000c0: bb90 443d 7ea2 90bd 69ec 97bd 7a60 4c3c
000000d0: 0e6a c9bd 7394 68bd 3e55 bcbd 8d96 473d
000000e0: a8a0 bdbc 56a1 9a3d 352e 983c ac3d be3b
000000f0: 6e6b 493d e187 02be 63c6 acbc 047f f8bd
00000100: 9e63 4abd b3ac 383d 48ef ecbc 036a 8cbd
00000110: fa7c 72bd e5c0 f2bd c4fa 1b3e 575e 263d
00000120: 35da 203e 5447 073e 3ab3 0cbd 40ff 4e3d
00000130: 23eb f6bc 0ac5 b0bd 7503 213d 5f1f 1a3d
00000140: e6eb 31bb 9ccd 5b3c 0449 be3d 4635 173e
00000150: 98bd cb3d b51e 84bb 6c05 51bd 55e7 a83d
00000160: 08c5 6fbc e503 533d d7fc 853d 9409 9f3c
00000170: c762 bc3c 321a f03d 0672 c9bb 4525 19be
00000180: 67e1 bc3b 1f51 2bbd d6ee f6bd 71e6 863d
-0.027396608 -0.04555651 -0.053968783 0.046117336 0.07828191 0.023256544 -0.10564315 -0.09816672
0.06864796 -0.0030481252 0.071042866 0.040295295 0.00082975696 -0.06987255 -0.059184264 -0.057808015
0.027055297 -0.011966705 -0.05625565 -0.075734876 0.15645859 0.088520095 -0.11884143 -0.027782192
0.15292393 -0.005575498 0.069944195 -0.093300894 0.03705384 0.13153177 0.043485288 0.08591783
-0.032277282 -0.066932015 0.10148494 -0.17085753 -0.07384451 0.05324078 -0.019631984 -0.02858842
0.04631683 0.068239756 -0.019073822 -0.11927293 -0.10352283 -0.0025864013 -0.13296238 0.10786183
0.04798959 -0.07062243 -0.074181385 0.012474174 -0.098346815 -0.056782197 -0.09195946 0.04872756
-0.023147896 0.07550304 0.01857672 0.0058056917 0.04917472 -0.12747146 -0.021090692 -0.12133601
-0.04941141 0.045086574 -0.028922692 -0.06856158 -0.05920122 -0.11853198 0.15232378 0.040617313
0.1570824 0.13210803 -0.03435061 0.050536394 -0.030141419 -0.08631332 0.039309938 0.037627574
-0.0027148663 0.01341572 0.092912704 0.14766416 0.099482715 -0.004031981 -0.05103056 0.08247248
-0.014634378 0.051517386 0.06542366 0.019413747 0.02299632 0.11723746 -0.006147626 -0.14955623
0.0057641747 -0.04182541 -0.12057273 0.06586922
