model/1721472948_model-aapl.pth (torch, 174356 bytes, 5 tensors)

lstm.weight_ih_l0 f4 [400, 5]
00000000: c05d 0cbc cdbc 13ba cd1c f8bb 9a2f c63b
00000010: a7e9 103c 6d7c 2a3d 6750 45bb edab 1abd
00000020: a2bb ad3d 5a7f afbd 00c8 4ebc e7d7 643d
00000030: 6529 8bbd cd28 103c 8d29 da3c fa23 b43d
00000040: 2d00 363d abc3 a43d 20fa 823d 8deb 053d
00000050: e0ee 863d 6ac4 b83d e776 f6bb f3c2 b4bc
00000060: c0b1 543d a8bd 86bd a735 593c 27b3 5b3d
00000070: 65d0 953d c00c ac3d 0d76 0f3d 670f 79bd
00000080: 5aa4 60bd 1a98 933c ed23 c53d dd61 a03d
00000090: ca97 bc3d e7c5 18bc 404b f73c 4d91 15bc
000000a0: 73a0 c4bd 8031 8abc 87df 8abd ed81 ee3c
000000b0: 8546 ae3d 878d 4f3d 3d61 c63d f083 b13d
000000c0: 3039 64bd 400a 4e3d 4236 cbbd 45e4 a03d
000000d0: cd68 963d 9af5 923a 4d32 71bc 0022 0dbd
000000e0: 4de5 bebb 3a48 efbc 67f8 e5bc 30da 7f3d
000000f0: e30f cabd 80c5 35bd 63af 1bbd ba6f dc3c
00000100: 43f7 47bd 33a9 d3bc 0a8f 413d 5321 69bd
00000110: 9a97 9c3d 102c a93d 7546 ccbd 3d66 3b3d
00000120: a319 563d 20e0 b7bc d22a b73d d244 c93d
00000130: 2731 3abc 3a59 bd3c a0e7 a8bd 134a 5dbd
00000140: b3c5 61bc 6d72 5dbd 00d2 f93a baf3 6bbd
00000150: 8daa 323c e559 bd3d 9ddc bbbd 53a3 503d
00000160: 9ae2 7bbd c7fa b0bd 2d05 0fbd 9ac9 9e3b
00000170: e728 913c 7aac 77bd aa29 203d 686b 98bd
00000180: 9a33 4cbc 23d9 01bd 4de3 e2bc e7a1 2dbd
00000190: 98c8 81bd 7320 78bc 9aeb bb3a 8837 aabd
000001a0: ca68 80bd e781 bf3b 0d45 dcbc 5355 c0bd
000001b0: 8dca fe3c 0d2b bfbc e769 063d db31 a53d
000001c0: 82d6 a6bd 80d9 1fbd 2396 283d 07c6 c83d
000001d0: f0f6 c0bd 30de 533d 4f3f a1bd c092 babd
000001e0: 3f03 90bd 60ec 133d c21c 96bd c506 9cbd
000001f0: 6d7f fcbc 18c5 9e3d d050 18bd 9ad1 abbb
00000200: 0734 143d 93bb 993d dac5 953c 1230 c6bd
00000210: 30b2 763d 5742 6cbd 5351 f73c 13b5 b93d
00000220: 935d b1bc 1b9c 9a3d 90ae 60bd 60f1 0c3d
00000230: fde2 b73d 67dd 0e3d cd31 f53c b07b b3bd
00000240: db6a a53d b3b7 58bc b3c0 e93b c099 f73c
00000250: 5d9c 36bd 0dca 923c 270b f03c ad7e c2bc
00000260: e070 97bc 67aa 2e3a 7f84 89bd 5beb 8abd
00000270: 2b80 80bd b53c 873d 132f f93c f7e4 51bd
00000280: 6d51 a6bd 6820 bdbd 4d2e 42bc 5013 403d
00000290: f021 46bd 07f2 263d 7de2 bbbd 8f02 c0bd
000002a0: 82e3 9abd 4df2 d33b fa8a c03c 1a62 b83b
000002b0: 323f b43d 4a97 323d 80bc 41bc 6755 763b
000002c0: edb7 bf3c 13d0 4f3d b8d7 aa3d c05d 3cbc
000002d0: 1820 81bd 232a 6f3d da47 90bd f3e9 15bd
000002e0: 6068 a53c a797 d8bc 8580 83bd 6702 263a
000002f0: a2b0 aa3d 9812 c7bd 0076 663b 1311 1e3d
00000300: 273f 06bd 0d04 d6bc 4a11 953d 1b4b b3bd
00000310: d813 923d db52 9c3d 2318 0f3d 77bd 1abd
00000320: baf7 40bd 4a74 23bd a7d3 2b3d 0aea 43bd
00000330: 932b 923d 9a49 b53b d2b0 9a3d 6345 66bd
00000340: 3324 cbbc cd4c 8d3c 008e fc3c 6d59 bf3d
00000350: b337 da3c 83ed 7fbd 10c3 323d 1788 63bd
00000360: 4a46 c1bd 679c f7bc 5362 0dbd 2a59 163d
00000370: 5aca 9dbd cdd1 8e3b 1ab9 0c3c 5768 373d
00000380: bf28 a63d 8f68 8ebd 4a21 c13d 851e 983d
00000390: 37f5 5f3d 6763 7b3c b3b0 853d 3dd3 c93d
000003a0: 2ab6 103d 631d 75bd b02b c0bd 9b79 b5bd
000003b0: 6720 7fbd b351 e0bc 7394 c0bc bae5 debc
000003c0: b5cb b8bd a05d 5fbd 82c0 be3d d09e 23bd
000003d0: 7a15 153d cfd3 853d e3ad 49bd f054 39bd
000003e0: 33f3 1a39 0064 faba cd91 75bd 87df 793d
000003f0: 535d d93c 0d4c cabd 8d31 113c 05c0 adbd
-0.008567274 -0.00056357385 -0.0075717927 0.006048155 0.00884477 0.041622568 -0.0030107738 -0.037761617
0.08483054 -0.08569212 -0.012620926 0.055869963 -0.06795005 0.00879879 0.026631141 0.087959245
0.04443376 0.08045133 0.06395364 0.03269534 0.065885305 0.09021838 -0.0075214985 -0.022065615
0.051927328 -0.06579143 0.013257421 0.05363765 0.07315139 0.08400869 0.03502469 -0.060805704
-0.054844238 0.018016864 0.09625993 0.07831166 0.09208639 -0.009324527 0.03018725 -0.009128881
-0.09600916 -0.016869307 -0.06780916 0.029114688 0.08509544 0.05067208 0.096865155 0.08667743
-0.0557186 0.050302744 -0.09922458 0.07856039 0.07344208 0.0011212111 -0.014721465 -0.034456253
-0.0058256746 -0.029209245 -0.028072549 0.06246394 -0.098663114 -0.044377804 -0.03800906 0.026908744
-0.04881979 -0.025837516 0.047255553 -0.056916546 0.07646103 0.082603574 -0.09974376 0.0457518
0.052270543 -0.022445738 0.08943714 0.098275796 -0.011364258 0.023113836 -0.08247304 -0.05402572
-0.013780045 -0.054064203 0.0019059777 -0.057605483 0.01090492 0.09245662 -0.09172938 0.050937008
-0.0614954 -0.08641582 -0.034917045 0.00484581 0.0177197 -0.06046722 0.039102234 -0.07442361
-0.012463475 -0.03170122 -0.027696276 -0.04239073 -0.06337088 -0.015144455 0.0014337183 -0.08311373
-0.06269987 0.005844343 -0.026888395 -0.09391274 0.031102443 -0.023335958 0.03281584 0.0806615
-0.08146383 -0.039025784 0.041158807 0.09803396 -0.094220996 0.051725566 -0.07873403 -0.091100216
-0.07031869 0.036114097 -0.07329704 -0.07618479 -0.03082248 0.077524364 -0.037186444 -0.0052434923
0.03618243 0.0750648 0.01828282 -0.096771374 0.060228527 -0.057680454 0.030190146 0.0906774
-0.021651065 0.07549306 -0.054853976 0.03440988 0.089788415 0.034879114 0.029930973 -0.08763826
0.08077022 -0.013227391 0.0071335672 0.03022468 -0.044582713 0.017918611 0.029302193 -0.023742044
-0.01848644 0.0006662965 -0.06714725 -0.06783172 -0.06274446 0.06603376 0.030417955 -0.05124375
-0.081209995 -0.092346966 -0.011851859 0.046893418 -0.04837221 0.04075816 -0.091740586 -0.09375488
-0.07562925 0.0064680935 0.02350377 0.005626929 0.08801116 0.04360131 -0.011824727 0.0037587525
0.023403132 0.050735544 0.08341926 -0.011496961 -0.063049495 0.058389794 -0.070449546 -0.036600064
0.020191371 -0.026439501 -0.064209975 0.00063327554 0.08334471 -0.09720343 0.0035165548 0.038590502
-0.03277507 -0.026124978 0.07278688 -0.087545596 0.07132691 0.07632991 0.034935128 -0.037778344
-0.04711125 -0.039905824 0.041949894 -0.04783062 0.071372174 0.0055324556 0.07553257 -0.056218516
-0.024797535 0.017248536 0.03082943 0.093432285 0.026637888 -0.06248237 0.043643057 -0.055549707
-0.09437235 -0.030225946 -0.034517597 0.036706127 -0.07704611 0.0043585063 0.0085890535 0.04477724
0.081132405 -0.06953537 0.094301775 0.07427696 0.054677214 0.015343524 0.06527843 0.09854744
0.035329975 -0.05984248 -0.09383333 -0.08861085 -0.06228676 -0.027382707 -0.023508286 -0.027209152
-0.09023229 -0.054532647 0.09314062 -0.039946377 0.036397435 0.0653454 -0.049238097 -0.04524702
0.00014777183 -0.0019103289 -0.0599535 0.061004188 0.026533758 -0.09877787 0.0088619115 -0.084838904

lstm.weight_hh_l0 f4 [400, 100]
00000000: 4597 8dbd c7e2 b4bc 87d3 b53c 1be1 c0bd
00000010: 709d aa3d a0f1 94bd 0035 45bd 3526 afbd
00000020: 6786 32bc bddd 7dbd e3fc 5abd e06f 4a3d
00000030: f830 b93d 3a12 b03d 6dbe 8dbc 671a 793d
00000040: 1b49 83bd a79e 353c cbac 8ebd fd8e ae3d
00000050: 27ed 893c 009a fcbb 6a0c 98bd 0795 2fbd
00000060: 3d70 5dbd 924d a7bd f3ad d43c 8071 c83c
00000070: 424b b03d b0dc 28bd caa1 2a3d da70 51bc
00000080: 9b3e a8bd 67fd 0dbb da72 dc3c 67ca 0abd
00000090: edee c6bc faeb 173d a79e 073d 20b8 cbbd
000000a0: 25d5 81bd 1306 8dbd a04a cf3c 9d91 85bd
000000b0: d7c3 2e3d ba6b aabd 00a3 b73b 7a98 d03c
000000c0: 1a1c 953d e759 2bbc d0db 9bbd cffc c2bd
000000d0: dbb8 b33d f37c 803c ffaf b53d 4dcd 4a3c
000000e0: fdfd ae3d 3bd8 91bd 4feb 8fbd 28c4 c1bd
000000f0: 40a8 e83c baba 91bd 67d5 6dbc 8dca 33bd
00000100: d399 163d 9a19 b43c ab30 a43d b309 f3bb
00000110: 7b37 ccbd 8a4d b83d b3d9 47bd 23b2 4abd
00000120: 5a48 803d 3342 ba3b 0df6 45bd 335d 65bb
00000130: f0d9 71bd 5329 afbc b26a b7bd e7dc 9b3c
00000140: e0b8 ac3d f37f 4abc a5be a33d e79c e5bc
00000150: bd1c 2abd e7f3 c83c cdd4 a7bd 2d96 c03c
00000160: 928e 853d c07f fc3c 0d20 ff3c 3815 aa3d
00000170: cda2 56bb 0084 5f3d 6d9e 493d a503 b13d
00000180: 3a94 9fbc 53e8 bf3c 5aaa b5bd f7a6 2cbd
00000190: 158c 813d e0b5 8ebd 3769 b2bd 7ddf 39bd
000001a0: 68ce a9bd c7c6 613d 1a55 7a3d 0a32 c8bd
000001b0: 9abf b6bc 9a93 04bc 730b 003c e760 80bc
000001c0: 77ab c23d 674c aaba 2a27 003d 533d 913c
000001d0: 3aaa 80bd 8a57 7abd 6a2b 39bd 8021 443c
000001e0: 57db 333d df10 a6bd 676c efbb ca42 63bd
000001f0: 0849 91bd 503b b8bd fa7c 98bd cff7 c93d
00000200: 38b4 c1bd c025 e9bc 4d51 853d d7a7 31bd
00000210: 2056 723d 75c2 99bd efc1 81bd 4d72 dd3b
00000220: 65cb 9d3d e0ac 823d f34d 0a3d 0846 a5bd
00000230: 638c 4d3d 3090 8e3d 93c4 873d 8d97 90bc
00000240: 138c fbbc 4d0e afbc d3cf babd 9313 44bd
00000250: f71b b13d 8bc9 a73d 6f19 963d 3348 353d
00000260: 90d5 a7bd 1dfe 173d 4d1e 6e3d d304 28bd
00000270: 63d1 a9bd 1d08 803d 7360 153c 5b50 a83d
00000280: 9ab4 bdbc 2311 04bd 4071 19bc 7f89 833d
00000290: 07f4 78bd 55ca a83d f245 9ebd 6301 cb3d
000002a0: 8df4 763c d080 673d 671b 5fbc ea08 873d
000002b0: 170a 66bd 6788 3e3d c075 213d a08d b33c
000002c0: f85a 8f3d ca9e 13bd 803c 903c d39e 29bd
000002d0: fbe3 b8bd 60e9 ba3d 4f5e 803d 17b7 7bbd
000002e0: b30a 94bb 672e a4bb 9391 b7bd cdba 90ba
000002f0: cf6a aebd 2768 44bd 4db3 b63d 23ba 523d
00000300: 1ff0 cabd a0f3 d6bc cd6c 383c 135b b2bd
00000310: 2d89 343d cfc6 b43d 0d4d ed3c ca98 c3bd
00000320: 3393 193b ba57 a7bd aa7f 353d e316 00bd
00000330: 92db b53d 2aaf 57bd 3a22 f53c dacf dcbc
00000340: 9aa9 1c3d 9363 34bd 38e0 a33d 1a0d 023c
00000350: 77e6 4cbd 8573 c13d 7703 8dbd 6abd 0d3d
00000360: 7778 b1bd dacb 3cbd 67ac ccbb 030d 923d
00000370: 3a86 c3bc a022 91bd 73f4 81bd 0887 cbbd
00000380: 17a4 c33d 7f20 9cbd 2fd0 99bd c723 573d
00000390: 8db8 d5bc 5d01 31bd 8a9f 98bd 8d1e 4a3c
000003a0: f36d 68bd 473b 9dbd 6808 aebd 0740 433d
000003b0: cd9d 08bb b314 28bc b76e 263d af1e b6bd
000003c0: 60a4 3f3d 20e3 653d 0046 e9bb 3081 c5bd
000003d0: e709 503d daa4 9fbd 2be0 86bd 1764 233d
000003e0: b329 14bc e2ef bdbd ed72 82bd 73e5 803d
000003f0: 2df4 efbc c3dd 54bd a87f 923d 87f1 863c
-0.06913618 -0.022080792 0.02219559 -0.094179355 0.0833081 -0.07272649 -0.048146248 -0.08552209
-0.010896302 -0.061979044 -0.053463828 0.0494231 0.09042543 0.085972264 -0.017302716 0.060816195
-0.06410428 0.011085189 -0.069665514 0.085233666 0.016836716 -0.007708788 -0.07424243 -0.042866733
-0.054062117 -0.08169092 0.025961852 0.024468184 0.08608104 -0.04122609 0.0416582 -0.012783254
-0.08215066 -0.0021665932 0.026910234 -0.033884432 -0.02428385 0.03709028 0.033110287 -0.099472284
-0.06339482 -0.06885924 0.025304139 -0.06521914 0.042667236 -0.083213285 0.005604148 0.025463331
0.072807506 -0.010458446 -0.07610285 -0.09520876 0.08775493 0.01568458 0.08871459 0.012378049
0.08544538 -0.07121321 -0.070273034 -0.09461242 0.02840054 -0.071156934 -0.014516211 -0.04389434
0.036767792 0.021984864 0.08017095 -0.0074169277 -0.099715196 0.089991644 -0.0487916 -0.04948629
0.062638 0.005684161 -0.048330355 -0.0034998178 -0.059045732 -0.02138201 -0.089558974 0.019026233
0.084336996 -0.012359607 0.07995347 -0.028028918 -0.041531313 0.024530364 -0.081948854 0.02350911
0.06521334 0.030822635 0.031143213 0.083048284 -0.0032750845 0.054569244 0.049223352 0.08643273
-0.01947986 0.02342621 -0.088703826 -0.042151418 0.06325547 -0.06968284 -0.087114744 -0.04537915
-0.08291322 0.05512121 0.061116315 -0.09775169 -0.02230816 -0.008091832 0.00781523 -0.015671207
0.095053606 -0.001299274 0.03128735 0.017729437 -0.06282468 -0.06111864 -0.04520742 0.011970878
0.04391035 -0.08108687 -0.0073066237 -0.055483617 -0.07094008 -0.08995688 -0.074457124 0.09861719
-0.09458202 -0.028460383 0.065096475 -0.043372955 0.059164166 -0.07507793 -0.06335818 0.0067580105
0.0770481 0.063806295 0.033765744 -0.08069998 0.05018271 0.06961095 0.066292904 -0.01765039
-0.030706441 -0.021369124 -0.091216706 -0.04787023 0.08647912 0.08192738 0.0732907 0.044258308
-0.08195031 0.037107576 0.058134366 -0.041020226 -0.082918905 0.062515475 0.009117234 0.082184516
-0.023157407 -0.032242905 -0.00936538 0.0642271 -0.060779598 0.08241717 -0.07728185 0.09912374
0.015072954 0.05651933 -0.013617373 0.06593497 -0.056161966 0.046516802 0.039418936 0.021918118
0.06999773 -0.036040105 0.017606974 -0.041411232 -0.09027859 0.09126544 0.06267988 -0.061453905
-0.004517877 -0.0050104144 -0.08963313 -0.0011041999 -0.08516466 -0.04795089 0.08920918 0.051447045
-0.09909081 -0.026239216 0.011256409 -0.08708777 0.044076134 0.08826982 0.028967405 -0.095506266
0.0023433685 -0.081710294 0.044311203 -0.031271826 0.0887977 -0.052657284 0.029923547 -0.02695458
0.038247682 -0.044040274 0.08001751 0.007937694 -0.050024476 0.09445862 -0.068854265 0.034604467
-0.08665555 -0.046092845 -0.006246138 0.07131388 -0.023867715 -0.07086682 -0.06345453 -0.099378645
0.09552782 -0.07623386 -0.07510411 0.052524354 -0.026088977 -0.04321419 -0.07452305 0.012336385
-0.05674548 -0.07677322 -0.08497697 0.047668483 -0.002084601 -0.010258841 0.04063293 -0.08892571
0.04678762 0.056124806 -0.0071189404 -0.09643781 0.050790694 -0.07795115 -0.065857254 0.039890375
-0.009043145 -0.0927427 -0.063695766 0.06293764 -0.029291237 -0.0519693 0.07153255 0.016472591

lstm.bias_ih_l0 f4 [400]
00000000: e01b 673d 2754 543c 0d71 793d 1349 62bd
00000010: 03fd 433d ad5f e53c d74d 5c3d 2dfd db3c
00000020: 3a42 90bd 0d4d 18bc 007e 5c3d 751d bdbd
00000030: daa6 0d3d a020 81bc b326 003c c867 963d
00000040: 27d2 7e3c 8a1c 483d 1d28 13bd 8dd2 443c
00000050: 2a6a 163d 2d4b 573d 80d2 403d f33f a4bc
00000060: 78c3 86bd 9a7e 263d 9a67 d73c 9a02 8dbd
00000070: 65b9 993d da61 b7bd c750 a13c ca64 a73d
00000080: 7359 763c 9363 c03c faa5 423d 0b5b 8c3d
00000090: 1aa9 1abd 402d f73c e7f6 efbb 275d 64bc
000000a0: ad71 57bd 4d4d bb3b 70a0 ccbd 8d08 98bc
000000b0: b2f1 a1bd 933a 74bd c8a7 ae3d bab6 babc
000000c0: 7082 2a3d 7327 57bc 6df7 15bd 604a b1bc
000000d0: 23a9 2dbd 4ada 143d ff9e 8ebd 67a2 223b
000000e0: 672b bfbc fa22 d93c 7597 af3d b86e 80bd
000000f0: 3af2 273d 5aef 06bd 8b64 bdbd 8062 673c
00000100: 80a5 683d 2710 af3c 77b6 b83d cd45 55bc
00000110: a7b6 7abd 9076 2fbd 6785 20bd d3a9 58bd
00000120: 4d94 0a3c 3ac9 2c3d 53ad f9bc 4834 823d
00000130: 3afa 61bd 0fae 9a3d f3d4 97bc e709 2bbd
00000140: 5d0b 21bd e5ad abbd 85eb c8bd e3e3 c6bd
00000150: cb2c bebd 0d59 bdbc 33e3 93bd 67de 493d
00000160: cdf3 f2bc b3cd 313c add7 bb3c 7778 ad3d
00000170: 37c3 49bd a72c 783d 5895 88bd 97f1 5d3d
00000180: 5084 a7bd 57e5 5bbd 6735 163b f544 b8bd
00000190: 9db5 67bd cdbd 873b b06f 41bd 1812 973d
000001a0: cd07 893b 233f 043d 000d b7bc 2028 53bd
000001b0: 429b b8bd 877e a43d d079 b6bd b00e 5f3d
000001c0: 8008 3fbc cdad 803c 1d0d 763d ffc6 a13d
000001d0: 0750 81bc 0075 c9bd f099 963d 603b 7c3d
000001e0: c796 743d 63ee 793d cd2f e0bb 57e7 363d
000001f0: 08dc acbd ad72 41bd c87e 9bbd 9388 b13c
00000200: e20f b8bd 4d6f 503d f8f5 c13d 5335 c8bc
00000210: 336c f73c 3a2b 963d a3d0 1c3d f888 ae3d
00000220: 8b42 cbbd fa24 3dbd cda9 49bc d783 543d
00000230: da1e 1abd 4f19 cbbd c7aa b4bc 6329 a53d
00000240: 331f 33bb bab4 35bd 2d36 943d e784 5abc
00000250: c7aa a4bd b35d 343d 70e5 7b3d 005c 38bd
00000260: c284 ad3d 353d b8bd 134b 40bd da75 283d
00000270: ba44 0ebd faaa c6bc 47bc a03d 80c5 6b3c
00000280: 03a5 4cbd 633d 323d 5ad7 c4bc 85b1 c4bd
00000290: f2bf 8e3d 0735 41bd bd47 80bd 5dad 333d
000002a0: 0033 54bc 2a38 2b3d ad5c 58bd c738 85bd
000002b0: b79c 31bd 204b a53c fa56 b53d 5a04 ccbd
000002c0: df4b a83d b7fd 2f3d 9d2c 223d 0d39 5cbc
000002d0: a5b9 aebd a7a3 3d3d cdda 603d 33c0 adbd
000002e0: ed90 fe3c d32b 47bd 673a 02bc 7a4e 863c
000002f0: 0d4b 9ebc 97b1 2e3d 00f2 74bc da7c 6a3d
00000300: 4da4 d23c fa3c a4bd 1d2d a43d 0d5b 853d
00000310: 9d93 3cbd 2753 0e3d 402d c13d 1326 dcbc
00000320: faa3 cb3c 9367 903d 8d1c 483c 55d9 8a3d
00000330: 20d2 a13d d25e 82bd f7d9 173d 6d43 493d
00000340: 9a0d 253b cdde fdba 0daf fdbc 975b 9bbd
00000350: b767 3fbd 9a21 e73b 9a91 a2bb f08a 2dbd
00000360: 5045 1cbd 6782 823a c8cf 81bd 6de9 26bd
00000370: c275 ca3d cd96 f2ba 60d7 8c3c fb23 b83d
00000380: cba9 82bd cd13 a5bc f303 513c 47b6 c73d
00000390: 972c a43d 7767 773d 5397 c8bd 1dcc 883d
000003a0: 2d3f c93c cbec 8a3d d06c 16bd adca c2bc
000003b0: d094 af3d 4790 aebd ca29 7cbd 40a2 1abd
000003c0: edda ea3c e0fb 9dbd 02dc bc3d 475a 313d
000003d0: d395 76bd 52d8 a6bd 476e 88bc 6049 c63c
000003e0: d7a9 173d 4bdb 803d d025 33bd a314 9ebd
000003f0: 8b83 85bd 3335 13bc 0846 bf3d 5058 9d3d
0.056423068 0.012959517 0.06089883 -0.05524547 0.047848713 0.027999723 0.05378517 0.026854122
-0.07043882 -0.009295714 0.0538311 -0.09234134 0.03458295 -0.015762627 0.007821727 0.073440135
0.015553034 0.048855342 -0.035926927 0.01201309 0.03672234 0.052561928 0.04707575 -0.020050025
-0.065802515 0.04064808 0.026294518 -0.06885262 0.07506064 -0.089542106 0.019691838 0.08173521
0.015035975 0.02348498 0.04752157 0.068533026 -0.037758924 0.030172944 -0.007323134 -0.013938225
-0.052598644 0.005716002 -0.099915385 -0.018558765 -0.07907428 -0.059626173 0.085280955 -0.022792209
0.0416283 -0.013131964 -0.036612917 -0.02164191 -0.04239763 0.03634099 -0.0696392 0.0024816038
-0.023336126 0.026505936 0.0857381 -0.06271118 0.04100249 -0.032943107 -0.09247693 0.014122605
0.056798458 0.021370007 0.090191774 -0.01301713 -0.061209347 -0.04283768 -0.039189722 -0.052896332
0.008458209 0.042184092 -0.030478155 0.06357628 -0.055170275 0.0755273 -0.01853416 -0.04175749
-0.039317477 -0.08382777 -0.09810547 -0.09711435 -0.09285887 -0.023113752 -0.07221069 0.049284365
-0.029657269 0.010852265 0.02292999 0.084702425 -0.049258437 0.06058946 -0.0666911 0.054185476
-0.081795335 -0.053685512 0.0022920014 -0.089975275 -0.056569684 0.004142499 -0.047225654 0.07376498
0.004181838 0.032286774 -0.022345066 -0.051551938 -0.09013988 0.08031946 -0.08909953 0.054457366
-0.011659741 0.015707875 0.0600711 0.078992836 -0.01578523 -0.09836769 0.0735358 0.061580062
0.059714105 0.06101836 -0.006841636 0.044654217 -0.08440405 -0.047228504 -0.07592541 0.021671569
-0.089874044 0.050887395 0.09470743 -0.02443949 0.03020296 0.073324636 0.03828491 0.085222185
-0.099248014 -0.04617784 -0.01230855 0.051883545 -0.03762708 -0.099169366 -0.02205409 0.080645345
-0.0027331829 -0.044361807 0.07236896 -0.01333735 -0.08040386 0.04403467 0.061498106 -0.045009613
0.08472587 -0.08996049 -0.046946596 0.041128017 -0.03473351 -0.02425145 0.07848411 0.014390349
-0.049962055 0.043515574 -0.024028469 -0.09604172 0.069702044 -0.04716971 -0.06263683 0.043866504
-0.0129516125 0.04180161 -0.052822758 -0.0650497 -0.043362346 0.020177424 0.0885448 -0.099617675
0.08217596 0.04296657 0.039593328 -0.013441336 -0.08531503 0.04629865 0.054896165 -0.08483925
0.031074965 -0.04862578 -0.0079484945 0.016394842 -0.019322896 0.04264983 -0.014950275 0.057247974
0.02571311 -0.08019443 0.08016417 0.06511507 -0.046039212 0.03474727 0.09432459 -0.026873624
0.024858464 0.07051005 0.012213838 0.06779734 0.07901406 -0.06365742 0.0370731 0.049136568
0.002518511 -0.0019368768 -0.03096726 -0.07585829 -0.04672977 0.007053566 -0.0049612047 -0.04236883
-0.03815204 0.0009957076 -0.06338459 -0.040749956 0.09885742 -0.0018508077 0.017192543 0.08991238
-0.06380042 -0.020151043 0.012757289 0.097515635 0.08016317 0.060401406 -0.09794488 0.066795565
0.024566257 0.06783446 -0.036724865 -0.023778284 0.085733056 -0.085236125 -0.06156329 -0.03775239
0.028668845 -0.07714057 0.09221651 0.043298986 -0.060201477 -0.081467286 -0.016654147 0.02420491
0.037027206 0.06291827 -0.043737233 -0.0771878 -0.065192305 -0.008984852 0.09339529 0.0768286

lstm.bias_hh_l0 f4 [400]
00000000: 5d8e 193d d8cd a53d b3f2 0f3c c088 65bd
00000010: ea8d 393d ff67 943d a758 7bbc 932f b13c
00000020: da8a 57bc bdba 183d fab6 f1bc fa03 a3bc
00000030: 6bb8 c83d 5f55 adbd d8c9 89bd 23c7 b0bd
00000040: 2a3d 563d a385 9f3d a380 203d 37ef 74bd
00000050: a761 0a3c 329b 923d a74a c13c 1d36 8d3d
00000060: e087 a4bd 4d34 053c a540 b13d 9a72 aa3b
00000070: 9a31 a4bb 5dc9 2b3d 1710 0f3d 1b25 83bd
00000080: bd75 65bd 9a83 9cbc 7aaf 953d 33c7 5fba
00000090: 9706 133d 27f2 b2bd 9d70 98bd a721 983c
000000a0: 6776 513b cdd4 773b 33db 793b 9a0a 043b
000000b0: 48a4 86bd 6321 8e3d 177b 39bd 0d2e cb3d
000000c0: 1a2e 1dbc 8a6c 5e3d 5a27 83bc 571f 493d
000000d0: 2014 06bd 2df3 3dbd 1dc4 a3bd 6726 b738
000000e0: 400b 023c 93a6 73bd bd55 02bd b33c 8c3b
000000f0: 0dbd e93c f3c7 bbbd da43 12bc 2a34 723d
00000100: 2091 6e3d 7abc 1dbd 5de2 5d3d 3308 68bb
00000110: a2a8 be3d 5084 a1bd 671c 9cba a7c0 3a3c
00000120: 1ac7 0fbc ddea 0bbd 8da0 2abd 20d1 69bd
00000130: 1294 923d dff5 81bd e099 4c3d 32dc c93d
00000140: 3d7a ba3d 3377 6ebd 5733 9a3d e059 163d
00000150: dd5a ccbd 9bb7 9e3d 707c 0dbd 030c 663d
00000160: cf93 bd3d e041 a8bc e370 49bd 0ac6 65bd
00000170: 2775 07bc 9764 633d b3f6 233d 7fbf 91bd
00000180: cf13 c2bd 477e c3bd 1ddb 523d c759 69bd
00000190: 276e 503d 679c ad3d 70ef 10bd 336c d33c
000001a0: f3ae 8dbc c3aa c7bd cd65 e4bc c06c 113d
000001b0: 8577 a7bd 6d85 b63d 5a2a a03c 2ad1 15bd
000001c0: d35c 00bd d083 51bd 509f bbbd 2791 43bc
000001d0: e7f3 04bc a783 3d3c 5f83 9abd 3aef 5b3d
000001e0: 150e b43d e206 993d 87d7 92bd 0084 57bc
000001f0: 0006 953b 6ae8 7dbd da0d 493d 6d5d 023d
00000200: 5361 82bd 33b4 393c ddb9 ca3d 5719 50bd
00000210: 67e8 df3b 67c1 30bb 657c 9d3d 62b3 b8bd
00000220: da22 a1bc b3a0 223d cd9c 243c 277a 66bc
00000230: f0a6 8c3d 530c 38bd 63fe 0c3d 33d3 283a
00000240: b798 703d 6db5 c03d 5ac2 d0bc 332b 16bb
00000250: 0368 203d 2fe8 a9bd a06b 953c 2d43 143d
00000260: 3384 263b 20ea 1d3d 434c 09bd c7e3 febc
00000270: 3746 343d 9502 afbd cdc1 4dbd 8ae1 58bd
00000280: 8777 4b3d 3319 bfbc c074 11bd c8da c53d
00000290: 55a2 a6bd f32a af3c d859 b2bd 5761 823d
000002a0: 40bc 7f3c 8b54 85bd 474b aa3c 703f b5bd
000002b0: 53ca 113d b556 9fbd 6728 35bb 30b1 053d
000002c0: a0a1 97bd 703e 263d 7f22 943d b363 ad3d
000002d0: e3f2 9ebd dd83 c4bd 50bf 223d 80d8 d5bb
000002e0: 20ac 2cbd a703 673c bbb7 8d3d c3ca 3abd
000002f0: 6361 653d fa29 13bd d363 ff3c e79a fdbc
00000300: 1a21 593d 9bfd bfbd bf2d c0bd 2d41 cd3c
00000310: 0355 773d a354 1a3d 0747 2fbd 4d9d c1bc
00000320: 3301 d3bb 7a3e 983c d0b1 ae3d fa54 8b3d
00000330: 876c b7bc 8088 31bd ed48 d5bc e094 67bd
00000340: e70e 2cbd 73b5 663c 1fab 9dbd d325 8fbc
00000350: 4ae2 a7bd 5dc0 7a3d 8d9c 3bbd 0f93 8f3d
00000360: fa46 6b3d c7e1 b8bd c0d6 413c 8da5 1ebd
00000370: 1335 ed3c f7e4 6c3d 7d21 95bd 6bac 95bd
00000380: 8373 35bd f3a9 acbc 1225 903d 8a27 8abd
00000390: 503b 783d 82f9 8abd d3ca db3c cd01 2d3d
000003a0: 6aeb a6bd 6747 da3c fbc7 90bd e379 32bd
000003b0: 851c 88bd b3a2 79bd 7026 40bd e36f b33d
000003c0: 2778 a9bc f020 813d 2762 2cbd 6d3b a5bc
000003d0: cd06 8aba 5888 aabd c3a5 733d 8d87 cebc
000003e0: 27a3 0f3d c5ec aa3d 33fe c1bc 1f09 a7bd
000003f0: 6df1 d1bc cbfb c2bd 6ab4 593d 873e b43c
0.037489284 0.08095902 0.008785891 -0.056038618 0.045301355 0.07246398 -0.015340961 0.02162913
-0.013155663 0.037287463 -0.029506195 -0.019899357 0.098008 -0.08463549 -0.06727952 -0.08631732
0.052304424 0.07789161 0.039185178 -0.059798446 0.008446134 0.071585074 0.023595167 0.06895087
-0.080337286 0.008130145 0.08654908 0.00520165 -0.005010796 0.041940082 0.034927454 -0.06403562
-0.056020487 -0.019105721 0.0730886 -0.0008536458 0.035894956 -0.08737593 -0.07443354 0.018570734
0.0031961442 0.0037816048 0.0038125038 0.002014792 -0.06574303 0.06939962 -0.045283403 0.09920893
-0.009593511 0.05430273 -0.016009975 0.049102154 -0.032734036 -0.04637449 -0.0799639 8.733273e-05
0.0079372525 -0.05948503 -0.031820048 0.004279697 0.02853253 -0.09168997 -0.00892731 0.05913178
0.05824387 -0.038509823 0.054170955 -0.0035405278 0.09309508 -0.07886565 -0.001191032 0.011398471
-0.008775497 -0.03415953 -0.04165702 -0.057084203 0.071571484 -0.06345724 0.049951434 0.09856452
0.09105346 -0.058219146 0.075293235 0.036706805 -0.09978268 0.07749864 -0.0345425 0.0561638
0.09256708 -0.020539224 -0.049179923 -0.056097068 -0.008267677 0.05551585 0.040030193 -0.07116603
-0.094764344 -0.0954557 0.051478494 -0.056970384 0.0508863 0.08477097 -0.035384595 0.02580843
-0.017295336 -0.09749367 -0.027880574 0.035504103 -0.081770934 0.08912168 0.019551445 -0.036576428
-0.031338524 -0.051151097 -0.09161246 -0.0119364625 -0.0081147915 0.011567033 -0.07544588 0.05369494
0.087917484 0.07472016 -0.07170015 -0.01315403 0.0045478344 -0.061989225 0.049085476 0.03182738
-0.06366219 0.011334467 0.09898732 -0.050805416 0.0068331244 -0.0026970746 0.07689742 -0.090185896
-0.019669939 0.039704036 0.01004715 -0.014067209 0.06867778 -0.04493363 0.03442229 0.00064401625
0.05873939 0.09409604 -0.025483299 -0.0022913932 0.039161693 -0.08296239 0.018239796 0.036196876
0.0025408387 0.038553357 -0.033519994 -0.031114472 0.044012275 -0.08545414 -0.05023365 -0.052949466
0.049674537 -0.023327446 -0.035511732 0.0966087 -0.08136431 0.021382784 -0.087085426 0.06366222
0.015608847 -0.06510266 0.020787848 -0.0884999 0.035593342 -0.0778021 -0.002764249 0.032639682
-0.074038744 0.04058689 0.07233142 0.08466282 -0.07761171 -0.095954634 0.03973323 -0.006526053
-0.04215634 0.014099992 0.069198094 -0.045603525 0.05600108 -0.035928704 0.03117553 -0.030957652
0.053010084 -0.09374543 -0.093837254 0.025055492 0.060383808 0.037678372 -0.042792346 -0.023634577
-0.006439352 0.018584479 0.08530009 0.06803317 -0.022390617 -0.043343067 -0.02603575 -0.056538463
-0.0420064 0.014081347 -0.076986544 -0.01747409 -0.08197458 0.06121861 -0.045803595 0.07010471
0.057440735 -0.090274386 0.011830986 -0.0387321 0.028955972 0.057835545 -0.07281778 -0.07308277
-0.044299614 -0.021077132 0.070383206 -0.06745823 0.06060344 -0.06785871 0.026830113 0.042238045
-0.081503704 0.026645375 -0.07069393 -0.04357327 -0.06646065 -0.060946178 -0.046911657 0.08761575
-0.020687176 0.063051105 -0.042085793 -0.020169938 -0.0010530591 -0.08326787 0.059484255 -0.02521112
0.035067704 0.083459415 -0.023680782 -0.081560366 -0.025627816 -0.09520682 0.053150572 0.022002472

linear.weight f4 [1, 100]
00000000: fafe 82bc 0da7 463c b3bb bd3b 5f34 a2bd
00000010: 9a08 523b e73a 8fbd ba7d 7c3d 334b 25bd
00000020: adfb bb3d d519 c2bd 3307 f2bb 9a2a ac3b
00000030: 1b4b 84bd eb5c a1bd f3c2 13bd 7868 8ebd
00000040: 5dab 97bd 2df2 61bd 9dc0 233d 9209 b7bd
00000050: d35c b8bd 5a4d 833c 2d41 913d fd44 51bd
00000060: 503d 6fbd ed17 083d fa2c c8bd 132d 83bd
00000070: 532e 2cbd 7a8f dcbc d331 bfbd a0a6 e53c
00000080: f0b2 4abd 7a6c aebc 1540 a0bd 93cb a03c
00000090: aa3c a2bd 70aa 43bd 0dc5 143c ab57 8fbd
000000a0: 9a0f 4cbc dff9 a93d 407e 75bc 2a0d b73d
000000b0: 0012 153d b33e 1c3c 67cd 3a3d 0a65 21bd
000000c0: 6041 02bd 8f1e 98bd 9a22 1a3d e7aa 17bd
000000d0: f3bf 88bc 1389 dbbc d00f 123d eb27 86bd
000000e0: 4d4c 973c 9051 cc3d da6c b6bd da60 31bd
000000f0: 8d16 083c cdd9 313d 6aa9 b4bd b3a4 a53d
00000100: 63c5 04bd e7af 4d3c aac0 b33d 7b5e 94bd
00000110: f339 943d bb40 bcbd 137c 883c f3b3 453c
00000120: 022c 9fbd 6a63 633d b3aa 793d c0c7 7d3d
00000130: ef88 8f3d e847 b6bd 3313 aebd 9a87 423c
00000140: da61 e2bc cdd9 eb3b 3d54 b3bd c022 1fbc
00000150: 9a9f 8abb 8d84 553d da19 8ebc 47f4 80bd
00000160: 4ab0 8a3d 874a b93c cd93 0e3c f3f5 893d
00000170: 6d2a 673d 00c5 a63d c0d2 a7bd 0d56 45bd
00000180: 9dd8 573d e79c 17bd 250b b5bd 27ad 93bd
-0.015990723 0.012124789 0.0057901978 -0.07920145 0.0032048584 -0.069936566 0.06164334 -0.04035492
0.09178863 -0.09477583 -0.007386112 0.005254102 -0.06459638 -0.07879051 -0.03607459 -0.069535196
-0.07405732 -0.055162597 0.039978612 -0.08937372 -0.0900208 0.016028095 0.070925094 -0.051091183
-0.05840808 0.033225942 -0.097742036 -0.064050816 -0.042036366 -0.026923884 -0.09335675 0.028033555
-0.049487054 -0.02129196 -0.07824723 0.019628322 -0.07921727 -0.047769964 0.009080184 -0.06999143
-0.012454892 0.08299612 -0.014983714 0.08938058 0.03639412 0.009536433 0.045606043 -0.039403
-0.031800628 -0.074277036 0.037630655 -0.03702822 -0.016693091 -0.02679876 0.03565961 -0.065505825
0.018469 0.09976494 -0.089074805 -0.043305255 0.008306158 0.0434206 -0.08821376 0.080880545
-0.032414805 0.012554145 0.08776982 -0.07244583 0.072376154 -0.09192034 0.016660726 0.012066829
-0.07772066 0.05551473 0.060953807 0.061958075 0.0700854 -0.08900434 -0.08499756 0.01187315
-0.02763455 0.0071975947 -0.087563016 -0.009712875 -0.004230452 0.052128363 -0.017346311 -0.06296592
0.06771906 0.022618545 0.008702231 0.06736364 0.056436945 0.081430435 -0.08194494 -0.048177768
0.052696813 -0.037014868 -0.08840016 -0.072107606
