model/1721472286_model-aapl.pth (torch, 174356 bytes, 5 tensors)

lstm.weight_ih_l0 f4 [400, 5]
00000000: 0da3 f03c 675e 39bc 6766 e4b6 9bf0 853d
00000010: 303c 373d d52d cbbd 93a7 c3bc 387b bf3d
00000020: fdfc 5d3d ea63 323d 208c c5bd 4dd1 8b3c
00000030: 2bf5 c93d 5ab9 923c 30dc 5dbd c083 2e3d
00000040: 677e 87bc 6739 a93c 67bb 15bb 4a1d 8e3d
00000050: 67b9 40bb ffaa 83bd ca3e abbd 3379 b53a
00000060: a78a 3bbc 2730 503d cd56 b8bd fa34 9e3d
00000070: 27b7 0e3d da04 1e3c 33ce 91bc 4d41 b8bb
00000080: da18 b8bd 18ef bf3d c062 55bc 3a52 9f3d
00000090: e529 b23d f38d c8bd 80c3 ba3d 20b7 8abd
000000a0: ea64 04bd 276f 153d f2ce aebd 90ba 63bd
000000b0: e7a1 a33c 97f0 4bbd 674d 4ebc a37c 5bbd
000000c0: 9ad4 f7bb 73ae 5d3d 5a40 40bc ad5f bfbc
000000d0: 600d 85bd 4ad1 213d dd10 6dbd 9f2f 9bbd
000000e0: 13e4 5c3d a8d5 8dbd f356 163c 353b bcbd
000000f0: 4a23 44bd 4a7c 26bd 3834 c03d 8f43 a2bd
00000100: a86c a2bd 40fa 503c 67b7 0d3d ea9e 343d
00000110: b8e3 8c3d 00eb 79bd 00fb 603b 90c8 033d
00000120: c7d2 dbbc 5d70 19bd 033f aabd f35c 83bc
00000130: 40f7 783c 3320 84bd 9d51 31bd 032f 29bd
00000140: 526a 963d 4354 8b3d cafa 04bd 8351 003d
00000150: e000 c8bc a5a2 a4bd 53c2 e93c 80c0 18bd
00000160: 4004 6fbd 331b 8fb9 a023 ccbc 5819 a7bd
00000170: 605e babc 7353 c6bc 3341 dcbc 952c 8b3d
00000180: d51d 963d 0030 903a 17e9 b73d dae7 693c
00000190: 1758 6ebd 1a4d 84bd 9743 a43d 8063 4abd
000001a0: d281 813d 12c1 c0bd 1208 8ebd fd90 5a3d
000001b0: 0d52 163d 57f6 3cbd 5af8 73bd 37ad a33d
000001c0: b7b9 693d 7d72 2b3d baa9 253d cdba 373d
000001d0: 80f5 053c 531b f33c 57eb 403d 87b7 e83c
000001e0: 6d52 2abd 0bec a73d 2d19 bebc 8bc4 813d
000001f0: 4d2c 67bd fdde 3a3d 3dac 053d 170b 8ebd
00000200: 2df0 c13c ad7d 6e3d 8dc6 83bc aac6 123d
00000210: f0e3 6fbd 00c0 4c3a 8dac 8b3c 02e0 ae3d
00000220: 980b ba3d 435b 5fbd 8096 e8bc d371 363d
00000230: 9a30 ad3d 334f fc3b d8c0 803d 407a c03c
00000240: f77f c33d 4d3d 783d 3080 61bd 9819 a13d
00000250: dbc3 843d 9abb 493c fda4 66bd ddf1 843d
00000260: d321 be3c 3a3a 203d 5869 9ebd 032b 733d
00000270: 7a1c 483d 53dd cc3c 2729 18bd ba7b c63c
00000280: 4d55 11bc 57bf 8f3d e027 ea3c 40e3 843c
00000290: c083 6e3d ed49 43bd d7a0 173d da32 d33c
000002a0: bdba ab3d caed be3d 227b 8bbd aa76 3c3d
000002b0: 50a8 913d 279f 543d 67d0 8dba fa32 b7bd
000002c0: 401d c7bd fa30 bdbd 2723 413c bd1a 57bd
000002d0: aa1e 65bd b379 abbd 9a61 fabb 1b92 85bd
000002e0: 20c2 60bd baa3 53bd 4f34 90bd 53c0 bc3c
000002f0: b3bb b0bd 0722 ec3c f354 423c 7f19 bd3d
00000300: 8d71 28bd 6358 7e3d 673c 46bd ad99 fabc
00000310: 38a5 84bd c079 ebbc 9301 1cbd cdcb 403d
00000320: 9a45 5a3a 006d c03d 4a36 69bd 1573 83bd
00000330: 90c9 0f3d 60e2 63bd 9007 933d 2d64 4ebd
00000340: d39f 8bbd bf12 903d 47a1 8a3d fd7c 943d
00000350: 80f3 7cbd 4da9 22bc b39c 9c3d 0ae2 30bd
00000360: 0dee acbc 67bb 843d 2a04 003d 3ac7 c5bd
00000370: c0f5 79bc a340 903d 87fa acbc f36b 07bd
00000380: 0d22 0f3d af8b 9abd 3321 3dbd a0de af3c
00000390: 205d b4bd d385 143d 4ab0 723d 2d32 c43c
000003a0: 0022 24bc 530d 63bd 4dc9 123d 50cc 38bd
000003b0: cd60 e9ba dfa3 a33d aa3c 9fbd c82d ca3d
000003c0: 7311 c53c 833a 7abd 5050 1ebd c882 a8bd
000003d0: 627b 893d 9a39 73bb 00ff 6dbd dda5 173d
000003e0: 08c4 aa3d 2726 9f3c cdae 9abb 1a97 723c
000003f0: f3e8 4abc 07de 9f3c 47d5 9fbd 1a22 f6bb
0.029374624 -0.011314011 -6.8068507e-06 0.065400325 0.044735134 -0.09920851 -0.023883617 0.09349674
0.054196347 0.043552317 -0.09645867 0.017067576 0.09861215 0.017910648 -0.054165065 0.042606115
-0.016539766 0.020657254 -0.0022847296 0.0693918 -0.0029407383 -0.06429099 -0.083615854 0.0013845324
-0.0114466315 0.05082717 -0.09000931 0.07724948 0.034842636 0.009644711 -0.017798519 -0.005623019
-0.08989115 0.093717754 -0.013024032 0.07779355 0.08699397 -0.097927 0.0911932 -0.067732096
-0.0323228 0.036482956 -0.085355654 -0.05559784 0.019974662 -0.04978999 -0.012591696 -0.05358566
-0.007563186 0.054121446 -0.011734093 -0.023361051 -0.06496692 0.039506234 -0.05787741 -0.075774424
0.053928446 -0.06925517 0.009176004 -0.0919098 -0.047885217 -0.040645875 0.0938496 -0.07923042
-0.07930881 0.012754977 0.034598734 0.044096865 0.068793714 -0.06101513 0.0034329295 0.032173693
-0.026833905 -0.037460674 -0.083128 -0.016035533 0.015195668 -0.06451454 -0.043290723 -0.0413046
0.07344498 0.06803181 -0.032465734 0.031327736 -0.02441448 -0.080388345 0.028535044 -0.037292957
-0.058353662 -0.0002729535 -0.024919331 -0.08159131 -0.02275008 -0.024209714 -0.026886558 0.06795613
0.07329909 0.0011000633 0.08980005 0.014276469 -0.058189478 -0.064600185 0.08020704 -0.049411297
0.063235894 -0.09411825 -0.06935133 0.053360928 0.036699343 -0.046133365 -0.05956302 0.079920225
0.057061877 0.04185723 0.040445067 0.04485588 0.008176208 0.029676115 0.047099438 0.028407825
-0.041582514 0.081993185 -0.023205364 0.06336316 -0.056438733 0.045622814 0.032634962 -0.06935709
0.023674095 0.058225323 -0.016085887 0.035833992 -0.058566988 0.00078105927 0.017050052 0.0853882
0.090842426 -0.054530393 -0.028392076 0.044542145 0.08456536 0.007699871 0.06286782 0.023495793
0.09545892 0.060605336 -0.05505389 0.0786621 0.06482669 0.012312794 -0.05630969 0.06491444
0.023209488 0.03911803 -0.077349365 0.05936719 0.048855282 0.02500788 -0.03714862 0.02422892
-0.008870435 0.07018917 0.028583467 0.016221642 0.058231115 -0.047677923 0.037018623 0.025781084
0.08385227 0.093226984 -0.06810595 0.046011604 0.07112181 0.051909592 -0.0010819555 -0.0894527
-0.09722376 -0.09237857 0.011788166 -0.052515734 -0.055937447 -0.08372822 -0.0076410295 -0.06522008
-0.054872632 -0.051669814 -0.07041227 0.023040926 -0.08629551 0.02882482 0.011861074 0.092333786
-0.041123915 0.06209601 -0.048397448 -0.030590856 -0.064768255 -0.028744578 -0.03808744 0.04706936
0.00083264115 0.0939579 -0.05693654 -0.064184345 0.035104334 -0.05563581 0.07179177 -0.050388504
-0.068175934 0.070348255 0.067690425 0.07250402 -0.061755657 -0.00992806 0.076470755 -0.043184318
-0.021109605 0.06481057 0.03125397 -0.0965714 -0.015256345 0.070435785 -0.021115554 -0.033061933
0.034944583 -0.07546174 -0.04617424 0.02146846 -0.08806825 0.036260437 0.059250154 0.023949707
-0.010017872 -0.05543263 0.035836507 -0.045116723 -0.0017805338 0.0799024 -0.077752426 0.09872013
0.024056172 -0.061090957 -0.03865081 -0.082280695 0.067129865 -0.003711319 -0.058104515 0.037023414
0.08338171 0.019427372 -0.004720545 0.014806533 -0.012384641 0.01951505 -0.07804351 -0.0075113894

lstm.weight_hh_l0 f4 [400, 100]
00000000: 009f 733b 2d64 debc 3346 d03b a00b a2bd
00000010: 336b de3a 305c 9a3d ad98 a03c 00ac beba
00000020: 0ad9 bf3d 8390 1fbd 4a59 40bd c0b0 123d
00000030: baca df3c 2dac 8f3c 47b2 9b3c 7224 a33d
00000040: d0b9 0e3d 5b72 923d 27d3 70bd 4072 7abd
00000050: 5bbe c7bd af89 a63d 4dd1 9b3d 4dfa a4bd
00000060: 1387 343d 4df7 a7bb e7c2 1cbc 82ff 9a3d
00000070: 9a8b ce3a cd58 a13a 3ac8 68bd 67b9 8f3c
00000080: 234d 14bd 4724 9b3c 852b 803d 2d53 9ebc
00000090: ad79 c63d 9a35 0a3b bd79 7f3d 2d48 0fbd
000000a0: da23 883d 33c5 ebbb 2735 5c3c 8081 713c
000000b0: 4d92 c1bb 22e6 adbd 6878 823d bd8f 94bd
000000c0: 005b c13b 7a68 5d3d 27e7 083c 8098 23bd
000000d0: bb72 9c3d 4de7 e5bb 1d15 5a3d edd8 f83c
000000e0: 8fb7 a9bd 6ad7 4c3d d78c ab3d 1d09 693d
000000f0: 0d5f 47bc 7df6 9fbd 3718 073d f3ca 08bc
00000100: 9f26 82bd 73ab 57bd 27eb 503d da6d adbc
00000110: 880e 95bd d3b9 f2bc a821 9a3d f315 823c
00000120: 8f39 a1bd da98 743d 9ddb 753d 00dc efba
00000130: 00e5 2d3c aaf7 9e3d 0da2 c8bc 0bcc be3d
00000140: 50f2 5abd e7bf 243d e724 08bc 2769 2cbd
00000150: b33f bebd 2a5c 1abd dd38 503d c061 c63c
00000160: ba0d 9bbc 170c 1bbd 1067 33bd 1a30 d23c
00000170: b35d 9cbb 725c b8bd 7afc 9d3c 33c3 d53c
00000180: 4883 8bbd 708c 5cbd 02b9 bdbd 6079 ad3d
00000190: 4041 203d 9301 683d 3ad2 5a3d 5a7f bbbd
000001a0: 157b 86bd ffed 87bd b7ec 3c3d 6309 5dbd
000001b0: a757 1abd 8070 0b3c 30d5 bd3d 9354 913d
000001c0: a78e 7a3d 3346 75bc d30d a03d 4f5e 833d
000001d0: 6aa5 c03d b3be 423d 4d89 65bd 33f2 9e3d
000001e0: 004a 13bb 2a99 14bd 1a00 07bd c5b5 b33d
000001f0: b76e 113d c726 e33c 3d4f 25bd 1830 c9bd
00000200: aa54 37bd 73be 463c 6d65 f53c bac7 333d
00000210: 4db1 ba3d 40dc 433d 3396 15bd cd32 093b
00000220: 208e 663d 3a77 8cbd 23eb 02bd 9a53 8a3a
00000230: 2b26 c23d 7dc0 4b3d 17f5 46bd 73dc 033c
00000240: 07cd 313d 0226 b73d 875c a8bc ad01 953d
00000250: cd44 ef3a c2e0 983d 8ba2 a93d 7d56 783d
00000260: 4821 babd eae6 c1bd db0b a5bd 0058 2abc
00000270: 6769 0dbb f89e 9dbd 3066 1ebd 3ac3 a13c
00000280: 6778 223c 9a39 67bb f3ae 7e3d 836e 0c3d
00000290: 038c 69bd 4060 acbd 7b5b 8a3d 1df1 5ebd
000002a0: 332c a3bc e794 a2bb 40d4 79bd 0082 853d
000002b0: 8377 1abd 331f eebc 0b89 af3d 7071 0bbd
000002c0: 3ba1 b63d 4d4d 543c f3d1 7dbc 4083 90bd
000002d0: 7331 b13d 8514 973d c596 b4bd f0d7 3a3d
000002e0: da0c 123d c0e4 2fbc b3b8 06bd 507b 7dbd
000002f0: 8d42 a23c c702 d13c e7d3 a0bc 20fd 15bd
00000300: 4a2e a4bd 5ae9 3f3d aa71 a8bd 1715 27bd
00000310: 0701 9cbc 734b e63c 3752 8fbd 7d1e 47bd
00000320: bd08 803d c2c1 8a3d ebbf bbbd 33ae 673d
00000330: 209f 86bc 0db9 23bc 5a0f 18bc a89e 82bd
00000340: 7a23 54bd 1036 0d3d 3868 c23d c0e2 0dbc
00000350: a78a c13c 5a6d 03bd d37b 18bd 3b3e b53d
00000360: 80a0 ffbc a7ba 6c3d 334f 9fbc 732f 01bd
00000370: faa7 f43c b3f5 ba3d c722 07bd 73af 9e3c
00000380: b54e a7bd 7a2d 05bd 27bb e83c 8046 2abd
00000390: c2b8 bf3d 5851 80bd da55 353d 874a 753d
000003a0: 73a1 ccbc cd91 0ebc 05ec 943d 97b7 76bd
000003b0: a83c 89bd babc ccbc 2a8c 35bd 4034 053c
000003c0: 3a5a 8abc 9064 093d b591 ba3d 0d7d c33c
000003d0: 97c7 2abd b375 93bc 0267 8f3d cd2a 9d3d
000003e0: 4713 533d 80de 44bd 3ac1 2b3d 13cd bd3c
000003f0: a09f 3f3d 67c3 4fbc 6bf5 c9bd 308d 34bd
0.0037173629 -0.027147377 0.0063560246 -0.079123735 0.0016969204 0.075371146 0.019604051 -0.001454711
0.09367569 -0.038956176 -0.046960153 0.035813093 0.027318347 0.017538154 0.019005908 0.07965936
0.034845173 0.07150718 -0.05879512 -0.061144114 -0.09753104 0.0813173 0.0760828 -0.080555536
0.04407413 -0.005125916 -0.009567953 0.075682655 0.0015758157 0.001230979 -0.056831576 0.017544461
-0.036206376 0.018938197 0.06258301 -0.01932677 0.096911766 0.0021089078 0.062371958 -0.03498094
0.06647463 -0.007195139 0.013440407 0.014740348 -0.005907333 -0.0849116 0.06370622 -0.072539784
0.0059007406 0.054054715 0.008355892 -0.039940357 0.076390706 -0.0070160986 0.05324279 0.030376876
-0.08286964 0.050010122 0.083764724 0.056893457 -0.012168658 -0.07810686 0.032982077 -0.008349168
-0.06355023 -0.05265374 0.05100551 -0.021170545 -0.07278162 -0.029629624 0.07525951 0.015879607
-0.078723066 0.059716083 0.060023893 -0.0018299818 0.01061368 0.07762082 -0.024491334 0.09316262
-0.053453743 0.040222075 -0.008309579 -0.04209247 -0.092894934 -0.03768555 0.05083548 0.024216533
-0.018927444 -0.037853327 -0.04379946 0.025657702 -0.004771912 -0.090020075 0.01928543 0.026094055
-0.06812149 -0.05384487 -0.09263803 0.08470416 0.039124727 0.056642126 0.053423144 -0.0915515
-0.06566445 -0.06637191 0.046124186 -0.05396403 -0.037681248 0.008510709 0.09269178 0.070962094
0.0611712 -0.01497035 0.07815137 0.06414472 0.0940655 0.047545146 -0.056039143 0.077610396
-0.0022474527 -0.03627888 -0.03295908 0.08774904 0.035505977 0.027728451 -0.04035877 -0.09823626
-0.044758476 0.012130368 0.02995559 0.043891646 0.09115849 0.04781747 -0.036520194 0.002093482
0.056287885 -0.06858678 -0.031962525 0.001055348 0.09479936 0.049744118 -0.04857358 0.008048165
0.04340842 0.08942796 -0.020551933 0.0727571 0.0018254757 0.07464744 0.08282956 0.060629357
-0.09088379 -0.094678715 -0.08058902 -0.010396957 -0.0021577717 -0.076963365 -0.038671672 0.019746412
0.0099164015 -0.0035282136 0.062178563 0.03428508 -0.05701829 -0.08416796 0.0675573 -0.054429162
-0.019918537 -0.004961598 -0.060993433 0.06518936 -0.03771163 -0.029067611 0.08571061 -0.03404373
0.08917471 0.012957883 -0.01549195 -0.07056284 0.0865201 0.07376961 -0.088178195 0.04561609
0.035656787 -0.010735691 -0.032890987 -0.061885178 0.019807125 0.02551402 -0.019632293 -0.036618352
-0.080166414 0.0468534 -0.08224805 -0.040791597 -0.019043459 0.028112149 -0.06998103 -0.04861306
0.06251667 0.067752376 -0.09167465 0.056562614 -0.016433299 -0.00999285 -0.009281004 -0.063779175
-0.051791646 0.034475386 0.094925344 -0.008660018 0.023625685 -0.032086708 -0.037227463 0.0884976
-0.031204462 0.057795193 -0.019446945 -0.03153939 0.029865254 0.09128895 -0.03299215 0.01937077
-0.08169309 -0.032514073 0.028409554 -0.04157114 0.09361412 -0.06265515 0.044271328 0.059885528
-0.024979329 -0.008701754 0.0727158 -0.06023368 -0.067010224 -0.024992336 -0.044323124 0.008130133
-0.016888727 0.03354317 0.09109823 0.02386334 -0.04169425 -0.01800046 0.07002069 0.07674179
0.051532056 -0.048063755 0.041932322 0.023169076 0.04678309 -0.012680865 -0.09861263 -0.04407996

lstm.bias_ih_l0 f4 [400]
00000000: adef 123d 674a d9bb 30f6 2ebd b04e 24bd
00000010: f006 8f3d b3d6 5dbd 8af5 7dbd 7844 b9bd
00000020: 4235 c43d 4f3c babd adab 473d 00ec 71bb
00000030: d3cf 88bc 6ac7 313d e706 2a3d 4d41 24bc
00000040: f0d7 6cbd d394 ea3c 303a 623d aab9 093d
00000050: f266 93bd f77f 92bd dabd 9dbd 0a28 0c3d
00000060: 2788 f9bc b380 d03b 4011 c8bd 9733 ccbd
00000070: 3ab1 e6bc c7e8 0f3d a3ea 64bd f796 08bd
00000080: e7a6 cb3d 505f 20bd 3369 63bc 2ff6 aa3d
00000090: 6db8 fd3c dac6 a0bc b0ad 453d 837d 163d
000000a0: 679a 793b e751 e7bc 9372 263d edc9 6dbd
000000b0: 8795 96bd 6d7f 2bbd eacd 8b3d 18c9 b9bd
000000c0: c30b 2e3d 8719 da3c 2d16 a2bc 0a2f 30bd
000000d0: dabb 0f3c 18c5 963d ba5d 923d b5fa b63d
000000e0: 7d8a 063d 90f0 25bd 9870 a93d 4047 133c
000000f0: c021 123c cd97 fd3b a563 b8bd b821 8fbd
00000100: cd9f 45bc e7f0 a63d ea51 1ebd 1ad5 883d
00000110: 63f2 9ebd 6756 a03a 10c3 31bd 0daa 58bd
00000120: 9084 a2bd 2dd0 acbc 1f7a c93d 9ff9 9bbd
00000130: 1a38 a53b f3c1 adbc cb01 b93d d760 03bd
00000140: 8deb 54bc 133f 313d 93d0 abbc 7b19 cb3d
00000150: 7085 abbd d3b4 de3c 37bf 6a3d e734 b23c
00000160: 7319 273d 2783 83bc 9fe0 88bd 6775 9fbd
00000170: a058 8fbd 5da0 00bd 2725 a5bd 704d 663d
00000180: 132b 373d a79d 2fbc 433e 32bd 4076 c73c
00000190: aa7c 39bd b77a cbbd fac6 d3bc dfa6 c13d
000001a0: bf6a be3d 3070 90bd b389 5dbc 9a29 66bb
000001b0: 00a2 d0ba 3dcc a43d f771 0cbd 2d5c 64bd
000001c0: 3368 b83c 6d62 7e3d 006d 2ebc 47b5 aa3c
000001d0: 873a 963c 1d88 00bd 102e 293d a020 d7bc
000001e0: bdb9 173d 23fc 8cbd ad26 ddbc 731d 8abd
000001f0: 13b2 8f3c 1a09 a33d 2ddd 07bd 431e 0e3d
00000200: e74d bfbc 5397 563d 10dd 70bd b34b fabc
00000210: a0d9 aa3c 00f8 d73c 131d 16bd 8794 d2bc
00000220: cdbf bebb 9063 a53d fd08 8ebd 4362 cc3d
00000230: b3eb cebc 9391 483d ad74 a23d cd71 babd
00000240: 6dc5 afbd 038f 12bd b3e1 593c e328 1ebd
00000250: fa1d 2e3d 002f e8bb 277f 313c 3a80 8c3d
00000260: 8332 30bd da36 4f3c 3a4d a6bd c324 40bd
00000270: 873d f13c 0777 273d 271a 4bbd 0df8 e5bc
00000280: a7bc 033c 236a b2bd 0bfb 9cbd f3a7 b8bc
00000290: 8835 9a3d 9a9c 45bd b32b d5bb 1893 bc3d
000002a0: 820e 9d3d f3ab 863d 8acd 90bd 4076 363c
000002b0: a746 a5bc 9a14 10bb fa3c a73d 45dc b73d
000002c0: 6bbb a03d c3d0 ad3d 679e a739 efde 9dbd
000002d0: 8088 97bd b87b c1bd fbcf 95bd d37a 233d
000002e0: da49 323d 0dad e73c 45db 933d e02d e83c
000002f0: 77a5 443d ca50 48bd cdef 22bd 73a8 4e3c
00000300: 27fc e7bc fdbb 7b3d 43be 943d 8059 92bc
00000310: 2835 93bd 5a6f 55bd a308 95bd 6760 e93c
00000320: 27c2 debc fafc 17bd 13e7 b53c f3db 8c3d
00000330: c0e7 16bc 9a8f 71bb 320d c13d 5a19 aa3d
00000340: c09b eebc 9a76 26bc 7082 19bd b52f b2bd
00000350: fdcb 16bd 6716 713b fbb2 b4bd 20c0 253d
00000360: f01b 09bd 1085 bfbd 675c 373b 936f 4d3d
00000370: 83c2 4b3d f5f9 b0bd f31b a33c af3f b03d
00000380: 8742 9f3d 73d5 243d 4d92 d03c c04e 14bd
00000390: e32c 243d 73e5 43bc 439b 89bd 0ace 23bd
000003a0: 406c 9bbd ca44 3f3d 2893 8fbd 680d 983d
000003b0: aa20 66bd 6700 6c3d ea4f a23d f204 b43d
000003c0: e041 063d 80ee f0bb 67e5 ebbb f394 59bd
000003d0: 68c4 afbd 5d00 6ebd 674a 32ba bd82 5c3d
000003e0: c062 733d cdae 1d3b 6d24 a3bc f7ac 75bd
000003f0: 1571 90bd a532 93bd 0313 463d e78a 6d3d
0.035873104 -0.006631184 -0.04271525 -0.040114105 0.06983745 -0.05415983 -0.062001742 -0.090462625
0.095804706 -0.09093534 0.048747707 -0.0036914349 -0.01670066 0.043403067 0.04151049 -0.010025335
-0.05782312 0.028635418 0.055231273 0.03362433 -0.0719737 -0.071533136 -0.07702227 0.03421787
-0.03046043 0.0063629984 -0.09768915 -0.099707775 -0.02816068 0.035134103 -0.05588783 -0.033347096
0.099439435 -0.039153397 -0.013880062 0.08347737 0.03097173 -0.01962607 0.048261344 0.03674079
0.0038086416 -0.028237296 0.04063661 -0.0580539 -0.07352739 -0.04186957 0.06826384 -0.09071559
0.042491686 0.0266235 -0.019785965 -0.04301361 0.008772815 0.073618114 0.07146783 0.08934537
0.032846916 -0.04051262 0.08273429 0.008989155 0.008919179 0.0077390433 -0.09003381 -0.06988853
-0.012062025 0.08151417 -0.038652338 0.06681271 -0.07761075 0.0012232781 -0.043398917 -0.052896548
-0.079354405 -0.02109536 0.09837746 -0.07615971 0.005042088 -0.021210646 0.09033545 -0.032074776
-0.012995613 0.043273043 -0.02097348 0.099169694 -0.083750606 0.027185833 0.057311263 0.021753741
0.040795755 -0.01605375 -0.06683468 -0.077860646 -0.06999326 -0.031402934 -0.08063727 0.056226194
0.044718813 -0.01071874 -0.04351641 0.024348378 -0.045284905 -0.099355154 -0.025851715 0.09455656
0.09297704 -0.07052648 -0.0135216 -0.0035120011 -0.001591742 0.08046768 -0.034288373 -0.05575197
0.022510624 0.062105585 -0.010646105 0.020838393 0.018338455 -0.031379808 0.041303694 -0.026260674
0.03704237 -0.06884029 -0.026995981 -0.06743898 0.017540967 0.0796072 -0.033169914 0.03469683
-0.023352576 0.052390408 -0.05880457 -0.030553674 0.020855725 0.026363373 -0.03664882 -0.025705589
-0.0058212043 0.08075631 -0.06935308 0.099796794 -0.025258875 0.048966955 0.079324104 -0.09103737
-0.08582578 -0.035780918 0.01329844 -0.03861321 0.042509057 -0.007085681 0.010833538 0.06860395
-0.04301692 0.012647355 -0.081201985 -0.04691006 0.029448284 0.040884998 -0.049585488 -0.028072381
0.008040584 -0.0871165 -0.0766507 -0.022541022 0.075297415 -0.04824505 -0.0065054535 0.092077434
0.07668783 0.065757655 -0.070704535 0.011136591 -0.020175291 -0.0021984936 0.08165927 0.0897756
0.07848247 0.08487084 0.0003197074 -0.07708537 -0.07399082 -0.094474256 -0.0731506 0.039912056
0.04352746 0.02828076 0.07219557 0.028342187 0.048009362 -0.04890517 -0.039779473 0.012613404
-0.028318478 0.061458576 0.07262852 -0.017864943 -0.07187873 -0.052108146 -0.07277038 0.028488351
-0.027192188 -0.03710649 0.022204911 0.068778895 -0.009210527 -0.0036859275 0.09426345 0.08305617
-0.029127002 -0.010160113 -0.03747791 -0.08700506 -0.036815632 0.0036787034 -0.088232 0.040466428
-0.03347391 -0.093515515 0.002797866 0.050155234 0.049746048 -0.086414255 0.019910788 0.08605897
0.07776361 0.040242624 0.025460387 -0.036207914 0.04008187 -0.01195656 -0.06719067 -0.039991416
-0.075890064 0.04669646 -0.0701049 0.07424432 -0.056183495 0.05761757 0.07925399 0.08790006
0.032777667 -0.00735265 -0.0071989777 -0.053120565 -0.085823834 -0.058105815 -0.0006801248 0.05383562
0.059420347 0.0024060488 -0.01991483 -0.059979405 -0.07052819 -0.07187394 0.048357975 0.057993796

lstm.bias_hh_l0 f4 [400]
00000000: 95e7 afbd 8082 babd a208 b33d 052c 91bd
00000010: 67fe 74bd 20ff 3c3d e7c9 1c3c cda1 6a3d
00000020: b062 7a3d 322a 923d 051d bcbd eae0 533d
00000030: c090 ae3d cd40 9f3b cda9 2cbc c2ed aa3d
00000040: c782 863d 5b5e 873d 6784 aa3a 12e5 bf3d
00000050: 421b 9ebd cd9c 793b 331a 83bb 205e 91bc
00000060: 75ae a83d fd37 1b3d 6dfa 923d 600b 713d
00000070: 4a87 203d 0d17 bfbc 3256 ab3d dd97 53bd
00000080: 2dc5 59bd f0b6 bb3d 13b2 5ebd 6714 10bd
00000090: edf5 93bc 87df bebd 3afe b93c 5322 a53c
000000a0: a07c 603d 00f6 90ba 60f8 82bd 4aab 303d
000000b0: 52b9 853d 4d40 263d 33df bcba e00b 143d
000000c0: 30b7 aabd b534 c33d 9ab9 7239 1bdf 883d
000000d0: a047 b2bd 3a63 fa3c 685d 963d cd58 7bbd
000000e0: c7a7 71bd 2a7a 003d 3377 fdbc 8246 ba3d
000000f0: 2d1d 3cbd 5a02 72bd 6049 c93d 2263 babd
00000100: e737 bfbd 507f 6dbd a767 283d 2548 9d3d
00000110: 33cf 163c 0a0d ac3d 630b a03d 80f3 3fbc
00000120: a782 0fbc e360 3d3d 95d2 84bd 1a27 f33b
00000130: 0001 2bbb 9717 cb3d fbe5 c9bd b37d 9cbd
00000140: 00d6 b9bc e0b3 a53c cdb6 97bc e2bc 973d
00000150: 9a7f cf3c 4fc0 b93d 7a14 013d f35f cb3d
00000160: 13ef b43d 9f9b 86bd 9adc da3c a7bc 2b3c
00000170: 1293 b93d d5d4 c93d cd55 fa3c 57d2 4f3d
00000180: a0b8 57bd cd52 3abd a3b4 2c3d 78ec 9c3d
00000190: e7a9 7c3d 7078 503d 0d4f 573d d3ab 7c3d
000001a0: fdc4 89bd 279b 2ebd 7a46 863d 687c 853d
000001b0: 2848 893d 6a68 5dbd c78a 2e3d dad0 78bc
000001c0: edd4 b0bc fa9a 813c e70a d5bb 8d36 c7bd
000001d0: 2aad abbd 0721 bb3c 002c 693d b74c 2c3d
000001e0: 0d7b 6fbc e733 303c 93c4 b43c ddd7 113d
000001f0: 70a1 a73d 1a9b ccbb f381 843d 1035 4bbd
00000200: f3d2 6ebc ede6 d0bc 338a 09bb 73bc 7d3d
00000210: 47a7 853c 4804 a23d 9a7c b23c e0a3 d23c
00000220: 9a08 9d3d 5d28 4fbd 1a02 01bc c7ad 613d
00000230: 9ab9 fd3b 2d55 863c 80a5 55bc 4881 b23d
00000240: 5761 3f3d e7a0 36bc 6738 53bd cda9 e53b
00000250: 0025 c53b 7048 ba3d b34f c53c 0b45 82bd
00000260: 4075 323c 4d97 55bc 6a7e 5fbd 77a2 97bd
00000270: 40b2 7cbd 675b 0abc 803f acbc 27f8 8fbd
00000280: d285 84bd 08ff c8bd 9ae9 0b39 cdac 91b8
00000290: 57e3 5abd 127b c93d a077 c8bc 1779 0f3d
000002a0: 18d1 9f3d 2009 183d 8d85 803d 3a01 81bd
000002b0: 00f3 923c ebf6 c5bd fd25 01bd 2d02 c9bd
000002c0: ef71 97bd 40c5 66bd 6386 553d a01d 7b3d
000002d0: 771f 84bd cd54 f439 0014 dc3b e79a 17bc
000002e0: 6792 d2bb df64 8ebd fa31 8ebc 87e4 46bd
000002f0: c7a8 6f3d 5a23 35bd 207e e5bc d38b 673d
00000300: 0741 8ebc d3f9 a4bd 0d5d 6a3c f8d1 c1bd
00000310: 1dd4 413d 5079 b53d c702 9c3c ad29 77bd
00000320: 9ba9 8fbd 8d60 2abc 3a3b ec3c cda0 e63c
00000330: abef c6bd 5ddc 4ebd 6809 9fbd e708 963d
00000340: e097 ef3c 9ac0 5fbc 77b3 84bd 127a c33d
00000350: a3c1 9ebd 0a69 9c3d 6d2a 46bd 2db7 713d
00000360: f3ba 103d d053 09bd c592 bd3d 409d 2bbc
00000370: 231d b0bd e0ff 80bd 8ab1 46bd ba2c 97bd
00000380: 073c a93c 1dd9 58bd 3a55 50bd cd2c c23d
00000390: a78b 17bd 2d8a 8bbc 8df1 933d 78b2 81bd
000003a0: caf8 313d aa7f 24bd 731f 283c 53a7 c0bc
000003b0: 9d3e 90bd 63c3 723d adf2 a83c 2a73 bc3d
000003c0: 6ac3 c63d 8344 be3d ad63 b1bc 0098 9cbc
000003d0: 7ad8 313d 9a23 31bc 7342 fd3c 8a9f aabd
000003e0: 236f 603d 1dd0 643d b345 103c e332 643d
000003f0: 932c a5bc 00b2 063d d3f6 bb3c 370c 2f3d
-0.08589093 -0.09106922 0.08741881 -0.07088474 -0.05981293 0.046141744 0.009569622 0.05728321
0.061129272 0.07136954 -0.091852225 0.051728167 0.085237026 0.00486002 -0.010538531 0.0834613
0.065679125 0.06609794 0.001300943 0.093698636 -0.07720043 0.0038087845 -0.004000926 -0.017745078
0.082364 0.03789519 0.07176671 0.05884874 0.03919152 -0.023326421 0.0836605 -0.0516585
-0.053166557 0.09165752 -0.054369044 -0.035175707 -0.018061602 -0.09319978 0.022704232 0.020157969
0.05480635 -0.0011059642 -0.0639503 0.043132104 0.06529488 0.040588666 -0.001440978 0.036144137
-0.083357215 0.095315374 0.0002314806 0.06683179 -0.08705068 0.030564893 0.073420346 -0.061363984
-0.058997896 0.031366505 -0.030940628 0.090954795 -0.04592626 -0.059084274 0.09828448 -0.09100939
-0.093368344 -0.057982743 0.041114476 0.07679776 0.009204674 0.084009245 0.07814672 -0.01171577
-0.008759177 0.046234977 -0.06485478 0.0074204328 -0.0026093125 0.09916609 -0.098583184 -0.07641163
-0.022685051 0.020227373 -0.018519783 0.074090734 0.0253294 0.09069883 0.03151367 0.0993041
0.08834662 -0.06572651 0.02671652 0.01048199 0.090612546 0.098550476 0.030558491 0.050737705
-0.052666306 -0.04548912 0.042164456 0.0766229 0.06168547 0.05089611 0.052565623 0.0616873
-0.06727026 -0.042628434 0.06556411 0.06517869 0.06703216 -0.054054655 0.042612817 -0.015186513
-0.021585906 0.015820969 -0.006501544 -0.097272016 -0.08382638 0.022842897 0.056926727 0.04206535
-0.01461674 0.010754562 0.02206639 0.035606254 0.08185089 -0.0062440755 0.06470098 -0.04961115
-0.014576661 -0.025500739 -0.0020986914 0.061947297 0.016315116 0.07910973 0.02178793 0.025712907
0.07667656 -0.050575603 -0.007874036 0.055097368 0.0077430727 0.016398037 -0.013039947 0.08716065
0.04672369 -0.011146761 -0.05156746 0.007008767 0.0060163736 0.090958476 0.024085855 -0.06360825
0.010892212 -0.013036561 -0.054563917 -0.074040346 -0.06169343 -0.008444644 -0.021026373 -0.07029753
-0.06470837 -0.09814268 0.00013343096 -6.9463254e-05 -0.053439464 0.09837927 -0.024471104 0.03502759
0.07803553 0.037118077 0.06275473 -0.06299062 0.017938137 -0.096662365 -0.03153037 -0.09814868
-0.07394778 -0.056340456 0.052130114 0.06130755 -0.06451314 0.00046602488 0.0067162514 -0.00925324
-0.006426144 -0.069528334 -0.017357815 -0.048557784 0.058510568 -0.044223167 -0.028014243 0.05652983
-0.017364992 -0.08055463 0.014304412 -0.094638765 0.047321428 0.08861029 0.019044293 -0.06034248
-0.070147716 -0.010398996 0.028836835 0.028152848 -0.09713682 -0.050503124 -0.07765466 0.07325917
0.029247224 -0.01365676 -0.06479543 0.095447674 -0.07751777 0.07637222 -0.048380304 0.05901258
0.03533454 -0.033527195 0.0925651 -0.010474503 -0.085993074 -0.06298804 -0.04850916 -0.07381578
0.020658506 -0.05294143 -0.05086253 0.09481201 -0.036998417 -0.01703366 0.072238065 -0.06332868
0.043450154 -0.040160812 0.010261404 -0.023517286 -0.070431925 0.059268367 0.02062353 0.09201653
0.09705241 0.09290411 -0.021653974 -0.019115448 0.04341934 -0.010811711 0.030915475 -0.08331211
0.05479349 0.055862535 0.00880568 0.05571259 -0.020162856 0.032884598 0.022944843 0.04273626

linear.weight f4 [1, 100]
00000000: cde8 48bc cf0a a340 f002 5fbd 143e a2c0
00000010: 8700 2b3d c58a 9fc0 d0ad 42bd 30c0 49bd
00000020: 1a80 fc3c 430f c33d dbc0 ac3d 2354 7e3d
00000030: 4731 93bd 47df ed3c 1ab2 413c e890 b03d
00000040: c782 903c 12fc 9abd b545 cabd e7a3 743c
00000050: 2c55 a240 1738 3bbd 07b7 9f40 c600 a3c0
00000060: 68a7 80bd aa80 04bd af52 9d40 0080 8cbd
00000070: 3a27 b03d 4cc2 9e40 53db 61bd 5224 a140
00000080: 9b57 a2c0 23c2 373d 75e1 a9bd 3a5a afbd
00000090: 70dc 293d f2b0 b1bd 2791 7d3d db9c 83bd
000000a0: c0eb d2bc d4f6 a0c0 94e9 a240 7d9e a0bd
000000b0: 2d20 a3c0 4504 9d40 1a53 6ebc 0d73 d5bc
000000c0: 2190 a0c0 bf9c 9d40 6fd4 9dbd 6a20 acbd
000000d0: 4d6a 0bbc da2e 113d 7d59 86bd 4234 9fc0
000000e0: cfa0 b0bd f739 9fc0 7325 b23c 84b7 9d40
000000f0: a76a d6bc 8c95 a1c0 1352 a93d f0b7 8f3d
00000100: 56c0 9ec0 e315 5a3d ea7e 6dbd ed10 0a3d
00000110: 819a a040 cb9d 873d 82d5 bf3d d068 81bd
00000120: 0aa6 0bbd cd99 1cbc 716d a1c0 7db1 63bd
00000130: 0773 823d abad b4bd 33db 7dbc 479f b4bd
00000140: 9dfd 73bd 57ea a2bd d76d 52bd df2e a140
00000150: 0f0f a7bd 9d29 863d 60f7 41bd 8724 c4bd
00000160: b0cb a7bd 33d6 9dc0 5390 2dbd e492 a040
00000170: 4851 9ec0 65c8 9d40 7fe1 a040 f3c1 0dbc
00000180: a86b 9c3d 93af 00bd 4703 99bc 8a3c 7e3d
-0.012262535 5.0950694 -0.05444616 -5.070078 0.04174855 -4.9856896 -0.04752904 -0.04925555
0.030822802 0.09524395 0.08435222 0.062091958 -0.07187133 0.029037131 0.011822248 0.08621389
0.017640484 -0.0756761 -0.09876577 0.0149316555 5.072897 -0.04570779 4.991092 -5.0938444
-0.0628193 -0.032349266 4.916343 -0.068603516 0.08601232 4.961218 -0.055140804 5.0356836
-5.073194 0.044862878 -0.08294956 -0.08562131 0.04146999 -0.08676328 0.061906006 -0.06426402
-0.02574718 -5.0301304 5.091013 -0.07842729 -5.0976777 4.906771 -0.01454618 -0.026055837
-5.017594 4.925384 -0.07706534 -0.0840462 -0.008509231 0.03544507 -0.06560037 -4.975129
-0.08624422 -4.975826 0.021746373 4.928652 -0.026173903 -5.049505 0.082676075 0.07017505
-4.9609785 0.05324353 -0.057982363 0.033707548 5.0188603 0.066218935 0.09366895 -0.063188195
-0.034093894 -0.009558153 -5.0446095 -0.055589188 0.06369596 -0.08822187 -0.015494156 -0.08819442
-0.059568036 -0.07954853 -0.051374283 5.0369716 -0.08157169 0.06550906 -0.047355056 -0.095772795
-0.08193147 -4.9323974 -0.042373966 5.017931 -4.947422 4.930712 5.0275264 -0.008652198
0.07637721 -0.03141744 -0.01867832 0.062069453
