model/1721472985_model-aapl.pth (torch, 174356 bytes, 5 tensors)

lstm.weight_ih_l0 f4 [400, 5]
000000 ca 30 ba bd 47 93 cc bd 7a da 5b 3d 2d 7e 36 bd
       -0.09091337 -0.099890284 0.053675152 -0.044553924
000010 80 f7 68 bd 35 b4 81 3d 00 19 88 3c 2d b2 69 bd
       -0.05687666 0.063332 0.016613483 -0.057054687
000020 9a 79 74 3b d2 00 c0 bd 4b 19 80 bd 53 a0 8a bd
       0.0037303925 -0.093751565 -0.06254824 -0.06768861
000030 27 a7 ad bc 1d 31 06 3d 77 af 4b bd d8 bd a8 3d
       -0.021197869 0.03276168 -0.049727883 0.08239335
000040 27 ea e8 3c 17 64 58 3d 40 1e c6 3d 57 87 af 3d
       0.028431965 0.052829828 0.096737385 0.08570736
000050 9a fe 34 bd 50 46 19 3d 33 c3 1e bb 7b 24 83 3d
       -0.04418812 0.03742057 -0.0024225235 0.064034425
000060 73 d3 2f 3c 88 e1 98 bd 7b ee c6 bd 20 5e b4 3d
       0.010731566 -0.07464892 -0.09713455 0.088070154
000070 f7 69 29 3d d0 fb 0a 3d d3 d9 80 3c 4f 41 a5 bd
       0.04136082 0.033931553 0.015728867 -0.08069097
000080 33 d5 7a 3d 77 89 8f bd 5a 3f a5 3c b5 6d b6 3d
       0.06123848 -0.07008641 0.02017181 0.08907644
000090 ca 88 ac bd 8f 1d c6 bd 40 4a 95 3c 4d 3b 9c 3c
       -0.08424528 -0.096736066 0.018223882 0.019071246
0000a0 bb bd 81 3d 6d c4 14 bd 95 8a 96 3d 5a 8a 56 bc
       0.06335016 -0.03632014 0.07350651 -0.013094509
0000b0 a5 4d ca bd cd 8a a1 ba cd 5c 5a b9 80 49 7f bc
       -0.09878091 -0.0012324691 -0.00020824671 -0.015581489
0000c0 0d 70 c6 bd 33 6c 8a 3d 7a 07 3a 3d 2a 81 ad bd
       -0.09689341 0.067589186 0.045417286 -0.08471902
0000d0 33 ca 60 3d 17 38 ab bd 80 2a 9d 3b 62 6c ca 3d
       0.054880332 -0.08360308 0.004796326 0.09883954
0000e0 9b 1a c0 3d 23 b1 0d 3d a5 b1 b8 3d 3f 24 a0 bd
       0.093800746 0.03459276 0.09018258 -0.078194134
0000f0 40 62 98 3c 73 d9 58 3d 6a 64 cc 3d 3a aa fd 3c
       0.018601537 0.05294175 0.0998009 0.03096496
000100 e7 af b5 bc 9d 7a 11 bd b0 f1 a7 bd 63 75 a9 bd
       -0.022178603 -0.035517324 -0.08200395 -0.08274343
000110 80 0f 41 3d e7 64 2f 3c ad ad cf 3c e2 55 bb bd
       0.047133923 0.010705209 0.02535137 -0.0914724
000120 53 33 b4 3c ea f3 bf bd e2 87 a8 bd f7 2b 37 bd
       0.02199713 -0.09372695 -0.082290426 -0.044719663
000130 f3 ee 9c 3d e8 e7 b8 3d 73 ab 33 3c 67 4f 94 bc
       0.076627634 0.090286076 0.01096617 -0.018104268
000140 50 90 47 bd 67 78 3d bb 67 15 19 bc a7 0c 19 bd
       -0.04872161 -0.0028910877 -0.009343482 -0.03736558
000150 00 d9 a1 3b cd f4 df bb 2a 40 5e 3d 17 7e ae 3d
       0.0049391985 -0.0068346024 0.05426041 0.085201435
000160 b3 06 fd 3b d2 b8 ad bd a0 20 89 3d 83 ba 2b 3d
       0.007721746 -0.08482517 0.06695676 0.04192592
000170 40 77 a1 bc 27 8b 89 bd 45 ec a8 3d 6d cd 15 3d
       -0.019710183 -0.06715994 0.0824819 0.036572862
000180 27 20 25 3d 70 de 77 bd 8d ba 32 bc 2a e2 96 bd
       0.040313866 -0.060514867 -0.010908735 -0.07367356
000190 fb 88 85 bd 02 a5 8d bd 20 63 4b 3d 2f ac a1 bd
       -0.065202676 -0.06916238 0.04965508 -0.078941695
0001a0 0a c3 15 3d 93 7e c6 bc 4d a0 c4 3d 4d a0 eb 3b
       0.036562957 -0.024230277 0.096008874 0.00719074
0001b0 88 8e b7 3d a3 82 a8 bd cd 22 f4 bc fa aa 04 bd
       0.089627326 -0.08228042 -0.02980175 -0.03238962
0001c0 ba fd 9c 3c fb b7 b3 bd 2b be b9 bd 00 22 6b bd
       0.019163955 -0.08775326 -0.09069475 -0.05740547
0001d0 e3 2b 2c 3d 67 53 16 bd ad 42 28 3d 43 e4 79 3d
       0.04203404 -0.036700632 0.041079212 0.061008703
0001e0 d3 30 19 3d 2a 50 78 bd ad e9 18 3d 63 c4 34 bd
       0.037400078 -0.060623325 0.037332226 -0.0441326
0001f0 6d 4f 51 bd cb ca bd 3d 9a 8f 20 bc f3 3d 03 bd
       -0.051101137 0.09267195 -0.009799862 -0.0320415
000200 ba d8 c9 3d 0d dc 6b bd 9a 62 7c 3b c0 0b bb 3d
       0.098557904 -0.057582904 0.003851092 0.091331005
000210 20 64 40 3d f0 7a 0a 3d e7 6c 8c bc 48 8c a7 3d
       0.046970487 0.03380865 -0.017141772 0.081810534
000220 5b b4 a3 3d 00 55 3f 3c 8d 59 a9 3c eb 48 b5 3d
       0.079933845 0.01167798 0.020672584 0.088517986
000230 2a c9 56 bd 57 6a 26 3d cd 07 4f bb 07 b7 a8 3c
       -0.05243794 0.040628757 -0.0031590343 0.020595087
000240 d0 db 7e 3d c7 39 0f 3d 5b d6 c9 3d 4d 25 39 bc
       0.06222135 0.03496721 0.09855338 -0.011300397
000250 a7 bf 76 3c 67 e3 68 bc fd ba 3b 3d 00 8c 17 bd
       0.015060342 -0.014214373 0.045832623 -0.03699875
000260 c7 f3 8f bd dd 79 6a 3d 20 50 71 3d 60 1a ee bc
       -0.07028919 0.057245124 0.058914304 -0.029065311
000270 e7 f5 b5 bb 10 ee 93 3d e0 11 c9 bd 33 d1 73 bd
       -0.0055529955 0.07223141 -0.098178625 -0.05952568
000280 83 56 03 bd c0 31 ea 3c 2a 08 a5 bd 0d e1 66 bd
       -0.032064926 0.028588176 -0.08058198 -0.05636697
000290 50 53 8f bd e0 05 d2 3c 83 20 6a bd 40 1e 59 3c
       -0.069983125 0.025637567 -0.05715991 0.013251841
0002a0 33 d9 55 bd d5 11 b5 bd 9a 04 a1 3b 00 0c d5 3b
       -0.05220909 -0.08841292 0.0049138786 0.0065016747
0002b0 0d bf 20 3c 5d ba 6b bd db 12 a1 bd 0d ab 41 bc
       0.009811175 -0.057550777 -0.078649245 -0.011820567
0002c0 45 9a bf bd 8d f0 19 3c 87 72 c7 bc c0 70 5d bd
       -0.093555965 0.009395731 -0.024346603 -0.054062605
0002d0 47 43 f6 3c 20 18 79 bd 40 ba e7 3c 87 e1 38 bd
       0.030061377 -0.060814023 0.028287053 -0.045136955
0002e0 cd ff 9a bd 32 88 89 3d 8d aa 29 3d 1b b7 8c bd
       -0.075683214 0.0671543 0.041422416 -0.06870862
0002f0 15 0f b2 3d a2 79 be bd b7 e9 be 3d 07 59 b0 3d
       0.08694283 -0.09300543 0.09321921 0.086107306
000300 c0 ed b1 3d 67 4e 1d 3a d0 6a b8 3d 52 63 af bd
       0.08687925 0.00060007576 0.09004748 -0.08563866
000310 80 97 82 bb 40 88 c9 3c ea ef a8 3d 0a 41 ac bd
       -0.0039853454 0.024601102 0.08248885 -0.08410843
000320 aa da 16 3d 5a f4 ef 3c 8b b5 be 3d 0d 55 c6 bd
       0.036829628 0.02929132 0.0931197 -0.09684191
000330 a7 47 a7 3d 02 89 90 bd 07 4d 25 3d 57 25 04 3d
       0.081679635 -0.07057382 0.040356662 0.032262173
000340 ef 58 a1 3d ea 51 ae bd 2d 5d b7 bc f3 89 ca bc
       0.07878291 -0.085117176 -0.022383297 -0.024723982
000350 f2 55 c4 bd ed dc 5d bd e3 3e 9b bd 67 6c 5c 3d
       -0.09586705 -0.05416577 -0.07580354 0.053814318
000360 a5 60 a9 3d fd 54 64 3d b0 8b 64 bd 43 11 1a 3d
       0.082703866 0.055745114 -0.05579728 0.03761412
000370 8d 95 a6 bc 13 a0 9f 3d 00 b7 ad 3c c0 1a bb bd
       -0.020334983 0.077942036 0.021205425 -0.091359615
000380 eb 1b a3 bd 7f 6f 95 3d 58 82 bd bd 47 99 65 bd
       -0.07964309 0.07296657 -0.09253377 -0.05605438
000390 da 95 09 bc d7 1c 97 bd 87 f4 8c bd b7 66 6f 3d
       -0.008397544 -0.07378548 -0.068825774 0.058447566
0003a0 e7 10 5d 3c 27 12 af 3c 67 b8 16 bd 83 2c c2 3d
       0.013492799 0.02137096 -0.036796954 0.09481146
0003b0 a7 9e 7c 3d cd 72 fb ba 9a e1 d3 3b ab 77 90 3d
       0.06167474 -0.0019183994 0.006466103 0.07054075
0003c0 dd 8a 73 bd 0d 9c 0f bd 7f 03 b2 3d ff 95 b8 3d
       -0.059458602 -0.03506093 0.08692073 0.090129845
0003d0 e7 ac bb bb 67 4c cc bb d0 2d 74 bd 47 70 8d 3d
       -0.0057273987 -0.006234694 -0.059614003 0.06906181
0003e0 67 52 fe 3c 67 dd c4 3b 9a ab 47 bb 0d b6 67 bc
       0.031045152 0.0060078385 -0.0030467273 -0.014142525
0003f0 70 32 1f bd fa 3a 05 3d 80 ae fb 3b a7 cd a2 3c
       -0.03886646 0.032526948 0.007680714 0.019873453

lstm.weight_hh_l0 f4 [400, 100]
000000 12 3d be 3d f5 1b b3 bd 43 9f 1e bd e0 cc 75 bd
       0.09288992 -0.08745567 -0.038726103 -0.060009837
000010 8d b2 94 bd 37 72 24 bd 67 db 43 bd c3 e3 7a bd
       -0.07260618 -0.040147986 -0.04781666 -0.061252367
000020 e7 20 ec bb f7 1c 09 3d d8 47 bc 3d fb 34 ba 3d
       -0.0072060707 0.03347489 0.091933906 0.090921365
000030 13 d4 a9 3c 15 83 9c bd 18 0c 90 bd 6f 07 a4 3d
       0.020731008 -0.076421894 -0.07033557 0.0800923
000040 67 d3 09 3b 1a 52 52 bd 9a 32 7e 3c 53 43 52 bd
       0.0021030547 -0.05134783 0.015514994 -0.051333737
000050 7a 2a 78 bd 70 24 92 bd 8d 87 48 3c 73 3c ca 3d
       -0.060587384 -0.07135856 0.012239349 0.09874811
000060 2a b6 c8 3d aa 4b 12 bd e7 ff a4 3d 40 8b f2 3c
       0.0980037 -0.03571669 0.08056622 0.029607415
000070 98 d5 bf 3d cd ac 1b ba 27 b0 13 bd 9a 81 30 ba
       0.09366912 -0.000593853 -0.036056664 -0.00067331793
000080 33 c6 4e bc c7 3b ed 3c 33 dc 40 3d f0 e7 b8 3d
       -0.012620497 0.028959168 0.047085 0.090286136
000090 d3 15 b6 bc ea 20 c9 3d 13 0d a9 bc 1b c8 c0 3d
       -0.022227203 0.09820731 -0.020636117 0.09413167
0000a0 63 f1 62 bd 3f 4e 88 3d 8a c2 68 3d e5 99 a1 3d
       -0.055405986 0.06655549 0.056826152 0.07890681
0000b0 ed d5 16 bd da 92 57 3d 8d e8 d7 bc 6d 36 2e bd
       -0.03682511 0.052630283 -0.026356006 -0.042532373
0000c0 80 1c c7 bb cf ee b2 3d 67 fa 8f 3a ea ed bb bd
       -0.0060763955 0.087369554 0.001098466 -0.09176238
0000d0 bd d5 33 bd 3b fc ac 3d 10 cd 99 3d 40 94 2d bc
       -0.04390501 0.08446547 0.07509816 -0.010594428
0000e0 e7 3d 8a bd 8d 4a 02 3c 2b 3b 98 bd da bc 05 3c
       -0.06750088 0.007952345 -0.074331604 0.0081627015
0000f0 a7 ab 19 3d e7 b9 c3 3c 27 30 96 3d 00 17 bd 3b
       0.037517216 0.023892356 0.07333403 0.005770564
000100 c8 1d 96 bd db 2e 84 3d e0 34 94 bc 73 76 66 bc
       -0.07329899 0.064542495 -0.018091619 -0.014066326
000110 a0 aa 13 3d a3 30 76 bd 70 38 51 3d 13 d3 86 bc
       0.036051393 -0.060104977 0.051079214 -0.01645807
000120 5f 49 aa 3d 47 c4 97 3c df af c8 bd ef fb 83 bd
       0.08314776 0.01852621 -0.0979917 -0.06444537
000130 33 be 48 3d 8d d6 cb bc d3 64 c0 bd 4d 95 c3 bd
       0.049009513 -0.02488258 -0.09394231 -0.09549961
000140 6a 8c 47 bd 67 e7 a7 3d c0 77 71 3c 28 53 af bd
       -0.048717894 0.08198433 0.014738023 -0.08560783
000150 c0 b8 5a bc c3 22 a2 3d 8d a0 14 3d ed 92 c4 3d
       -0.013349712 0.079167865 0.036285926 0.09598336
000160 00 d4 35 3a 63 ef 1d bd 43 64 2c bd fa 10 c7 3d
       0.00069361925 -0.038558375 -0.042087805 0.09720035
000170 73 9e 9f 3d 67 f2 f4 3c 63 3d a5 3d e0 9e b2 3c
       0.07793894 0.029900743 0.08068349 0.021804273
000180 03 21 20 bd 7d 72 35 3d 3d 2a 3f 3d 17 a2 8f 3d
       -0.039093982 0.044298638 0.04667114 0.07013338
000190 43 f1 97 bd 1a 31 72 bc 7d bc 54 3d c7 b3 ae 3c
       -0.07419064 -0.014782215 0.05193757 0.021325959
0001a0 9f d8 b9 bd 00 af 45 3c fa 67 07 bd 00 80 6a b8
       -0.0907452 0.012065649 -0.033058144 -5.5909157e-05
0001b0 e7 a1 c2 3c 7d 1f 95 bd 07 40 22 bd 1d eb 8d bd
       0.023758842 -0.072813965 -0.039611842 -0.0692961
0001c0 4d bf d6 3c 87 0b ec 3c 85 93 a9 bd f3 5f 67 3d
       0.026214266 0.02881409 -0.0828009 0.05648799
0001d0 20 f9 83 3d 55 5b ba bd 93 1c b6 3d 5a d8 65 3c
       0.06444001 -0.090994515 0.08892169 0.014028633
0001e0 cd 41 58 bb 63 a1 ad 3d 0d 03 70 3d e8 52 93 3d
       -0.0032998205 0.08478048 0.05859666 0.071935475
0001f0 27 ef 34 3d e7 34 79 3d ed 49 8d 3c 2a 14 a6 bd
       0.044173386 0.060841467 0.017247165 -0.08109315
000200 8d 0b 85 3d da c5 58 bd da 33 29 3c cd 9a 93 3b
       0.06496344 -0.05292306 0.010327304 0.0045045377
000210 c0 ab 38 3d f3 e9 3f 3d 33 b5 bc bd c0 2e 75 bc
       0.04508567 0.04685397 -0.092142485 -0.014964759
000220 8d 08 50 bd b3 f9 cb bb 60 a6 b5 3d b3 6d a1 bb
       -0.050789405 -0.006224835 0.08869624 -0.0049264072
000230 47 87 dd bc ef 5e ac bd 2d 55 7f bd 33 91 d3 3c
       -0.027042044 -0.08416545 -0.06233709 0.025826072
000240 b3 e9 ea bb 0b f0 a2 3d 13 00 09 bd a0 55 a5 3c
       -0.0071689724 0.07955941 -0.033447336 0.02018243
000250 9a 02 33 3d a7 02 f2 3c da 9d d1 3c 85 34 8b bd
       0.043703653 0.02954228 0.025587965 -0.06797127
000260 9b c2 bd bd df 1a 81 bd 15 dd b8 bd bd 85 7c 3d
       -0.09265634 -0.063039534 -0.09026543 0.06165098
000270 33 64 74 3c 00 df 35 3d 73 4b 5c bc 02 c6 c6 3d
       0.0149164675 0.044402122 -0.013445723 0.09705736
000280 95 58 c8 bd aa cf 03 3d 4d 8c 31 bd e7 01 9e bd
       -0.09782521 0.032180466 -0.043346692 -0.077152066
000290 43 ca b4 bd d8 50 a6 bd 13 05 ba 3d 88 ad 94 bd
       -0.08827641 -0.081208885 0.09082999 -0.07259661
0002a0 1a 15 71 3d 3f 10 a9 bd 40 66 b8 3c 4d bc 29 bc
       0.058858015 -0.08255052 0.022509694 -0.010359836
0002b0 8d 3a 00 bd 00 94 3c bb 1f 65 85 3d 63 26 b4 3d
       -0.03130584 -0.0028774738 0.06513428 0.08796384
0002c0 bb bc 98 bd 62 06 89 3d e0 cb 09 bd 8d 9a b3 bd
       -0.074578725 0.066906705 -0.033641696 -0.087697126
0002d0 57 cc 03 3d 45 aa 81 3d dd 09 46 3d 32 75 a2 bd
       0.032177296 0.063313045 0.04834925 -0.079325095
0002e0 80 bb 4d 3c e0 79 94 bd 60 b7 ae 3d a7 91 02 3c
       0.0125569105 -0.07249808 0.0853107 0.007969297
0002f0 00 f5 02 3b 5a df 3b 3d 40 5e 33 bd 1a 04 e0 bb
       0.0019982457 0.0458673 -0.043791056 -0.0068364264
000300 bd 4e a0 3d ea 55 c0 bd 9a 5d cd bb 77 f3 59 3d
       0.07827518 -0.09391387 -0.0062672617 0.0532107
000310 0d ae a8 bd 38 e4 87 bd 80 c8 04 bc 25 04 a2 3d
       -0.082363226 -0.06635326 -0.008104444 0.07910947
000320 c7 95 93 3d b3 ee 91 bc c0 2d 95 bd ed 8a e8 bc
       0.07206302 -0.017814016 -0.07284117 -0.028386557
000330 8f 42 8c bd 97 36 b6 bd 2a 23 9d bd 77 dc 09 3d
       -0.068486325 -0.08897131 -0.07672723 0.033657517
000340 fa 9d c2 3d 17 6c cb bd 60 00 a9 3d f0 98 b5 3d
       0.09502788 -0.09932726 0.08252025 0.08867061
000350 83 2f a7 3d 68 7f 94 3d 9a b7 32 bb 9a cb 03 bb
       0.08163359 0.07250863 -0.002727008 -0.002011037
000360 4a 90 a1 bd 35 4e c2 3d c5 d1 9f 3d 02 52 88 3d
       -0.07888849 0.09487573 0.07803682 0.06656267
000370 5d 6b 07 bd cd d4 57 bb 03 bf 5b bd 90 c0 c7 3d
       -0.033061374 -0.0032933236 -0.05364896 0.09753525
000380 2d b2 ae 3d 27 b1 0b bd 73 70 ed bc 67 14 5b bd
       0.08530078 -0.034104493 -0.028984284 -0.053486254
000390 3a a9 5f bd b3 19 cf 3c 6a 7b 6e bd 27 71 0e 3c
       -0.054604746 0.025280809 -0.058223166 0.00869397
0003a0 93 f8 85 3c cd e8 9d bb e8 28 ca bd 33 e6 21 bd
       0.016353881 -0.004819012 -0.098710835 -0.039526176
0003b0 0a 77 af bd 13 21 02 3d 33 de 2c 3b ef dc a5 3d
       -0.08567627 0.031769823 0.0026377558 0.0809878
0003c0 e7 29 b2 3d 9a a3 86 bc 3b dc 9f 3d fd a6 72 bd
       0.086993985 -0.016435433 0.078056775 -0.059241284
0003d0 1a bb d5 bc 27 f0 4d 3c a7 5e 56 bc 8b 17 84 bd
       -0.026090194 0.012569464 -0.01308409 -0.06449803
0003e0 67 36 33 3c 78 be 99 3d 63 d6 15 3d 07 6a 17 3d
       0.0109382635 0.07507032 0.03658141 0.03696635
0003f0 da c6 3e bc 0a ba 4c bd 27 5d 2e 3c 98 b3 99 3d
       -0.01164409 -0.04998211 0.010642326 0.07504958

lstm.bias_ih_l0 f4 [400]
000000 33 cc 20 bb c0 a1 7e 3d 23 02 7b bd ed 16 bc 3d
       -0.0024535775 0.062165976 -0.061281335 0.0918406
000010 ca 8d a0 bd aa 9f 92 bd 4d 26 5a bd 7a 34 8a 3c
       -0.07839544 -0.0715936 -0.053259183 0.016870726
000020 c3 a8 ad 3d d3 96 bb bc 40 2b 7d 3c 30 fe 49 bd
       0.08479454 -0.022899067 0.015452206 -0.049314678
000030 b3 6b 3f 3c cd 97 91 3d b8 b4 c6 3d b3 e0 6e bd
       0.011683392 0.07109032 0.09702438 -0.05831976
000040 0a ed 11 3d b3 53 76 3c c0 08 92 3d d3 05 fc bc
       0.03562645 0.015034604 0.07130575 -0.030764496
000050 8d 7d dd bc ad bd e0 3c 58 ec a3 3d 9a 80 79 bd
       -0.027037406 0.027434194 0.08004063 -0.06091366
000060 7d 79 c3 3d e3 4e 98 3d 1a e0 46 bd 00 09 23 3c
       0.095446564 0.074369214 -0.048553564 0.009950876
000070 0d f6 0d bc 7d ff 83 3d 9a bb 78 bb 5f 25 c5 bd
       -0.00866462 0.06445215 -0.0037953616 -0.096262686
000080 b3 c6 49 3c a8 ef 83 bd 63 aa 8e 3d 60 2a 5d bd
       0.01231544 -0.06442195 0.069660924 -0.05399549
000090 33 25 b5 3c 00 ad 78 3c 77 3a a0 bd e0 44 60 3d
       0.022112465 0.015177965 -0.07823651 0.054753184
0000a0 e7 5f 9f bc 97 aa 0f bd 60 25 c9 bd 3a c5 1e 3d
       -0.01945491 -0.035074797 -0.09821582 0.03876231
0000b0 1a 2b 7f 3c 10 42 be 3d cd 75 75 3d 67 0e 7a bb
       0.015574241 0.09289944 0.059926797 -0.0038155557
0000c0 57 5e 1b bd b0 e4 4f 3d e7 b0 25 bd 00 f8 81 ba
       -0.037931766 0.050755203 -0.04045191 -0.0009915829
0000d0 bb e0 c8 3d fd 8a 04 bd 2d 03 7d bd 13 e0 0e 3d
       0.09808489 -0.032359112 -0.061770607 0.034881663
0000e0 07 e6 bf bc 40 32 6a bd 30 97 86 3d b0 d5 8e bd
       -0.023425115 -0.05717683 0.065718055 -0.069743514
0000f0 e2 88 ba bd 58 4f a9 3d 55 54 c9 bd da 58 f7 3c
       -0.091081396 0.08267087 -0.09830538 0.030193735
000100 dd 2f cb bd 17 45 30 bd 70 3e 0a 3d a8 1b 90 3d
       -0.099212386 -0.04303464 0.03375095 0.07036525
000110 62 f4 90 3d 73 34 47 bd 13 9e 4d 3d f0 62 0e 3d
       0.07077862 -0.048634004 0.05019958 0.034762323
000120 7a 71 83 bd c0 e3 b1 bd 7a b5 5d bd 00 6e 59 bb
       -0.06418128 -0.08686018 -0.054128148 -0.0033177137
000130 d3 2f b4 3c 60 37 09 3d 0d d4 12 bc c8 7b ad 3d
       0.02199546 0.033500075 -0.00896169 0.08470875
000140 87 04 8c 3d 9a 9a 51 3c 60 be a2 bc 33 dc 82 bd
       0.06836801 0.012793208 -0.019866168 -0.06389656
000150 03 ab 8c 3d 60 20 01 3d 77 b8 5f 3d a7 1a 44 bd
       0.068685554 0.031525016 0.05461928 -0.04787698
000160 7d b3 b8 bd 7f d1 c0 3d 5a 79 96 3d b3 b6 e6 3b
       -0.0901861 0.09414958 0.07347365 0.0070408224
000170 33 9f 5e bb d3 1b 28 bd aa ae 74 bd 67 fc 01 3d
       -0.0033969402 -0.04104216 -0.059736885 0.03173485
000180 23 a4 60 3d cd 4a 65 3c 15 49 b2 3d 5a 31 9d bd
       0.054844033 0.013994885 0.087053455 -0.07675429
000190 9a 4d f9 bb 67 de d9 39 8a fc 45 bd cd 27 11 bb
       -0.007608128 0.00041555168 -0.048336543 -0.0022148967
0001a0 20 a7 e4 3c c0 fc 31 bd a7 d2 de bc 5a 78 a6 3c
       0.027911723 -0.04345393 -0.027200056 0.02032106
0001b0 40 02 26 bc 8d a6 40 3c f3 da 7c 3c 1a bb aa 3b
       -0.010132372 0.011758459 0.015433061 0.0052102925
0001c0 a2 9b 8d 3d dd ff ae 3d 80 5b 75 bc 88 2f 8b 3d
       0.0691445 0.08544896 -0.014975429 0.06796175
0001d0 c3 7d 23 bd 8b 3d bd bd 9a c0 2d 3b 37 dc 79 3d
       -0.039914858 -0.09240254 0.0026512505 0.06100103
0001e0 ed 28 da 3c c7 e9 b4 3d c0 14 e3 3c fb 27 c6 3d
       0.026630843 0.08833652 0.027719855 0.096755944
0001f0 60 1c 16 3d cd e0 76 ba c5 89 ca bd b0 12 73 3d
       0.036648154 -0.0009417653 -0.09889559 0.059343994
000200 b3 a4 93 3d 77 d3 57 bd fd 08 be bd 13 fa 59 bd
       0.07209148 -0.052691903 -0.09279058 -0.053217005
000210 cb 88 b3 3d 27 d1 12 3c 8b 20 c4 3d c0 6c a4 bc
       0.087663256 0.008960999 0.095765196 -0.020071387
000220 90 f7 a5 bd e0 28 08 bd a0 73 a6 bc cb 40 82 3d
       -0.081038594 -0.033242106 -0.020318806 0.063600145
000230 f3 56 32 3d cd e4 f0 b9 83 80 58 bd 47 ed da 3c
       0.043539952 -0.00045946837 -0.052856933 0.02672447
000240 28 50 9c bd 82 1b c8 bd 50 68 c8 bd ab a9 b0 bd
       -0.07632476 -0.09770872 -0.09785521 -0.086261116
000250 67 e0 8d bd 5b ce ca 3d 2a 05 16 bd 80 64 6a bd
       -0.06927567 0.099026404 -0.03662602 -0.05722475
000260 a5 c7 b6 3d d7 6b 1c bd 7a d2 e2 bc c8 03 b3 3d
       0.08924798 -0.03818878 -0.027688254 0.087409556
000270 b3 ff ab 3d 40 75 a1 3d 90 71 5f 3d 88 7f b6 bd
       0.0839838 0.07883692 0.05455166 -0.089110434
000280 7a 12 9d bd 1d 53 10 3d 6d 2a cc 3c 30 79 cc 3d
       -0.0766954 0.035235513 0.024922574 0.09984052
000290 55 6c aa 3d a0 4d cf 3c 40 1a 81 3c 23 11 19 bd
       0.08321444 0.02530557 0.015759587 -0.03736986
0002a0 60 d5 07 bd 00 dc 22 ba 87 af a4 bd 9a df 4a 3c
       -0.033162475 -0.0006212592 -0.08041292 0.012382412
0002b0 8d fd bc 3d 0d a2 ff bc 67 03 1e bb 4d dd 8b 3b
       0.092280485 -0.031205202 -0.0024110915 0.0042683245
0002c0 dd 83 a6 bd b2 22 9a bd 33 b9 f3 3c 13 6c c3 3d
       -0.0813062 -0.07526149 0.029751396 0.09542098
0002d0 cd 1d 4b 3b 70 64 77 bd 5a 4d 43 bc fa dd 3c 3d
       0.0030993104 -0.06039852 -0.0119202975 0.04611013
0002e0 67 7e a5 3a ba 05 ad 3d 9a 8f ea 3b 1a a7 d9 3c
       0.0012626172 0.08448358 0.007158232 0.026568938
0002f0 e8 39 af 3d 33 84 00 3d 67 8a a3 bc c7 44 98 3c
       0.085559666 0.031376075 -0.019963456 0.018587483
000300 5d 31 3b bd f3 94 23 3c 5d 0a 79 bd 9a bd 04 3d
       -0.045701373 0.009984243 -0.0608009 0.03240738
000310 80 d9 81 bc 4d 12 80 bd 3d bd 18 bd c0 ad e7 bc
       -0.015850782 -0.062534906 -0.037289847 -0.028281093
000320 67 10 e8 bb 3a 21 3f 3d ca 27 64 3d 5d 62 91 3d
       -0.0070820334 0.046662547 0.05570201 0.070988394
000330 c2 91 b7 3d 82 43 85 3d e8 b8 b0 3d 0a e7 29 3d
       0.08963348 0.06507017 0.08629018 0.0414801
000340 d3 89 9f 3d 60 f7 b3 bd ad 1a 80 3c 20 7f c9 bc
       0.0778996 -0.087874174 0.01563772 -0.02459675
000350 b3 a2 6f 3d b8 54 a9 3d 67 b2 78 bc c0 15 4f bd
       0.05850477 0.08268112 -0.015179253 -0.05055785
000360 b0 87 8c 3d 60 d3 77 bd cd fc 73 bb 33 cc 3f 3b
       0.06861818 -0.060504317 -0.0037229538 0.0029266
000370 33 36 34 3c 98 8d 9e bd 2d ce 83 bd a0 80 da 3c
       0.01099925 -0.077418506 -0.06435809 0.026672661
000380 5a df 04 bc b0 8e b1 bd 58 e6 96 bd 1d d5 31 bd
       -0.008109892 -0.086697936 -0.07368153 -0.04341613
000390 fa b5 80 3c 20 e8 52 3d 7b 00 c3 bd 8a e5 20 bd
       0.015711773 0.051490903 -0.09521576 -0.039281406
0003a0 40 e4 ba 3d 8d 22 0c 3d 67 0b 06 3d 67 d5 0e bb
       0.091255665 0.034212638 0.032725718 -0.0021794678
0003b0 2d 08 08 bd 92 fc 9d bd cf c7 ac 3d ab 19 c3 3d
       -0.033210922 -0.077141896 0.08436548 0.0952638
0003c0 ed 36 0c bd f5 cd b7 3d b7 8a 7f 3d fd f5 56 bd
       -0.03423207 0.0897483 0.06238815 -0.052480686
0003d0 88 6d 8a 3d f7 11 83 bd 27 2e 15 3c d0 94 0f bd
       0.06759173 -0.06399911 0.009105242 -0.035054028
0003e0 a7 ae c9 bc f3 c6 56 3c f2 1a 8e bd f8 4a 91 bd
       -0.024619414 0.013108957 -0.06938733 -0.07094377
0003f0 23 8a 5c 3d e0 ec e8 3c 30 d1 86 3d 9f bc b0 3d
       0.053842675 0.028433263 0.06582868 0.086297266

lstm.bias_hh_l0 f4 [400]
000000 0d a9 dc 3c 9a 5f 17 3d 0f 1a ab bd d8 ea b5 3d
       0.026936078 0.036956407 -0.0835458 0.088826835
000010 a5 b1 c6 bd e7 b4 f2 bc 72 f7 b3 bd 9f c4 b0 3d
       -0.09701852 -0.029627277 -0.08787431 0.086312525
000020 23 56 11 3d 48 64 9b bd 6f 95 a8 bd a7 06 f0 bc
       0.035482537 -0.075874865 -0.08231627 -0.029300047
000030 35 0a a6 3d 4a 75 06 bd c0 a5 dd 3c 8f 13 bb 3d
       0.081074156 -0.0328267 0.027056575 0.0913459
000040 cd db 13 bc 6a 79 b0 3d 73 64 93 3d 53 d2 c6 3c
       -0.009024573 0.08616908 0.071968935 0.024270212
000050 60 1f 52 bd 33 2f c4 3c 30 be bb 3d 58 44 a3 3d
       -0.051299453 0.023948288 0.09167135 0.0797202
000060 e0 92 ec 3c 43 09 a6 3d 3a 9e 45 3d d3 3f a5 bd
       0.02887863 0.08107235 0.0482466 -0.08068814
000070 80 44 f5 3b 93 db 67 bd 38 ed 96 bd 87 4d f0 bc
       0.0074849725 -0.056605887 -0.07369465 -0.029333843
000080 1a 01 88 bd 70 f7 7e 3d b3 76 a7 3d 4d 06 e1 bb
       -0.06640835 0.062247694 0.08176937 -0.006867206
000090 67 6c 84 bc 6a 12 8a 3d 33 43 6e ba e0 7c c3 bd
       -0.016164972 0.067417935 -0.0009088993 -0.095453024
0000a0 00 bf 66 3d b3 e3 39 bd 3b a3 a1 3d 4d c0 fb 3c
       0.056334496 -0.045383167 0.07892462 0.030731345
0000b0 e0 24 da 3c 1a 8d 85 3c a7 76 b5 3d 07 b9 48 3d
       0.026628911 0.016302634 0.08860522 0.04900458
0000c0 80 49 3f bd 0d 23 32 bd 70 b4 c1 bd 40 a4 fc 3c
       -0.046700954 -0.04349046 -0.09458244 0.03084004
0000d0 d3 8c 43 3d ed c2 15 bd fd f5 b5 bd 0d b5 ad 3c
       0.047741722 -0.03656285 -0.08884809 0.021204496
0000e0 8a 73 48 bd 4d 3c 7e bc 33 9a 75 3d 9a c3 b8 ba
       -0.04893831 -0.0155173065 0.05996151 -0.001409638
0000f0 2a 1d 87 bd 33 9f 50 3a 9d cf 7c 3d 20 d7 cf bc
       -0.065973595 0.0007958293 0.061721433 -0.025371134
000100 fd cf b2 bd 92 a0 87 bd 2f d8 c7 bd ad a6 1e bd
       -0.08731077 -0.06622423 -0.097580306 -0.038733173
000110 e0 c1 c5 bc 8a cf 08 bd cd 65 1d bb 37 4d 43 3d
       -0.024140298 -0.03340105 -0.0024016977 0.04768106
000120 c8 f7 9f 3d 80 23 f9 3b cd d8 60 bd 00 06 8b bc
       0.078109324 0.007603109 -0.054894257 -0.016970634
000130 5d 69 a5 3d 40 e4 ce bc 1a 11 49 bd 7f 0a 9c 3d
       0.08076737 -0.025255322 -0.049088575 0.076191895
000140 ba 9c ad bd fa 8e 95 bd 4d cd 11 3d 80 8a 35 bd
       -0.08477159 -0.07302661 0.03559618 -0.044321537
000150 f7 7e 8f 3d 93 e3 ba 3d 18 63 93 3d 83 37 c1 3d
       0.070066385 0.091254376 0.07196635 0.09434416
000160 5a fa 8c bd c3 e9 c3 bd 0b a4 a9 bd 9f 94 a7 3d
       -0.06883688 -0.09566071 -0.08283242 0.08182644
000170 37 3f 62 bd 9a 52 df 3c 00 91 ba bd 88 be ab bd
       -0.055236068 0.027261067 -0.09109688 -0.0838595
000180 ff 50 aa bd 4a ea 5b bd 2d 4b ea 3c 12 9a 99 3d
       -0.0831623 -0.053690232 0.0286003 0.0750009
000190 7d ff 5f bd a3 8b c6 bd e0 4e 18 3d 80 a2 ae 3b
       -0.054687012 -0.09694602 0.037184596 0.00532943
0001a0 ab 7a bb bd 6d 56 ba 3c 3a 36 bd bc 20 53 45 3d
       -0.091542564 0.02274629 -0.023097146 0.048174977
0001b0 bb 36 bb 3d 63 80 48 bd 17 1f 82 3d ad 9e 3a 3d
       0.091412984 -0.048950564 0.06353586 0.04556148
0001c0 cd b4 a1 3d 22 eb c0 3d ba 21 ec bc bd 7e cc bd
       0.07895813 0.09419848 -0.028824676 -0.09985111
0001d0 da 17 a9 3c 03 ee 7b bd fa be bb bd ea a4 b5 bd
       0.020641256 -0.061506283 -0.09167285 -0.088693455
0001e0 3a 0d 11 3d 5a 71 8b 3c 75 05 b9 bd fd 7a a1 bd
       0.035413004 0.017021824 -0.09034244 -0.07884786
0001f0 97 b2 99 bd 7a 68 13 bd d3 2a 6c 3d 17 29 55 3d
       -0.075047664 -0.03598831 0.057658028 0.05204114
000200 8d 79 ab bd c0 cf 2b 3d f0 b1 88 bd a5 9b cc bd
       -0.08372793 0.041946173 -0.06674564 -0.09990624
000210 8d 00 7f 3c 90 29 3d 3d ad 39 4e bd c0 dc 24 3d
       0.015564096 0.046182215 -0.050347973 0.040249586
000220 b3 d6 fd bc 9d 87 7e 3d 97 ac 74 bd a7 b2 be 3c
       -0.030986166 0.06214105 -0.059734907 0.023278547
000230 9a 0d 29 bc 2d 72 dd bc d5 36 80 bd 32 90 c1 bd
       -0.010318184 -0.027031982 -0.062604584 -0.09451331
000240 00 93 82 bc 1a 20 aa bb 80 ca 62 bd a7 d0 76 3c
       -0.015939236 -0.005191815 -0.0553689 0.015064395
000250 0a a6 7e 3d 0d af db 3c 33 13 b9 bc 77 7c 2d bd
       0.062170066 0.02681687 -0.022592163 -0.042355027
000260 5a 56 53 3d 83 9c 9c 3d 9a 1f 43 3d a0 b7 2c 3d
       0.051596023 0.0764704 0.04763756 0.042167306
000270 23 11 56 3d 13 63 10 3d a5 b2 95 3d 47 25 c2 3d
       0.052262437 0.035250735 0.07309464 0.09479766
000280 da ae 11 bc 47 9a 73 bd e3 38 1e 3d 95 90 8e 3d
       -0.0088917855 -0.059473302 0.03862847 0.069611706
000290 67 1f 81 3c 83 f5 86 bd 50 f3 a1 bd 05 49 b5 bd
       0.015762044 -0.065897964 -0.07907736 -0.08851818
0002a0 5d 65 3a bd c3 5c 72 3d 6d 7c 2a 3d ed 36 1b 3d
       -0.045506824 0.059170496 0.041622568 0.03789418
0002b0 da b6 44 3c ab b0 a7 bd cf 7c c3 3d 5a 44 20 3d
       0.012006486 -0.081879936 0.0954529 0.039127685
0002c0 13 b8 d3 bc 97 7c 88 3d a8 19 af bd 8f c2 91 bd
       -0.02584461 0.066643886 -0.085498154 -0.07117187
0002d0 b3 c5 c9 3b ba cd 8e bc ba 44 b8 bd fd d7 46 bd
       0.006157601 -0.017432082 -0.089974836 -0.048545826
0002e0 a7 fd 30 3c 30 6c 78 3d 8d 69 05 bd 9a 5c 88 3b
       0.010802663 0.06065005 -0.032571364 0.0041614296
0002f0 33 91 b3 3c 83 c2 5c bd 3a 87 21 bd a3 f9 5b bd
       0.021919822 -0.05389644 -0.039435603 -0.05370487
000300 47 2f 42 3d 1a d9 c8 bd ef a1 84 3d 33 35 b4 ba
       0.04740837 -0.09807034 0.06476199 -0.0013748765
000310 43 f1 46 3d 6a be bd 3d 9d 7f 11 3d e7 b2 01 bc
       0.04856993 0.09264834 0.035522092 -0.007916189
000320 43 99 7d 3d a0 00 12 bd fa 91 6a 3d 1d b2 66 3d
       0.06191374 -0.035645127 0.05726812 0.056322206
000330 cd 0d b5 3d f7 f7 0f 3d cd 2f ce 3c 5a 33 91 bd
       0.08840523 0.035148587 0.025169278 -0.07089873
000340 68 59 94 bd aa 13 68 bd 6a 3f 0e 3d cd 73 97 bd
       -0.072436154 -0.056659378 0.034728445 -0.07395134
000350 5a 3c 41 bc 0a a0 a2 bd 63 6d 00 bd 27 18 d0 bc
       -0.011794174 -0.07940681 -0.03135432 -0.025402142
000360 22 cd 9a 3d 43 0a 0b 3d a0 26 9e 3d f3 59 13 bc
       0.07558657 0.033945333 0.07722211 -0.0089936135
000370 b3 17 fc bc 58 2e 9d bd f3 84 1a 3d 33 08 7b 3b
       -0.03077302 -0.07674855 0.037724447 0.0038304448
000380 e7 76 c1 bd 87 75 1c 3d da cc 76 3d 38 48 ae bd
       -0.09446507 0.03819802 0.060253955 -0.085098684
000390 67 75 8d bb 68 b7 a0 3d a0 bc d8 bc 33 53 26 b9
       -0.004316974 0.07847482 -0.02645713 -0.00015861988
0003a0 5a a1 7a bd 18 60 98 3d 2d 57 a4 bc 4d e5 4d bc
       -0.061189033 0.074402034 -0.0200611 -0.012566877
0003b0 00 6b 51 bd 9a 2d ba ba 80 46 d9 bc 13 cc b9 3c
       -0.051127434 -0.0014204264 -0.026522875 0.022680318
0003c0 6d 23 09 bd 33 e7 f5 3c 60 58 7e 3d 70 6a b3 3d
       -0.03348105 0.030017471 0.062096 0.08760536
0003d0 75 6a 8c 3d 7d ff 38 bd d7 68 9b bd d3 ca 9d 3d
       0.068562426 -0.045165528 -0.07588356 0.07704701
0003e0 1a 6c 44 bc cd 47 96 3d 80 46 6d bc e5 16 9b 3d
       -0.011988664 0.07337914 -0.014482141 0.07572726
0003f0 40 f3 77 3d a0 b0 f0 3c 80 de 1d 3c 13 f6 6f 3d
       0.060534716 0.029381096 0.009635568 0.058584284

linear.weight f4 [1, 100]
000000 cd c3 96 bc d0 12 b2 bd f0 8d 75 bd fd 20 a0 40
       -0.018403912 -0.086949944 -0.059949815 5.004027
000010 97 06 32 bd e6 22 9d 40 5d ef a1 40 33 6e 8d 3d
       -0.043463316 4.91051 5.060469 0.069057845
000020 75 fa c7 3d af 50 b7 bd 00 98 bf bd 07 ba a2 3c
       0.09764568 -0.08950936 -0.093551636 0.019864095
000030 ba 0b b7 3d df c8 a2 40 80 e4 be bd 9f 80 87 3d
       0.089377835 5.0870204 -0.09320927 0.066163294
000040 ed 76 77 3d e3 32 2c 3d ad 43 9e 40 1f e6 b8 3d
       0.06041615 0.042040717 4.945761 0.09028267
000050 5a 3e 1e bc 50 41 31 bd ba 69 10 bd 6a 6d 7d bd
       -0.00965842 -0.043275177 -0.03525708 -0.061871924
000060 23 8f 12 3d 32 46 b0 bd 45 ae 93 bd b6 0b a0 40
       0.035781037 -0.08607139 -0.07210974 5.0014296
000070 7a b3 aa bd c7 78 26 bd d3 36 9f 40 d8 47 80 bd
       -0.08335014 -0.040642526 4.9754424 -0.06263703
000080 e0 2c be bc 9b d4 c4 bd b3 32 0f bd 30 d4 26 3d
       -0.023214757 -0.09610864 -0.03496046 0.0407297
000090 00 99 f8 bb 45 d8 bf 3d dc e2 a2 40 55 60 81 3d
       -0.0075865984 0.09367422 5.090193 0.06317202
0000a0 ed e1 93 3d b3 da a8 3b 73 90 38 3c 9a 7d 70 bc
       0.07220826 0.005153024 0.011264908 -0.014678383
0000b0 53 75 e4 bc 80 22 02 3d 00 2f 75 bd 56 d3 9d c0
       -0.027887976 0.031771183 -0.059859276 -4.932048
0000c0 b3 24 d7 bb cd 90 ba 3b 0d b6 03 3c 53 89 de 3c
       -0.006565654 0.005693531 0.00803901 0.02716509
0000d0 62 5c a1 40 8d 8b f0 3c aa 12 9b 3d e0 5f 95 3c
       5.042527 0.029363418 0.07571919 0.018234193
0000e0 b3 bd a2 40 67 be e8 bb 9a d3 92 3c 7a ee f2 bc
       5.0856566 -0.007102776 0.017923165 -0.02965473
0000f0 a6 c5 a1 c0 13 66 78 3d aa 75 93 bd a3 36 24 bd
       -5.055377 0.06064422 -0.07200177 -0.040091168
000100 0f c6 a1 c0 03 2c 8a 3d d0 8e 66 3d 9d 65 ac bd
       -5.055427 0.06746676 0.05628854 -0.08417819
000110 c5 85 89 bd d0 95 a1 bd 1f 7c 82 bd 9a 1a a9 3b
       -0.06714968 -0.078899026 -0.063713305 0.005160642
000120 40 78 aa bc 00 8c 68 bd 13 66 42 bd f0 7f 9f 40
       -0.020809293 -0.05677414 -0.047460627 4.9843674
000130 5e ad 9f 40 98 14 91 3d 47 fe f4 3c 00 1c b3 bc
       4.989913 0.07084006 0.029906405 -0.021863937
000140 92 a1 bc 3d 20 f5 69 bd 30 13 35 bd c7 33 0d bd
       0.092105046 -0.057118535 -0.04420775 -0.034473207
000150 00 dc a6 bd a0 04 87 3d ed 76 9d 3d d2 b2 9d c0
       -0.081474304 0.06592679 0.07688699 -4.9280787
000160 33 f7 f2 3a da 11 b6 bd b3 64 bb 3c cf a1 c5 3d
       0.0018536806 -0.08890124 0.022875166 0.09650003
000170 1d 7b 2a 3d 83 55 36 bd 8d 19 75 3d 48 0f a3 40
       0.041621316 -0.044515144 0.05983882 5.0956154
000180 6d 7d e8 3c 33 65 a5 3b b0 a9 4d 3d 7b cd a0 40
       0.02838012 0.0050474643 0.050210655 5.025083
