model/1721471304_model-aapl.pth (torch, 174356 bytes, 5 tensors)

lstm.weight_ih_l0 f4 [400, 5]
-0.0013046651 -0.05842912 -0.0917985 -0.054843247 -0.005464379 -0.041905634 0.0056998 0.018257773
-0.067479454 0.14344157 0.022358496 0.028725173 -0.08334459 -0.062542245 -0.034744997 0.044830505
-0.12848613 0.0736999 -0.064810514 -1.7206179 -0.0069181137 -0.02793884 0.042306952 -0.078783065
-0.0067833033 0.057598017 0.07595619 0.051820006 0.10940843 -0.7095092 -0.14723535 -0.05959835
-0.13189934 -0.094572954 -0.4964494 -0.08246021 -0.07165624 -0.17480767 -0.016704865 -0.17845754
0.049951907 0.00867221 0.015632758 -0.015151527 -0.31268954 -0.12628861 -0.17257218 -0.1550194
-0.20254561 -0.14593674 -0.11671606 -0.03406662 -0.10323108 -0.06401612 -0.8053663 0.15885167
0.079802096 -0.0011628162 0.08772127 -0.191223 0.018344795 0.0013904846 0.005170701 -0.01749265
-0.14099951 -0.05597907 -0.11979355 0.024121746 -0.13001366 -0.30122197 -0.21951643 -0.19865644
-0.2523332 -0.07348814 -0.13495177 -0.06764253 -0.012432877 -0.03434027 -0.12960759 -0.089162104
-0.13469873 -0.16219893 -0.14076291 -0.18524139 -0.032809004 -0.0012000338 -0.09600297 -0.0067285206
-0.010729662 0.013060414 -0.13273163 0.044419244 -0.0822947 0.017745316 -0.17975964 -0.07513674
0.03996453 0.04735176 0.04263655 -0.06969343 -0.07235466 -0.09100107 -0.111314595 -0.106456555
-1.0093436 -0.04424527 -0.051721044 0.01141296 -0.09743269 -1.3432153 -0.07158811 -0.08325482
-0.013547973 -0.08819926 -0.05006772 -0.046881538 -0.12567253 -0.1358186 0.021776441 -0.063549444
-0.11949338 -0.08951235 -0.1423347 0.00030725056 -0.10997058 -0.09926175 -0.05327396 -0.15836924
0.009526624 0.024008097 -0.086055756 -0.06630035 -0.106551945 0.025577616 -0.33358023 -0.15374526
-0.08819903 -0.23150241 -0.12773822 -0.74598193 -0.13190967 -0.08333539 -0.08026914 -0.1685723
-0.34178558 0.04132251 -0.14022562 0.016253361 0.07857196 0.08359852 0.043037992 -0.012305657
-0.13418432 0.037422657 -0.08563613 -0.110203475 -0.13889861 -0.10187086 0.0394769 0.14692427
0.03282321 0.002859001 0.0063091577 -0.09670995 -0.21160051 -0.13017151 -0.14691067 -0.05071236
-0.12487266 -0.060326528 -0.07410108 -0.12780897 0.022423772 -0.0057315887 -0.6414512 -0.05396668
-0.10328121 -0.070833825 -0.0984531 -0.07136142 -0.1914753 -0.19723392 -0.22699259 -0.09587193
-0.32604757 -0.07345371 -0.14753328 -0.066479936 -0.1437985 -0.043541342 -0.07421814 -0.25308037
-0.19986856 -0.13582805 -0.35987687 0.012794642 -0.18489093 -0.13461475 -0.1741024 -0.28164488
-0.039174028 -0.017936563 -0.11784698 -0.10544584 -0.14029455 -0.002685032 -0.0010619052 -0.040633615
-0.010973135 0.081224814 -0.12606686 -0.21655658 -0.18400845 -0.22294648 -0.2729962 -0.09961224
-0.044602968 -0.069512226 -0.13864139 0.24001224 0.24086921 0.286096 0.22159158 0.30111957
-0.6458973 -0.119133495 -0.11609344 -0.017073853 -0.04792069 -0.005583396 -0.04954608 -0.075009316
0.028569266 -0.14603987 0.06962737 -0.011533972 -0.035064153 -0.065729655 -0.11626027 -0.1524132
0.010279719 -0.07741207 -0.016384989 -0.024423458 -0.05574966 -0.025738468 -0.14176159 -0.1618834
-0.008627427 -0.07960194 -0.08731653 -0.26953253 -0.22907792 -0.23363097 -0.43390933 -0.26144418
00000000: 4c01 abba 5f53 6fbd da00 bcbd 50a3 60bd
00000010: 890e b3bb 3ea5 2bbd 63c5 ba3b 5391 953c
00000020: ab32 8abd 59e2 123e 2a29 b73c 0e51 eb3c
00000030: 92b0 aabd 2616 80bd c550 0ebd 31a0 373d
00000040: de91 03be f9ef 963d 60bb 84bd 353d dcbf
00000050: 58b1 e2bb ffdf e4bc 0e4a 2d3d 0459 a1bd
00000060: 7946 debb e6eb 6b3d eb8e 9b3d 3741 543d
00000070: 8711 e03d 65a2 35bf ddc4 16be 661d 74bd
00000080: 9f10 07be 77af c1bd 9e2e febe e6e0 a8bd
00000090: 82c0 92bd c800 33be a4d8 88bc 93bd 36be
000000a0: 5f9a 4c3d e315 0e3c 4510 803c 1c3e 78bc
000000b0: d818 a0be cd51 01be c3b6 30be 68bd 1ebe
000000c0: 1e68 4fbe 7170 15be d408 efbd 7189 0bbd
000000d0: d16a d3bd e21a 83bd 7c2c 4ebf 03aa 223e
000000e0: 486f a33d a369 98ba 36a7 b33d f6cf 43be
000000f0: d347 963c ec40 b63a fc6e a93b bf4c 8fbc
00000100: 2d62 10be 4f4a 65bd 5256 f5bd f89a c53c
00000110: 4d22 05be c439 9abe eac8 60be 986c 4bbe
00000120: d131 81be f380 96bd cc30 0abe 2b88 8abd
00000130: 44b3 4bbc 62a8 0cbd dab7 04be 9f9a b6bd
00000140: 77ee 09be 7a17 26be 2724 10be ebaf 3dbe
00000150: bc62 06bd 744a 9dba 359d c4bd ec7a dcbb
00000160: 77cb 2fbc 59fb 553c cdea 07be f4f0 353d
00000170: 208a a8bd a05e 913c e912 38be 4be1 99bd
00000180: d9b1 233d ebf3 413d aaa3 2e3d 6ebb 8ebd
00000190: ae2e 94bd c55e babd e8f8 e3bd e505 dabd
000001a0: 2c32 81bf 873a 35bd 72d9 53bd 6cfd 3a3c
000001b0: ca8a c7bd 7bee abbf c99c 92bd 8181 aabd
000001c0: 51f8 5dbc d0a1 b4bd cf13 4dbd db06 40bd
000001d0: 4db0 00be 0814 0bbe 8264 b23c 3626 82bd
000001e0: f2b8 f4bd 4052 b7bd 30c0 11be 7916 a139
000001f0: 4138 e1bd bf49 cbbd cc35 5abd 8c2b 22be
00000200: 8f15 1c3c a1ac c43c 003e b0bd 7ac8 87bd
00000210: e837 dabd 2688 d13c 07cb aabe 666f 1dbe
00000220: b1a1 b4bd f80e 6dbe cfcd 02be acf8 3ebf
00000230: 5413 07be bfab aabd 2664 a4bd 389e 2cbe
00000240: 85fe aebe cb41 293d 4e97 0fbe c525 853c
00000250: 56ea a03d b335 ab3d 9b48 303d ab9d 49bc
00000260: 9d67 09be 8048 193d ff61 afbd 5cb2 e1bd
00000270: 703b 0ebe aba1 d0bd 88b2 213d 5173 163e
00000280: a171 063d 145e 3b3b 0dbd ce3b de0f c6bd
00000290: cead 58be ae4b 05be c06f 16be c3b7 4fbd
000002a0: 3dbd ffbd f318 77bd 4fc2 97bd 5be0 02be
000002b0: 0fb2 b73c 0dd0 bbbb 2536 24bf 2a0c 5dbd
000002c0: 1985 d3bd 5311 91bd c7a1 c9bd f025 92bd
000002d0: 1a12 44be b0f7 49be bf70 68be 8158 c4bd
000002e0: b5ef a6be e66e 96bd f712 17be a226 88bd
000002f0: ea3f 13be 6858 32bd aeff 97bd c093 81be
00000300: 58aa 4cbe 8216 0bbe c841 b8be 9ea0 513c
00000310: 0c54 3dbe 73d8 09be e647 32be c233 90be
00000320: f274 20bd b3ef 92bc c259 f1bd fdf3 d7bd
00000330: 60a9 0fbe 5df7 2fbb a02f 8bba 6f6f 26bd
00000340: aac8 33bc 3259 a63d ac17 01be 02c1 5dbe
00000350: b66c 3cbe 154c 64be 28c6 8bbe 8101 ccbd
00000360: 9ab1 36bd 6d5c 8ebd 02f8 0dbe c5c5 753e
00000370: 6ba6 763e 2d7b 923e e7e8 623e 582c 9a3e
00000380: 8759 25bf 43fc f3bd 66c2 edbd 77de 8bbc
00000390: 7c48 44bd ecf4 b6bb d5f0 4abd 7c9e 99bd
000003a0: 180a ea3c 7a8b 15be cb98 8e3d fcf8 3cbc
000003b0: 6e9f 0fbd 459d 86bd dd19 eebd 3512 1cbe
000003c0: 446c 283c 388a 9ebd d039 86bc b413 c8bc
000003d0: c159 64bd 7bd9 d2bc f329 11be c3c4 25be
000003e0: 0d5a 0dbc 5806 a3bd 02d3 b2bd 2b00 8abe
000003f0: 6793 6abe f53c 6fbe 5d29 debe 03dc 85be

lstm.weight_hh_l0 f4 [400, 100]
0.013854335 -0.03864794 -0.06377737 0.03251768 -0.018796962 0.08061015 0.079716064 0.09587149
0.013983101 -0.0016650849 -0.06658415 0.19377825 -0.0840643 -0.035745703 0.061779395 -0.10533858
-0.09562605 0.030098325 -0.11552957 -0.0009944483 -0.1152435 0.11120451 0.11867411 0.057073914
0.034649722 -0.12282884 0.018199796 0.09005597 -0.019278338 -0.037808675 -0.042199135 0.027529754
-0.080938704 -0.08985862 0.08500057 0.047817796 0.05199216 0.02436401 0.099853285 -0.013152421
0.13056687 -0.050266672 -0.09440064 0.006935977 -0.06913029 -0.13276897 0.0783894 0.017083416
-0.0023242135 0.08540845 0.03863838 -0.13553746 0.026325043 0.0032347494 0.02259614 -0.02423118
-0.1606697 0.061996948 0.08779891 -0.1760697 0.016288396 0.07083849 0.028236443 -0.02954112
-0.060574125 0.037010822 0.08286497 0.09769612 -0.15314928 0.16331993 -0.042104714 -0.002852241
0.14065515 -0.027249709 0.059920903 0.076624356 0.11407467 -0.09942754 -0.15420255 -0.043109767
0.030888462 0.08760151 0.11642866 -0.016989285 0.1114032 0.08727461 -0.008252584 -0.03529652
0.026676096 -0.004050775 -0.08638382 -0.0044411137 -0.11740651 -0.12860027 -0.03839875 -0.14354117
-0.016323445 -0.11261907 -0.0074154385 -0.13475612 -0.020339888 -0.091733105 -0.042980727 -0.05012823
0.07922856 0.13593985 0.07774666 0.023414327 -0.052989524 0.1716666 0.01799278 0.17634486
-0.115183964 -0.16644557 0.16728902 0.050447144 -0.092245124 0.0458553 -0.113383405 -0.114391826
0.038206212 -0.0649602 -0.038592607 0.07495892 -0.01198475 0.054924063 -0.11684565 0.044573728
-0.0036345588 -0.025242101 -0.12749863 -0.060549706 0.051421616 -0.045705415 0.11520325 0.012966753
0.085853204 0.009884217 0.054951802 0.1265768 0.09538272 -0.11892316 -0.02147529 -0.1176585
-0.20258632 -0.05592085 0.024592148 0.04928614 -0.07477082 -0.029588334 -0.010337801 -0.052831076
0.066174366 0.09203529 -0.021787189 -0.014091703 -0.08429051 0.046955053 0.013410868 -0.011530777
-0.00284671 0.05608542 0.0046965214 -0.08325278 0.009244645 0.016959779 0.009795768 0.025406662
-0.14683537 0.18552339 -0.020590696 0.06736119 0.015049505 -0.0170871 0.12206755 0.13540857
0.19080481 -0.105772495 -0.02710224 -0.08772985 0.085807584 0.13173904 0.09124099 -0.13272898
0.12370594 0.052661657 -0.041453026 -0.07013668 0.0683034 -0.002917848 -0.032272115 0.01744677
0.016683025 -0.09533348 0.024482416 -0.09930537 0.043073487 0.05613083 -0.022340054 0.0050890255
0.061622117 -0.10223641 -0.09478738 0.046842463 0.054709293 -0.0026307788 0.12405256 0.035583634
0.14715086 0.01396662 0.001016723 -0.092102274 0.12086998 -0.05100483 0.015254843 -0.080963105
0.15557611 0.07898335 -0.049213003 -0.13797648 -0.10338826 0.09788478 -0.044465847 0.047949463
0.00088989147 -0.039675046 0.035689726 0.046239186 0.008892985 -0.18457028 -0.12522213 0.01735062
-0.052476734 0.057123847 0.024145361 -0.09169186 0.006539387 0.08062322 -0.025195695 0.07287904
-0.06531454 -0.12092728 -0.029609093 -0.025673265 -0.011461065 -0.111741714 -0.028128536 -0.116545275
0.1448598 -0.036649026 -0.027861785 0.014211964 0.03116857 -0.0047055036 -0.048913766 -0.050342236
00000000: 4bfd 623c 4d4d 1ebd b69d 82bd 4231 053d
00000010: 16fc 99bc ef16 a53d 2d42 a33d 4658 c43d
00000020: 6019 653c fa3e daba 455d 88bd ce6d 463e
00000030: e729 acbd 166a 12bd 640c 7d3d c1bb d7bd
00000040: 97d7 c3bd c390 f63c c49a ecbd 2658 82ba
00000050: c904 ecbd 31bf e33d 690b f33d 56c6 693d
00000060: deec 0d3d b08d fbbd bd17 953c 446f b83d
00000070: 9bed 9dbc 45dd 1abd 00d9 2cbd 1486 e13c
00000080: 31c3 a5bd cc07 b8bd c714 ae3d 98dc 433d
00000090: bbf5 543d 0897 c73c e17f cc3d 417d 57bc
000000a0: 52b3 053e 6de4 4dbd 1f55 c1bd 3147 e33b
000000b0: 2e94 8dbd 97f4 07be 9f8a a03d 85f2 8b3c
000000c0: d551 18bb a0ea ae3d 4743 1e3d 55ca 0abe
000000d0: 9ea7 d73c 17fe 533b 8a1b b93c 7880 c6bc
000000e0: 9986 24be 83f0 7d3d eacf b33d 9e4b 34be
000000f0: 3e6f 853c c513 913d 1d50 e73c 3800 f2bc
00000100: 931c 78bd a998 173d 1cb5 a93d e714 c83d
00000110: 2ad3 1cbe 573d 273e fe75 2cbd aaec 3abb
00000120: e707 103e c83a dfbc 9f6f 753d 3bed 9c3d
00000130: fb9f e93d aba0 cbbd 46e7 1dbe de93 30bd
00000140: cd09 fd3c 6c68 b33d 2672 ee3d 1d2d 8bbc
00000150: 5c27 e43d 08bd b23d d935 07bc 1593 10bd
00000160: d487 da3c 5dbc 84bb 00ea b0bd c386 91bb
00000170: d372 f0bd caaf 03be 0248 1dbd 75fc 12be
00000180: bfb8 85bc d4a4 e6bd 35fd f2bb 82fd 09be
00000190: d69f a6bc 91de bbbd 8f0c 30bd 4253 4dbd
000001a0: 9542 a23d d133 0b3e a439 9f3d 67cf bf3c
000001b0: 8b0b 59bd 5fc9 2f3e 9865 933c bf93 343e
000001c0: 92e5 ebbd b570 2abe d04d 2b3e aaa1 4e3d
000001d0: 03eb bcbd c4d2 3b3d 8f35 e8bd 4346 eabd
000001e0: 1e7e 1c3d da09 85bd 4813 1ebd 1084 993d
000001f0: af5b 44bc 0ef8 603d c64c efbd f192 363d
00000200: c731 6ebb 86c8 cebc 008f 02be f802 78bd
00000210: 799f 523d 9a35 3bbd aeef eb3d 8172 543c
00000220: ced3 af3d 69f1 213c 2415 613d 599d 013e
00000230: 0458 c33d fc8d f3bd f3ec afbc f1f6 f0bd
00000240: ca72 4fbe 430d 65bd 7975 c93c 43e0 493d
00000250: 7221 99bd 3c63 f2bc e15f 29bc 6665 58bd
00000260: 6d86 873d 007d bc3d 0c7b b2bc e3e0 66bc
00000270: 81a0 acbd f153 403d 42b9 5b3c 96eb 3cbc
00000280: de8f 3abb d3b9 653d 47e5 993b 6f80 aabd
00000290: da76 173c 3cef 8a3c 6e7e 203c a221 d03c
000002a0: 035c 16be d8f9 3d3e d2ad a8bc aaf4 893d
000002b0: 3392 763c 3ffa 8bbc 8dfe f93d 8ba8 0a3e
000002c0: 5662 433e 409f d8bd 8405 debc b5ab b3bd
000002d0: e3bb af3d 99e6 063e 8edc ba3d 1bea 07be
000002e0: 8a59 fd3d c0b3 573d a6ca 29bd d2a3 8fbd
000002f0: a7e2 8b3d 5e39 3fbb c42f 04bd 87ec 8e3c
00000300: d7aa 883c 333e c3bd 598f c83c 9d60 cbbd
00000310: d36d 303d 71e9 653d 7d02 b7bc d7c1 a63b
00000320: 7967 7c3d 5361 d1bd e31f c2bd e2dd 3f3d
00000330: da16 603d 2569 2cbb 450f fe3d 25c0 113d
00000340: b7ae 163e 40d4 643c 9043 853a 1ea0 bcbd
00000350: ae8a f73d 71ea 50bd 73ef 793c fccf a5bd
00000360: 584f 1f3e 06c2 a13d 9393 49bd b549 0dbe
00000370: 39bd d3bd d177 c83d d221 36bd a866 443d
00000380: 9b47 693a 4d82 22bd 642f 123d 4d65 3d3d
00000390: e2b3 113c feff 3cbe 3b3a 00be e322 8e3c
000003a0: d8f1 56bd b2fa 693d 7ecc c53c f1c8 bbbd
000003b0: 5b48 d63b c91d a53d 3467 cebc 9b41 953d
000003c0: a1c3 85bd b9a8 f7bd c58e f2bc bd50 d2bc
000003d0: 31c7 3bbc d7d8 e4bd d16d e6bc 4aaf eebd
000003e0: 2156 143e 4a1d 16bd 663e e4bc 4cd9 683c
000003f0: 3b55 ff3c a030 9abb cd59 48bd a933 4ebd

lstm.bias_ih_l0 f4 [400]
-0.04655235 0.034546718 -0.17662224 0.007904908 0.0053087184 -0.02245999 -0.16749339 -0.091711074
0.16760494 -0.052313644 -0.10253548 -0.10644211 -0.23001282 -0.10087495 -0.002332999 0.07579686
-0.07677612 -0.08208224 0.018491184 -0.036716584 0.07718971 0.12402209 -0.012075788 0.031403556
-0.07921127 0.024689928 -0.0416765 -0.011307781 -0.19847605 0.01775891 -0.100478016 -0.05343608
-0.08550621 -0.24975084 -0.05207797 -0.11974419 -0.15274376 0.0199685 -0.09007288 0.0692275
-0.14775336 -0.09366546 0.00072412565 0.053189564 0.18375087 -0.015087044 -0.035126314 -0.035794225
0.05370317 -0.08174052 -0.15383962 -0.12341858 -0.1189217 -0.10680688 -0.0612456 0.08410424
-0.049623102 0.015562999 -0.15223259 -0.07273259 -0.0110912705 -0.062260594 -0.10495424 -0.16656245
-0.16997811 0.030245459 -0.04160468 -0.21384169 -0.15297654 -0.09240275 0.01602332 -0.1411186
-0.10379361 -0.07232445 -0.034545545 -0.11956398 0.09160554 0.0026514502 -0.014670511 -0.054152034
-0.11351214 -0.20028037 -0.080130346 -0.03027688 -0.21422932 -0.015911924 -0.16169856 -0.14973453
-0.17311142 0.17779055 0.012024057 0.018908147 0.080837704 0.093199685 -0.08121537 0.006216828
0.054198284 -0.06913101 -0.141636 -0.03808823 0.016560273 -0.03758832 0.0073645557 -0.23585638
-0.019573847 -0.20480025 -0.05068445 -0.07992267 -0.015256481 -0.18779497 -0.2616356 0.020002823
-0.12438114 -0.18703325 -0.19329683 0.036059916 -0.18157129 -0.04071026 -0.12778404 -0.0021924453
-0.0479572 -0.17393026 -0.06829464 0.024195831 -0.053359378 0.0085619725 -0.0022211615 -0.16394134
-0.13401516 0.02746579 -0.03943744 0.017710928 -0.005272096 -0.15377508 0.00018231904 0.004009002
-0.24951296 -0.07648607 -0.15701021 -0.21636248 -0.10460696 -0.13312532 -0.14597584 -0.06319575
-0.03888794 -0.068027265 -0.10383271 -0.01499394 -0.11162798 0.0041962476 -0.25973183 -0.23505987
0.02941915 -0.064670466 0.035126835 -0.07497852 -0.129005 -0.09576064 -0.16729581 -0.028897269
-0.17843711 -0.049213793 -0.1663693 -0.10490089 -0.17277262 -0.0020829132 -0.20474592 0.0043353117
-0.055710796 -0.10923748 -0.087924525 -0.09952329 -0.089802206 -0.12761085 -0.098384075 -0.1683534
0.120887876 0.0027757897 -0.10950464 -0.07759337 -0.109089315 -0.04856468 -0.1626147 -0.04235781
-0.045722682 -0.01731471 -0.050523113 -0.05132697 -0.18614374 -0.0016792768 -0.06556126 -0.082911946
-0.06927145 -0.08242876 -0.13466102 -0.14902228 0.011626115 -0.018456072 -0.13004403 0.0075885803
-0.017386802 0.07210174 -0.047278866 0.07477183 -0.088816375 -0.061812624 -0.013604375 -0.06384779
-0.08501904 -0.047213323 -0.038369082 0.02925824 -0.0047254884 -0.053593844 -0.029491527 0.03546062
0.029838817 -0.053970262 0.10005316 0.066413485 -0.14003083 0.03679986 -0.05243231 -0.098879956
0.043526404 0.08776428 0.010912876 0.018590098 -0.030881828 0.083091475 0.0063302726 -0.049435258
0.013069011 0.07556308 0.052859366 0.027916133 0.016530473 0.021705423 -0.025470693 0.053062722
-0.041679304 0.1022106 -0.023091529 -0.010662552 -0.0035327738 0.056899484 -0.12264501 -0.0026333507
0.0077424766 -0.051605 -0.09987367 0.099729076 -0.05733372 -0.0070942105 0.08520295 -0.0944482
00000000: adad 3ebd dc80 0d3d 76dc 34be 9683 013c
00000010: c2f4 ad3b 03fe b7bc 6383 2bbe 04d3 bbbd
00000020: a1a0 2b3e d546 56bd 1ffe d1bd 52fe d9bd
00000030: 7b88 6bbe 8797 cebd 3ae5 18bb 623b 9b3d
00000040: cc3c 9dbd bc1a a8bd d37a 973c 2164 16bd
00000050: a415 9e3d 4bff fd3d 87d9 45bc 04a1 003d
00000060: 8539 a2bd 8842 ca3c fab4 2abd 4544 39bc
00000070: 4e3d 4bbe 227b 913c 6bc7 cdbd cbdf 5abd
00000080: e11d afbd afbe 7fbe b64f 55bd 713c f5bd
00000090: dc68 1cbe fb94 a33c 2178 b8bd 26c7 8d3d
000000a0: a84c 17be add3 bfbd 40d3 3d3a 4ddd 593d
000000b0: 3029 3c3e a62f 77bc 9ce0 0fbd f79c 12bd
000000c0: dbf7 5b3d 9367 a7bd 2288 1dbe e1c2 fcbd
000000d0: 388d f3bd 91bd dabd abdc 7abd d83e ac3d
000000e0: 9841 4bbd f3fb 7e3c dce2 1bbe d3f4 94bd
000000f0: 29b8 35bc f704 7fbd 40f2 d6bd 598f 2abe
00000100: be0e 2ebe 53c5 f73c ab69 2abd 51f9 5abe
00000110: e2a5 1cbe a73d bdbd 5643 833c 6581 10be
00000120: bf91 d4bd d71e 94bd a17f 0dbd f6dd f4bd
00000130: af9b bb3d f4c3 2d3b 955c 70bc 86ce 5dbd
00000140: 0e79 e8bd 4c16 4dbe 611b a4bd 3807 f8bc
00000150: ee5e 5bbe b959 82bc 4f94 25be 0254 19be
00000160: 1f44 31be ba0e 363e 8d00 453c 42e5 9a3c
00000170: 3d8e a53d 7adf be3d 3e54 a6bd 88b6 cb3b
00000180: 05ff 5d3d 8f94 8dbd 0709 11be 6702 1cbd
00000190: 69a9 873c 36f6 19bd 5f52 f13b 5684 71be
000001a0: 5559 a0bc 28b7 51be 7f9a 4fbd 7fae a3bd
000001b0: 52f6 79bc 534d 40be 1af5 85be f6dc a33c
000001c0: 8abb febd a585 3fbe 9bef 45be 90b3 133d
000001d0: d3ed 39be cdbf 26bd d2d9 02be 21af 0fbb
000001e0: c56e 44bd c61a 32be 0fde 8bbd 5636 c63c
000001f0: 5d8f 5abd 8447 0c3c e890 11bb 3de0 27be
00000200: 453b 09be f0ff e03c 2789 21bd 8216 913c
00000210: 8cc1 acbb 3777 1dbe e52c 3f39 f25d 833b
00000220: 5380 7fbe bba4 9cbd 49c7 20be 208e 5dbe
00000230: 2d3c d6bd 0152 08be b17a 15be c66c 81bd
00000240: f648 1fbd e151 8bbd 3ea6 d4bd 24a9 75bc
00000250: 369d e4bd ad80 893b 92fb 84be 89b3 70be
00000260: 6e00 f13c f371 84bd 28e1 0f3d 578e 99bd
00000270: e319 04be 281e c4bd 984f 2bbe f7b9 ecbc
00000280: 38b8 36be 6794 49bd b75c 2abe 47d6 d6bd
00000290: 4eeb 30be 7c81 08bb eaa8 51be 3b0f 8e3b
000002a0: 0131 64bd e6b7 dfbd c611 b4bd ded2 cbbd
000002b0: 38ea b7bd 6bac 02be 977d c9bd d564 2cbe
000002c0: 1094 f73d 06ea 353b f843 e0bd 46e9 9ebd
000002d0: 386a dfbd c2eb 46bd 7884 26be 627f 2dbd
000002e0: b547 3bbd 94d7 8dbc 53f1 4ebd 3b3c 52bd
000002f0: 779c 3ebe 2e1b dcba fb44 86bd bdcd a9bd
00000300: 31de 8dbd 69d0 a8bd 94e4 09be 4c99 18be
00000310: 767b 3e3c 3031 97bc 432a 05be a0a9 f83b
00000320: c46e 8ebc 14aa 933d 7ca7 41bd f921 993d
00000330: 5ce5 b5bd 3c2f 7dbd e2e4 5ebc a1c2 82bd
00000340: 761e aebd c262 41bd e628 1dbd faae ef3c
00000350: 45d8 9abb 3885 5bbd 3798 f1bc 283f 113d
00000360: 8970 f43c ec0f 5dbd ace8 cc3d cb03 883d
00000370: 3e64 0fbe 73bb 163d 43c3 56bd 9381 cabd
00000380: be48 323d c2bd b33d ebcb 323c 434a 983c
00000390: e3fb fcbc dd2b aa3d 2d6e cf3b a07c 4abd
000003a0: 681f 563c d1c0 9a3d 1083 583d 60b0 e43c
000003b0: ea6a 873c 92cf b13c eaa7 d0bc 4c58 593d
000003c0: ebb7 2abd cb53 d13d 722a bdbc fcb1 2ebc
000003d0: 1c86 67bb 6f0f 693d 4f2d fbbd 4b94 2cbb
000003e0: 9ab4 fd3b c45f 53bd 918a ccbd c23e cc3d
000003f0: c3d6 6abd 8d76 e8bb e27e ae3d 0f6e c1bd

lstm.bias_hh_l0 f4 [400]
-0.01723501 -0.083013475 -0.13892035 0.108811334 -0.0402677 -0.11164021 -0.18720146 -0.17433451
0.048554406 -0.027974525 -0.21545644 -0.008487607 -0.2446881 -0.052604713 -0.14944582 -0.08163831
-0.080354415 -0.1813163 -0.030019194 -0.10811699 -0.006968057 0.1292277 -0.06501426 -0.06726549
-0.19341467 -0.06617027 -0.0019654392 -0.09242615 -0.050174054 0.07305498 -0.13642295 -0.0818307
0.0071528354 -0.12251059 -0.028435087 -0.108473025 -0.16717379 -0.07238981 -0.16318414 0.042485777
-0.11495273 0.0012774519 -0.020045541 0.028104214 0.21738249 -0.05098437 -0.029308623 -0.14096059
0.07490866 -0.068486474 -0.30050594 -0.11294807 0.000872331 -0.18366633 -0.03024852 -0.010744408
-0.04683593 0.04487828 -0.1316857 -0.14027269 -0.19563852 0.028746959 -0.043838687 -0.06709047
-0.13842548 -0.06377438 -0.030024583 -0.09904016 -0.14286788 -0.000591463 -0.03186842 -0.06734981
-0.14342 0.0142565565 0.047584515 -0.13204569 0.056308355 -0.0018074672 -0.014511638 0.0552587
-0.13369116 -0.039315403 -0.07011895 -0.17660408 -0.087915085 -0.08284174 -0.30146158 -0.016404875
-0.106963865 0.058916915 -0.013947712 -0.051231354 0.0628503 -0.058916252 -0.09240304 -0.02966666
-0.12671933 -0.018259048 -0.18386264 -0.082661726 -0.039490104 -0.06425517 -0.15242752 -0.06952434
0.022665905 -0.18527605 -0.21289746 -0.011722969 -0.19064075 -0.17860484 -0.25339153 -0.018291403
-0.18171304 -0.17281426 -0.18618493 0.029129514 -0.12825479 -0.09836973 -0.12596564 -0.034279376
-0.031583592 -0.06309291 0.045037497 0.013015697 -0.14226018 -0.009675587 -0.11116 -0.026521394
-0.17022981 0.031397063 0.04497319 -0.1495501 -0.10590874 -0.09652706 -0.00043246374 -0.15205303
-0.100454554 0.02922338 -0.19503312 -0.22167012 0.017055908 0.030694874 -0.1703824 -0.060003612
-0.093080536 0.0070055877 -0.08034249 -0.09333168 -0.020983582 -0.08148156 -0.1482932 -0.11087735
-0.046647176 -0.18708417 -0.08617825 -0.14077778 -0.016835015 0.02062328 -0.20206551 -0.07838605
-0.20411569 -0.0064815744 -0.16055702 -0.12014689 -0.16341865 -0.0922226 -0.18775257 -0.0048088836
-0.187742 -0.11859788 -0.08604868 -0.23562256 -0.055510193 -0.13037431 0.020207664 -0.06407114
0.20137215 0.02454206 -0.04507627 -0.11132716 -0.14227681 -0.1690734 -0.18773746 -0.041968904
-0.044929776 -0.14291285 -0.14699773 -0.08174691 -0.19909246 -0.097638056 -0.024943888 -0.112181105
-0.049815368 -0.06953616 -0.20957011 -0.13594496 0.026238468 -0.021626022 -0.027817588 -0.02099422
-0.020942356 -0.01666417 -0.008931809 -0.11128154 -0.0027843888 0.049576376 -0.0074389125 0.019441713
-0.033150475 -0.027038146 -0.076921746 -0.04308393 -0.07132154 0.011362424 -0.030378303 -0.07095137
-0.028814323 -0.09908935 -0.08050983 0.032652903 0.032429308 -0.05194141 -0.030134968 0.05995946
0.027715355 0.076893404 -0.12066688 0.06469221 0.015655465 -0.01401644 -0.04706169 -0.019055163
-0.07066553 -0.008451394 0.051765442 -0.14006323 0.03976674 -0.07538082 -0.0213846 0.052195862
0.04517662 0.06656303 0.10346683 0.036732133 -0.08494796 0.08586143 -0.05467512 -0.034331426
-0.04037631 0.054667987 0.06857491 0.05170765 -0.072059855 -0.014026425 -0.04451801 -0.01391845
00000000: 7030 8dbc f802 aabd 2341 0ebe 7ad8 de3d
00000010: beef 24bd 9fa3 e4bd bdb1 3fbe bf84 32be
00000020: fce0 463d d52a e5bc 9da0 5cbe 9b0f 0bbc
00000030: 848f 7abe 0a78 57bd 5308 19be fc31 a7bd
00000040: db90 a4bd fbaa 39be d0ea f5bc 716c ddbd
00000050: 4c54 e4bb 4454 043e 3226 85bd 7dc2 89bd
00000060: 7f0e 46be 4784 87bd 99ce 00bb ec49 bdbd
00000070: 4f83 4dbd d99d 953d 75b2 0bbe db96 a7bd
00000080: 5562 ea3b d5e6 fabd b3f0 e8bc 1b27 debd
00000090: 9b2f 2bbe 1c41 94bd be19 27be 9105 2e3d
000000a0: 566c ebbd 2c70 a73a 8c36 a4bc cf3a e63c
000000b0: 8499 5e3e fdd4 50bd a318 f0bc f957 10be
000000c0: b669 993d a342 8cbd eadb 99be 5151 e7bd
000000d0: 24ad 643a 0713 3cbe bfcb f7bc 5009 30bc
000000e0: 08d7 3fbd 4ad2 373d 9ed8 06be a5a3 0fbe
000000f0: 7755 48be be7e eb3c 3290 33bd ba66 89bd
00000100: 69bf 0dbe 249c 82bd 1df6 f5bc 91d5 cabd
00000110: f54b 12be 690c 1bba 7688 02bd b2ee 89bd
00000120: b1dc 12be 5594 693c fbe7 423d fc36 07be
00000130: 97a3 663d 89e8 ecba 39c2 6dbc f256 623d
00000140: 56e6 08be 3009 21bd 869a 8fbd b3d7 34be
00000150: d30c b4bd eea8 a9bd 2c59 9abe 8463 86bc
00000160: df0f dbbd dd52 713d f284 64bc f8d7 51bd
00000170: a8b7 803d 2b52 71bd ce3d bdbd 7f07 f3bc
00000180: b6c2 01be 0094 95bc 7d46 3cbe 8d4a a9bd
00000190: 60c0 21bd 3798 83bd f615 1cbe c762 8ebd
000001a0: d9ad b93c 01b9 3dbe cb01 5abe b211 40bc
000001b0: 5437 43be 30e4 36be 89bc 81be dad7 95bc
000001c0: fc12 3abe 39f6 30be 43a7 3ebe 05a1 ee3c
000001d0: 3955 03be 1276 c9bd 23fd 00be 8868 0cbd
000001e0: cc5d 01bd db36 81bd 3d79 383d ca3f 553c
000001f0: a7ac 11be 5a86 1ebc dba7 e3bd 6543 d9bc
00000200: b950 2ebe 359a 003d cf35 383d a923 19be
00000210: aee6 d8bd fbaf c5bd 4dbc e2b9 cab3 1bbe
00000220: 1ebb cdbd df65 ef3c c3b6 47be 7efd 62be
00000230: d5b8 8b3c d173 fb3c b978 2ebe 59c6 75bd
00000240: 02a1 bebd 218f e53b 9a8a a4bd ae24 bfbd
00000250: c3e5 abbc cedf a6bd 2cda 17be aa13 e3bd
00000260: 1c11 3fbd fe92 3fbe 397e b0bd 0d28 10be
00000270: 96e9 89bc 27f2 a83c 43ea 4ebe de88 a0bd
00000280: b403 51be 6363 d4bb 0f69 24be 930f f6bd
00000290: 3857 27be 34df bcbd 3642 40be d793 9dbb
000002a0: 703f 40be 72e3 f2bd 4a3a b0bd 0a47 71be
000002b0: a85e 63bd d880 05be 8b8a a53c bb37 83bd
000002c0: 8034 4e3e 6e0c c93c e5a1 38bd 7eff e3bd
000002d0: 03b1 11be 9421 2dbe 403e 40be 96e7 2bbd
000002e0: 4908 38bd bf57 12be 9386 16be ed6a a7bd
000002f0: e5de 4bbe 76f6 c7bd 2057 ccbc 35bf e5bd
00000300: 330b 4cbd f968 8ebd 8c99 56be 2835 0bbe
00000310: 0ef2 d63c 0e29 b1bc b6e1 e3bc 12fc abbc
00000320: 4e8f abbc 4c83 88bc b956 12bc 93e7 e3bd
00000330: 4b7a 36bb 9910 4b3d 1fc2 f3bb 3a44 9f3c
00000340: cbc8 07bd 1a7f ddbc 2689 9dbd c678 30bd
00000350: 0711 92bd 7629 3a3c ebdb f8bc f44e 91bd
00000360: 040c ecbc 5bef cabd 56e2 a4bd 0dbf 053d
00000370: 98d4 043d 84c0 54bd 9cdd f6bc 0d98 753d
00000380: 500b e33c 4a7a 9d3d 3220 f7bd 597d 843d
00000390: e43f 803c 36a5 65bc c2c3 40bd 9319 9cbc
000003a0: 17b9 90bd b777 0abc 0008 543d bc6c 0fbe
000003b0: 73e2 223d 4261 9abd c22e afbc 54cb 553d
000003c0: 1f0b 393d 3352 883d 6be6 d33d 6f74 163d
000003d0: 32f9 adbd 1ed8 af3d 05f3 5fbd 1c9f 0cbd
000003e0: a161 25bd 8aeb 5f3d 0171 8c3d 67cb 533d
000003f0: 1e94 93bd 17cf 65bc 8458 36bd 360a 64bc

linear.weight f4 [1, 100]
-0.057614174 0.086663365 -0.0091049215 0.21723345 -0.04979285 -0.088055596 -0.035863765 0.004655052
-0.14330234 -0.078836896 -0.062098697 0.096095465 -0.014106054 -0.02190046 -0.053054772 0.111564755
0.019299919 -0.009629569 0.08608151 0.11353151 0.09266518 -0.30350748 -0.036011197 -0.08622111
-0.024876704 -0.008795757 0.005054261 -0.042649094 -0.041308768 0.14706162 0.03350492 -0.07294588
0.13966164 0.03458007 -0.053284604 -0.014798586 0.018744748 -0.048411433 0.0024823197 -0.06902196
-0.0036466573 0.07704964 0.023133883 0.11974025 -0.15594213 0.0029932167 -0.050528 0.060527466
-0.081232965 -0.008520944 0.019391153 0.085228905 -0.08583314 0.0068961065 -0.062214132 -0.09864693
0.027355373 0.044733316 -0.029851433 0.0041226684 0.0057474542 -0.09935154 -0.11727146 -0.013131209
0.014134566 -0.12778191 0.0015840661 -0.0005137053 -0.008380016 0.0981403 -0.04089228 -0.08114696
-0.04617264 0.11711626 -0.07411609 -0.0453858 0.18196577 0.029445225 0.106803514 0.07966213
0.00310957 -0.051327527 -0.08301296 0.0437593 0.0022448634 -0.052887637 -0.03415009 0.048059482
0.0773855 0.19284049 0.093732476 -0.089165464 0.024497157 0.10369703 0.018251004 -0.1321032
-0.07189053 0.1300891 -0.05579734 0.06267829
00000000: d7fc 6bbd 907c b13d cf2c 15bc 7272 5e3e
00000010: 96f3 4bbd 7e56 b4bd e2e5 12bd 6889 983b
00000020: d9bd 12be 3d75 a1bd 345b 7ebd b3cd c43d
00000030: 141d 67bc 9868 b3bc f64f 59bd 107c e43d
00000040: dd1a 9e3c 57c5 1dbc 814b b03d 3583 e83d
00000050: 3ec7 bd3d 5565 9bbe 7a80 13bd b194 b0bd
00000060: 3bca cbbc 141c 10bc 379e a53b d1b0 2ebd
00000070: 6233 29bd 5297 163e 743c 093d a664 95bd
00000080: 7603 0f3e d5a3 0d3d f540 5abd c575 72bc
00000090: 968e 993c 114b 46bd 6aae 223b 635b 8dbd
000000a0: c2fc 6ebb 34cc 9d3d 4583 bd3c 603a f53d
000000b0: 4baf 1fbe d829 443b 73f6 4ebd a6eb 773d
000000c0: 785d a6bd 6e9b 0bbc 32da 9e3c 7e8c ae3d
000000d0: 49c9 afbd bcf8 e13b 3fd4 7ebd 6707 cabd
000000e0: 6018 e03c 483a 373d fe8a f4bc 7317 873b
000000f0: 2455 bc3b d278 cbbd 052c f0bd 4824 57bc
00000100: ab94 673c 43d9 02be 70a0 cf3a 2eaa 06ba
00000110: 564c 09bc c8fd c83d aa7e 27bd 6130 a6bd
00000120: 861f 3dbd a6da ef3d 2dca 97bd 76e6 39bd
00000130: 3c55 3a3e 1d37 f13c cdbb da3d e625 a33d
00000140: edc9 4b3b d03c 52bd b302 aabd f43c 333d
00000150: 8f1e 133b b5a0 58bd f7e0 0bbd 05da 443d
00000160: 4a7c 9e3d fa77 453e d0f6 bf3d 629c b6bd
00000170: 43ae c83c 1c5f d43d 2183 953c 1046 07be
00000180: 583b 93bd 1436 053e c08b 64bd 7a5d 803d
