model/1721471486_model-aapl.pth (torch, 174356 bytes, 5 tensors)

lstm.weight_ih_l0 f4 [400, 5]
00000000: efc8 a3bd a81e 52ba fadd 05bc 860a f3bd
00000010: 1d91 b6bc 9aae 4abd 9c9c f9bc 5665 d1bd
00000020: f72b 9ebc 3c54 a33e 248c 9e3d 6b0b d3bd
00000030: 38da 023c 5488 86bd ed69 f9bd 5d53 01be
00000040: 7679 18be d8e6 16be c665 3bbe 848e 423e
00000050: 508e 9a3c 312b 8fbd 708a 76bd 3c13 8d3d
00000060: 6841 35bf 53ac d0bb 96c5 3fbe f101 72bc
00000070: e668 debc ba6e 363f 3b07 293b e50b 433c
00000080: 107e 07be e20a 93bd 0598 d13c c673 7abd
00000090: 6c9f 35bd dd1c bbbd 98d2 80bd b097 a7be
000000a0: 32bc 88bd 1655 4cbe 875a 0abe e85f 4fbe
000000b0: 20ae 2bbe 8516 f3bd f230 8abd 96cf f1bc
000000c0: f0e9 10be 99f5 b93d 99d8 283e 1c10 d83d
000000d0: 8203 9a3d 30eb 9a3d c7cb 393e 75f5 cfbc
000000e0: c0b0 c33c bdbf ca3c 451b eabc c315 a6bc
000000f0: 5f59 82bd 029b 88bd b016 a5bd f512 c3bd
00000100: 8332 37bf 0b59 193d b386 a2bc b9c4 b5bd
00000110: a6b2 0c3d 784f 1cbe 906f 29be 5a92 5abd
00000120: 92f5 7bbe cef1 02be 3463 133a b253 65be
00000130: 2220 a4be a0b5 56be b821 26be 5fe6 b1bd
00000140: aa6a 3ebe c883 0ebe 42da 2bbe ac8d 72be
00000150: 6c0d 9b3c 42ae 6f3d 4823 a63c 63af 00be
00000160: 08bb 33bd 7a46 a13d 93c0 473c b51e 27bd
00000170: b09e 423d f4e0 cabc bfc3 013e 0e48 36be
00000180: 0957 8fbe 7d8c 21be 8da9 40be 3fa9 5c3d
00000190: 02db 003d bda7 1cbd 09cd adbc e6cf 7a3d
000001a0: 1e2f 71bd 4238 8fbd 14c3 2cbd e541 4dbd
000001b0: ca2c 5d3d deea 903e c2ca 23bc e561 38be
000001c0: d597 82bd 2aec 89bd 13ce 69be db42 89bd
000001d0: 0749 e0ba 79b2 d6bd 52f2 56bd 0d97 24bd
000001e0: 0e54 02bd c99e b0bd 3081 973c 8068 123d
000001f0: 0588 d23d 9455 aebd 37e5 f2bd 7618 26be
00000200: c381 aebd b5a7 d7bd 565a f8bb 7ab1 b13d
00000210: 80b5 003c 7f8f 6b3c 2865 8bbe 6ce8 97bd
00000220: 6b17 5bbd 718d a6bd d32d 67bd e615 30be
00000230: 156b 373c 893d 86bc 2c78 233d 7930 513c
00000240: d79b 11bf d545 2ebe 318c 00be e2f2 29bd
00000250: f26e 4c3c 6861 1c3e 2470 0b3d 43d0 913c
00000260: b33e 4d3d f9b6 e3bc 8eea f9bd a92c e4bc
00000270: ab20 9fbd 29ea 7dbd 7ae1 43bc bed6 aebd
00000280: 02d0 2fbe 0c39 5bbe 0f14 76be 78f0 2dbe
00000290: 7ee6 8c3e ab17 4f3d 61c4 43bd 5f5e 843d
000002a0: 7208 fa3c 0696 9fbd 6325 8bbd db4c 6abe
000002b0: b860 cebd 8367 95bd 8e3e 95be 560f c7bd
000002c0: 3dd8 54bc d1b5 e7bc 07ea 09bc d1c2 463d
000002d0: 4781 9ebd ffa5 1cbe 5041 59bc 16fa 2abd
000002e0: 2ae8 273e 0d2a a2bd 1f10 19be 4686 d6bd
000002f0: 361d 00be 34bd 19be fce3 0c3d c6e5 01be
00000300: ffe3 183d 749c 99bd 56c3 b13c 06a5 83be
00000310: f34a 34be f0c1 73be b39c 23be 5412 a6be
00000320: 0e05 33be 5e93 1dbe 7387 82bd 861a dbbd
00000330: 42ce 7bbd 6d55 063d 7a2e b63c b7d2 a8bc
00000340: fd3f bfbc 3a06 a33d a649 10be dcc1 34bd
00000350: 5d3b 93bc d7b7 39bd f726 54be 0307 45bd
00000360: 807c a53b 31da eebc a9df bdbd 6215 66bf
00000370: 4f7d be3d 1114 313d 6f96 753d d455 0e3c
00000380: b404 403e 5cc1 793b fa5b f4bd 22f6 e0bd
00000390: 594a b7bd 2b42 86be ca98 a9be 4dd7 34be
000003a0: 13dc 4dbe 95fa 8dbe 1dfa 68be 5ca4 e3bc
000003b0: e39c 8d3d c1d7 8b3d a591 1f3d 093d 0abd
000003c0: aabb 1dbe 1555 8bbd 06c0 f2bd f232 13be
000003d0: bc07 b4be 1cd9 01bd 5ab4 93ba ecb5 0a3d
000003e0: 537a 0bbe 38fd c13d df18 d03c 968b c9bd
000003f0: 05d1 e5bd de09 e8bc 7946 56be 4276 8abd
-0.079973094 -0.00080154324 -0.008170599 -0.118672416 -0.022285992 -0.04948292 -0.030470185 -0.102244064
-0.019308073 0.31900203 0.077415735 -0.10304912 0.007986598 -0.06568971 -0.12178407 -0.12629457
-0.14890084 -0.14736497 -0.18300542 0.18999678 0.018866688 -0.0699066 -0.060190618 0.06888434
-0.70802927 -0.006368199 -0.18727717 -0.014770971 -0.027149629 0.71262705 0.0025791663 0.011904691
-0.13231683 -0.0717981 0.025585184 -0.061145566 -0.04434149 -0.091363646 -0.062901676 -0.32732916
-0.066765204 -0.19954333 -0.13511096 -0.20251429 -0.16765642 -0.1186953 -0.06747617 -0.02951793
-0.1415174 0.09080047 0.16488875 0.105499476 0.075202 0.0756439 0.18144141 -0.025385598
0.023887992 0.024749631 -0.028577456 -0.020274049 -0.063647024 -0.066701904 -0.08060968 -0.095251
-0.7156145 0.037438434 -0.01983962 -0.088754125 0.03435006 -0.1526469 -0.16546464 -0.053362228
-0.24605396 -0.12787554 0.00056223874 -0.22395208 -0.32055765 -0.20967722 -0.162238 -0.08686518
-0.18595377 -0.13917458 -0.16782477 -0.23686856 0.018927298 0.058515795 0.020280495 -0.12566905
-0.04387954 0.078747705 0.012191909 -0.04080077 0.047514617 -0.02476547 0.12672327 -0.17800924
-0.2799609 -0.15776248 -0.18814678 0.053872343 0.031458862 -0.038245905 -0.021215932 0.061233424
-0.058882825 -0.06993152 -0.04217823 -0.05011167 0.053997792 0.2830419 -0.009997072 -0.18006094
-0.06376616 -0.06734498 -0.22832517 -0.06702205 -0.0017111608 -0.1048326 -0.05247719 -0.040183116
-0.031818442 -0.08624036 0.018494219 0.03574419 0.1027985 -0.085124165 -0.118601255 -0.16220269
-0.08520844 -0.105300345 -0.0075791283 0.08676429 0.007855773 0.014377474 -0.27225614 -0.07417378
-0.05348913 -0.081324466 -0.056440186 -0.17195854 0.011194964 -0.016386764 0.039909527 0.012767904
-0.5687842 -0.17018826 -0.12553479 -0.041491397 0.012477623 0.15271533 0.034042493 0.017799502
0.050108623 -0.02779721 -0.12202941 -0.027853327 -0.07769903 -0.06199089 -0.011955613 -0.085370526
-0.17169192 -0.2140848 -0.24031089 -0.16986263 0.27519602 0.05055968 -0.047794703 0.06463312
0.030521605 -0.077922866 -0.0679424 -0.2288088 -0.100770414 -0.07295134 -0.29149288 -0.09719722
-0.012991008 -0.028284939 -0.008417613 0.048525635 -0.077395014 -0.15297697 -0.013260201 -0.041742407
0.16397157 -0.07918177 -0.14947556 -0.104748294 -0.12511143 -0.15013582 0.03439711 -0.12685308
0.03732681 -0.07500544 0.021699589 -0.2571184 -0.17606716 -0.2380445 -0.15977745 -0.32435858
-0.17482397 -0.15388247 -0.06373491 -0.10698418 -0.061476 0.032796312 0.022238959 -0.02060829
-0.023345942 0.07960172 -0.14090595 -0.04413019 -0.017972643 -0.04534134 -0.20717989 -0.04810239
0.005050242 -0.029156776 -0.092711754 -0.8987638 0.093012445 0.043232027 0.059957918 0.008687455
0.18751794 0.0038109636 -0.11931606 -0.10984446 -0.089497276 -0.26222357 -0.3312438 -0.17660256
-0.20103483 -0.2773024 -0.2275166 -0.027788334 0.069146894 0.06828261 0.038957257 -0.033749614
-0.1540362 -0.068033375 -0.11853032 -0.14374903 -0.3516215 -0.031701192 -0.0011268959 0.0338649
-0.13620882 0.09472126 0.025402484 -0.09841077 -0.11221508 -0.028325018 -0.2092532 -0.06760837

lstm.weight_hh_l0 f4 [400, 100]
00000000: 2825 f0bd 7c5a 99bc 92b3 e63d 85e3 793d
00000010: 2aa2 0c3d 3cf9 0abe 9744 c13c bbc5 64bd
00000020: fe18 cc3c 438d 17bd 730c b2be cae8 9c3d
00000030: df6e cbbd 1b9d 7ebd 2758 1e3d aacd 293d
00000040: add3 e0bd d0ee 14bd 1ebc d4bd dc5d 213d
00000050: 6b9b abbd 9a32 2dbd 0709 2fbe 99eb 40bd
00000060: 48fd 4bbd fb65 323d 5aed 0bbb 9805 43bc
00000070: fc52 34be 0296 153d f05d d23d 419b 04bd
00000080: 0626 fc3d 5077 4b3d e239 383e 435e fb3d
00000090: 2042 52bd 957c 1cbe 7a5d e13c 358f 1fbe
000000a0: 6395 96bc 4fb9 ecbd 4a29 623d 02d1 e6bc
000000b0: 7b88 913d 88a7 97bd bff0 0abe 42fa 37be
000000c0: 474a 1f3d 11d6 ebbd f212 d7bc ed7b 1abd
000000d0: 7341 333d 7cfa 98bc a985 8a3d 3937 d2bd
000000e0: 0b18 aabd 2dbe 413d 0742 bfbd 00c9 263e
000000f0: 0751 8c3b 2893 20bd 1aee 5e3d 3371 88bd
00000100: b181 bb3d f86d 583e a0f2 1dbc bd5a 88bc
00000110: bc14 043d 90e4 c5bc b3b7 9abc 8598 ca3d
00000120: 22ee 0bbc 8608 763d 598a 613d 1514 99bd
00000130: b54c 83bd 26f5 45bc 4a38 1bbd 256e e7bd
00000140: ed4a c73d 129f f8bc 76ea 2ebd 0944 92bd
00000150: 068f 033e 3f65 09be 59c9 febd 3d2a 2bbd
00000160: 18ff 713d 5d96 6e3d e4fe 99bd 062e 13bd
00000170: aa5f 593d bde3 57be a463 12be 87cd d13d
00000180: cc98 c73d 8359 55bd 9122 0d3e 6b4e 6abe
00000190: 451b 4cbd a1e5 a23c e8c3 4a3d 7f24 f83d
000001a0: 7dcc 68be c57a c9bd 730c 59bd 8821 b1bb
000001b0: e62c 3fbd d8ca 753c 5410 0b3e 4bf6 813d
000001c0: 7e73 1e3d 8fd5 133e c61a 4c3c 9c97 4cbd
000001d0: 034b 1abd 7219 4b3d 48b6 15bd 0c4d 53bd
000001e0: db52 623e d9ed 90bd 0744 073e 1232 ea3d
000001f0: f76a 1b3d 8a6c 983a b33d 72bc 7fea 82be
00000200: 0b15 943b f5d6 983d f5c1 56be 9881 4dbd
00000210: 0c75 ca3d 3a72 6c3d 5b76 86b9 d589 833d
00000220: 9374 b9bb 61d8 ce3c 1120 d33d dc81 433d
00000230: 5729 c03d 35da cebd b0bf 7c3e dcef 23bd
00000240: 9934 49bd d272 54bd 92ec dc3c 13f1 9cbd
00000250: 9150 c3bd da81 5dba 3838 8a3d 6a41 f83c
00000260: 7d8f 5ebe e4eb a2bd f789 91bd 419b 0a3d
00000270: aeb6 1ebb cb0a 103e a93f 7a3e c0d9 88bd
00000280: 51b2 2f3d d323 413b c30f 6b3b b9d6 813d
00000290: f769 d93d f327 c4bb 64d9 74bd 991c 153e
000002a0: 3811 8d3d 802e 83bd ea0c 083d 067a 713d
000002b0: 4247 9a3d debe 82bc b95d 903b afb2 59bd
000002c0: d80f 50be b323 a43c 1260 66ba 43f2 ab3c
000002d0: 8931 033d 7985 693c d8ec 363c 3325 59bd
000002e0: 22e5 d03d 99d5 a23d 9960 bd3d 44a4 d33c
000002f0: bd74 2d3d fa4b 103d 4201 5f3d 2cc4 c7bd
00000300: a6fd c43d 91b2 8dbc 39d6 8a3d 898c adbd
00000310: 143d e03d 9b2d c7bd 1766 44be 295b 40bd
00000320: 6c29 253d 7147 ee3d 004a 3a3c 9721 dc3c
00000330: 7721 36be 4ae0 b3bc 3114 45bd 694a dabd
00000340: 2126 5a3c 20ed a6bc b66e fb3b 85d8 08be
00000350: aace ef3d 3eeb b33d 0ca3 0abe 9182 923b
00000360: 363b 0ebe b3c0 533c 5170 bbbc 4fc4 97bd
00000370: 5b8e 0a3e c6dc 023d b28b 45bb b381 d83c
00000380: e520 563c a2e5 b6bd df52 85bd 2a9b d9bd
00000390: a9bc 883d e14c 84bd d871 e8bd 1418 9d3d
000003a0: 958e f63c 06ab 943b 4212 e7bd 9eed 9e3d
000003b0: da0b 893d 7a63 e13d 8436 153c 6663 7c3d
000003c0: 26d3 083e 3ceb 083d c1de eb3c 43a8 3a3d
000003d0: a122 58bd 647e 993d 7189 5abd 996a a4bd
000003e0: 013e da3c 8d9f 933b 0678 7d3c 5adc c93d
000003f0: 2d38 3fbc c4ee 5aba eeec 183d ec6a 043e
-0.11725837 -0.018719904 0.11264719 0.061007995 0.03433434 -0.13571638 0.023592276 -0.055852633
0.024914261 -0.036999952 -0.34775123 0.076615885 -0.09933256 -0.062161546 0.038658287 0.041455902
-0.10977874 -0.03636056 -0.10387443 0.039396152 -0.08379253 -0.042284586 -0.17093287 -0.047099683
-0.049802095 0.043554287 -0.002135119 -0.011903189 -0.17609781 0.03652001 0.102718234 -0.032374624
0.1231194 0.049674332 0.1799083 0.12273838 -0.051332593 -0.152819 0.027510393 -0.15581973
-0.01838178 -0.11558782 0.055215158 -0.028175835 0.0710611 -0.07405001 -0.135684 -0.1796656
0.038889196 -0.11515439 -0.026254151 -0.03771584 0.04376359 -0.018674128 0.06763775 -0.10264439
-0.08305367 0.047300506 -0.093387656 0.16287613 0.00428212 -0.03920284 0.05442629 -0.06662216
0.09155596 0.211357 -0.009640366 -0.01664483 0.032246336 -0.024156839 -0.018886423 0.09892372
-0.008540662 0.060066722 0.05506358 -0.074745335 -0.06411115 -0.012082374 -0.03789548 -0.11300305
0.09731088 -0.030349288 -0.042704068 -0.07141883 0.12847528 -0.13417529 -0.12440748 -0.04178833
0.059081167 0.058248866 -0.0751932 -0.035932563 0.053069748 -0.21082969 -0.14295822 0.10244279
0.097459406 -0.05208732 0.13782717 -0.22881477 -0.049830694 0.019884886 0.049503237 0.12116336
-0.22734256 -0.098378696 -0.052990388 -0.0054056086 -0.046673678 0.015001975 0.13580447 0.06345805
0.03868436 0.14436935 0.012457555 -0.049949273 -0.037669193 0.049584813 -0.03655079 -0.05158715
0.2210192 -0.07076616 0.13209544 0.114353314 0.037943806 0.0011629027 -0.014785218 -0.2556953
0.00451911 0.07462875 -0.20972426 -0.05017242 0.09885606 0.057726122 -0.00025646653 0.06422774
-0.0056596487 0.025249662 0.103088506 0.047731265 0.09382885 -0.101002134 0.24682498 -0.04002367
-0.049122427 -0.051867314 0.026968274 -0.07663169 -0.09536851 -0.00084498303 0.06749004 0.03030463
-0.21734424 -0.07955149 -0.07106393 0.033839468 -0.0024217772 0.14066617 0.24438347 -0.066821575
0.042894665 0.0029470816 0.003586755 0.06339783 0.10615914 -0.0059862076 -0.059777632 0.1456169
0.0688805 -0.064053535 0.03321544 0.05895426 0.075331226 -0.015960153 0.004405704 -0.05314892
-0.20318544 0.020036554 -0.00087881193 0.020989543 0.032029662 0.014253014 0.011164866 -0.05301399
0.101999536 0.07950897 0.0924694 0.025835164 0.04234766 0.035228707 0.05444456 -0.09754214
0.09618692 -0.017297061 0.06779141 -0.084740706 0.1094915 -0.097254954 -0.19179569 -0.046961937
0.040322706 0.1163472 0.011370182 0.026871486 -0.17786203 -0.021957535 -0.04811496 -0.10658724
0.013314755 -0.020376742 0.00767311 -0.13363846 0.1170934 0.08785103 -0.1353876 0.004471131
-0.13889775 0.012924361 -0.022880705 -0.0741049 0.13530867 0.031948827 -0.003014308 0.026429033
0.013069366 -0.08930518 -0.06509947 -0.10625298 0.06676609 -0.06459976 -0.11349839 0.07670608
0.030097285 0.004536989 -0.11282779 0.07760166 0.06691714 0.11005302 0.009107236 0.06161823
0.13361797 0.033427462 0.02879274 0.045570623 -0.0527674 0.0749481 -0.05335373 -0.080281444
0.026640894 0.004505104 0.01547051 0.09856482 -0.011671108 -0.0008351619 0.03733533 0.12931412

lstm.bias_ih_l0 f4 [400]
00000000: f38d 723d d44d 0bbe d08d b8bd ce46 b0bd
00000010: 6f8c 503d e53e e43c 4392 003d a6dd 8bbd
00000020: b841 98bd 4131 2fbd 3bab 5dbd 6e27 303d
00000030: ab8a 633d ff47 ee3d a8d6 bfbd d8bc d3bd
00000040: 40ce 21be a0ff b8bd 4967 19bc b277 1cbe
00000050: 90ef dabd 6cdd e43d 54af efbd a907 ae3d
00000060: f45d 59bd 02dc 80be 5d03 acbb 5b9b 18be
00000070: 1418 1abd dc15 433d 7261 17be 9a30 a8bd
00000080: aedf 97bd 9bee d1bd 93bc aebd 04c7 8bbd
00000090: cdc7 513d e515 92bb 45d2 7abc 2e0e 18be
000000a0: 2239 25bd 4ae5 9bbd ee7e e5bd 37a6 343d
000000b0: 78ab ab3d 0da4 a8bd a44d 08be c41d a9bd
000000c0: fa8b 14be 248f b53c de12 34bc 97d7 a2bd
000000d0: 3d65 7b3c 8691 08bd 824e 92bd 32f7 56bc
000000e0: a8ce 993d 4ae3 0ebe cced 75be 0332 c9bc
000000f0: 4c61 09be 44b2 dfbd 50b8 03bc 6f97 2f3d
00000100: c494 e739 5859 7bbd e987 c03d c117 633d
00000110: 8ded df3c 2a4a e2bd 13f4 60bd e551 21be
00000120: 03f2 acbc 0430 053d d337 9cbd 47d9 0abd
00000130: eeb3 2fbd 05cb 5d3b 1f67 33be e073 c03c
00000140: 6af5 2dbe cd20 98bc 169e 89bd fb6a 9abd
00000150: e938 b7bd 5cd5 a3bd ee07 57be 3426 143d
00000160: 6ff1 7f3d 5972 773c fcc2 613d 51c0 f0bc
00000170: 037c 33be 7d6c 0bbd f864 12be 1725 38bd
00000180: 50fc 13bd dd81 0cbe 039b 02be 3468 c9bd
00000190: 499e 03bc 7ebc 53bd 2e35 773c 0408 d53a
000001a0: d655 2abe a0dd 93bc ff22 15be 25b3 ebbd
000001b0: c99b d9bd 9c7a e83c a1ad 9d3e 96f8 4bbc
000001c0: 950d 25bb 290f 42bc 721e 89bd c633 c4bd
000001d0: 954c 14be caf5 dcbb 1bd8 2d3d 039b 37be
000001e0: dce5 aabd 456f c3bd febb 09bd 55a2 27be
000001f0: 5e38 883d 985d 12be c034 b1bd a51a 24be
00000200: b356 16be af9b 48bd 7f28 2b3c 1fba ee3c
00000210: 0445 0dbe 9388 adbc 47ff 11be 8dd8 793c
00000220: 377e d3bd 569e 80bc 6ec0 683c bbb0 dcbd
00000230: 811f 73be 22ea 853d 6ce6 32be 02d7 ac3c
00000240: 4b9c 3cbd fbe9 18bd 9a11 13bb 3c23 963d
00000250: 6ab8 65bd 6229 853d 4b8b 353d c345 9dbc
00000260: 8fb3 2ebd 23c8 5ebd 835a 31be 07b7 70bd
00000270: 54a4 e6bc 8438 12be 182c bebc 7d68 7abd
00000280: 8477 2fbe 54b5 51bc c6d4 6fbd 3d54 b5bd
00000290: 1ebb b0bd c920 29bc 9a98 1abd 05e9 5bbd
000002a0: 38f4 24be 359b 44be ff09 363d 0909 4fbc
000002b0: 8fd2 14be a729 cbbc e1e9 0abe 6cb2 50bc
000002c0: a326 513d cd69 18be f6c0 ebbd f770 17be
000002d0: ae46 09bd ff46 90bd 0c14 09bd 64f0 d0bd
000002e0: 3e97 b3bb a96f fcbd 2f4d 00bb ee9e b6bd
000002f0: 70d2 acbc 4ecb f63c 45f7 67bc 4ac6 2b3d
00000300: bb5e 02be c770 9b3b afb4 c8bd 934f 24be
00000310: f1a0 b2bc 38da 26bd 6abb cbbd 896f 2b3b
00000320: e74b 26bd c944 303c e281 333c 0cc0 38bd
00000330: b6a5 453d 7e68 9bbb 74bb f73c 1b4f 5b3c
00000340: 5993 90bc 6bdb d7bc 7cf8 c83c efd5 83bd
00000350: 586a 8ebd cee6 f5bc c90b 033e 5a12 9fbd
00000360: 0bfe 9e3c 873c a1bd 89ae 563d dbdc 14bc
00000370: 3e28 b8bd d7e2 e13d 5860 3abc 98a1 b53c
00000380: ffb2 823c f74e 443c 36d0 86bc d415 993d
00000390: cb1b 09bc 54f2 fbbc b712 6c3d 7cc9 48bc
000003a0: 49dd 13be 7168 b93d d07e f93c b85d c0ba
000003b0: 351e c3bd 6db1 aa3d 8ea5 45bc b219 983d
000003c0: 03b8 2dbc 0a45 793d 5abc e7bc c693 b3bd
000003d0: b36e 1f3d abc6 81bd 8f3e 7cbc 7168 c23d
000003e0: 4f0d b8bd 27de b03d 1644 253d ac6f 403c
000003f0: 83bd 083d 6f29 453c fc96 713b a32d 35bd
0.059217405 -0.13603908 -0.090114236 -0.08607255 0.050915178 0.027862022 0.031389486 -0.068293855
-0.0743441 -0.04277158 -0.054118376 0.043006353 0.055552166 0.11634826 -0.09367114 -0.103387535
-0.15801334 -0.090331316 -0.009363004 -0.15280035 -0.10690224 0.11175045 -0.11703363 0.08497555
-0.053068116 -0.25167853 -0.0052494244 -0.14903013 -0.03762062 0.04762827 -0.14783266 -0.08212395
-0.074157104 -0.102505885 -0.085320614 -0.068250686 0.051215935 -0.0044581764 -0.015308921 -0.14849159
-0.04033769 -0.07612093 -0.112058505 0.044103827 0.083823144 -0.08234415 -0.13310868 -0.082576305
-0.14506522 0.022162981 -0.010990826 -0.07951277 0.015343961 -0.033341907 -0.071438804 -0.013120459
0.0751012 -0.13953891 -0.24016494 -0.02455998 -0.13416022 -0.10922673 -0.008039549 0.042869028
0.00044170592 -0.0613645 0.09400923 0.055442575 0.027334953 -0.11049302 -0.054920267 -0.15753897
-0.021111494 0.032516494 -0.07627835 -0.033898618 -0.042896204 0.0033842933 -0.17519806 0.023492754
-0.1698815 -0.018570328 -0.067196056 -0.07539936 -0.089464016 -0.079996794 -0.20999119 0.036169246
0.06248611 0.015102946 0.055117592 -0.029388579 -0.17527775 -0.03403901 -0.14296329 -0.044957247
-0.036129296 -0.13721414 -0.12754445 -0.09834328 -0.008033344 -0.051693432 0.015088363 0.0016252999
-0.16634306 -0.018050015 -0.14564131 -0.115087785 -0.10625417 0.028378777 0.3079653 -0.012449404
-0.0025185097 -0.011844435 -0.0669526 -0.095801875 -0.14482339 -0.0067431675 0.042442422 -0.17930226
-0.083446234 -0.09542707 -0.03362655 -0.16370519 0.06651376 -0.14293516 -0.086526394 -0.16025789
-0.1468151 -0.048976596 0.010446667 0.029141484 -0.13795859 -0.021183288 -0.14257537 0.015249384
-0.10326808 -0.0157005 0.014206035 -0.10775896 -0.23742487 0.06538798 -0.17470711 0.021098617
-0.04604749 -0.037332516 -0.0022440911 0.07330939 -0.056084074 0.06502034 0.044322293 -0.019198304
-0.04265171 -0.054390084 -0.17319684 -0.0587683 -0.02815453 -0.14279372 -0.023214385 -0.061134804
-0.17135435 -0.01279958 -0.058552526 -0.08853958 -0.0862944 -0.010322758 -0.03774319 -0.05368902
-0.16108787 -0.19199832 0.044443127 -0.0126364315 -0.14533447 -0.024800135 -0.1356578 -0.012737852
0.051062237 -0.1488411 -0.11511414 -0.14789186 -0.03351467 -0.070447914 -0.033466384 -0.10202101
-0.005480676 -0.12325985 -0.0019577255 -0.08917032 -0.021096438 0.03012624 -0.014158075 0.04193715
-0.1273145 0.0047436687 -0.09800088 -0.1604598 -0.021805258 -0.040735453 -0.09947856 0.002615901
-0.04059973 0.010758587 0.010956259 -0.045105025 0.048253737 -0.004742681 0.030240752 0.013385559
-0.017648386 -0.026349744 0.02453255 -0.06437289 -0.06953877 -0.030017283 0.12797464 -0.07767172
0.019408247 -0.07872873 0.052412543 -0.009085859 -0.089920506 0.110295944 -0.011375509 0.02217178
0.015954493 0.011981717 -0.016456705 0.074748665 -0.008368443 -0.0307552 0.057635035 -0.012255069
-0.14439882 0.09053124 0.030455977 -0.0014676368 -0.09527246 0.083346225 -0.012063397 0.07426776
-0.010602954 0.060856856 -0.028288055 -0.0876842 0.03892393 -0.06336721 -0.0153957745 0.09492577
-0.089869134 0.08636122 0.040348135 0.011745375 0.033383857 0.012033804 0.0036863675 -0.044232976

lstm.bias_hh_l0 f4 [400]
00000000: dc06 e6bd 3f3a ddbd b88c e5bc 1844 db3c
00000010: 2536 563c dbec 053e d51a 5ebd 7a54 2cbd
00000020: 412a d3bd 2339 a93c 9582 073e 9f98 cebd
00000030: f1b8 543d c797 57bd 1bba 2abe ec84 d1bd
00000040: f8c9 dcbd 1073 c9bc 0951 323c d3d7 5fbe
00000050: a9a4 31be dcdf b43c 12ab 2abd 919f b4bb
00000060: 6817 46bd bf0f 5dbe 45c8 523c ff86 46be
00000070: cc91 77bd d4e9 513d 234a 1fbe ac46 d4bc
00000080: 1370 3cbd 6ddb 1bbd 41d4 3ebe d2dd d03d
00000090: 3344 edbd c4c6 28bd e798 e83a 3a66 1dbe
000000a0: d609 073d d931 643b ed6d 21be a725 99bc
000000b0: a7ed 33bc 5b48 d0bc befd 05be 264a 93bd
000000c0: 9a48 56be 502d 823d eb95 1a3d 5285 20bd
000000d0: 7dce 203c 1e55 00bd 0dec 09be 9c43 a9bd
000000e0: 9064 a53d 67bf e5bc 0ae8 08be 3c0e 83bd
000000f0: b334 44bd bd09 29be f2d8 4e3d 8cc4 1bbd
00000100: ba8b 3fbc b347 1abd 3dbc 23bc d9e7 363d
00000110: ea86 5c3a 88b9 bdbd 4a82 b9bd 4a16 31be
00000120: 2273 fcbd e462 343c 87b3 c53c a941 7b3d
00000130: 56a2 b5bd b32c f6bd 5776 36be 67bf 2abb
00000140: 912d abbd 054c bb3c 727f babd 54fc fb3d
00000150: d5a9 f4bb b865 0dbd 0ebb 50be 8a27 a3bd
00000160: e7d7 1fbc e64f 00bd 35bb 3f3c 688e b3bd
00000170: bac3 60bd 6821 80bd 71d0 64be af2e c8bd
00000180: d6d6 6f3d 9037 72bc 463e c7bc 92ea b4bd
00000190: 4859 7ebc 71b6 c6bd fce6 19be 95bc 1bbe
000001a0: 8ea1 c0bd 806c 0b3e bebf 97bd 7c8d 62be
000001b0: cf54 4dbd beeb 363d 2d49 9e3e 8412 213c
000001c0: a62e 91bd 4d9a b8bd 8060 44bd deb2 62bd
000001d0: 4e10 40be 5f46 99bd d171 713d 3c1b acbc
000001e0: f482 f4bd 79d2 7ebd ab44 3ebe 98b2 b4bd
000001f0: 92ac 893d cd7d 87bd b6db e0bd 290c 36be
00000200: 5e2f 19be 9814 a53c f007 e7bd 717a 2d3d
00000210: 341d 28bd c727 b9bd f6e5 7dbd 60af 8cbd
00000220: 1653 4bbd 6a44 5fbd de9d 6bbd 173c 30be
00000230: 5f2b c2bd 4b14 42bb 0d05 50bd 8175 e7bd
00000240: 7b13 d53c 62b0 97bd 0cb8 5bbd 6bb7 e6bd
00000250: 1560 51be 5b58 713d c4bb 0fbe 936e c8bd
00000260: 10c5 33bd 654f 54bd 4ac0 b3bd 0ffd bfbd
00000270: c886 7d3d 7a32 d5bd c751 f3bd a7be 92bd
00000280: 75d5 03be dab0 e33c 40cb 5cbd 03f6 c8bd
00000290: 31f2 08bd e0f2 a53d ae11 b4bc 6682 f93a
000002a0: 4092 1ebe 53e3 18be b63c f4bd 5e76 2dbe
000002b0: 87b9 81bd cc71 a33b 435b 253c 8d40 c0bb
000002c0: 8b45 da3c bb0d 5ebd 5cab 25bd 5c2e 7fbd
000002d0: ebf0 65bd 4ba7 203d 9403 96bd 64d7 90bd
000002e0: ee2c 10be 1a88 50be cfc5 32bd c59b 8bbd
000002f0: 8933 273d cf23 d2bd 79c3 dcbc 9875 a63d
00000300: ba91 f6bd 8516 d3bd 0855 21be 9327 83bc
00000310: 8335 023d bbd6 4abe f7a5 a0bb 0b70 66bd
00000320: bd23 5e3d 0bc4 68bd d7f4 a6bd 0f8c 013d
00000330: 6e83 a9bb c06b 923d 6a75 be3c dc62 fdbb
00000340: 5580 de3a 0825 97bd ee5a e6bc a7a7 d2bd
00000350: 6a07 b93d e4d0 533d 79b9 11bd 289e 8abd
00000360: 9bfe 483d a95b acbd 9085 013e 587a cdbd
00000370: 92cf 8abd 3d63 683c b50d c2bc b904 f23c
00000380: da96 803d 85db dcbb 02e7 da3d f97e ff3b
00000390: a6f6 323d 302c acbd 62c9 bc3d 6e9c 9ebd
000003a0: a898 193d f20d 6fbd 32c7 d3bc 5378 bbbd
000003b0: e0a1 08bd b3d0 4e3d 578f 1abc 86c5 723c
000003c0: 2619 ab3d 18bb b33d 8a9b 73bd 214d 8c3c
000003d0: 9b86 833d b53e 6abd 3ac1 f83d 5318 2dbd
000003e0: 996c 9e3c 2700 5c3d 6c03 04bc ad56 933d
000003f0: 64a0 0b3d 774c 1abb 0e60 a2bd 7c30 d7bc
-0.11231777 -0.10802125 -0.028021201 0.026765868 0.0130744325 0.13078634 -0.054224808 -0.04207275
-0.10310794 0.020657128 0.13233407 -0.10087704 0.051934186 -0.05263498 -0.16672556 -0.10230431
-0.1078071 -0.024590999 0.010883578 -0.21859674 -0.17347969 0.0220794 -0.04166705 -0.005512186
-0.048362166 -0.21588038 0.012865131 -0.19387434 -0.060441777 0.051248387 -0.15555625 -0.025912605
-0.04600532 -0.038051058 -0.18635656 0.10198559 -0.115852736 -0.041205183 0.0017745764 -0.15371028
0.032968365 0.003481975 -0.1576459 -0.018694712 -0.010981954 -0.025425127 -0.13085076 -0.07191877
-0.20926133 0.06356299 0.03774063 -0.039189644 0.009814856 -0.031331174 -0.13468952 -0.082648486
0.080758214 -0.02804537 -0.13369766 -0.06399199 -0.04790182 -0.16507621 0.050499864 -0.03802924
-0.011691028 -0.037666034 -0.00999361 0.0446547 0.0008412438 -0.09263903 -0.09058054 -0.17293659
-0.12326647 0.0110099055 0.024133457 0.061341915 -0.08868854 -0.120202444 -0.1781858 -0.0026054026
-0.083583005 0.022863397 -0.091063395 0.12303987 -0.0074665346 -0.034520835 -0.20383856 -0.07966526
-0.009756065 -0.031326197 0.0117023485 -0.08767396 -0.05487416 -0.06256372 -0.22345139 -0.09774529
0.058554493 -0.014783755 -0.024321686 -0.08833803 -0.015524216 -0.09702767 -0.1502952 -0.15208657
-0.09405814 0.13615608 -0.07409619 -0.22124285 -0.050129708 0.044658415 0.30915204 0.009831075
-0.070889756 -0.090138055 -0.047943592 -0.055346362 -0.1875622 -0.07484125 0.058946434 -0.02100908
-0.1193904 -0.06221244 -0.18580882 -0.088231266 0.06722368 -0.066157915 -0.109794065 -0.17778076
-0.14959475 0.020151421 -0.11280811 0.042353097 -0.041043475 -0.0904079 -0.061986886 -0.068693876
-0.049639784 -0.054508604 -0.0575236 -0.17210422 -0.09480929 -0.0029614146 -0.050786067 -0.11301709
0.026010266 -0.07406689 -0.053642318 -0.11265453 -0.20446809 0.058922153 -0.1403647 -0.09786715
-0.043889105 -0.05183353 -0.087769106 -0.09374439 0.061896116 -0.10410018 -0.11880832 -0.0716527
-0.12874396 0.02779429 -0.05390477 -0.09812548 -0.033434097 0.08102965 -0.021981087 0.0019036054
-0.15485477 -0.14930467 -0.11925642 -0.16939685 -0.06334215 0.004987931 0.010092559 -0.00586707
0.026644489 -0.054212313 -0.040446624 -0.06230007 -0.05613796 0.039222043 -0.07324901 -0.070723325
-0.1407964 -0.20364419 -0.043645676 -0.0681682 0.040820632 -0.10260736 -0.026948677 0.08127898
-0.12039514 -0.1030703 -0.15755093 -0.016010081 0.031789314 -0.19808476 -0.004902597 -0.056259196
0.0542333 -0.056827586 -0.08152168 0.03162771 -0.0051731383 0.07149458 0.023249347 -0.007732732
0.0016975502 -0.0738011 -0.02811953 -0.102858834 0.09034617 0.051712885 -0.03557727 -0.06768447
0.049070936 -0.0841592 0.12648606 -0.10033101 -0.06777872 0.0141838165 -0.023688177 0.029543268
0.06278773 -0.006740036 0.106885925 0.0077971187 0.043692254 -0.084068656 0.09218098 -0.0774468
0.0374991 -0.05836291 -0.02585182 -0.091538094 -0.0333575 0.050492 -0.009433589 0.014817601
0.08354406 0.0877592 -0.059474505 0.017126622 0.06422158 -0.05718871 0.1214623 -0.042259526
0.019338893 0.053711083 -0.008057456 0.071942665 0.034088507 -0.0023544112 -0.07928477 -0.026268236

linear.weight f4 [1, 100]
00000000: f22f 593d 4608 8bbd 8757 6bbd 03f1 4a3d
00000010: 2cfd d33d 1e63 163e 9ea1 69bc 4f48 04bd
00000020: 006f 21bb 08df 53bd 76d5 73bd acf6 3cbd
00000030: 5d1c b63d 84db 103e 33ff 303d 7512 70bd
00000040: cf17 933d 082f abbd 116a e13d e154 b8bd
00000050: 8b29 92bd f0aa 1e3e d50d 17bc d281 34bd
00000060: 5696 e63d 8e1d c3bb 3abd f83d d517 b63c
00000070: c862 5abd c7a5 afbd a716 e23c 09c2 a7bd
00000080: 2dea cbbd c8dd 15bd 72b8 65bd 2008 16be
00000090: b0f8 92bd ad38 823d 0d54 a2bc 5aed 383d
000000a0: 49e8 113c 9158 6f3d 005e 513b 0e87 9f3d
000000b0: 8396 143e 7c9e 86bd 4393 a53d f48c 9e3c
000000c0: c42c b13b 2787 b73d 6986 783d 868d 083e
000000d0: 919d 703d 4691 4e3d e0e9 2abc b987 40bd
000000e0: 51e4 e53d 4cfd 5f3d 1729 67bb 60b5 213b
000000f0: 61db aabd 9683 743d e79c e3bd 056d 02be
00000100: 999a 15bd 7ecb 17be 9729 943d e348 c7bd
00000110: ec44 cb3d 7651 c23d 7f3c 653d 4ca3 d4bd
00000120: 933e 4c3d d62f 193e 68bf e93d e78a f0bd
00000130: b29e a0ba fa39 fcbc f634 c73b df2a 9abd
00000140: b5ea 96bd 0282 87bd 069c 183d 203d bbbd
00000150: 140c ffbb ed53 003d 7da5 a33c a5a7 4a3d
00000160: 24a6 023e 881f 5ebd 8ac7 d83d a3a9 093e
00000170: 328c 0c3d 0c8f 533c fac7 61bc b5e9 1abc
00000180: 3644 d8bd 08a3 573d a091 9f3c 43ba 22bd
0.05302424 -0.067886874 -0.05745652 0.049546253 0.10351023 0.14686248 -0.014259724 -0.03229552
-0.0024632812 -0.05172637 -0.059529744 -0.046133682 0.088921286 0.14146239 0.043212127 -0.058611352
0.071822755 -0.0835858 0.11006559 -0.09000564 -0.0713683 0.15494895 -0.009219606 -0.04406912
0.11259143 -0.005954451 0.12145467 0.02222816 -0.05331686 -0.085765414 0.027598692 -0.08191306
-0.09956775 -0.03658846 -0.056084104 -0.14651537 -0.071763396 0.06358466 -0.01981547 0.04514823
0.008905479 0.058434073 0.0031946898 0.077894315 0.1451054 -0.06573197 0.080847286 0.019354321
0.005406948 0.08961325 0.06067506 0.13335237 0.058744017 0.050431512 -0.010431737 -0.047004435
0.112251885 0.054684922 -0.0035272294 0.0024674758 -0.083426245 0.059695803 -0.11113911 -0.127369
-0.03652439 -0.1482372 0.07234495 -0.09730699 0.09925255 0.09488194 0.055965897 -0.10382709
0.049864363 0.14959654 0.11413461 -0.117452435 -0.0012254326 -0.030789364 0.0060793115 -0.07527708
-0.073689856 -0.06616594 0.03725817 -0.09142518 -0.0077834222 0.031330038 0.019976372 0.049476285
0.1275869 -0.05422929 0.10584934 0.13443618 0.03431339 0.012912523 -0.013780588 -0.009455134
-0.10559885 0.052645713 0.01947862 -0.039728414
