model/1721473451_model-MSFT.pth (torch, 174356 bytes, 5 tensors)

lstm.weight_ih_l0 f4 [400, 5]
-0.019699845 -0.14842108 -0.092698134 -0.038940128 0.021437518 -0.07070517 -0.13111505 -0.100441
-0.048600662 -0.02859467 -0.10013477 -0.05155922 -0.14477669 -0.18411915 -0.20664044 -0.11380256
-0.030272227 -0.13226004 -0.12551044 -0.022318525 -0.09298951 -0.11640347 0.03332677 -0.1012518
-0.013023434 -0.025809076 -0.15207262 -0.138583 -0.14878534 0.05553205 -0.110329546 -0.009674646
-0.092966154 0.031962108 -0.037210304 0.082041726 -0.00020004249 0.065408036 -0.02626698 -0.012837774
0.019295435 0.009274104 0.0054990966 0.022101697 -0.095371984 -0.014180558 -0.08009091 -0.028363097
-0.072306 0.08971065 -0.060381446 0.00268594 0.060516488 -0.055620827 -0.015624787 0.047508128
0.030627478 -0.022043426 0.039921716 -0.09059353 -0.21718745 -0.16240075 -0.17643024 -0.0933503
-0.1886049 -0.12036286 -0.09148148 0.05757836 -0.065017454 -0.03379574 0.029845815 -0.08818205
-0.073729396 -0.05564644 -0.12501109 -0.1170754 -0.041185156 -0.12447884 0.010637886 -0.026067872
0.09372032 0.03841718 0.11300525 0.111628614 -0.08341047 -0.05155663 -0.07303427 0.041778896
-0.03449901 -0.037316617 -0.12555115 0.032867104 0.038376074 -0.0030317788 -0.13691479 -0.097113445
-0.034227517 -0.10193173 -0.011131339 0.11401499 -0.27982908 -0.2860479 -0.1521035 -0.32953912
-0.15702967 -0.0353123 0.041006837 -0.0008123808 0.0070019136 0.04245062 0.03695138 -0.07389646
-0.036926277 -0.043994367 -0.52776957 -0.038932614 0.03536008 -0.14950037 -0.095824294 -0.32065058
-0.079757355 -0.16591078 -0.09566066 -0.02709997 0.07434396 -0.06758316 0.018535065 -0.094077066
-0.08890402 -0.21893759 0.023832139 -0.10617707 0.050047103 0.0006385605 -0.14017776 -0.13329196
0.013624897 -0.12369737 -0.07132917 0.03158171 -0.06150203 -0.16754642 -0.11001598 -0.013109141
-0.14030258 -0.009789599 -0.037805494 -0.081349365 -0.002039494 -0.8129859 -0.15978742 -0.0302819
-0.052908786 -0.15579012 -0.04115507 0.045888036 -0.1042904 -0.018647408 0.052871704 -0.07308669
-0.025337392 -0.07078649 -0.14652 -0.064275965 0.008507189 -0.11121522 0.000516086 -0.12207419
-0.008849957 0.0016235816 -0.112298384 -0.102979526 -0.042307638 -0.034395274 -0.0121738 -0.045988
-0.22884174 -0.06517924 -0.23856218 -0.8099706 0.026216587 -0.0028610758 -0.08863541 0.02955766
0.03784701 -0.11101235 0.04877827 -0.066860944 -0.08556133 -0.093964145 0.023595022 0.078172795
-0.07296695 0.058054224 0.04724781 -0.07719818 -0.12203645 -0.03876165 -0.010385652 -0.4018646
-0.13654666 -0.11885559 -0.15372121 -0.009380319 0.0031058625 -0.077641584 -0.15594573 -0.10401277
-0.009786627 -0.011329053 -0.04189009 -0.013650864 0.0028678617 -0.13636675 -0.0328665 -0.077659994
-0.11147851 -0.087974936 -0.108374596 -0.1750496 0.032776896 0.027629934 -0.02603107 -0.06578252
0.0054226043 0.039393563 -0.08450307 0.049700946 -0.10714909 0.08012889 -0.023136076 -0.14076392
-0.1232406 -0.029887844 -0.12204504 -0.090732686 0.031588804 -0.0023689638 -0.07021533 -0.115522265
-0.041613832 -0.047222123 -0.07643341 0.0049688714 -0.2067428 -0.0724279 -0.0993631 -0.11189148
-0.10769758 -0.095126025 -0.1012158 -0.0076412894 0.008876539 0.026398284 0.04058367 0.054759137
00000000: 9261 a1bc b2fb 17be 85d8 bdbd af7f 1fbd
00000010: bc9d af3c dfcd 90bd 0643 06be 03b4 cdbd
00000020: 7d11 47bd 5f3f eabc 7513 cdbd c32f 53bd
00000030: 5740 14be bb89 3cbe 8d99 53be 5111 e9bd
00000040: 76fd f7bc 2d6f 07be cf85 00be 57d5 b6bc
00000050: 4971 bebd f164 eebd a781 083d 1b5d cfbd
00000060: 3e60 55bc 8e6d d3bc edb8 1bbe b4e8 0dbe
00000070: 2f5b 18be 9375 633d 75f4 e1bd 6882 1ebc
00000080: 0a65 bebd b3ea 023d d569 18bd 7e05 a83d
00000090: 7fc2 51b9 a6f4 853d da2d d7bc 8755 52bc
000000a0: 7611 9e3c 69f2 173c c431 b43b 9e0e b53c
000000b0: 6352 c3bd 9255 68bc b406 a4bd ba59 e8bc
000000c0: 2b15 94bd 38ba b73d 8952 77bd 9806 303b
000000d0: 23e0 773d aad2 63bd 1bff 7fbc e297 423d
000000e0: 7ae6 fa3c 6a94 b4bc f484 233d 1a89 b9bd
000000f0: 6366 5ebe 624c 26be 21aa 34be 712e bfbd
00000100: a521 41be ce80 f6bd a45a bbbd 49d7 6b3d
00000110: df27 85bd 676d 0abd 367f f43c ca98 b4bd
00000120: 70ff 96bd 85ed 63bd e802 00be 3ac5 efbd
00000130: c4b1 28bd c3ee febd 874a 2e3c 4a8c d5bc
00000140: 70f0 bf3d 555b 1d3d 4c6f e73d 8b9d e43d
00000150: 1cd3 aabd 0b2d 53bd fe92 95bd 5920 2b3d
00000160: d54e 0dbd 4fd9 18bd 7b90 00be a89f 063d
00000170: 3b30 1d3d cfb0 46bb 6433 0cbe 6ae3 c6bd
00000180: 2732 0cbd 95c1 d0bd 3860 36bc b180 e93d
00000190: c245 8fbe df74 92be 05c1 1bbe 5ab9 a8be
000001a0: 63cc 20be a1a3 10bd c9f6 273d f4f5 54ba
000001b0: 4f70 e53b b4e0 2d3d 555a 173d 0757 97bd
000001c0: 0240 17bd 7033 34bd e81b 07bf ce77 1fbd
000001d0: bbd5 103d a016 19be 873f c4bd 502c a4be
000001e0: d357 a3bd 84e4 29be bce9 c3bd c200 debc
000001f0: a541 983d 0a69 8abd d9d6 973c 7aab c0bd
00000200: 5013 b6bd 2d31 60be 9e3b c33c 5d73 d9bd
00000210: 31fe 4c3d 1265 273a c28a 0fbe b07d 08be
00000220: f63a 5f3c 0c55 fdbd 0715 92bd d35b 013d
00000230: 8de9 7bbd 4a91 2bbe 0f50 e1bd b9c7 56bc
00000240: 7bab 0fbe 8e64 20bc efd9 1abd 7f9a a6bd
00000250: 08a9 05bb d81f 50bf 509f 23be bf11 f8bc
00000260: e2b6 58bd 7287 1fbe 3892 28bd 18f5 3b3d
00000270: 3596 d5bd 73c2 98bc 0090 583d 79ae 95bd
00000280: 5d90 cfbc 82f8 90bd 5709 16be 1ea3 83bd
00000290: bd61 0b3c cec4 e3bd f249 073a 0802 fabd
000002a0: 69ff 10bc 5cce d43a b2fc e5bd eee6 d2bd
000002b0: c64a 2dbd 0fe2 0cbd 9e74 47bc ea5d 3cbd
000002c0: 7d55 6abe b27c 85bd a549 74be 3c5a 4fbf
000002d0: 2bc4 d63c e380 3bbb 7b86 b5bd e822 f23c
000002e0: 7705 1b3d 715a e3bd b9cb 473d 64ee 88bd
000002f0: c73a afbd 4670 c0bd 594a c13c 0f19 a03d
00000300: b26f 95bd 44ca 6d3d eb86 413d 141a 9ebd
00000310: 3fee f9bd 89c4 1ebd 9528 2abc 32c1 cdbe
00000320: e3d2 0bbe 8f6a f3bd 1869 1dbe e9af 19bc
00000330: ba8b 4b3b 8d02 9fbd 3db0 1fbe a604 d5bd
00000340: 1758 20bc 7e9d 39bc f194 2bbd e0a7 5fbc
00000350: bcf2 3b3b baa3 0bbe 069f 06bd 340c 9fbd
00000360: d84e e4bd 342c b4bd 80f3 ddbd 3440 33be
00000370: 1141 063d 2c58 e23c 1c3f d5bc fcb8 86bd
00000380: 1ab0 b13b 255b 213d f20f adbd 3893 4b3d
00000390: fb70 dbbd 9e1a a43d de87 bdbc 6b24 10be
000003a0: 9165 fcbd 5ad7 f4bc c0f2 f9bd 0fd2 b9bd
000003b0: 4363 013d 9e40 1bbb 0ecd 8fbd f096 ecbd
000003c0: 4473 2abd fc6b 41bd 1f89 9cbd ead1 a23b
000003d0: 62b4 53be 1455 94bd e27e cbbd 5c27 e5bd
000003e0: 8c90 dcbd 6fd1 c2bd 3b4a cfbd c863 fabb
000003f0: e76e 113c 3741 d83c 103b 263d 1e4b 603d

lstm.weight_hh_l0 f4 [400, 100]
-0.015908366 -0.1304146 -0.039503925 0.14051545 -0.01017631 0.0011019732 -0.11277996 0.07687685
0.10558366 0.095778115 0.009099895 -0.08610929 -0.063476145 0.03209721 0.14493103 0.041794144
0.0407696 -0.08836093 -0.048532702 -0.0147312675 0.27264196 -0.0665392 -0.1148915 -0.13388757
0.10660846 0.13901547 0.12529342 -0.06948154 -0.15036637 -0.1374667 0.02126571 0.0283451
-0.0012707006 -0.09158307 -0.01975996 -0.027992709 -0.09679371 -0.08140458 0.16055748 0.04683037
-0.015326898 -0.0043175397 0.020000888 0.017426908 0.16918969 -0.0419605 -0.07119438 -0.031063419
-0.037855946 0.101867996 -0.079914436 -0.06395918 -0.11621616 -0.074147254 0.06795135 -0.13176182
-0.020736631 -0.10286009 -0.036879964 0.07914821 -0.05946548 -0.08965712 -0.010785043 0.022305423
-0.12411921 0.09449728 -0.01028884 0.15721366 -0.12318873 -0.074974276 -0.057308987 -0.036611054
0.1575837 -0.0305475 -0.029054387 0.05179935 -0.08430302 -0.06758766 0.08247049 -0.06158994
0.04566175 -0.022990406 -0.005191694 -0.009093198 0.096897565 -0.050151393 0.049274255 -0.116664484
-0.050612036 0.15237485 -0.14820585 0.36684448 -0.03425362 -0.03512728 -0.09650513 0.00527487
0.024866143 -0.050540574 0.1486966 0.026974617 0.0070924587 -0.062278036 -0.0803535 0.093369134
-0.05105021 -0.06750053 -0.12985954 0.11757173 0.04034798 -0.11392614 0.09684333 0.046281975
-0.08447024 0.021539437 0.026520953 0.04962435 0.12977226 -0.00789992 0.037802145 -0.07531199
0.15145189 -0.04174185 -0.051040106 -0.14199273 -0.0011881768 0.040040005 0.10262151 -0.104215845
-0.021170877 -0.15344612 -0.022064447 -0.093560465 0.040833533 -0.08298521 0.06921612 0.013067723
-0.09048728 -0.083455294 0.10600341 -0.0028112521 -0.0258928 -0.0071818554 -0.04581866 0.13719948
0.084819295 -0.033209004 0.018587222 0.01138688 -0.08609865 -0.0060357135 -0.040268198 -0.08519764
-0.004741343 -0.06126268 0.07265614 -0.12192183 -0.01045349 -0.0883526 -0.06956051 0.05356197
0.08150004 -0.046765722 0.00033812335 -0.088311136 -0.078128844 0.03331956 -0.14074029 0.06678126
-0.11018666 0.012095784 -0.016387546 -0.105451256 0.16563791 -0.08740976 -0.0194765 -0.0070754774
-0.011238789 -0.082789205 0.06866755 -0.101043716 0.012799382 0.055842303 0.00049376 -0.117809705
0.0038164163 -0.021418538 0.120735735 -0.068853535 -0.025131563 -0.010903325 -0.18553841 -0.064240105
0.035932105 -0.018786978 -0.13686313 0.121631235 0.10681107 0.06396579 -0.013285983 -0.0584033
0.03057223 -0.017733729 -0.058660924 0.1040227 0.10460552 -0.04208476 -0.09861919 0.02566983
0.08836892 0.07082162 0.07086567 -0.0840698 -0.08778019 -0.08518616 0.031170927 -0.09609186
-0.04034119 -0.117190935 0.0905164 7.4726006e-05 0.21675014 -0.15740266 -0.01565666 0.018406922
0.14641987 0.0396261 0.09805343 -0.14279658 -0.0040950947 -0.0066339304 0.037738476 -0.052880205
0.09016695 0.0033820618 0.12939933 0.053613454 0.016932959 0.012888912 -0.014736896 -0.033469733
0.055807136 0.0072633936 -0.00037825812 0.09687593 -0.02979532 0.025210904 -0.08619258 -0.052701104
0.073715 -0.066019505 -0.057822414 -0.08364938 -0.043848507 -0.13006905 0.01337224 -0.11728389
00000000: 4352 82bc 688b 05be dece 21bd 48e3 0f3e
00000010: 8aba 26bc 1670 903a 2ef9 e6bd 9c71 9d3d
00000020: 3f3c d83d 5127 c43d ba17 153c 115a b0bd
00000030: c8ff 81bd 5d78 033d cd68 143e 5630 2b3d
00000040: 06fe 263d 93f6 b4bd 3aca 46bd 6a5b 71bc
00000050: ba97 8b3e b445 88bd 3c4c ebbd d319 09be
00000060: 8955 da3d 125a 0e3e eb4c 003e 564c 8ebd
00000070: a4f9 19be 12c4 0cbe 6d35 ae3c fc33 e83c
00000080: a38d a6ba e88f bbbd a4df a1bc f750 e5bc
00000090: c83b c6bd 72b7 a6bd 2e69 243e 34d1 3f3d
000000a0: ab1d 7bbc 267a 8dbb e7d8 a33c e0c2 8e3c
000000b0: 1040 2d3e c6de 2bbd 5cce 91bd b678 febc
000000c0: d60e 1bbd 2ba0 d03d 2eaa a3bd 08fd 82bd
000000d0: bd02 eebd 84da 97bd 142a 8b3d 92ec 06be
000000e0: dedf a9bc 50a8 d2bd 720f 17bd 7518 a23d
000000f0: 1392 73bd 279e b7bd c0b3 30bc ddb9 b63c
00000100: 3632 febd ca87 c13d 8692 28bc 9efc 203e
00000110: 5f4a fcbd 1d8c 99bd d4bc 6abd 79f5 15bd
00000120: 9f5d 213e c03e fabc 7703 eebc 8e2b 543d
00000130: 10a7 acbd 666b 8abd 4ae6 a83d bc45 7cbd
00000140: d107 3b3d 6056 bcbc 161f aabb a3fb 14bc
00000150: 3b72 c63d 8c6b 4dbd cdd3 493d caed eebd
00000160: 914e 4fbd 2708 1c3e 46c3 17be 0ad3 bb3e
00000170: 864d 0cbd 9fe1 0fbd 7ba4 c5bd d1d8 ac3b
00000180: 15b4 cb3c a203 4fbd ec43 183e dff9 dc3c
00000190: db67 e83b 4117 7fbd 6090 a4bd 5138 bf3d
000001a0: 061a 51bd b83d 8abd e6f9 04be 72c9 f03d
000001b0: ec43 253d 1c52 e9bd cc55 c63d 2b92 3d3d
000001c0: bcfe acbd 7973 b03c 7842 d93c e742 4b3d
000001d0: 05e3 043e ab6e 01bc 6cd6 1a3d 2c3d 9abd
000001e0: 3416 1b3e 81f9 2abd 6e0f 51bd 8b66 11be
000001f0: 99bc 9bba fd00 243d 3a2b d23d 1e6f d5bd
00000200: 8c6e adbc fb20 1dbe 80c0 b4bc a19c bfbd
00000210: 1041 273d 26f4 a9bd 2ec1 8d3d 011a 563c
00000220: 6551 b9bd 9cea aabd 5118 d93d fc3c 38bb
00000230: 231d d4bc c555 ebbb 59ac 3bbd 057e 0c3e
00000240: bdb5 ad3d 2a06 08bd 3b44 983c 0990 3a3c
00000250: 7d54 b0bd 3cc7 c5bb 44f0 24bd 1a7c aebd
00000260: 455d 9bbb 93ee 7abd becc 943d 27b2 f9bd
00000270: 1d45 2bbc 35f2 b4bd be75 8ebd cc63 5b3d
00000280: 7ee9 a63d 6a8d 3fbd 2646 b139 78dc b4bd
00000290: 0402 a0bd 177a 083d 391e 10be 9dc4 883d
000002a0: 8ba9 e1bd 652d 463c 2d3f 86bc d4f6 d7bd
000002b0: fc9c 293e e303 b3bd 2e8d 9fbc 68d9 e7bb
000002c0: e622 38bc 638d a9bd 93a1 8c3d 02f0 cebd
000002d0: 80b4 513c e6ba 643d ac6f 013a 3746 f1bd
000002e0: d71c 7a3b ee75 afbc 4c44 f73d 1503 8dbd
000002f0: b5e0 cdbc dca3 32bc c8fd 3dbe 5190 83bd
00000300: 8b2d 133d 26e7 99bc d925 0cbe cc19 f93d
00000310: c3bf da3d 7f00 833d 74ad 59bc 4c38 6fbd
00000320: 9d72 fa3c 5346 91bc 7046 70bd da09 d53d
00000330: 6b3b d63d 1261 2cbd dcf8 c9bd 8949 d23c
00000340: c4fa b43d ed0a 913d 0522 913d ca2c acbd
00000350: 1ac6 b3bd 1576 aebd 2c5a ff3c cfcb c4bd
00000360: ce3c 25bd cd01 f0bd aa60 b93d 38b6 9c38
00000370: c0f3 5d3e 2a2e 21be 6542 80bc 1dca 963c
00000380: 17ef 153e fa4e 223d 3dd0 c83d 4439 12be
00000390: 2530 86bb 7161 d9bb a993 1a3d ea98 58bd
000003a0: 73a9 b83d 95a5 5d3b 4281 043e c899 5b3d
000003b0: fdb6 8a3c 042c 533c 0673 71bc 8f17 09bd
000003c0: 0696 643d c301 ee3b f250 c6b9 e366 c63d
000003d0: 5115 f4bc 1987 ce3c bc85 b0bd 1ddd 57bd
000003e0: e4f7 963d 3c35 87bd 32d7 6cbd 5e50 abbd
000003f0: 7e9a 33bd d230 05be 3d17 5b3c 8932 f0bd

lstm.bias_ih_l0 f4 [400]
-0.1368864 -0.06252732 -0.0623848 -0.06756314 0.029832095 -0.027799519 -0.10772975 0.10000363
0.09054841 0.033447206 -0.060674872 -0.046425946 -0.17831074 -0.11826999 0.03194888 -0.029748213
0.0774727 -0.0074395686 -0.067245245 -0.15523067 -0.17749032 0.061335597 0.11340477 -0.1908477
-0.14518541 -0.14548393 0.040869668 -0.059224177 -0.095465966 -0.04986097 -0.07973734 -0.050477162
0.02528128 -0.10970034 -0.060985804 -0.1493928 -0.112757 -0.12539437 0.051478438 -0.018235479
-0.13982864 -0.082587704 -0.07314459 0.0045616142 -0.048500672 -0.01990266 -0.055005033 0.021690737
-0.12963283 -0.043605737 -0.10301471 -0.003120376 -0.1838674 -0.051649828 -0.09781735 -0.09638622
0.009214798 -0.050319742 -0.09310027 0.09005779 -0.12587154 -0.111965925 -0.06363346 -0.058386564
0.024501784 0.021414105 -0.09450868 0.029208463 -0.04563151 0.057479482 -0.067026265 -0.06668604
-0.13802397 0.057305694 0.07315488 0.109716706 -0.093757145 -0.11774607 -0.097638 -0.10911766
0.03255978 0.052738845 -0.007381508 -0.10053202 -0.10963483 -0.024387449 -0.05686745 0.028232139
-0.13108401 -0.007697613 -0.089538574 0.07832702 -0.017521292 0.06466301 -0.0416127 -0.15334238
-0.17313386 -0.08446635 -0.032839224 -0.08941429 -0.094960876 -0.09852325 -0.0761655 -0.12258428
-0.122211725 -0.05200713 0.022380069 -0.14399911 0.06545958 -0.05133726 -0.057472717 0.068773836
-0.070629865 -0.052339993 -0.027842376 0.011747573 0.0057046446 -0.028214067 -0.0494039 -0.054478023
-0.06286614 -0.0130051505 0.10172549 -0.01361364 0.0066631134 -0.040947024 -0.019899258 -0.04587824
-0.10730483 -0.06732034 -0.085491456 -0.04402308 0.04419414 -0.084241085 -0.09853786 -0.15232673
0.06477324 -0.08542927 0.073590375 -0.13817216 -0.06590545 -0.06691671 -0.10505274 -0.0038141522
-0.05410571 0.056271523 -0.09831673 -0.11496206 -0.022819914 -0.10048656 -0.09107182 -0.10398746
-0.16979791 0.06062562 -0.10593272 -0.059800565 0.07144467 -0.08529548 0.01834666 0.01257285
-0.18275607 -0.0028446172 -0.022386532 -0.06282058 -0.108529866 -0.01328017 -0.04746491 -0.034641128
-0.028333228 -0.1913058 -0.06884815 0.060206447 -0.21750331 0.045987416 -0.038122743 -0.09482806
-0.11297811 -0.118899256 0.02548699 0.052549064 0.012599134 -0.15486111 -0.02637443 -0.009301241
-0.09006652 0.0054292106 -0.084201016 -0.07339619 0.061268017 0.018611815 -0.03121108 -0.052911367
-0.10570228 -0.035854522 -0.08828123 -0.111468025 -0.037686735 -0.010436075 0.04424172 -0.03474688
-0.07598445 0.10407113 0.023042677 -0.065779574 0.037503596 0.018846042 -0.065924555 0.042378973
0.008835367 -0.051817454 0.000120342585 0.024370823 0.011503143 0.1077529 -0.08828765 0.08296705
-0.017405273 0.06522243 0.068234324 -0.0638779 -0.08266386 -0.02434125 0.09472716 -0.026284175
-0.028167898 -0.0061065434 0.005930518 0.066924006 0.024721589 -0.05418561 0.05992128 -0.0383988
0.0044886046 0.024038078 -0.018780557 0.050557826 0.0014324149 0.05537876 -0.099292316 0.02884055
-0.09126469 0.004867631 0.07629216 -0.08527114 -0.0186637 0.010062053 -0.008268568 -0.0641137
-0.030006604 0.031876933 -0.06478526 0.060574662 -0.010375044 0.12309876 0.01804309 -0.00011725986
00000000: f32b 0cbe 530e 80bd 3487 7fbd 8b5e 8abd
00000010: 7062 f43c d1bb e3bc 6aa1 dcbd b4ce cc3d
00000020: 7271 b93d f0ff 083d 3786 78bd 2229 3ebd
00000030: 1797 36be 8937 f2bd d4dc 023d 86b2 f3bc
00000040: 02aa 9e3d a0c7 f3bb e0b7 89bd caf4 1ebe
00000050: 06c0 35be 093b 7b3d c340 e83d 946d 43be
00000060: 7cab 14be bdf9 14be f466 273d 0d95 72bd
00000070: a983 c3bd 043b 4cbd 554d a3bd 24c1 4ebd
00000080: b01a cf3c 92aa e0bd 40cc 79bd 6dfa 18be
00000090: 24ed e6bd 6267 00be 0edb 523d 9262 95bc
000000a0: 3d2f 0fbe be23 a9bd d5cc 95bd 9879 953b
000000b0: a4a8 46bd e70a a3bc f54c 61bd c6b0 b13c
000000c0: 78be 04be ee9b 32bd 60f9 d2bd 397f 4cbb
000000d0: bc47 3cbe c58e 53bd 7654 c8bd 2366 c5bd
000000e0: aaf9 163c 131c 4ebd 5bab bebd 3870 b83d
000000f0: 78e4 00be 644e e5bd 4252 82bd c026 6fbd
00000100: f7b7 c83c a26c af3c c48d c1bd 9646 ef3c
00000110: 1be8 3abd 9b6f 6b3d 1145 89bd b192 88bd
00000120: 2856 0dbe 60b9 6a3d 3ad2 953d 27b3 e03d
00000130: bf03 c0bd da24 f1bd 6ff6 c7bd 1479 dfbd
00000140: 675d 053d b004 583d 94e0 f1bb bbe3 cdbd
00000150: 3a88 e0bd 30c8 c7bc d8ed 68bd 1647 e73c
00000160: e33a 06be 423c fcbb 0060 b7bd eb69 a03d
00000170: d088 8fbc 0a6e 843d 1472 2abd c905 1dbe
00000180: 014a 31be b2fc acbd 6c82 06bd d71e b7bd
00000190: d97a c2bd 8fc6 c9bd a8fc 9bbd 780d fbbd
000001a0: 244a fabd 6e05 55bd 6856 b73c 8174 13be
000001b0: ac0f 863d 0547 52bd 8368 6bbd 4cd9 8c3d
000001c0: 64a6 90bd 7662 56bd b215 e4bc e478 403c
000001d0: 07ee ba3b 3021 e7bc be5b 4abd 5924 5fbd
000001e0: f6bf 80bd 8e13 55bc 7455 d03d bf0b 5fbc
000001f0: 3f56 da3b 11b8 27bd c503 a3bc d2ea 3bbd
00000200: a2c2 dbbd 3fdf 89bd 2516 afbd 8c51 34bd
00000210: ea04 353d 9786 acbd 38ce c9bd 8afb 1bbe
00000220: d5a7 843d 8bf5 aebd 8db6 963d 017d 0dbe
00000230: 70f9 86bd a10b 89bd e425 d7bd dbf6 79bb
00000240: f39d 5dbd f87c 663d 485a c9bd 3a71 ebbd
00000250: d4f0 babc e6cb cdbd dd83 babd 61f7 d4bd
00000260: 81df 2dbe 9252 783d 41f3 d8bd 70f1 74bd
00000270: 9551 923d 66af aebd bc4b 963c 5bfe 4d3c
00000280: 6824 3bbe c26c 3abb f663 b7bc 14a8 80bd
00000290: e844 debd 1295 59bc 916a 42bd dbe3 0dbd
000002a0: 161b e8bc abe5 43be 4200 8dbd 099b 763d
000002b0: 30b9 5ebe 4d5d 3c3d 9826 1cbd 3735 c2bd
000002c0: 1161 e7bd 7481 f3bd 18ca d03c b03d 573d
000002d0: 996c 4e3c e993 1ebe 300f d8bc 3b64 18bc
000002e0: cc74 b8bd 85e7 b13b 9571 acbd be50 96bd
000002f0: 2cf4 7a3d ce77 983c 61ae ffbc 97b9 58bd
00000300: 707a d8bd 31dc 12bd cacc b4bd 5949 e4bd
00000310: 685d 1abd 12fc 2abc ce36 353d bf52 0ebd
00000320: bc9d 9bbd 3f23 d53d ffc3 bc3c 71b7 86bd
00000330: 5f9d 193d 0463 9a3c 7403 87bd 9395 2d3d
00000340: 37c2 103c 8a3e 54bd 6f60 fc38 52a5 c73c
00000350: ae77 3c3c 8dad dc3d 28d0 b4bd a1ea a93d
00000360: 8195 8ebc 5693 853d 70be 8b3d 6bd2 82bd
00000370: ab4b a9bd 4d67 c7bc 5000 c23d e951 d7bc
00000380: 5dc0 e6bc 6619 c8bb ca54 c23b 740f 893d
00000390: ee84 ca3c bbf1 5dbd 0470 753d 0f48 1dbd
000003a0: 2515 933b 81eb c43c afd9 99bc b915 4f3d
000003b0: debf bb3a d7d4 623d c559 cbbd 0443 ec3c
000003c0: fbe8 babd a680 9f3b 103f 9c3d a3a2 aebd
000003d0: 9ee4 98bc 4fdb 243c e378 07bc 0b4e 83bd
000003e0: 69d0 f5bc 6391 023d 22ae 84bd 231d 783d
000003f0: 17fc 29bc 341b fc3d 1acf 933c 68e9 f5b8

lstm.bias_hh_l0 f4 [400]
-0.04436892 -0.021559315 -0.10297284 -0.08104322 -0.063784935 -0.09334062 0.015113365 0.0119566005
0.07051606 0.038390197 -0.07904824 0.045470383 -0.14117278 -0.08435515 -0.118288584 -0.07187997
-0.021838065 -0.047660913 -0.117746055 -0.0125509845 -0.142739 -0.103107706 0.08340928 -0.1599831
-0.024418946 0.0059859985 -0.022126898 0.0370974 0.011572469 -0.04342825 -0.056018997 0.03409318
-0.001973268 -0.028264757 -0.1033154 -0.2034136 -0.08386138 -0.057041563 0.04147172 -0.03306188
0.012071768 -0.09576954 -0.06273279 -0.10332379 -0.0244398 -0.044856235 -0.057114415 0.0633726
-0.116821714 0.031006971 -0.13022293 -0.00159039 -0.17243479 -0.10194731 0.016092587 -0.03585844
0.06847268 0.023889052 -0.05612551 -0.044346917 -0.1482272 -0.033452876 -0.12846048 -0.06597125
0.026340835 0.009663519 -0.041010242 0.02869468 0.030017322 0.031674623 -0.17712158 -0.112701416
-0.06927669 -0.08503063 0.16454011 0.019996969 -0.06206489 0.061553046 -0.080161706 0.005154688
-0.00675133 0.052367255 0.032741692 -0.117981635 -0.03776761 0.06747316 -0.0449985 -0.05375061
-0.06419419 0.013913549 0.039713133 0.20346595 0.035154577 0.044930857 -0.00973893 -0.13381697
-0.036771603 -0.13131745 -0.016953034 -0.018300867 -0.11240528 -0.043913875 -0.004194472 -0.02938487
0.036085982 -0.072836936 -0.042694867 -0.10474806 -0.07703854 0.0061964104 -0.054384906 0.025220418
-0.02749217 0.040219236 -0.08386812 0.0389507 0.055276234 0.044535577 -0.07640736 -0.038463924
-0.18552504 0.07143641 0.025891166 -0.021816807 -0.14833018 0.021304052 -0.07042118 0.06338759
0.028188344 -0.06607734 -0.14101413 0.045681387 0.018276952 -0.061556704 0.057811625 -0.16052109
-0.11649579 0.04495816 -0.05721017 -0.057174187 -0.06820967 -0.13017894 -0.11057265 -0.047819775
0.032572392 -0.09995827 0.0044960757 -0.04878298 0.012852863 -0.027253386 -0.10536089 0.04357478
-0.14206712 -0.080640934 -0.022161748 0.010597455 0.03649282 0.017860765 -0.012081382 0.06467651
-0.09828432 -0.029820528 0.064307824 -0.17244217 -0.06509003 0.066235915 -0.022809768 -0.061421555
-0.0028484126 -0.17172278 -0.081251554 -0.039997473 -0.0702337 0.060628574 -0.019058084 -0.063181005
-0.0946043 -0.02032811 0.060731076 -0.01985453 0.03652303 0.015424415 0.06351486 -0.09143327
-0.08503525 0.049073603 -0.11797305 0.051879913 -0.10482472 -0.10171556 -0.08192022 0.045359027
-0.1518309 0.016688462 0.0024577726 -0.16690625 -0.14013323 -0.0744821 0.028242012 0.022858407
0.03286164 -0.063440956 0.07005888 0.010387298 -0.089820296 -0.05836508 0.10381837 0.08585539
0.056844223 -0.115673155 0.071900375 -0.004310638 0.025059003 0.015672026 0.08457029 -0.004932741
0.022638498 0.047119305 -0.05953146 -0.026584473 0.00206511 0.09444332 -0.066452 -0.057251133
-0.015785454 -0.0020028045 -0.055232167 -0.06491534 0.070694335 0.0044127284 -0.07800451 -0.028984025
-0.03925466 0.06935267 -0.0864781 -0.10287273 0.014413125 0.050143976 -0.067955576 -0.030099282
0.023520133 -0.01339965 -0.08021264 0.031099835 -0.057381116 0.11533784 0.035534304 0.052408885
-0.015335304 -0.10708196 0.032782685 0.06944722 -0.035313014 -0.0009201812 -0.04160775 0.02755916
00000000: 2fbc 35bd 299d b0bc 6de3 d2bd fdf9 a5bd
00000010: ada1 82bd 5e29 bfbd 0c9e 773c 9ee5 433c
00000020: b96a 903d 0a3f 1d3d 0be4 a1bd 273f 3a3d
00000030: 998f 10be 65c2 acbd 4941 f2bd ce35 93bd
00000040: bee5 b2bc 1738 43bd d824 f1bd a5a2 4dbc
00000050: 2c2a 12be 222a d3bd 7cd2 aa3d 9cd2 23be
00000060: 3e0a c8bc 3226 c43b 7843 b5bc 71f3 173d
00000070: 749a 3d3c d2e1 31bd 2d74 65bd 4aa5 0b3d
00000080: f251 01bb 7e8b e7bc 0697 d3bd a84b 50be
00000090: 84bf abbd 6aa4 69bd 40de 293d e56b 07bd
000000a0: aac8 453c d222 c4bd 0d7a 80bd 6c9b d3bd
000000b0: fa35 c8bc 2cbb 37bd cef0 69bd 7ec9 813d
000000c0: 3940 efbd 5502 fe3c 2959 05be a274 d0ba
000000d0: bf92 30be c0c9 d0bd 9ad4 833c 4de0 12bd
000000e0: 683b 8c3d f9b2 c33c dde3 65bd 1da5 35bd
000000f0: dfc8 17be e205 09bd 258b 03be ef1b 87bd
00000100: bcc8 d73c bd53 1e3c 5bfa 27bd 1b11 eb3c
00000110: e3e6 f53c 40bd 013d 5c5f 35be 00d0 e6bd
00000120: f0e0 8dbd 8a24 aebd 347d 283e afd0 a33c
00000130: c137 7ebd 0c1f 7c3d d22b a4bd a8e8 a83b
00000140: 433a ddbb 0c7f 563d 271c 063d 5ba0 f1bd
00000150: 36b2 1abd 5e2f 8a3d 5950 38bd 9a29 5cbd
00000160: 3e78 83bd a7f5 633c 3daa 223d 6159 503e
00000170: 3ffe 0f3d 6b09 383d 0890 1fbc 5107 09be
00000180: d29d 16bd 1578 06be 17e1 8abc b3eb 95bc
00000190: bd34 e6bd 09df 33bd c871 89bb 8ab8 f0bc
000001a0: e5ce 133d 882b 95bd d0e0 2ebd 2786 d6bd
000001b0: 62c6 9dbd 420b cb3b b5c2 5ebd 0d9b ce3c
000001c0: 4237 e1bc edbc 243d 0dc3 abbd c58a 1f3d
000001d0: 5569 623d f06a 363d 767b 9cbd 598c 1dbd
000001e0: 47fa 3dbe 414d 923d b619 d43c 29b9 b2bc
000001f0: dee3 17be d685 ae3c fb38 90bd 5ad1 813d
00000200: 3eeb e63c 8e53 87bd 0266 10be 681c 3b3d
00000210: 8cb9 953c e222 7cbd e2cb 6c3d a45f 24be
00000220: 5895 eebd 0c26 383d 3655 6abd 7b2f 6abd
00000230: 83b1 8bbd a14d 05be ea73 e2bd abde 43bd
00000240: a16a 053d ecb6 ccbd d153 933b a9d0 47bd
00000250: d194 523c 7e42 dfbc 73c7 d7bd 787b 323d
00000260: 0b7a 11be 1327 a5bd 8e8c b5bc f3a0 2d3c
00000270: 7f79 153d bd50 923c fdf0 45bc 1e75 843d
00000280: 4a49 c9bd 2e4a f4bc d2b3 833d ae94 30be
00000290: ec4d 85bd b2a6 873d 8ddb babc 2b95 7bbd
000002a0: 6fac 3abb 19d8 2fbe 3767 a6bd 64d4 23bd
000002b0: b0d6 8fbd ab55 783d b31f 9cbc 0b65 81bd
000002c0: e6bf c1bd 2387 a6bc 26c1 783d f8a5 a2bc
000002d0: 2c99 153d afb6 7c3c 1414 823d 5e41 bbbd
000002e0: f626 aebd 6701 493d db9b f1bd 0880 543d
000002f0: 58ae d6bd 3f50 d0bd cac5 a7bd 63ca 393d
00000300: 8f79 1bbe 3eb6 883c 9512 213b 79e9 2abe
00000310: 167f 0fbe 128a 98bd cb5b e73c 8e41 bb3c
00000320: ed99 063d 55ed 81bd 087b 8f3d 7c2f 2a3c
00000330: b4f3 b7bd 3910 6fbd ba9e d43d f3d4 af3d
00000340: 7dd5 683d 0ce6 ecbd 8140 933d 4140 8dbb
00000350: 8a48 cd3c 9f62 803c 3033 ad3d d5a2 a1bb
00000360: 5f74 b93c 2c00 413d 43d7 73bd aec7 d9bc
00000370: cc56 073b 806b c13d fc17 88bd 2a80 6abd
00000380: 7f50 81bc 7c41 03bb 203b 62bd 55f2 84bd
00000390: 31c8 903d a698 903b d4c0 9fbd e86f edbc
000003a0: 7fc9 20bd c608 8e3d 6e1b b1bd f0ae d2bd
000003b0: 0725 6c3c c563 4d3d 4b2c 8bbd c592 f6bc
000003c0: 4bad c03c 358a 5bbc 8646 a4bd 15c5 fe3c
000003d0: 7608 6bbd 3f36 ec3d 6b8c 113d b3aa 563d
000003e0: ed40 7bbc c94d dbbd 2347 063d 583a 8e3d
000003f0: 61a4 10bd 5138 71ba e36c 2abd bfc3 e13c

linear.weight f4 [1, 100]
0.04686191 0.07825909 0.018227601 0.031220946 -0.006607576 -0.07037728 -0.015700705 0.058769133
-0.040209953 -0.0507025 -0.0020109005 0.040376343 0.046192486 0.052298237 0.005167755 0.001156888
-0.0028959336 0.074980095 -0.028576909 -0.10845341 -0.0974212 0.07537412 0.07713519 0.03512259
-0.0864276 -0.02450511 -0.095640175 0.049230255 0.09416037 0.11169851 -0.04602084 0.00222951
-0.012799967 0.023988849 -0.033224832 0.06950785 0.026935264 0.0005734331 -0.12291337 -0.038159266
-0.030029386 0.00074248284 -0.03779275 -0.08563663 -0.0702772 0.087363675 -0.0035867717 0.07686231
0.026372923 0.047055367 -0.025488708 0.07679956 -0.028685128 0.10305292 0.021067316 0.1298301
0.049781825 0.07767176 0.088120244 -0.14562598 -0.0032305755 -0.026942126 0.016990677 0.011657758
0.10759173 -0.085515834 0.0035556033 -0.030936189 0.035988454 -0.042904135 -0.02144251 0.059367564
-0.33666253 0.026610013 0.14448525 0.039291766 -0.0136830425 0.0845521 0.019335145 0.0071313214
-0.10905182 0.06931001 0.08054268 0.08281 -0.1156233 0.10184962 -0.1475262 0.020993505
-0.005131758 -0.015796242 0.12044272 -0.16591801 -0.11584895 -0.076692045 0.07463683 -0.029186718
-0.022302357 -0.019175416 0.029294912 0.06373761
00000000: 46f2 3f3d 4d46 a03d 0d52 953c 12c3 ff3c
00000010: 5d84 d8bb f721 90bd c49e 80bc e7b7 703d
00000020: 31b3 24bd 6dad 4fbd 50c9 03bb aa61 253d
00000030: 5534 3d3d ad36 563d 4556 a93b b8a2 973a
00000040: b4c9 3dbb 2a8f 993d 1f1a eabc d21c debd
00000050: c484 c7bd bf5d 9a3d 0ef9 9d3d b4dc 0f3d
00000060: f400 b1bd f1be c8bc ffde c3bd aaa5 493d
00000070: 27d7 c03d 30c2 e43d 5980 3cbd f91c 123b
00000080: f4b6 51bc 4384 c43c c316 08bd 225a 8e3d
00000090: 58a7 dc3c 7252 163a 01ba fbbd e44c 1cbd
000000a0: 3000 f6bc 2ea3 423a 92cc 1abd 4262 afbd
000000b0: 7eed 8fbd baeb b23d 0b10 6bbb fd69 9d3d
000000c0: 070c d83c 21bd 403d b2cd d0bc 1649 9d3d
000000d0: 13fd eabc 690d d33d 5d95 ac3c 2ff2 043e
000000e0: 07e8 4b3d 5f12 9f3d 6378 b43d fa1e 15be
000000f0: 10b8 53bb bcb5 dcbc 0830 8b3c 2e00 3f3c
00000100: 0e59 dc3d ed22 afbd 2005 693b e46d fdbc
00000110: a168 133d 3fbc 2fbd 34a8 afbc 672b 733d
00000120: 085f acbe 3efd d93c f1f3 133e 67f0 203d
00000130: d72e 60bc a729 ad3d bd64 9e3c dcad e93b
00000140: 9056 dfbd 68f2 8d3d 90f3 a43d 4a98 a93d
00000150: e9cb ecbd 8996 d03d 1c11 17be 92fa ab3c
00000160: 4e28 a8bb 1f67 81bc acaa f63d 69e6 29be
00000170: 3742 edbd b810 9dbd 32db 983d fc18 efbc
00000180: 6fb3 b6bc c315 9dbc e2fb ef3c dd88 823d
