model/1721469323_model-aapl.pth (torch, 174356 bytes, 5 tensors)

lstm.weight_ih_l0 f4 [400, 5]
0	0x3dbfb671	0.0936097
1	0x3c865fad	0.016403044
2	0x3cb07f59	0.0215451
3	0x3dfbe398	0.122992694
4	0xbf2e3647	-0.6805157
5	0xbe06d10b	-0.13165681
6	0xbe2d249a	-0.16908494
7	0x3bb40943	0.005494268
8	0xbdf0a6a5	-0.11750535
9	0xbf4aa0b2	-0.7915145
10	0xbe666489	-0.22499289
11	0xbdcebe92	-0.10094942
12	0xbdd7796a	-0.10521205
13	0xbe208626	-0.15676174
14	0x3da7429e	0.08167003
15	0xbe74928b	-0.23884027
16	0xbe594c95	-0.2122062
17	0xbdd36058	-0.103211105
18	0xbe1ad430	-0.15120006
19	0xbe926b91	-0.28597692
20	0xbde9b75f	-0.114119284
21	0xbe1cb06d	-0.15301676
22	0xbe613090	-0.21991181
23	0xbe663190	-0.22479844
24	0xbe7aacaf	-0.24479936
25	0x3c33645b	0.01094922
26	0xbd2c18f8	-0.042016
27	0xbe0c38f1	-0.13693596
28	0x3d166cf3	0.036724996
29	0xbebfabf4	-0.37435877
30	0xbd9872a2	-0.074437395
31	0xbe2b085a	-0.16702405
32	0xbe7d458e	-0.24733564
33	0xbe3eba38	-0.18625724
34	0xbe92bd0e	-0.28659862
35	0xbc5e413c	-0.013565358
36	0xbe0dd2f5	-0.13850005
37	0xbdb8ec07	-0.09029394
38	0xbd5f22d9	-0.054476593
39	0xbf3b6527	-0.7320122
40	0xbc07e07e	-0.008293269
41	0xbe08c1c7	-0.1335517
42	0xbd429266	-0.047502898
43	0xbe17e6a2	-0.14834073
44	0x3d62513b	0.05525325
45	0xbcea2471	-0.02858183
46	0xbce71ccd	-0.028211975
47	0x3ca27e02	0.019835476
48	0xbcc8b8a4	-0.024502106
49	0x3e6b8cb7	0.23002897
50	0xbe22f9bc	-0.15915579
51	0xbe2c81db	-0.16846411
52	0xbe2aaea2	-0.1666818
53	0xbdfb4ef7	-0.12270921
54	0x3e07ea2c	0.13272923
55	0x3de61ff6	0.11236565
56	0x3da5f7e2	0.081039205
57	0xbd26fe3d	-0.040769804
58	0xbb11af81	-0.0022229853
59	0xbedd7b91	-0.43258336
60	0xbc96498e	-0.01834562
61	0xbdfe350a	-0.1241246
62	0xbd1827d5	-0.03714736
63	0xbe0e8dad	-0.13921233
64	0xbdc9aadc	-0.09847042
65	0x3e91d23b	0.28480706
66	0x3e25812d	0.16162558
67	0x3e794e84	0.24346358
68	0x3e830192	0.25587136
69	0x3e9de1fe	0.3083648
70	0xbe3cfa1e	-0.18454787
71	0xbeb12a51	-0.34602597
72	0xbe6be3f5	-0.23036177
73	0xbec8b9a2	-0.39204127
74	0xbe83d7d9	-0.25750616
75	0x3ce9e616	0.028552096
76	0xbdc67fd0	-0.09692347
77	0x3c431d19	0.011908793
78	0x3d2f0f7a	0.04273937
79	0xbda11c09	-0.078666754
80	0xbccb1b87	-0.0247934
81	0xb8a4610c	-7.838206e-05
82	0x3a407264	0.0007341264
83	0x3d517e36	0.051145755
84	0xbeaf1679	-0.34196833
85	0xbd8190ef	-0.06326472
86	0xbe1ce9c5	-0.15323551
87	0xbd83fd11	-0.06444753
88	0xbd84a00a	-0.064758375
89	0xbe3a4166	-0.1818901
90	0xbe04f27e	-0.12983128
91	0xbd6cc7f3	-0.057807874
92	0xbd82d4c7	-0.0638824
93	0xbdf4dbcd	-0.11955986
94	0x3e04d9e9	0.12973751
95	0xba26ee2c	-0.0006367888
96	0xbd8d45c9	-0.06898076
97	0xbe09b4d1	-0.13447882
98	0xb968962c	-0.00022181188
99	0xbdef62c5	-0.11688761
100	0xbdfe54fd	-0.12418554
101	0xbb65748c	-0.0035012094
102	0xbde36a0d	-0.11104212
103	0x3cc2cf19	0.023780392
104	0x3e577f98	0.21044767
105	0xbdab9f73	-0.08380022
106	0x3d1f67e7	0.03891745
107	0xbb4456d3	-0.0029958978
108	0x3bcf1cea	0.0063205855
109	0x3e6979ef	0.2280042
110	0xbd1b0062	-0.037842162
111	0x3c4734c2	0.012158575
112	0xbd337938	-0.043816775
113	0xbdfab476	-0.122414514
114	0xbd717614	-0.0589505
115	0xbe08f78d	-0.13375683
116	0xbe3ceb0d	-0.1844904
117	0xbd9e978a	-0.077437475
118	0xbe0a1a5c	-0.13486618
119	0x3ca1a0fe	0.019730087
120	0x3dcfdd9a	0.10149689
121	0xbb7e7a9c	-0.0038830405
122	0x3db03251	0.08603347
123	0x3c6408a4	0.013918076
124	0xbcd0e54d	-0.025499964
125	0xbc3ae3a1	-0.01140681
126	0x3e0ced22	0.13762334
127	0x3e3d2932	0.18472746
128	0x3ca51ebe	0.02015626
129	0xbed9698c	-0.42463338
130	0xbdb820e3	-0.08990648
131	0xbd22d51d	-0.039754022
132	0x3dad745f	0.08469462
133	0x3da94ad1	0.08266223
134	0xbd7b5925	-0.06136431
135	0xbd404d3d	-0.04694866
136	0xbe2dbbdb	-0.16966192
137	0xbd1834c2	-0.03715969
138	0xbd03ec66	-0.03220787
139	0xbec607f8	-0.38677955
140	0xbdcdaaf1	-0.1004237
141	0xbd680711	-0.056647364
142	0xbe3bd5b0	-0.18343234
143	0xbde6bb05	-0.1126614
144	0xbe94d26b	-0.29066786
145	0xbd902e26	-0.07040052
146	0xbc897afe	-0.01678228
147	0x37f8c190	2.9654038e-05
148	0x3d87cfef	0.06631457
149	0xbda95cf8	-0.082696855
150	0xbe2196a4	-0.15780121
151	0xbd906fb8	-0.07052559
152	0xbe8748b4	-0.26422656
153	0xbd97d15b	-0.07412978
154	0xbe1716a4	-0.1475473
155	0xbe14c390	-0.14527726
156	0xbd9a5209	-0.07535178
157	0xbda70443	-0.0815511
158	0x3a3ee39e	0.00072818424
159	0xbe016d2f	-0.12639306
160	0xbe4af730	-0.19820857
161	0xbd8b97c2	-0.06816055
162	0xbe1c7a47	-0.1528102
163	0xbdc8dfca	-0.098083094
164	0xbd92c2be	-0.071660504
165	0xbe24b5f4	-0.16085035
166	0xbdbec700	-0.093153
167	0xbe0b17b8	-0.13583267
168	0xbe1d8331	-0.15382077
169	0xbe36acfd	-0.17839427
170	0xbd5bc622	-0.05365575
171	0xbd63b48d	-0.05559211
172	0xbdc24c88	-0.094872534
173	0xbde2b406	-0.11069493
174	0x3e669c12	0.22520474
175	0xbda5368e	-0.08067046
176	0xbdf374df	-0.11887526
177	0xbe5c11ba	-0.21491137
178	0xbcaf8a01	-0.02142811
179	0xbe80856b	-0.2510179
180	0xbdbfbfe4	-0.09362772
181	0x3d325679	0.043539498
182	0xbda6c08c	-0.08142194
183	0xbdbd1838	-0.09233135
184	0x3e07282e	0.13198921
185	0xbd912c2b	-0.070885025
186	0xbdc60ac7	-0.09670024
187	0xbdb911ef	-0.09036624
188	0xbd53b25f	-0.05168378
189	0xbb3f9b61	-0.00292369
190	0xbdcea4d0	-0.10090029
191	0x3c0a4056	0.00843819
192	0xbe17e751	-0.14834334
193	0xbdaf08ab	-0.08546575
194	0xbe353226	-0.17694911
195	0xbe173df3	-0.14769726
196	0xbda9e2b2	-0.08295192
197	0xbe0f6344	-0.1400271
198	0xbd2b2956	-0.041787468
199	0x3dbe04a7	0.09278231
200	0x3d4d915e	0.05018746
201	0xbd87f48d	-0.06638441
202	0x3d00fa3c	0.031488642
203	0x3d374c38	0.044750422
204	0xbe362546	-0.17787656
205	0xbceec5d0	-0.029147059
206	0xbdddafe7	-0.10824566
207	0x3cc58677	0.02411197
208	0xbd921b1a	-0.071340755
209	0x3dea97e3	0.11454751
210	0xbdd192b9	-0.10233063
211	0xbdf26382	-0.11835386
212	0xbddc29b9	-0.107501455
213	0xbdb56c2f	-0.08858525
214	0xbf499374	-0.7874062
215	0xb8932240	-7.015886e-05
216	0xbdc91274	-0.09817973
217	0xbe06454b	-0.1311237
218	0xbda9a6a0	-0.08283734
219	0x3ce231cd	0.027611637
220	0x3c6afbbe	0.014342247
221	0xbd93f70e	-0.07224856
222	0xbd3f5d91	-0.04672009
223	0xbd86a7db	-0.06574985
224	0xbeb9d0b7	-0.3629205
225	0xbe919a9b	-0.28438267
226	0xbe1ed3f8	-0.15510547
227	0xbe879708	-0.26482415
228	0xbe9423ec	-0.28933656
229	0xbee71486	-0.45132846
230	0x3cbb360c	0.02285292
231	0xbd9cef3c	-0.07662818
232	0xbd5c9159	-0.05384955
233	0xbc4721e8	-0.01215408
234	0xbdb93da7	-0.090449624
235	0xbb801286	-0.003908458
236	0xbba4dc09	-0.005031113
237	0x3d8ae549	0.06782014
238	0xbdfd2f37	-0.12362521
239	0x3c537f48	0.012908764
240	0xbe4b2b68	-0.19840777
241	0xbd82bbc0	-0.06383467
242	0xbe12b74f	-0.14327739
243	0xbe3e63e9	-0.185928
244	0xbeca0d22	-0.39463145
245	0xbddac87f	-0.10682773
246	0xbe0a4347	-0.13502227
247	0xbdd167b1	-0.10224856
248	0xbe1120ad	-0.14172621
249	0xbe9e29fa	-0.308914
250	0x3b9f5310	0.0048621967
251	0xbdfeb59e	-0.124369845
252	0xbd484ebf	-0.048903223
253	0xbc869cb7	-0.01643215
254	0x3d898141	0.06714106
255	0xbd58e9a2	-0.052957185

lstm.weight_hh_l0 f4 [400, 100]
0	0xbb23496b	-0.0024915587
1	0x3ce24fcc	0.02762594
2	0x3d8af19e	0.06784366
3	0xbdbbc424	-0.0916827
4	0x3d448923	0.047982346
5	0x3e41b130	0.18915248
6	0x3da36fa9	0.07980282
7	0xbdc0caff	-0.094137184
8	0x3d31e972	0.04343552
9	0x3b8f4991	0.0043727835
10	0x3e142210	0.14466119
11	0x3d848c2a	0.06472047
12	0x3e910151	0.28321317
13	0xbe80459b	-0.25053105
14	0xbde0868b	-0.10963162
15	0xbe99d2e1	-0.300437
16	0xbd31289c	-0.04325162
17	0xbcc78c5e	-0.024358924
18	0x39fcd964	0.00048227154
19	0xbe332b94	-0.17497092
20	0x3d70c134	0.058778003
21	0x3d92411e	0.07141326
22	0x3cbc7961	0.023007097
23	0x3d4869be	0.04892897
24	0x3dbb0812	0.09132399
25	0xbddfbe38	-0.10924953
26	0xbdbae1b9	-0.091250844
27	0xbe12f774	-0.14352208
28	0xbde7dee7	-0.11321812
29	0x3e04d006	0.1296998
30	0x3d106aa8	0.035257965
31	0x3cd52465	0.02601833
32	0xbeb29c1a	-0.3488472
33	0x3ecb36f1	0.39690354
34	0x3bb77511	0.005598672
35	0x3dd0c0ae	0.10193001
36	0xbe33ef99	-0.17571868
37	0x3dba4909	0.090959616
38	0xbde93a1c	-0.113880366
39	0x3d70b934	0.058770373
40	0x3d1fcf9b	0.039016347
41	0x3e894048	0.26806855
42	0xbdb6da83	-0.089283966
43	0xba8fc59f	-0.001096893
44	0xbe96cf6c	-0.29455125
45	0x3b06b546	0.0020554825
46	0xbd619f10	-0.055083334
47	0xbe113f62	-0.14184335
48	0xbdd02cc0	-0.101647854
49	0x3df4567e	0.119305596
50	0xbd83ab79	-0.0642919
51	0x3e91dcbc	0.2848872
52	0xbe135bd9	-0.14390506
53	0xbda4d021	-0.0804751
54	0x3e635966	0.22202072
55	0x3e4e217f	0.20129965
56	0x3cff0e2c	0.031134687
57	0x3d98d05c	0.074616164
58	0xbd8ecbe3	-0.06972482
59	0xbe2aef99	-0.16692962
60	0x3d84a5d7	0.06476944
61	0xbdc374ed	-0.09543786
62	0xbdcf72d7	-0.10129326
63	0x3d427f9e	0.047484986
64	0xbac055fb	-0.0014674062
65	0x3cfa3977	0.03054498
66	0xbd051416	-0.03248986
67	0xbee63a81	-0.4496651
68	0x3ca31c47	0.019910945
69	0x3b645af0	0.0034844242
70	0x3cdc5dfd	0.026900286
71	0xbc030749	-0.007997342
72	0xbd006e35	-0.0313551
73	0x3e237dd5	0.1596597
74	0x3d8c1535	0.068399824
75	0x3cec3f96	0.028838914
76	0x3e0082ac	0.12549847
77	0x3e1407db	0.14456122
78	0x3c41397c	0.0117934905
79	0xbd06584b	-0.032799046
80	0xbd090691	-0.033453528
81	0x3de91655	0.113812126
82	0xbdb103a9	-0.08643276
83	0xbd19a5ae	-0.03751152
84	0xbcef27f8	-0.029193863
85	0xbde15f85	-0.11004547
86	0x3a522c69	0.0008017482
87	0x3e3bf9e1	0.1835704
88	0x3dbd96f9	0.092573114
89	0x3d5e9fd1	0.05435163
90	0x3d021bcc	0.03176479
91	0x3cca65b2	0.024706695
92	0xbdbf5ed1	-0.09344257
93	0x3dfa5ca9	0.12224705
94	0xba1a7d3e	-0.00058932963
95	0xbe26d4be	-0.16292092
96	0xbc8e7f14	-0.01739458
97	0x3de9b441	0.11411334
98	0xbb9d2b54	-0.004796425
99	0xbe87b86c	-0.2650789
100	0x3d23bfa5	0.03997769
101	0x3c625e57	0.013816438
102	0x3e4c53b9	0.19953813
103	0xbe1e3711	-0.15450694
104	0x3ddee7ab	0.10884031
105	0xbaf5a4cc	-0.001874113
106	0x3e9a268b	0.3010753
107	0x3c8a338b	0.01687028
108	0x3e16eccf	0.14738773
109	0x3cb88285	0.022523174
110	0x3de28b6e	0.1106175
111	0xbd9805b7	-0.07422965
112	0xbdd37f8f	-0.10327064
113	0xbe4b0dcf	-0.19829486
114	0xbe1313e1	-0.14363052
115	0x3d82822a	0.06372483
116	0x3d2d6753	0.042334866
117	0x3d6428fe	0.055703156
118	0xbd91bcd7	-0.071160965
119	0xbc332ba5	-0.010935699
120	0xbe13afcc	-0.1442253
121	0x3d57f642	0.052725084
122	0xbe1ce503	-0.15321736
123	0xbc26ece3	-0.010188314
124	0xbde0a1e6	-0.1096838
125	0xbc84ed59	-0.016226457
126	0x3d39d31c	0.045367345
127	0xbcab1dcc	-0.020888232
128	0xbbf15271	-0.007364564
129	0xbdee7ba6	-0.11644678
130	0xbd3af3b3	-0.045642566
131	0xbe22fe83	-0.15917401
132	0x3e9e0955	0.30866495
133	0x3d044dee	0.032300882
134	0x3e1054b8	0.14094818
135	0x3ce5ac47	0.02803625
136	0xbcdeebcb	-0.027212044
137	0xbc516194	-0.012779612
138	0xb97a057a	-0.00023843898
139	0xbe24d771	-0.1609781
140	0x3cf280b8	0.029602394
141	0x3e1488fd	0.14505382
142	0x3bb5b142	0.0055448124
143	0x3db3c978	0.087786615
144	0x3d03cb09	0.03217605
145	0xbe516642	-0.20449165
146	0xbe588f7b	-0.21148483
147	0x3ca8805e	0.020569023
148	0x3dd3d4cc	0.10343322
149	0xbdb7792d	-0.08958659
150	0xbde54df0	-0.11196506
151	0x3dd2a85a	0.10286017
152	0xbca8e224	-0.020615645
153	0x3e16b4b5	0.14717372
154	0x3d1617b1	0.036643688
155	0x3dd904e4	0.10596636
156	0x3dfdfad2	0.12401356
157	0x3e523fe3	0.20532183
158	0x3d4a864f	0.049444493
159	0x3d7e01ef	0.062013563
160	0xbc6e32c2	-0.014538469
161	0x3e134312	0.14381054
162	0x3cd369ad	0.025807226
163	0xbcf6208f	-0.030044822
164	0x3e0e7c8f	0.13914703
165	0xbdc70341	-0.097174175
166	0x3e1ec391	0.1550429
167	0xbdc95601	-0.09830857
168	0xbcbfdbb7	-0.023420198
169	0x3d499e9b	0.049223524
170	0xbdbd8421	-0.09253717
171	0x3d86eedf	0.0658853
172	0x3d92aa4c	0.07161388
173	0xbd18fe51	-0.03735191
174	0xbe05a947	-0.13052855
175	0x3df7125f	0.12064051
176	0xbd96b84e	-0.07359372
177	0xbdfb85cf	-0.12281381
178	0x3d73248a	0.05936102
179	0x3d1dd4fa	0.03853319
180	0x3d9a318a	0.0752898
181	0x3e1d105b	0.1533827
182	0x3e1817bd	0.14852805
183	0x3deb6a5d	0.114948966
184	0xbda9b05c	-0.08285591
185	0xbd0e4a85	-0.034739036
186	0x3d0657ad	0.032798458
187	0x3b83a463	0.004017399
188	0xbd72ad7e	-0.059247486
189	0x3ccc4160	0.024933517
190	0xbe0938c7	-0.13400565
191	0xb8fcb6f1	-0.00012050372
192	0x3dbef90b	0.09324845
193	0xbb0d7c85	-0.0021589112
194	0xbe487b7b	-0.19578354
195	0xbdb615fb	-0.08890911
196	0xbda87f95	-0.08227459
197	0xbdab2bee	-0.08357988
198	0x3da21f33	0.07916107
199	0xbd464c56	-0.048412643
200	0x3cd2b0ac	0.02571901
201	0xbd859554	-0.06522623
202	0x3dde6466	0.10858993
203	0xbcfa57e4	-0.030559488
204	0x3d6ead1b	0.058270555
205	0xbe120d54	-0.14262897
206	0xbdf832c9	-0.121190615
207	0xbda0f693	-0.0785953
208	0x3d4dc489	0.05023626
209	0x3d73d15e	0.05952584
210	0x3d6b9279	0.057512734
211	0xbe1bf4f8	-0.15230167
212	0x3c8a5509	0.016886251
213	0x3e7eefc8	0.24896157
214	0x3d1e550a	0.03865532
215	0x3e2f4c2c	0.17118901
216	0xbe0cc930	-0.13748622
217	0xbdde64c5	-0.10859064
218	0xbd919449	-0.07108361
219	0x3df2a5bc	0.118480176
220	0xbe3fa28c	-0.1871435
221	0x3ca9d345	0.020730624
222	0xbe08f1d9	-0.13373508
223	0xbcdbb0e9	-0.026817756
224	0xbe40fa66	-0.1884552
225	0x3e206e69	0.15667118
226	0xbd712379	-0.05887172
227	0x3e6629e6	0.2247692
228	0xbb984f13	-0.0046480983
229	0x3d89c215	0.06726471
230	0x3c243714	0.010022897
231	0xbd251030	-0.04029864
232	0xbd4051d8	-0.046953052
233	0xbd2b0da9	-0.041761074
234	0x3dd14789	0.102187224
235	0x3d768f75	0.060195405
236	0xbe0e1de7	-0.13878594
237	0xbd0feb58	-0.03513655
238	0xbd7c72a3	-0.061632764
239	0xbe29018b	-0.16504495
240	0x3e229e3a	0.15880671
241	0x3c8302db	0.015992573
242	0xbb7f3d58	-0.0038946476
243	0x3e46d452	0.19416931
244	0x3e12ffe6	0.1435543
245	0x3bcb9f4f	0.0062140594
246	0x3c31cc1f	0.010851889
247	0xbdd9dd0c	-0.106378645
248	0x3bb3fbbf	0.005492657
249	0xbd42f1a1	-0.047593717
250	0xbdbf054a	-0.09327181
251	0xbd1626e4	-0.036658183
252	0xbe65bdde	-0.2243571
253	0xbe09a680	-0.13442421
254	0x3dab1f46	0.08355574
255	0x3e2d1ed6	0.16906294

lstm.bias_ih_l0 f4 [400]
0	0xbab73e44	-0.0013980349
1	0xbde3df58	-0.11126584
2	0xbde47ea9	-0.11156971
3	0xbdfaf23c	-0.12253234
4	0xbd9eba12	-0.07750334
5	0xbdb2d738	-0.08732456
6	0xbe32eb00	-0.17472458
7	0xbb27b894	-0.0025592195
8	0xbd9fb7b9	-0.07798714
9	0x3d814651	0.0631224
10	0xbc13e864	-0.009027574
11	0xbd90df75	-0.07073871
12	0xbe0ef24f	-0.13959621
13	0x3b370755	0.0027927954
14	0xbe1f8f17	-0.15581928
15	0x3d34dfe6	0.04415884
16	0xbce82d4a	-0.028341908
17	0xbe35afa6	-0.17742786
18	0xbdf04a88	-0.11732966
19	0xbe4aef1a	-0.19817773
20	0x3c911df8	0.017714486
21	0x3ce7ace6	0.028280687
22	0x3cb19fea	0.021682698
23	0x3d6eaef0	0.058272302
24	0x3ca1444a	0.019685883
25	0x3d1d2dc1	0.038373712
26	0xbd43da12	-0.04781539
27	0xbc06e852	-0.0082341
28	0xbd0b5255	-0.034014065
29	0xbd4c515a	-0.04988227
30	0xbdded33b	-0.10880133
31	0xbdb0cbde	-0.086326346
32	0xbdfcdbbe	-0.123466
33	0xbd027d1d	-0.0318576
34	0x3cea4710	0.028598338
35	0xbd1b0095	-0.037842352
36	0x3d1b5188	0.03791955
37	0xbdd942b0	-0.10608423
38	0xbe10cb13	-0.14139967
39	0xbdf7048a	-0.12061413
40	0x3c98913d	0.018623943
41	0xbd99e8b4	-0.07515088
42	0xbd3b68b6	-0.045754157
43	0x3dc1d248	0.09463936
44	0xbc85eb90	-0.016347677
45	0xbde28a62	-0.11061551
46	0xbdbba1cf	-0.09161722
47	0x3d1a7e3e	0.03771805
48	0xbe2f3221	-0.17108966
49	0x3d1c5693	0.0381685
50	0xbd00f1a1	-0.031480435
51	0xbd20e181	-0.039277557
52	0xbab722f9	-0.0013972215
53	0xbe001328	-0.12507308
54	0x3d70804f	0.058716115
55	0x3ccedace	0.025250819
56	0xbe4d0cec	-0.2002446
57	0xbe6a61da	-0.2288889
58	0xbe0440e2	-0.12915376
59	0x3d3e55b6	0.04646846
60	0xbccc7628	-0.024958685
61	0x3da466cb	0.08027419
62	0xbbce4fae	-0.0062961197
63	0xbe07b4d5	-0.13252576
64	0xbd517be3	-0.05114354
65	0xbe06e341	-0.13172628
66	0xbe25a854	-0.16177493
67	0xbcc0b9ca	-0.023526091
68	0xbda431b7	-0.08017295
69	0xbd918245	-0.07104925
70	0xbe732b9c	-0.23747104
71	0x3d43cf1a	0.04780493
72	0xbddc7901	-0.10765267
73	0x3e629987	0.22128879
74	0xbd581a91	-0.05275971
75	0x3d60d1f3	0.054887723
76	0xbd431b50	-0.04763347
77	0xbe0c6367	-0.13709794
78	0xbe59e3e6	-0.21278343
79	0xbe15607b	-0.14587586
80	0xbddead1e	-0.10872863
81	0xbd3e7bdc	-0.04650484
82	0xbd905fdb	-0.07049533
83	0x3c8f90ab	0.017525038
84	0xbd8f20be	-0.06988667
85	0xbe17e640	-0.14833927
86	0xbe0dc6f7	-0.1384543
87	0xbdabf7dc	-0.08396885
88	0xbc926e57	-0.01787488
89	0x3d893642	0.06699802
90	0xbe14dd7f	-0.14537619
91	0xbdc8fa40	-0.098133564
92	0xbd40e281	-0.04709101
93	0xbe0cf15a	-0.13763943
94	0xbe329c73	-0.17442493
95	0xbb963bd2	-0.004584768
96	0xbd86b920	-0.065782785
97	0xbe29dfe4	-0.16589314
98	0xbdb9fe17	-0.09081667
99	0xbce65f2e	-0.028121557
100	0xbd5492fe	-0.051897995
101	0xbd3c03e2	-0.04590214
102	0xbda747a8	-0.08167964
103	0xbe0f433f	-0.13990496
104	0xbdf494f5	-0.11942474
105	0xbbcad3c8	-0.006189797
106	0xbe122dfc	-0.14275354
107	0xbe110fe8	-0.14166224
108	0xbe0cada5	-0.13738115
109	0xbdde886c	-0.10865864
110	0xbc2a9850	-0.010412291
111	0xbc34ce44	-0.011035506
112	0xbe4967eb	-0.19668548
113	0x3e5c4680	0.21511269
114	0xbe106a0b	-0.14102952
115	0xbd6b9f21	-0.057524804
116	0x3d6ffc1f	0.05859005
117	0xbd634580	-0.055486202
118	0xbd75f0ee	-0.06004422
119	0xbd35ff06	-0.044432662
120	0xbc033bb3	-0.008009839
121	0x3c500f97	0.012699029
122	0xbd8a94e8	-0.06766683
123	0xbd546453	-0.05185349
124	0xbd9ffbdc	-0.0781171
125	0x3a937972	0.0011251403
126	0xbda310ee	-0.079622135
127	0xbe08bf15	-0.13354142
128	0xbe49ffd2	-0.19726494
129	0xbdc7ea45	-0.0976148
130	0xbdc4508f	-0.09585678
131	0x3cdd46d0	0.027011305
132	0xbdd7b0fd	-0.10531805
133	0xbd974cb8	-0.0738768
134	0x3ca37b2c	0.019956194
135	0x3bd23ae8	0.0064157136
136	0x3cdb59e4	0.026776262
137	0xbc47e6b2	-0.012200998
138	0xbd8da55a	-0.06916304
139	0xbdcf848f	-0.101327054
140	0xbd5eb709	-0.054373775
141	0x3c9f5259	0.019448446
142	0xbbb75a6a	-0.005595495
143	0xbe705c29	-0.23472656
144	0xbe02ca14	-0.12772399
145	0xbd8006cc	-0.062512964
146	0xbe2c63de	-0.16834971
147	0x3c39682b	0.0113163395
148	0xbaf47358	-0.0018650098
149	0xbd6a4083	-0.05719043
150	0xbba28da2	-0.0049607316
151	0x3d4361f0	0.047700822
152	0xbda23389	-0.07919986
153	0xbd4c3cb9	-0.049862597
154	0xbdddbf86	-0.10827546
155	0xbdf61444	-0.12015584
156	0xbdf8520e	-0.12125026
157	0xbd920c20	-0.07131219
158	0xbe12177a	-0.14266768
159	0xbdd9f099	-0.106415935
160	0xbdcf4860	-0.10121226
161	0xbdbf5b20	-0.093435526
162	0xbe1aff4c	-0.1513645
163	0xbe0043ac	-0.12525815
164	0xbde3d8a6	-0.11125307
165	0xbd64f7dc	-0.05590044
166	0xbce87d10	-0.028379947
167	0xbe5b1b1a	-0.21397057
168	0xbda4e887	-0.080521636
169	0xbdbddae2	-0.09270264
170	0xbd705a09	-0.058679614
171	0xbd09aadc	-0.03361021
172	0xbdf62db1	-0.12020434
173	0xbe3860a8	-0.18005621
174	0xbda85568	-0.08219415
175	0xbe0385d1	-0.12844016
176	0xbce3ad85	-0.027792701
177	0xbe5df14f	-0.21674083
178	0xbdcfc2ef	-0.101446025
179	0xbe24e856	-0.16104254
180	0xbc3f6ef3	-0.011684167
181	0xbd39a292	-0.045321055
182	0xbc6705f0	-0.014100537
183	0xbd84f273	-0.06491556
184	0xbda26398	-0.07929152
185	0x3c538e32	0.01291232
186	0xbe014051	-0.12622191
187	0xbdd05310	-0.10172093
188	0xbd0ea0fb	-0.03482149
189	0xbe0e26dc	-0.13882011
190	0x3d83aa22	0.06428935
191	0xbe2f69c0	-0.17130184
192	0xbd1bf66f	-0.038076814
193	0xbc045dca	-0.008079002
194	0xbe3d7fa9	-0.1850573
195	0xbde126a5	-0.10993699
196	0xbd6677d5	-0.056266624
197	0xbd2855c6	-0.041097425
198	0xbcf21675	-0.029551724
199	0xbded8674	-0.115979105
200	0x3d4bb3e0	0.04973209
201	0x3cd013c6	0.025400054
202	0x3c70dbc9	0.014700838
203	0x3d9c6048	0.07635552
204	0xbd833e09	-0.06408317
205	0xbac5f65e	-0.001510333
206	0xbc25de3c	-0.010123786
207	0x3d7764f4	0.06039901
208	0x3ca830a2	0.020531002
209	0xbdb72979	-0.08943457
210	0xbdc8a255	-0.097965874
211	0xbcaad470	-0.020853251
212	0xbd8f3e06	-0.06994252
213	0x3d9d01c3	0.07666352
214	0x3e009c48	0.12559617
215	0xbd562a9a	-0.05228672
216	0x3cce3277	0.025170548
217	0x3cafb375	0.021447876
218	0xbdc83f00	-0.09777641
219	0x3aca832c	0.0015450469
220	0xbbfb5189	-0.007669632
221	0xbd9cf628	-0.07664138
222	0x3da90083	0.08252051
223	0x3d8452d1	0.064611085
224	0x3da4ca79	0.08046431
225	0x3bc4f33a	0.00601044
226	0x3c635eeb	0.013877611
227	0xbdeda817	-0.11604326
228	0x3d41f659	0.047354076
229	0xbd96ab7f	-0.07356929
230	0xbbe14970	-0.0068752095
231	0xbd3373b6	-0.043811522
232	0x3d1771ad	0.036973644
233	0xbdb243b0	-0.087043166
234	0xbdb7d439	-0.08976025
235	0x3d499d55	0.04922231
236	0x3d2ec943	0.042672407
237	0xbdfcc8df	-0.123430006
238	0x3d7c2498	0.061558336
239	0xbd272d72	-0.040814824
240	0xb99d9d76	-0.0003006269
241	0xbdceea74	-0.10103312
242	0x3e118c5f	0.14213704
243	0x3d0cce0b	0.034376185
244	0xbcece1f1	-0.028916331
245	0x3d89a050	0.0672003
246	0x3d8fa9a4	0.07014778
247	0x3bff46ea	0.007790436
248	0x3d067d1e	0.032834165
249	0x3bd65f61	0.006542132
250	0x3d80de45	0.062923945
251	0xbdfc3368	-0.123144925
252	0xbb202409	-0.002443554
253	0x3d997013	0.074920796
254	0xba640768	-0.00086986134
255	0xbd912a85	-0.07088188

lstm.bias_hh_l0 f4 [400]
0	0xbb961ff0	-0.004581444
1	0x3ca78e70	0.020453662
2	0xbda6c89d	-0.08143733
3	0xbcde0696	-0.02710275
4	0xbe3ac177	-0.18237863
5	0x3d7b1ad5	0.061304886
6	0xbe467de8	-0.19383967
7	0xbdb10ac8	-0.086446345
8	0xbe03decf	-0.12877963
9	0xbdb05d54	-0.08611551
10	0xbe03f39e	-0.12885901
11	0xbd7f5c2f	-0.062343773
12	0x3d2c8ae1	0.042124633
13	0x3e1b3568	0.15157092
14	0xbe3d1b6d	-0.18467493
15	0xbdf12d22	-0.117761865
16	0x3dcdc690	0.100476384
17	0xbe4ba85c	-0.19888443
18	0xbe091049	-0.13385119
19	0xbe26ab33	-0.16276245
20	0x3d182730	0.037146747
21	0x3c51b883	0.012800339
22	0xbd7d1d9c	-0.061795816
23	0x3d805318	0.06265849
24	0xbd1043cc	-0.035220906
25	0xbc76f2ae	-0.015072508
26	0xbd61073c	-0.05493854
27	0xbc55731e	-0.013027934
28	0xbe1c5095	-0.15265115
29	0x3bce7321	0.0063003455
30	0xbe2e5197	-0.17023312
31	0xbc881c92	-0.016615186
32	0xbd5c2a54	-0.053751305
33	0xbe45df46	-0.19323453
34	0x3d7e904b	0.062149327
35	0xbe33f076	-0.17572197
36	0xbd7e41ce	-0.062074475
37	0xbde433b4	-0.11142674
38	0xbe42f122	-0.19037297
39	0xbdecd140	-0.11563349
40	0x3cf0f6d7	0.029414577
41	0x3d4451f5	0.047929723
42	0x3d8d0d88	0.068873465
43	0x3df93c36	0.121696874
44	0x3d8b1dc8	0.0679279
45	0xbdbcf644	-0.09226659
46	0xbdf13aef	-0.11778819
47	0xbce1dcc9	-0.027571099
48	0xbda4e5e6	-0.08051662
49	0xbae38c6c	-0.0017360575
50	0xbd8257d5	-0.06364409
51	0xbd835729	-0.06413109
52	0x3d687d7d	0.0567603
53	0xbd87f382	-0.06638242
54	0x3dcf9fb1	0.101378806
55	0x3d4a0825	0.049324173
56	0xbe4bbcb0	-0.19896197
57	0xbe5da866	-0.2164627
58	0xbdd229a9	-0.10261852
59	0xbd963a9f	-0.073354
60	0x3d9cd366	0.076575086
61	0xbc2f8433	-0.010712671
62	0xbe30e68a	-0.17275444
63	0xbda8240b	-0.0821
64	0xbdd2aa00	-0.10286331
65	0xbd9eae05	-0.07748035
66	0xbe42647c	-0.18983644
67	0xbd0880c3	-0.03332592
68	0xbd4a4ba3	-0.04938854
69	0xbe589810	-0.21151757
70	0xbe4209d4	-0.18949062
71	0x3d6c68b2	0.057717033
72	0xbe5cd529	-0.21565689
73	0x3ddb3bfb	0.107048
74	0x3d95678a	0.07295139
75	0xbc44ad17	-0.012004158
76	0xbdacc0f2	-0.08435239
77	0xbe6d9899	-0.23202743
78	0xbe3f2728	-0.1866728
79	0xbdbbddd7	-0.09173172
80	0xbccf045d	-0.025270635
81	0x3d1d8c1e	0.038463704
82	0xbd105cf2	-0.03524489
83	0xbdf0ea5b	-0.1176345
84	0xbd43758e	-0.04771953
85	0xbc927559	-0.017878221
86	0xbb684c08	-0.0035445709
87	0x3d439d09	0.047757182
88	0xbc65a2e7	-0.01401589
89	0x3d192294	0.037386492
90	0xbdf330e4	-0.118745595
91	0xbdc84f60	-0.097807646
92	0xbd4a4f43	-0.049391996
93	0x3d1293ec	0.0357856
94	0xbe2faeed	-0.17156573
95	0x3db1350a	0.086526945
96	0xbd3daa5e	-0.046305053
97	0xbe218bd0	-0.1577599
98	0x3d66b6dd	0.056326736
99	0xbdee51b7	-0.116366796
100	0xbde4dba7	-0.11174708
101	0x3bcde92b	0.0062838993
102	0xbcdb65ed	-0.026782
103	0xbde11a07	-0.109912924
104	0xbd29e66a	-0.041479506
105	0xbd01832f	-0.031619247
106	0xbdd2f06f	-0.10299765
107	0xbcf64552	-0.030062351
108	0xbda5412f	-0.080690734
109	0x3b9ada45	0.004725727
110	0xbe3c784a	-0.18405262
111	0xbd8f782f	-0.07005345
112	0xbd2a8706	-0.041632675
113	0x3e57acbe	0.2106199
114	0xbd851485	-0.064980544
115	0x3daa70ca	0.08322294
116	0xbdbd6339	-0.09247441
117	0xbc808148	-0.015686646
118	0xbd8e57bc	-0.06950328
119	0xbdafac93	-0.08577838
120	0x3baf7c48	0.0053553917
121	0xbdd128b7	-0.10212844
122	0xbdca9d92	-0.098933354
123	0xbcc7393d	-0.024319286
124	0xbb5f0586	-0.0034030392
125	0xbe114831	-0.14187695
126	0xbddb2879	-0.10701079
127	0xbe27cf79	-0.16387738
128	0xbceb1470	-0.028696269
129	0xbdd83c0f	-0.1055833
130	0xbda561a1	-0.08075262
131	0x3d51350c	0.05107598
132	0xbdc0719d	-0.0939667
133	0xbd1d123c	-0.038347468
134	0xbde26f69	-0.11056406
135	0xbdf78d4f	-0.12087499
136	0xbc5e16dd	-0.013555256
137	0xbcb65965	-0.022259424
138	0xbd3b06dc	-0.04566084
139	0xbbbcd1f0	-0.005762331
140	0x3c67d005	0.014148717
141	0xbd855a23	-0.06511333
142	0xbc3e5622	-0.011617215
143	0xbe712ebb	-0.23552983
144	0xbd2055af	-0.039144214
145	0xbe1b7b30	-0.15183711
146	0xbe136c5b	-0.14396803
147	0xbe0996c7	-0.13436423
148	0xbe2b4069	-0.1672379
149	0x3ccfcfad	0.025367582
150	0xbd9b4455	-0.07581393
151	0xbc36930a	-0.011143455
152	0xbbffbad4	-0.007804254
153	0xbc7e24d5	-0.015511711
154	0xbd666cae	-0.05625599
155	0xbdea5f2c	-0.11443934
156	0xbdd7d87a	-0.105393365
157	0xbe6a36d7	-0.22872482
158	0x3ccd841b	0.025087407
159	0xbd8a3579	-0.0674848
160	0xbe045c8f	-0.12925933
161	0xbd8f26fe	-0.06989859
162	0xbb067a00	-0.0020519495
163	0xbe0fd4ab	-0.1404597
164	0xbde1b936	-0.11021654
165	0xbe0891aa	-0.13336816
166	0xbdcab8b6	-0.09898512
167	0xbe6ee322	-0.23328832
168	0xbdddb195	-0.10824887
169	0xbe375243	-0.17902474
170	0xbe4699ac	-0.19394559
171	0xbdc0b825	-0.09410123
172	0xbda2b8ed	-0.07945428
173	0xbbd69d25	-0.006549495
174	0xbd80a5b7	-0.062816076
175	0xbdfbed85	-0.12301163
176	0xbc9321f7	-0.017960532
177	0xbded5866	-0.11589126
178	0xbe049b13	-0.12949781
179	0xbe3cfb5d	-0.18455262
180	0xbde65277	-0.11246198
181	0x3d50c6e2	0.05097092
182	0x3d15fe44	0.03661944
183	0x3d8bd961	0.06828571
184	0xbdbae894	-0.09126392
185	0xbddf2db6	-0.108973905
186	0x3b0b1062	0.0021219482
187	0xbce11b40	-0.027478814
188	0xbdb8f207	-0.09030538
189	0xbdf47d9e	-0.11938022
190	0xbdebb1f3	-0.115085505
191	0xbe0b5bda	-0.13609257
192	0xbd8abe51	-0.06774581
193	0xbda32638	-0.07966274
194	0xbe175c04	-0.14781195
195	0xbe094a6a	-0.13407293
196	0xbd8d2627	-0.068920426
197	0xbd34d2b0	-0.04414624
198	0xbd549c0b	-0.051906627
199	0xbcbb12af	-0.022836057
200	0x3b410dcb	0.0029457684
201	0xbdc2a916	-0.09504907
202	0xbe0bc75d	-0.1365027
203	0x3cecf3d3	0.028924858
204	0x3c128df4	0.008944977
205	0xbc865068	-0.016395763
206	0x3d2e98ed	0.04262631
207	0x3d0ff994	0.035150126
208	0xbd7ac224	-0.061220303
209	0x3c3cde46	0.0115276035
210	0xbd700ec8	-0.058607846
211	0x3d2f2120	0.0427562
212	0xbdf0ed22	-0.117639795
213	0xbcac1fc5	-0.021011243
214	0xbcd3e6b7	-0.02586685
215	0x3d40633a	0.04696963
216	0xbd02dbab	-0.031947773
217	0xbd824caa	-0.06362279
218	0x3d14097a	0.03614185
219	0xbb15f014	-0.0022878693
220	0x3d926a1c	0.07149145
221	0xbd93e6ca	-0.07221754
222	0xbc2dfadf	-0.010618894
223	0xbd76cf7a	-0.06025646
224	0xbcf86948	-0.03032364
225	0x3ce947b0	0.028476566
226	0x3d6064e6	0.054783724
227	0x3d21cbba	0.03950093
228	0xbd0cc5bd	-0.034368265
229	0x3c98a36a	0.01863261
230	0x3d1149af	0.03547066
231	0x3d4b135e	0.049579017
232	0x3dfdf700	0.12400627
233	0xbd04dbcd	-0.03243618
234	0xbd4f76bb	-0.05065034
235	0xbd4ad849	-0.04952267
236	0x3de85754	0.113447815
237	0x3d75ee75	0.060041863
238	0x3c425c88	0.0118628815
239	0x3d04f94c	0.03246431
240	0xbd5ed2b6	-0.05440017
241	0xbc1e8f65	-0.009677743
242	0xbd0bdef6	-0.03414818
243	0x3d57f195	0.052720625
244	0x3d8ac3b1	0.067756064
245	0x3ca49387	0.020089878
246	0xbd9c0e6c	-0.07619938
247	0x3d9302f8	0.071783006
248	0x3d056d11	0.032574717
249	0xbc66eb7a	-0.014094228
250	0x3d4584d2	0.04822237
251	0xbd047dda	-0.032346584
252	0x3da367ce	0.079787835
253	0xbbbdabc8	-0.0057883
254	0xbdb037e9	-0.08604414
255	0xbd3d5b31	-0.046229545

linear.weight f4 [1, 100]
0	0x3dcb1e74	0.09917918
1	0x3d337697	0.043814268
2	0xbdbb52a6	-0.09146623
3	0x3d58a3f8	0.052890748
4	0xbd42f2ea	-0.047594942
5	0x3db08003	0.08618166
6	0xbd70696e	-0.058694296
7	0xbd6d7190	-0.05796963
8	0xbd2c9c45	-0.042141218
9	0xbe0de0a8	-0.13855231
10	0xbdd6e748	-0.10493332
11	0xbd142d31	-0.03617591
12	0xbd606555	-0.054784138
13	0xbd6baf37	-0.057540145
14	0x3d5e5064	0.054275885
15	0xbdc04951	-0.09388984
16	0x3e1051e1	0.14093734
17	0xbd1a4f3f	-0.03767323
18	0xba9ae67a	-0.0011817955
19	0xbd1c2236	-0.038118564
20	0x3e0e9c2c	0.13926762
21	0xbdcd575a	-0.100264266
22	0x3dde1b21	0.10845018
23	0x3d9fab13	0.07796302
24	0x3e344fda	0.17608586
25	0x3ca2c990	0.019871503
26	0x3cbf6cc1	0.023367288
27	0xbd166a14	-0.036722258
28	0x3ac9f850	0.0015409086
29	0xbd2885b8	-0.04114315
30	0x3c9d8b5b	0.019231489
31	0x3dcb4884	0.09925941
32	0x3bbe750d	0.0058122934
33	0x39411e50	0.00018417207
34	0xbe139d23	-0.14415412
35	0x3d34f07c	0.044174656
36	0x3e10c922	0.14139226
37	0x3d91aaf5	0.071126856
38	0x3b8e5c72	0.0043445164
39	0x3da6852e	0.08130871
40	0xbdd90bb1	-0.10597933
41	0xbda1812d	-0.078859664
42	0xbdb07cb1	-0.08617533
43	0xbd32209c	-0.04348813
44	0xbd95e8a3	-0.073197626
45	0x3cb14df8	0.021643624
46	0x3cfe59ab	0.031048616
47	0x3d85f117	0.06540125
48	0xbc946e55	-0.018119017
49	0x3deae30f	0.11469089
50	0x3ddb1c73	0.10698786
51	0xbcc4a480	-0.024004221
52	0x3dc40b96	0.09572522
53	0x3c8d093c	0.017216317
54	0xbdf5b8d5	-0.119981445
55	0xbd83377d	-0.06407068
56	0xbd9fd1fb	-0.078037225
57	0xbda7ca62	-0.08192898
58	0xbd9cbb5a	-0.07652922
59	0xbd493be5	-0.049129386
60	0xbe05cc4a	-0.13066211
61	0xbdf82c4b	-0.12117823
62	0xbd265459	-0.040607784
63	0x3c3d7fa0	0.011566073
64	0xbdf7f827	-0.12107878
65	0xbd92d574	-0.07169619
66	0xbd7cd968	-0.061730772
67	0x3e2e5c5a	0.17027417
68	0xbdd513d5	-0.10404173
69	0xbd989d7f	-0.07451915
70	0xbc3f01cc	-0.011658143
71	0xbd999fff	-0.0750122
72	0xbccf79cd	-0.025326634
73	0xbe253e8e	-0.16137144
74	0x3e069f6d	0.13146754
75	0x3d854134	0.06506577
76	0x3d4d9169	0.050187502
77	0x3d5e15ad	0.05421989
78	0x3b8e5afe	0.004344343
79	0x3d062942	0.03275419
80	0xbd05f491	-0.03270394
81	0xbdfa86cd	-0.122327425
82	0xbdd80243	-0.105473064
83	0xbdbe1a7d	-0.09282396
84	0x3cde630f	0.027146844
85	0x3dc6cb3c	0.09706733
86	0x3cdd7752	0.027034435
87	0x3dfa1c60	0.12212443
88	0xbd1090d3	-0.035294365
89	0x3c8dfa53	0.017331278
90	0xbd2f88b4	-0.04285498
91	0x3d1c5b93	0.03817327
92	0xbd42baf5	-0.047541577
93	0x3c41d74f	0.011831119
94	0x3d716829	0.058937225
95	0x3d9c4a75	0.07631389
96	0x3dc05921	0.09392
97	0x3cda6b71	0.02666256
98	0xbe082931	-0.13296963
99	0xbd2bd056	-0.04194673
