model/1721471967_model-aapl.pth (torch, 175956 bytes, 5 tensors)

lstm.weight_ih_l0 f4 [400, 6]
00000000: 4a32 bf3d 8a49 a3bd a76b 78bd 0049 393b
00000010: 5aa8 3c3c 07e3 89bd f3fa b33d 8358 5f3d
00000020: 8066 a03b 08f3 93bd 67ab 5bbb 679b 8b3c
00000030: 0db5 093d 4d7c 86bb a0b7 79bd b296 8ebd
00000040: 038c 5f3d ea77 363d cf7d 833d e0ac 8fbd
00000050: f8f2 8a3d 4a95 a1bd 6a45 09bd b33e 75bd
00000060: cb6e 913d 50e1 513d af87 9bbd e05f 9abd
00000070: 8d0b ad3c ada2 843d fa0f c7bd 7f1c b3bd
00000080: 23b8 62bd c718 723d 9374 a13c fabb 77bd
00000090: ba09 99bd 6d4f abbc 33d4 e7bb 75f8 993d
000000a0: f0b2 22bd 97fb 49bd 8576 9a3d 9307 8d3c
000000b0: 1ba0 c13d 13fc 79bd 10a0 2bbd fa34 c2bc
000000c0: 98c5 a73d 773e bb3d 2a3f 103d 6d14 a4bd
000000d0: 3d21 0dbd 7557 b03d e77f 393c fd22 6d3d
000000e0: b008 893d 2d5b a33d fd0e 413d 8dc1 803d
000000f0: 67ab 573b 9d75 37bd d387 a9bc 9df4 5dbd
00000100: 33f3 9c3a 2a36 28bd 33ce e93c cd90 0e3a
00000110: 73cc 6e3d 7fa9 933d 0063 7c3d 8353 323d
00000120: 2ab5 2bbd a3f4 b83d 80a6 acbc 6daf e23c
00000130: 88fd 8bbd 1739 5b3d 0084 82bc 354f a0bd
00000140: af3d c2bd 7324 b53d 33a8 81bc 3a3f 513d
00000150: 0038 dc3a 73dd fbbc a0ae c13d aad9 8e3d
00000160: 4082 a1bc 2d78 893d 5377 d53c bb31 b7bd
00000170: 17f1 63bd 73c1 383d e059 efbc 674d 1b3d
00000180: 0317 b9bd 37b2 3e3d ab49 a03d 9a16 c43c
00000190: 0dc1 3bbc 10cc 8ebd ab9f b7bd 9a22 00bd
000001a0: eaab adbd c38f ad3d ff56 ba3d ab7b 87bd
000001b0: 787b b4bd 5274 9e3d 2be3 b93d 1a66 7b3d
000001c0: c0a1 a43c 15d6 a33d 4d5e c1bb 7320 bd3c
000001d0: e56a b33d 1a21 963b 67b9 0cbc bdde ba3d
000001e0: cd79 78bc e8dd 8abd ba60 593d 8dc1 8bbd
000001f0: 8747 7e3d 33d6 3e3d 337c 603c da7a 4a3c
00000200: 7ad8 7a3d 80ae 343d 67a9 313d cbb8 95bd
00000210: 78bc bf3d cd81 74bc 383a af3d 00bc 36ba
00000220: 10b1 7b3d dde7 58bd c8a8 bb3d 5a4a b2bc
00000230: a058 a43c e367 013d 3395 0c3c 122d bcbd
00000240: cdc7 68bc 27d0 c33c 9a6e 9d3d 0d85 683d
00000250: 276c 75bd 672c 0cbd a360 7a3d ed28 8c3d
00000260: 03d9 173d 900b 28bd aa2c 8d3d 6d40 c1bc
00000270: 60e3 04bd 8dba 46bc 4d2c 0ebc 33fb 5dbd
00000280: 4d4a e73c 00c0 4b38 93a7 cdbc 27f2 dc3c
00000290: 5d33 62bd 252f 9bbd 1a68 1e3d fd65 c5bd
000002a0: 2a7d 24bd f079 5c3d b0ed b7bd c07f adbc
000002b0: cd39 53bd 074b c53c 00b1 683b b0e8 8ebd
000002c0: 873b b53d f0a1 3cbd 4036 9e3d 8abd ca3d
000002d0: 0d7a 3cbd 75da a33d d384 d73c c3ff a2bd
000002e0: 87ab 09bd 47a8 e3bc 0301 473d fa9d b93d
000002f0: 8a69 adbd fa66 d3bc ad1c b73c 4dfa 613d
00000300: ad4b 1d3d 8d75 973d 0d09 1ebd ad2b 72bd
00000310: 2088 86bd bd72 b2bd c7f1 8abc 433a 013d
00000320: c033 06bd 07cf fdbc 73e2 7bbd 3db9 6c3d
00000330: fd61 1bbd 2ae5 16bd cbb2 a33d 4f9d 843d
00000340: 8318 7e3d b049 543d aa82 1c3d 4d29 be3c
00000350: 5ae0 a3bd ca51 69bd 925e be3d 5d21 67bd
00000360: cada 9abd 9af0 7c3b 27f3 483c f896 95bd
00000370: cd8c 6ebd 3354 843c ab1c 913d c0e7 343c
00000380: bbbc a43d fd72 44bd f3a1 fb3c 6725 b6bc
00000390: 8079 ccbc 9fab a6bd 674f 693d 6f5a c93d
000003a0: 6760 0bbc cb1c ab3d 5ae5 973c 50c2 54bd
000003b0: 2374 b4bd bbad 9abd f392 a3bd c33d 07bd
000003c0: 40dd ac3d db22 c4bd e0ac 3abd 9721 75bd
000003d0: e3fb a3bd 1a04 dabb bd9a 39bd 1b36 a6bd
000003e0: cf5f bd3d 5be4 91bd 08dd 913d a37b 2d3d
000003f0: 7f5f b43d 6dad 26bd 371c 5abd 3768 b53d
0.09335764 -0.07973011 -0.06064954 0.002827227 0.0115147475 -0.06732755 0.08788099 0.05452777
0.0048950315 -0.07224089 -0.0033518912 0.017041875 0.03361993 -0.0041041733 -0.060966134 -0.069623366
0.054576885 0.044547953 0.064204805 -0.07015395 0.06784624 -0.07889803 -0.033513464 -0.059874248
0.0710121 0.051240265 -0.07594239 -0.07537818 0.021123672 0.064763404 -0.09719844 -0.087456696
-0.055351388 0.05910566 0.019708907 -0.060482003 -0.07472558 -0.020911897 -0.0070748567 0.075180925
-0.03972143 -0.0493122 0.07542137 0.017215526 0.09454366 -0.061031412 -0.041900694 -0.023706902
0.08191985 0.091427736 0.035216488 -0.080117084 -0.034455527 0.08610431 0.011321998 0.057894696
0.0669111 0.07976375 0.047133435 0.06286917 0.003290856 -0.0447899 -0.020694649 -0.05418836
0.0011974334 -0.04106728 0.028540706 0.0005438447 0.058300447 0.07210063 0.06161785 0.043536674
-0.04192082 0.09031036 -0.021075487 0.02767154 -0.068354666 0.053521242 -0.015932083 -0.078276075
-0.094844215 0.08844843 -0.015827274 0.05108569 0.0016801357 -0.030745244 0.09457135 0.0697511
-0.019715428 0.06712375 0.026057875 -0.08945032 -0.055649843 0.045106363 -0.02921766 0.037915614
-0.09037592 0.046556678 0.07826551 0.023936559 -0.011459601 -0.069725156 -0.08966001 -0.031283
-0.08480056 0.08474686 0.090986244 -0.06615385 -0.08812612 0.0773703 0.09076532 0.06137667
0.02009666 0.07999817 -0.005901134 0.023086762 0.08760623 0.0045815827 -0.008589125 0.09124515
-0.015165758 -0.067806065 0.05307076 -0.06824026 0.062079933 0.046590995 0.013701486 0.012358392
0.061241604 0.04411173 0.043374445 -0.07310637 0.093621194 -0.014923525 0.08556026 -0.0006970763
0.061448157 -0.052955497 0.09163052 -0.02176397 0.020061791 0.031593215 0.008580494 -0.09188284
-0.0142077925 0.023902966 0.07687111 0.056767512 -0.059917595 -0.034222033 0.061127316 0.068437435
0.037072193 -0.04102665 0.068932846 -0.02359029 -0.032443404 -0.012129438 -0.008677554 -0.05419464
0.028233672 4.8577785e-05 -0.02510432 0.026970936 -0.055224765 -0.075773515 0.038673498 -0.09638593
-0.04015843 0.053827226 -0.08980882 -0.02117908 -0.051568795 0.024083627 0.003550589 -0.06977975
0.088492446 -0.046052873 0.07725191 0.09899433 -0.046014834 0.08000652 0.026308453 -0.07958939
-0.033610847 -0.027790202 0.04858495 0.09063335 -0.084673956 -0.025805939 0.02235254 0.055170346
0.03840225 0.07395468 -0.03858285 -0.059123684 -0.065689325 -0.08713291 -0.016960992 0.031549703
-0.032764196 -0.030982507 -0.061495256 0.057793844 -0.037935246 -0.03683964 0.079930864 0.06475317
0.062035095 0.051828086 0.03821055 0.023213053 -0.08001776 -0.056962766 0.092953816 -0.056428302
-0.07561262 0.0038595558 0.012265003 -0.07304186 -0.058239747 0.01615343 0.07085546 0.011041582
0.0804381 -0.047961224 0.030716872 -0.022234632 -0.02496028 -0.08138203 0.05696049 0.09831702
-0.008506871 0.08355101 0.01854198 -0.051943123 -0.08811214 -0.07552668 -0.07987013 -0.033017885
0.084406376 -0.09576961 -0.045575023 -0.059846487 -0.08007028 -0.006653321 -0.045313586 -0.081157885
0.0924679 -0.071236335 0.071222365 0.042354237 0.08807277 -0.040692735 -0.053249564 0.08857768

lstm.weight_hh_l0 f4 [400, 100]
00000000: 8f7e a13d 7a0b 4dbd 3363 6abb faa7 a3bd
00000010: fa7a 49bd d390 cfbc 9740 9a3d bac2 2f3d
00000020: 5f3d ac3d cd19 423b 2b87 bfbd c809 bbbd
00000030: 471b b7bd dd9b 4c3d 031c 153d f762 043d
00000040: f2a0 c2bd bf95 883d 531f 59bd 826a 8bbd
00000050: d3bb 3f3d 5a6d 05bc 4023 f13c 7329 64bc
00000060: 75b1 a4bd d701 b43d 43f2 7fbd cddc 77b9
00000070: bbf4 b2bd 538f f1bc 9a04 4dbb 1a4a c8bb
00000080: 2d4e ce3c 9591 ab3d 73da 85bc 8a93 c5bd
00000090: 926b 813d aa9b 4f3d 73f5 60bc 2275 863d
000000a0: fd4d ab3d c744 c9bd faa4 a1bc 1ddb 84bd
000000b0: faa1 c1bd b76a 233d 8d26 c2bd 1d46 2a3d
000000c0: 23bb 1e3d 3282 b6bd 0075 d03c f71a 833d
000000d0: 4d7b cbbb 5d1a 6dbd 276f 40bd 7a8b 19bd
000000e0: c097 023c 5349 8d3d c7f1 b43c 40de 8ebc
000000f0: 35c1 933d 9ad9 ffb8 d0d5 b13d ad12 3cbd
00000100: 0029 573b 6d21 8fbd 6558 a43d 47a1 a0bc
00000110: f311 ff3c 4dfa 16bd 43e0 983d 8bd0 c73d
00000120: e314 7c3d 00fd 413d 3ad5 0e3d c0f4 e93c
00000130: 4011 9cbd cd27 95bd 9a5f c0ba 006c c0bc
00000140: 700c 44bd 2023 243d 9095 c43d 8a64 c13d
00000150: 3303 d9bb ca01 373d 857d 953d 1fce a33d
00000160: 009c 333d 4db9 8e3b bbc6 a53d b3ca 173d
00000170: c221 903d 78fe a7bd f711 bb3d 6df0 14bd
00000180: fdb2 71bd c58c c0bd 57bf 773d ade0 023d
00000190: 0000 1fb9 1a44 a3bd 2057 a6bc f3db 5cbd
000001a0: 9770 653d 25dc 893d d550 993d c0d7 2dbc
000001b0: 8ab2 97bd 6766 82b9 fab3 babd 1a0e dbbc
000001c0: 8361 28bd f895 b2bd b07e 3e3d 832b 9ebd
000001d0: ba3f ac3d 8309 563d f70f 2dbd 1a76 a1bc
000001e0: 5331 023d 879b 283d 9a54 debc 8daf 673c
000001f0: cf39 9b3d 730b 2f3d f009 5c3d d84c b03d
00000200: 7ac4 82bd 0da9 813d 1023 923d 4f0c 9bbd
00000210: fbcc c83d 1027 24bd 408d c23d 65c7 b2bd
00000220: 4f80 8fbd 6a91 82bd 534a 91bd c0a4 493d
00000230: 507f 5a3d 8a60 61bd 6710 533c 33e3 28ba
00000240: 9ac7 9d3a 33cf ee3a 674b 56bd 7a97 e2bc
00000250: 3881 b03d e76a 623d c08e 23bc 5d51 b0bd
00000260: 40a3 14bd 73f9 6abc 3d00 273d 10c7 1dbd
00000270: eb12 a2bd 9def c63d e0bd 8a3d 5bbb 85bd
00000280: c3f6 29bd 0086 893d 68a3 823d 7322 97bd
00000290: 4a2b a3bd b3a6 783c fae8 18bd c025 6fbc
000002a0: add7 b83d 402c 3abc 67de abbc c0c8 3dbd
000002b0: 5350 83bc 378a 5d3d 13d2 1d3d 2ab1 aabd
000002c0: c011 443d e8a0 9d3d b313 5e3d cd78 73ba
000002d0: 0d90 89bd 8388 3c3d f315 b13c 6d22 fb3c
000002e0: 8081 e13b 2397 923d 8780 3abd e702 863b
000002f0: 5a3c 623d a072 88bc 58b8 bfbd f35c ffbc
00000300: 5d47 083d fad3 93bd c21f a0bd 3b41 abbd
00000310: 9a49 c1b9 5b95 85bd c8d2 903d b50f 8c3d
00000320: cdc0 64bc 0ae9 6dbd 75bf c03d 2067 663d
00000330: 7093 adbd 6705 e13b b594 8f3d 7df9 be3d
00000340: cd10 ccbb 8d22 15bc 6dbc bebd ed92 973d
00000350: c7e7 e73c dd1a ca3d 275b 52bc b323 a13d
00000360: 00e0 e23c 9a06 77bb a7a4 2ebd 87dc a23c
00000370: b3ff a2bb fac3 5e3d 3a5a b5bd 2d7d 2fbd
00000380: 77a7 733d 8d26 d43c 6579 a43d baf7 423d
00000390: 6743 ba3b 45e4 a23d 9ab8 523b a732 1c3d
000003a0: 4047 70bd 00ea 64bb ab78 acbd d316 c5bd
000003b0: 7751 a93d 35cd c43d 339c f2bc 6a05 04bd
000003c0: 0239 93bd 0365 2dbd 937f 973d 6d7f ac3d
000003d0: f0eb 883d 00d4 17bc d0ff 7bbd 9ae5 33bb
000003e0: a31f 5bbd 67df 84bd d5cc c63d 626d aa3d
000003f0: 7b9d c13d 272e 3a3d 5532 82bd 4af3 20bd
0.07885467 -0.050059773 -0.0035764694 -0.07991023 -0.049189545 -0.025337612 0.07531851 0.042910315
0.08410143 0.002961743 -0.09351953 -0.09132725 -0.089407496 0.04995333 0.036403667 0.032320943
-0.09503354 0.06669187 -0.05300839 -0.06807424 0.046809983 -0.008143747 0.029435754 -0.013925898
-0.0804166 0.087894134 -0.0624869 -0.0002363801 -0.08738085 -0.029487288 -0.003128326 -0.006112349
0.025183761 0.08377377 -0.016339516 -0.096472815 0.063193455 0.050685562 -0.013730395 0.0656531
0.083644845 -0.09827571 -0.019731987 -0.06487105 -0.09454723 0.039896693 -0.09480009 0.04157077
0.038752686 -0.089115515 0.025446415 0.064016275 -0.006209767 -0.05788647 -0.046981003 -0.03748653
0.00797075 0.06898751 0.022087945 -0.017439961 0.07214586 -0.00012199879 0.086833596 -0.045916248
0.0032830834 -0.06988797 0.080246724 -0.019608153 0.031136489 -0.0368598 0.074646495 0.09756573
0.061543357 0.04736042 0.034871317 0.028559089 -0.07620478 -0.07282982 -0.0014676929 -0.023488998
-0.047863424 0.04007256 0.09598839 0.094430044 -0.006622696 0.04467944 0.072993316 0.07998299
0.043849945 0.0043555857 0.080945455 0.037058543 0.07037689 -0.08202833 0.09134286 -0.0363621
-0.059008587 -0.0940185 0.06048521 0.03195255 -0.00015163422 -0.07971974 -0.020305216 -0.053920697
0.056015577 0.06731442 0.074861206 -0.010610521 -0.074071005 -0.00024871828 -0.09116359 -0.026740123
-0.04110862 -0.087200105 0.046507537 -0.07723143 0.084105924 0.052255165 -0.042251553 -0.019709636
0.03178532 0.041163947 -0.02713995 0.014140976 0.075793855 0.04273553 0.053720415 0.08608407
-0.06385131 0.06331072 0.07135594 -0.07570707 0.09804722 -0.040076315 0.094995975 -0.08729438
-0.07006895 -0.06375392 -0.07094254 0.049229383 0.05334407 -0.055023707 0.012882329 -0.0006442547
0.0012037635 0.0018219709 -0.052318003 -0.02766012 0.086183965 0.05527773 -0.009982765 -0.08609269
-0.0362885 -0.0143417 0.04077171 -0.03851992 -0.079137646 0.09713671 0.06774497 -0.06529876
-0.041495096 0.067150116 0.063788235 -0.073796175 -0.07967241 0.015176463 -0.03733156 -0.014596403
0.09025512 -0.011363089 -0.020980073 -0.04633403 -0.016029513 0.05408689 0.03853042 -0.083345726
0.04786849 0.07696706 0.054218005 -0.0009287715 -0.06716929 0.046028625 0.021616912 0.030656064
0.0068818927 0.07157733 -0.04553273 0.0040897015 0.055233337 -0.01665622 -0.09361333 -0.031172251
0.033271182 -0.07218166 -0.07818557 -0.08362051 -0.00036866666 -0.06522628 0.07071453 0.068389334
-0.013961983 -0.05808357 0.094115175 0.05625069 -0.08475387 0.006867099 0.070107855 0.0932493
-0.0062275887 -0.009102476 -0.09313283 0.07401071 0.028308762 0.09868405 -0.012839115 0.07868137
0.027694702 -0.0037693144 -0.042637493 0.019880546 -0.0049743294 0.054386117 -0.088551 -0.042843986
0.05948588 0.025897289 0.08030967 0.04759953 0.0056843045 0.07953695 0.0032153488 0.038134243
-0.0586617 -0.0034929514 -0.08421453 -0.09623494 0.08267491 0.09609453 -0.029615497 -0.032231726
-0.07188608 -0.04233266 0.0739738 0.08422742 0.066856265 -0.009266853 -0.06152326 -0.0027450086
-0.053496968 -0.06487923 0.09707037 0.08321644 0.09453865 0.04545417 -0.06357256 -0.03929452

lstm.bias_ih_l0 f4 [400]
00000000: 582b 973d 9b95 c13d 900f 463d a58a b0bd
00000010: 4b7c bdbd b367 ffbc 5add b93c 8d25 78bd
00000020: f2fa 843d 804d 913d 6720 26bb 6876 b53d
00000030: 0b0f 88bd 0d3f 0d3c 2772 5c3d 3343 36bc
00000040: cb6b cb3d 50c4 11bd 7727 33bd 4312 7bbd
00000050: 60a6 e83c 0002 fe3b 3768 b73d 8009 143c
00000060: 383b 9c3d 4ac0 68bd b2f6 b8bd 67d4 56bb
00000070: 33fe 17bb 3d04 6d3d e7ab b23c 67ed 343b
00000080: 80b8 ba3d c750 113d 1062 6f3d 5d07 003d
00000090: 7d9e babd d06c 833d ed3c 4fbd 57cb 81bd
000000a0: 4853 8a3d efbb 90bd 157a 93bd 93ef ab3c
000000b0: 0015 303d 9220 cbbd 673e 043d d0a6 483d
000000c0: 4070 b7bc 9fec 803d d8b8 bcbd dde4 5cbd
000000d0: 90f5 b6bd e7aa cabc 30c4 2c3d 6331 1fbd
000000e0: a086 f03c 9aec 05bb 9710 b53d 8d8b ac3c
000000f0: 98ef c8bd 3a90 c73c 0a16 ca3d 8d5c 8abc
00000100: 1a96 1dbc 4021 613c b398 6a3d ea85 8f3d
00000110: 777c 9ebd 15a6 b8bd 8bfc b7bd 8762 583d
00000120: cd58 253c 9316 b9bd 734f 70bc 40ed 1c3c
00000130: 6d5b a7bd a0ee adbd 28c3 bb3d 202e 9a3d
00000140: 7397 f0bc 3ae8 0d3d 328c 8bbd bb07 a03d
00000150: 4045 8b3d a01a 873c d05b a33d 8dda 3bbc
00000160: bfe7 87bd 5d0b 80bd 4d17 53bd 2d06 443d
00000170: a3e1 0c3d c547 8dbd b04b 6dbd 5720 1abd
00000180: 8397 1e3d 1328 b73c 8d1e c7bd 3a44 903d
00000190: e736 abbb 00d9 733d 7821 813d 0076 b5ba
000001a0: 1797 28bd ba3a 703d 9de2 75bd 6b6d a43d
000001b0: cd6b b9bc b36a 0c3d 5a82 2c3d 67af 523b
000001c0: 7702 66bd 9ad6 68bb 40f7 82bd e799 51bc
000001d0: d0b1 98bd d8c9 913d eff4 97bd 7358 98bc
000001e0: 6716 3a3d fdac 2ebd f39d 953c 9a32 303d
000001f0: 1a75 793c c72b 0c3d 302a 26bd 9a79 a939
00000200: f732 a53d cda4 d539 c8a2 ad3d 2a22 45bd
00000210: 4d81 5e3d 8ad7 94bd c07f 87bc 9092 ae3d
00000220: ff08 93bd 55bf 86bd 00f1 5ebd 8dce 81bd
00000230: 7d94 5c3d dabe 49bc 739c c2bc ead6 14bd
00000240: 80e1 4b3c bfc4 8ebd c77d f0bc d3f5 f3bc
00000250: 8fd5 9dbd aa7a 80bd 1720 8b3d 87a3 76bd
00000260: db9e b03d 900f 5b3d 836f 9d3d edfb 8dbd
00000270: 386e b03d e2e3 943d e70f 8dbd 532e 6bbd
00000280: e55e 833d 47b4 c6bd c38a 0e3d d78f ab3d
00000290: 0da9 a73c cdb0 103d 1850 ba3d 1ac6 86bb
000002a0: 3d41 903d 0d92 51bc 3327 22bd 9bb8 963d
000002b0: 125f aebd 409e f6bc a58a bb3d 278d 683d
000002c0: 27d6 b3bd 2318 903d 7362 fc3c 97f5 40bd
000002d0: 7532 b7bd 087b cbbd cafa 6dbd 93c4 c03d
000002e0: 6d44 d7bc 4700 eabc 4345 b3bd b25c 97bd
000002f0: 904a a3bd 8013 3d3d 3309 2b3c 7365 07bc
00000300: db1a 93bd 1a0e 3ebc b565 88bd 8a2c 53bd
00000310: 554d 8f3d 48df b9bd 4d4c c2bd 9a00 943d
00000320: 7a0e 40bd 9d1d ac3d 5b1f 9d3d 4567 883d
00000330: dadf 703d 60a1 a0bc 0016 2f3c fa83 253d
00000340: 7790 763d 47a9 0d3d d39f 3abd 488d ac3d
00000350: 00a6 06bd b3c9 ae3b 17a0 023d ca44 c53d
00000360: e094 a33d bbde 94bd 72f3 893d 6778 cabc
00000370: fae7 8a3c 92f8 99bd d292 993d c09a a8bd
00000380: c767 e6bc ad1c 1dbd 279f c43d a7e9 2bbc
00000390: 6017 dbbc 2f87 bbbd 0a97 9a3d aac2 56bd
000003a0: ab9d 9bbd 97ff bcbd c0da 3c3d b0b6 383d
000003b0: aaea 6b3d 7ae7 9cbc 67ec c0ba 7a12 b3bd
000003c0: dd65 3a3d 5537 89bd 0d77 b23c f778 283d
000003d0: 0ae2 20bd 60a4 423d 4d5e 4a3d 9db7 aebd
000003e0: d34b d0bc 73f8 acbc 1a44 fabb adbe 953c
000003f0: 7319 523c d891 cbbd 80d4 02bd 4de5 c6bd
0.07381314 0.09452363 0.048354685 -0.08620194 -0.092522226 -0.031177377 0.022688556 -0.060582686
0.064931765 0.0709486 -0.0025348903 0.08860475 -0.06643494 0.0086209895 0.0538198 -0.01112442
0.09932669 -0.03558761 -0.04373881 -0.061296713 0.028399646 0.0077517033 0.08955424 0.009035468
0.076284826 -0.056824006 -0.090314284 -0.003278041 -0.0023192286 0.05786537 0.021810485 0.0027607323
0.09117222 0.035477426 0.05844313 0.031257022 -0.091122605 0.06417239 -0.050595213 -0.06337612
0.06754166 -0.070670955 -0.0720102 0.020988261 0.042988777 -0.09918322 0.032286074 0.04898721
-0.022392392 0.06295132 -0.09214944 -0.0539292 -0.08933556 -0.024739696 0.042179286 -0.03886546
0.02936107 -0.0020435215 0.08841055 0.021062637 -0.09811324 0.024360765 0.09867485 -0.016889835
-0.0096183065 0.013740838 0.05727453 0.07007964 -0.077385835 -0.09016053 -0.089837156 0.052828338
0.010091973 -0.09037509 -0.01466738 0.009578049 -0.08171735 -0.0849278 0.091680825 0.07528329
-0.029369092 0.034645297 -0.068138495 0.078139745 0.06800318 0.016492188 0.07976496 -0.011465681
-0.06635999 -0.062521674 -0.051535893 0.047857452 0.03439487 -0.068984546 -0.05793351 -0.037628498
0.03871871 0.022357976 -0.09722624 0.07044263 -0.0052250507 0.05953312 0.06305212 -0.0013844371
-0.041159716 0.058649756 -0.06003057 0.08028682 -0.022634411 0.034281444 0.0421165 0.0032148005
-0.056154694 -0.0035528303 -0.063948154 -0.012793041 -0.0745579 0.07118577 -0.07419764 -0.018596863
0.04543152 -0.042645443 0.018263793 0.043017007 0.015225673 0.034221437 -0.040567577 0.00032324792
0.080663614 0.00040749312 0.08478314 -0.048128285 0.05432253 -0.07267673 -0.016540408 0.08524048
-0.0717945 -0.065794624 -0.054429054 -0.063382246 0.053852547 -0.012313569 -0.023756241 -0.03633777
0.0124439 -0.0697112 -0.02935685 -0.029780304 -0.07706749 -0.06273396 0.0679323 -0.060214546
0.08624049 0.05348164 0.07687285 -0.06932817 0.086147726 0.07270028 -0.06887799 -0.057417225
0.06414584 -0.09702354 0.034800302 0.08377045 0.020466352 0.03532486 0.09097308 -0.004112971
0.07043693 -0.012791169 -0.039588165 0.073594294 -0.08514227 -0.030104756 0.09157304 0.05677524
-0.08781081 0.07035854 0.030808663 -0.047109213 -0.08945171 -0.09935576 -0.0581005 0.094124936
-0.026277745 -0.028564585 -0.08753445 -0.07390727 -0.07973206 0.046161175 0.010439205 -0.0082639335
-0.07182857 -0.011600042 -0.06660024 -0.051556148 0.06997172 -0.09075791 -0.094872095 0.07226677
-0.046888806 0.08404086 0.07671996 0.06660322 0.05880723 -0.0196082 0.010686398 0.040409066
0.060196366 0.034585264 -0.045562577 0.08425385 -0.032873154 0.005334103 0.031890955 0.09632261
0.0798738 -0.07269045 0.06735887 -0.024715615 0.016956318 -0.07518114 0.07498707 -0.08232641
-0.028125657 -0.038357425 0.096006684 -0.010492719 -0.026744545 -0.091566436 0.0754834 -0.05243174
-0.07598432 -0.092284374 0.046107054 0.0450961 0.05759684 -0.019153345 -0.0014718891 -0.087437585
0.0455073 -0.06700007 0.021785283 0.041130986 -0.039278068 0.04752004 0.04940634 -0.08531115
-0.02542678 -0.021114564 -0.007637513 0.018279398 0.01282345 -0.09939927 -0.031940937 -0.097117044

lstm.bias_hh_l0 f4 [400]
00000000: ca6d 933d b3df 293d 8db2 afbd 4744 2a3d
00000010: e02d b8bd 1a01 1a3d ebb8 a53d 5f88 bdbd
00000020: 331b 413b 6dd9 bc3c 4a44 2b3d 2a49 2dbd
00000030: a299 8f3d 3fcb b8bd 4367 91bd 1330 883c
00000040: 774e 4b3d 3771 683d b7e4 0fbd a35b b1bd
00000050: d3a3 e1bc 0dd4 b43d 5ae3 94bc a5f3 98bd
00000060: bb0d c33d 80f0 963d 336d 423d 9bb0 b63d
00000070: ede6 2dbd a0e0 b63d 6f0b c93d f5f8 9d3d
00000080: 205b ea3c f303 81bc c331 413d a024 94bc
00000090: 8dde 563c 35d1 8fbd 9095 c5bd 13a0 f4bc
000000a0: 93af 61bd 77f4 0abd 879e 3a3d 573b 273d
000000b0: 08eb 82bd 3b19 81bd a0ee 9c3c b0fb 6b3d
000000c0: d381 0e3d fa6f c2bd ed4c b7bc c74e e43c
000000d0: cdcc c93b 70bd 993d b3ae 4e3c a8e2 a6bd
000000e0: 28f3 ae3d 383f b0bd 9ba6 85bd 1a78 c3bb
000000f0: dde5 8b3d 8705 a83c 40d0 ce3c 2718 19bd
00000100: f0f4 6f3d 679e 483b 3313 643b d0ee 923d
00000110: 5344 6c3d 5aed f33c 4a86 15bd e0df a0bd
00000120: c732 17bd 970c 0abd 37e4 3f3d 6d1f b4bd
00000130: 0d6f f8bc aa59 7b3d 67bb 0c3d 15a6 a13d
00000140: 6dfa f03c 0011 c63b ca7d 2dbd bd76 3a3d
00000150: 50f3 c1bd bd81 b1bd e79d 17bc c0ee ac3d
00000160: cd88 fe3b 0baa 97bd 170b 9e3d ad16 f33c
00000170: a02e c53d 3d72 5ebd 034c 26bd 4057 59bc
00000180: 6ae3 94bd aae8 133d a755 6bbc 43e7 8b3d
00000190: e717 253d bd67 c83d 9a99 06bc 77ed 543d
000001a0: d3dd f13c fddd 3cbd fa5c d53c b3fd debc
000001b0: c058 b13c 60bd c03d 7f9b 8f3d 0a71 52bd
000001c0: 8008 13bc 1ada aebd 808b 833d 6706 5c3c
000001d0: 5795 95bd 4d1e 4ebc 0d8d 993d daf5 e73c
000001e0: 9dc0 483d f3b0 9bbc 5a72 163c 7b6c babd
000001f0: 9a48 3bbb dfad a7bd 937a 923c e7c7 d63c
00000200: aa52 563d 1d0a 43bd 62be cc3d 4d5e ecbc
00000210: 0a7f 873d 5def 34bd 37ce adbd 8036 133c
00000220: 23cd 52bd 1df5 5f3d c74a 573d 40bf c8bc
00000230: 2fd8 bfbd cd8c 07ba 00dc cbbd 673c 703c
00000240: a733 313c 4379 bdbd 8d98 42bc e047 aa3d
00000250: 8080 5f3c 001c c93c 8d09 c63d daed 5ebc
00000260: 6d55 8ebd 3713 c2bd 77dd 40bd 6ffb 933d
00000270: a7c8 91bc 1fef 923d 67b5 623c 1583 b0bd
00000280: 4acf 913d 434a 7bbd ab4a 8abd 1ac2 b93d
00000290: 58fa a73d 2d83 c33c c339 533d 3335 9fbd
000002a0: 6f95 a7bd 3067 0ebd 52fd 933d e74d c5bc
000002b0: 33a8 e73c b362 533c 8d35 503d 9377 af3c
000002c0: 4d60 80bb d78d 433d b03e 8e3d 5fdb 9c3d
000002d0: 6d43 90bc c720 10bd e7d3 8cbd 8037 fcbc
000002e0: 9ddb 99bd baca 303d b79d 42bd 9049 603d
000002f0: 3bb9 8dbd 9370 9bbd 1a18 c4bc b325 acbd
00000300: 8dc4 19bc 80b2 7ebd 2d8a abbd 3313 5dbd
00000310: 701f 5cbd 608c 8e3d 5fbf a53d 6762 2d3a
00000320: 93ac ffbc 80f3 9f3d 5d6b 4bbd 6793 b0bc
00000330: a768 08bd 876f 383d c0ad 003c 8d9f 3bbc
00000340: 0032 d9bc 45ed bcbd b7ab 7bbd 9575 a93d
00000350: 22ad 8c3d 936d a23c 6dd2 a9bd e5a0 9ebd
00000360: fd16 4f3d c5a7 c83d 932c f7bc 3060 2f3d
00000370: bd34 a3bd f2a6 923d 800e 343c 1315 203d
00000380: e758 093c 8a65 703d 9abd 0e3c 4dd4 f23b
00000390: 6513 983d b3e0 02bd 1734 adbd b74d 433d
000003a0: 6dcd 243d 67d8 7dbc 10d3 a83d d72a 02bd
000003b0: 67cb 323b 735c b73d cd40 e9bc 13ca 1f3d
000003c0: 585f 863d 675a e63b 80b8 15bd 853f a7bd
000003d0: bd48 c23d d72d 3cbd d075 ad3d 1365 bfbc
000003e0: 87a0 47bd 2337 77bd e019 243d 67b3 d03b
000003f0: a388 2e3d af32 95bd c098 e5bc d33c 7ebd
0.07198675 0.0414731 -0.08578978 0.04156902 -0.08993125 0.037598707 0.08091911 -0.09254526
0.0029465675 0.023052895 0.041813172 -0.042306103 0.07011725 -0.09023141 -0.07099774 0.016624486
0.049635377 0.056748595 -0.03513023 -0.086600564 -0.027543938 0.08829508 -0.018174816 -0.074683465
0.09524103 0.073700905 0.04746742 0.089204036 -0.042456556 0.089295626 0.09816634 0.077135004
0.028607905 -0.015748953 0.047166597 -0.01808387 0.013114584 -0.07022325 -0.096476674 -0.029861486
-0.05509908 -0.033924546 0.04556134 0.040828075 -0.06392485 -0.063036405 0.019156754 0.057613075
0.03479178 -0.09494014 -0.022375548 0.027869595 0.0061584474 0.075068355 0.012614894 -0.081487
0.08542472 -0.08605808 -0.06525918 -0.005965245 0.06830952 0.020510448 0.025245786 -0.03737655
0.0585832 0.0030611993 0.0034801483 0.07174456 0.057682347 0.029776264 -0.03650502 -0.07855201
-0.03691366 -0.033703413 0.046848502 -0.087950565 -0.03032639 0.061364807 0.03435841 0.07893006
0.029416287 0.006044507 -0.04235629 0.045523394 -0.09470236 -0.08667324 -0.009253955 0.084439754
0.007767773 -0.0740548 0.07716959 0.029673899 0.09628034 -0.054308165 -0.040599834 -0.013265431
-0.07269938 0.036110558 -0.014363683 0.06831219 0.040306 0.097854115 -0.008215332 0.051984277
0.02952472 -0.046110142 0.026045311 -0.027220583 0.021648765 0.094111204 0.070120804 -0.051377334
-0.0089741945 -0.08537693 0.06423092 0.013429261 -0.07303875 -0.012580466 0.074976064 0.028315473
0.049011815 -0.019005274 0.009182537 -0.09102722 -0.002857721 -0.0818746 0.017880714 0.026218368
0.05232493 -0.047617067 0.0999725 -0.02885356 0.06616028 -0.044173587 -0.08486598 0.008985162
-0.051465165 0.054677118 0.052561548 -0.024505258 -0.093674056 -0.0005170822 -0.09954071 0.014662839
0.010815538 -0.092516445 -0.011877191 0.0831449 0.013641477 0.024549484 0.096697904 -0.013606513
-0.069498874 -0.09476321 -0.047086205 0.072256915 -0.017795874 0.07174515 0.013837195 -0.08618752
0.071196154 -0.06135012 -0.06752523 0.09070225 0.08202046 0.02386626 0.051568758 -0.07773819
-0.08182799 -0.034766376 0.072260514 -0.024084998 0.028278446 0.01290195 0.05083232 0.021419322
-0.00391773 0.04774269 0.069455504 0.07659029 -0.017610276 -0.03518751 -0.06876355 -0.030788183
-0.07512591 0.043162085 -0.04751369 0.054757655 -0.069200955 -0.07589831 -0.023937274 -0.08405628
-0.00938524 -0.06218195 -0.08375964 -0.053973388 -0.05374092 0.06960368 0.08093142 0.00066140894
-0.03121022 0.07810116 -0.049662936 -0.021554662 -0.03330293 0.045028236 0.007853925 -0.011451614
-0.0265131 -0.09224943 -0.061443057 0.0827438 0.0686896 0.01982764 -0.08292089 -0.07745532
0.050559033 0.097976245 -0.030172622 0.04281634 -0.079690434 0.071607485 0.010989785 0.039082598
0.008383012 0.058690585 0.008712197 0.007410562 0.07425574 -0.03195257 -0.08457201 0.047681537
0.04023497 -0.015493489 0.08243382 -0.031779137 0.0027281882 0.0895318 -0.028473282 0.039011072
0.06561154 0.00702982 -0.036552906 -0.08166412 0.0948653 -0.045942154 0.084697366 -0.023363626
-0.048737075 -0.060355317 0.04006374 0.0063690427 0.042610776 -0.07285058 -0.028026938 -0.062069725

linear.weight f4 [1, 100]
00000000: 9553 8d3d 4ff2 9d3d 409c 70bd 7fff ca3d
00000010: 1db2 623d 8dcc 23bd 9b2b ac3d bb83 bf3d
00000020: f042 b2bd 67da 023d 520d ba3d 0a88 0a3d
00000030: c274 bfbd 9a8b 7abc 2078 9dbd e849 b33d
00000040: aa6c bc3d 6833 983d 45a8 a73d da5b 58bc
00000050: 238a a0bd a7c8 7f3c eb75 c2bd 1a93 0bbc
00000060: f36a ed3c 03b1 033d e30c 033d df2d c53d
00000070: b766 513d 60e5 02bd 9376 25bd 05f7 9b3d
00000080: 6f32 c23d ab8a b63d c39d 853d 8a61 3fbd
00000090: da3d 27bc 935b 7a3d 4d55 413d 73e1 e63c
000000a0: 40f9 febc 6dd9 103d 40bb 233c 1d85 0cbd
000000b0: 20da ef3c f866 8fbd 1dac 283d 7d66 23bd
000000c0: e743 e6bb fa2e 203d 577e 513d a777 abbc
000000d0: 9ae6 9cbb 4d81 f43c 0d3a f33c e344 8abd
000000e0: 4a23 743d 32ed 99bd e293 c03d 4ddb f43c
000000f0: 20be 24bd 9ad7 d53b 5a3c 0fbd fa93 8dbd
00000100: 8f30 bc3d 978c b8bd 67ec 9bbb cd75 453b
00000110: 7dea 8b3d 7aba 81bc cafe 18bd cd48 4abd
00000120: c863 afbd eaf9 213d 7314 af3d b34a cb3b
00000130: 20f5 cabd 9a33 803c 7b11 bcbd 2d0b e7bc
00000140: 6744 cfbb da8f 7d3c 9a46 343b 009a 4d3b
00000150: 4da1 703c 0abd a43d 0a06 9d3d af44 c63d
00000160: 906e b93d e7f3 a5bb adca c43d e5d8 cbbd
00000170: c7b1 19bd 5a7f b5bd 00d3 14bd 73ff cc3c
00000180: 08bd 873d 67cb 7f3c 2249 c2bd 4739 30bd
0.06900708 0.07712232 -0.05874276 0.09912013 0.055345643 -0.039989997 0.084067546 0.093512975
-0.087041736 0.031946566 0.09084572 0.033821143 -0.09348442 -0.015292073 -0.07688928 0.08754331
0.092004135 0.0743168 0.08186392 -0.013205493 -0.078388475 0.015611804 -0.09495147 -0.008518958
0.028981661 0.032151233 0.03199471 0.0962789 0.051123347 -0.03195703 -0.040396284 0.076154746
0.09482276 0.089131676 0.06524231 -0.04672388 -0.010207618 0.06112249 0.04720049 0.028183674
-0.031124711 0.035363603 0.009993374 -0.034306634 0.029278815 -0.070020616 0.041179765 -0.039892662
-0.0070271376 0.0391073 0.051145878 -0.020931078 -0.004788232 0.029846812 0.029690767 -0.0675142
0.059603967 -0.075159445 0.094032064 0.029889727 -0.04022038 0.006525946 -0.034969665 -0.0691299
0.09188949 -0.090111904 -0.004758406 0.003013003 0.068318345 -0.01583599 -0.03735236 -0.049385834
-0.08563954 0.039544977 0.08548822 0.006203973 -0.09910035 0.015649606 -0.09183022 -0.028203571
-0.006325293 0.015476191 0.0027507902 0.0031372309 0.014686895 0.08043869 0.076671675 0.09681069
0.09054291 -0.005064476 0.0960897 -0.09953479 -0.037523057 -0.08862181 -0.036334038 0.025024151
0.06627852 0.01561246 -0.09486605 -0.043023374
