model/1721472791_model-aapl.pth (torch, 174356 bytes, 5 tensors)

lstm.weight_ih_l0 f4 [400, 5]
0	0x3dba29a3	0.09089973
1	0x3c6b6b80	0.014368892
2	0xbd49e5fa	-0.04929159
3	0x3d1020f3	0.035187673
4	0xbdac9d10	-0.08428395
5	0x3d2c8647	0.042120244
6	0x3d80559f	0.06266331
7	0x3da5dfb3	0.08099308
8	0x3d92c2d5	0.071660675
9	0x3d845857	0.06462162
10	0xbd220823	-0.03955854
11	0x3db8a1da	0.09015246
12	0x3dc1bba2	0.09459616
13	0x3d1ba6d3	0.038000893
14	0x3d53cc7d	0.051708687
15	0x3c768b00	0.015047789
16	0xbcdd1bd3	-0.026990807
17	0x3c4c7f4d	0.012481523
18	0x3c16694d	0.009180379
19	0xbd76161a	-0.06007967
20	0xbd5500a7	-0.052002575
21	0xbd5fdf93	-0.054656576
22	0xbba10880	-0.0049143434
23	0x3da500af	0.08056771
24	0x3d08ff50	0.03344661
25	0xbaef459a	-0.0018254996
26	0xbd89c357	-0.06726711
27	0x3d9aca2b	0.07558092
28	0x3c881707	0.016612543
29	0x3d9ba470	0.07599723
30	0x3cb262ba	0.021775592
31	0xbd25d3a3	-0.040485036
32	0x3d972f32	0.07382049
33	0xbcb7feed	-0.022460425
34	0xbd2795ba	-0.040914275
35	0x3d83f7f2	0.06443776
36	0x3d35f513	0.044423174
37	0x3dbba89f	0.09163021
38	0xbda9738a	-0.082739905
39	0x3ba9c2cd	0.0051806928
40	0x3d3a7e60	0.045530677
41	0x3d93c5af	0.072154395
42	0xbda0a302	-0.07843591
43	0xbd952a17	-0.072834186
44	0xbdb324a7	-0.08747225
45	0xbd0397dd	-0.03212725
46	0xbd904178	-0.07043737
47	0xbb4f0b00	-0.003159225
48	0x3dae8f00	0.08523369
49	0xbab258cd	-0.0013606787
50	0xbdbe4a42	-0.09291507
51	0xbda7d4a3	-0.08194854
52	0x3d0c4eb7	0.034254756
53	0xbd6d5493	-0.057941984
54	0xbd7e6abd	-0.062113512
55	0x3d8955e8	0.067058384
56	0xbd58aa00	-0.0528965
57	0xbd331a73	-0.043726396
58	0x3da06227	0.07831221
59	0x3d45ba47	0.04827335
60	0xbcc51773	-0.024059033
61	0xbc7d859a	-0.015473748
62	0x3c6774a7	0.014126933
63	0x3ccacca7	0.024755789
64	0x3d8dd9bd	0.06926296
65	0x3cc310e7	0.02381177
66	0x3dc8d5e3	0.09806421
67	0xbc6d574d	-0.014486146
68	0x3d6dbd3a	0.05804179
69	0x3d8d554f	0.06901037
70	0x3caddb7a	0.021222819
71	0x3c32274d	0.010873628
72	0xbda01cf3	-0.078180216
73	0x3d2f86c0	0.042853117
74	0x3d895070	0.06704795
75	0x3d866d3d	0.06563804
76	0xbdc1cbd8	-0.09462708
77	0xbd8832ba	-0.066503
78	0xbd8d8437	-0.069099836
79	0xbcb134ad	-0.021631563
80	0x3db802e0	0.08984923
81	0xbdbde79b	-0.09272691
82	0x3d741280	0.059587955
83	0x3dc4f33f	0.09616708
84	0xbce067a0	-0.027393162
85	0x3dbba8da	0.09163065
86	0x3d62bd8d	0.05535655
87	0x3d88b895	0.06675831
88	0x3cacfb5a	0.021115948
89	0xbd760553	-0.06006367
90	0x3d79b7a0	0.060966134
91	0x3d46988a	0.048485316
92	0xbda50680	-0.080578804
93	0x3cd96047	0.026535166
94	0x3c93ba7a	0.018033255
95	0x3c7c53a7	0.015400804
96	0xbd73702d	-0.05943315
97	0xbccc6e7a	-0.024955023
98	0xbd997fbf	-0.07495069
99	0xbdb3fa0d	-0.08787928
100	0xbda7bc80	-0.081902504
101	0x3da0c003	0.07849123
102	0xbd123e70	-0.035704076
103	0x3bedbbb3	0.0072550415
104	0x3d8ca5d5	0.068675674
105	0xbd81ce85	-0.063382186
106	0x3db4e6ef	0.088331096
107	0xbd9a2df2	-0.075282946
108	0x3da642cb	0.081182085
109	0xbcc0ac53	-0.02351967
110	0x3d97fd1d	0.074213244
111	0xba995867	-0.001169932
112	0xbd0ad450	-0.033893883
113	0x3cd4aa7a	0.025960196
114	0xbd6b6853	-0.05747254
115	0xbdb7e40a	-0.08979042
116	0x3d97f4fd	0.07419775
117	0x3d7582c7	0.059939172
118	0x3dbb77fd	0.09153745
119	0x3c1aa180	0.009437919
120	0x3d9a8948	0.075457156
121	0x3c80507a	0.015663374
122	0xbccd9c3a	-0.025098909
123	0x3d33e240	0.04391694
124	0x3daeacf8	0.08529085
125	0xbcc87653	-0.024470484
126	0x3dbd8fea	0.09255965
127	0xbd9e10d8	-0.077180564
128	0xbd18df0a	-0.03732208
129	0x3d866bba	0.06563516
130	0xbda028bb	-0.07820269
131	0xbd0caced	-0.034344602
132	0xbd29a490	-0.041416705
133	0xbdb61d53	-0.08892312
134	0x3d085aad	0.0332896
135	0x3cbb1587	0.022837413
136	0x3bb09767	0.0053891423
137	0x3c27568d	0.010213506
138	0x3d9f00ad	0.07763801
139	0xbd01b940	-0.03167081
140	0xbda3f105	-0.08004955
141	0x3dacd06f	0.08438193
142	0xbd5015f7	-0.050802197
143	0x3c7909a7	0.015200055
144	0x3d8040f2	0.06262387
145	0x3d820342	0.06348278
146	0xbcef3700	-0.02920103
147	0xbbaad29a	-0.005213094
148	0x3d41066a	0.047125258
149	0x3d805c6f	0.0626763
150	0x3dc15853	0.09440675
151	0x3d622c8a	0.055218257
152	0x3dbd656a	0.09247859
153	0xbda58cd3	-0.08083501
154	0x3d255c03	0.040370952
155	0x3c803153	0.01564852
156	0xbd64f42a	-0.055896915
157	0x3d2bfbed	0.041988302
158	0xbc40d233	-0.011768865
159	0xbcac7a13	-0.021054303
160	0x3d96cfe7	0.07363873
161	0xbd5d60d0	-0.054047406
162	0x3d988107	0.07446485
163	0x3d2be0a0	0.041962266
164	0x3bc92b33	0.006139183
165	0x3d5b59b0	0.05355233
166	0x3daaca9d	0.08339427
167	0x3d95e270	0.0731858
168	0xbcdf35a0	-0.02724725
169	0xbd44d08a	-0.04805044
170	0xbcb353e0	-0.02189058
171	0x3cbcf127	0.02306421
172	0x3d8fe8ba	0.07026811
173	0x3d975c7d	0.073906876
174	0x3d653777	0.0559611
175	0xbc585a67	-0.013205147
176	0xbd9924b7	-0.07477706
177	0xbcbd0b40	-0.023076653
178	0x3c7082b3	0.014679599
179	0x3da26a63	0.07930448
180	0xbd882243	-0.0664716
181	0x3cc9a687	0.02461554
182	0x3d56b8dd	0.052422393
183	0x3c78921a	0.015171552
184	0x3d81ea92	0.06343569
185	0x3dc91097	0.098176174
186	0xbdbd2980	-0.09236431
187	0xbda2b923	-0.07945468
188	0x3d65cf47	0.05610588
189	0xbce05a13	-0.0273867
190	0xbdbe2d15	-0.092859425
191	0xb9679000	-0.00022083521
192	0xbccd6efa	-0.025077332
193	0x3d3fdf77	0.046843972
194	0x3d745560	0.059651732
195	0xbcf8bdb3	-0.030363893
196	0x3d8b38f0	0.06797969
197	0x3ccc21c7	0.02491845
198	0xbd919603	-0.071086906
199	0xbd6a342d	-0.057178665
200	0x3d2289d7	0.039682236
201	0x3daab182	0.08334638
202	0x3d809fb8	0.06280464
203	0xbda88aab	-0.08229574
204	0x3c0408b3	0.008058715
205	0x3c82be13	0.015959775
206	0x3d89f280	0.06735706
207	0xbdc84c27	-0.0978015
208	0xbd9dd5cd	-0.07706795
209	0xbcdd32da	-0.027001787
210	0x3d727697	0.059195127
211	0xbdba1bad	-0.0908731
212	0x3cbd5333	0.023110962
213	0x3da420b8	0.08014053
214	0x3d6cce33	0.057813834
215	0x3c38ee5a	0.011287296
216	0x3b38309a	0.002810514
217	0x3d47783d	0.048698653
218	0xbd36c6cd	-0.044623185
219	0x3d813d43	0.06310513
220	0xbd928bb7	-0.07155555
221	0xbd059570	-0.032613218
222	0xbd652ba3	-0.05594982
223	0x3dbe0e92	0.09280123
224	0xbd84a93a	-0.0647759
225	0xbd4d1a00	-0.050073624
226	0x3d8a152b	0.06742319
227	0xbc28999a	-0.010290528
228	0x3ce1b887	0.02755381
229	0xbdc46f87	-0.09591585
230	0xbd491407	-0.049091365
231	0xbbb00f33	-0.0053729056
232	0x3ce2d74d	0.027690554
233	0x3d64d3da	0.0558661
234	0x3d9189ba	0.071063474
235	0xbd8b7e18	-0.0681116
236	0x3cc3cb07	0.023900522
237	0x3ccbf913	0.024899041
238	0x3d395e7a	0.045256115
239	0x3b2a8f9a	0.0026025535
240	0xbd88b08f	-0.06674301
241	0xbd0d31ca	-0.03447131
242	0xbb5a889a	-0.003334558
243	0xbd8a9427	-0.06766539
244	0xbd78beb3	-0.06072874
245	0xbdbacbc3	-0.09120896
246	0xbcaab4ed	-0.020838225
247	0x3dabd160	0.083895445
248	0xbdc66000	-0.09686279
249	0x3d32c117	0.043641176
250	0xbc6f1a33	-0.014593649
251	0x3d1f96aa	0.038962044
252	0x3d7e4f73	0.062087487
253	0x3dc63d6d	0.09679685
254	0xbdc3dcb5	-0.09563581
255	0xbdc77b12	-0.09740271

lstm.weight_hh_l0 f4 [400, 100]
0	0xbc0a0800	-0.008424759
1	0x3bd9c69a	0.0066459896
2	0xbda2dffa	-0.079528764
3	0xbc954a73	-0.018223977
4	0x3d9133b5	0.070899405
5	0xbccb9a8d	-0.024853969
6	0x3cc68ba7	0.024236513
7	0xbdb7be90	-0.08971894
8	0xbc0b025a	-0.008484447
9	0xbd7923a3	-0.060825
10	0x3d988880	0.0744791
11	0x3bd8d767	0.006617475
12	0xbd2b6810	-0.04184729
13	0xbb54f100	-0.003249228
14	0xbd6ce803	-0.05783845
15	0x3d7f5ed7	0.062346306
16	0x3d7142a0	0.05890143
17	0xbd631090	-0.055435717
18	0xbdbeb3d7	-0.093116455
19	0xbcd6a473	-0.026201462
20	0xbd632ea0	-0.055464387
21	0xbb926700	-0.004467845
22	0x3ce99a5a	0.028515983
23	0xbd92c270	-0.07165992
24	0x3b34dd33	0.0027597665
25	0x3c325300	0.010884047
26	0x3cc753c0	0.024331927
27	0x3b0ab9cd	0.0021167875
28	0xbbbd7ae7	-0.0057824734
29	0x3bfe3980	0.0077583194
30	0xbd127003	-0.035751354
31	0xbce760e0	-0.028244436
32	0xbd914322	-0.07092883
33	0xbdc2066b	-0.094738804
34	0x3bf80ccd	0.0075698853
35	0x3d3a6ed0	0.045515835
36	0x3da1f61b	0.07908269
37	0xbcacff3a	-0.021117795
38	0xbd8bc273	-0.068241976
39	0x3dad54ad	0.08463416
40	0xbd3c2cf3	-0.045941304
41	0x3d8d4fba	0.06899972
42	0xbdb01a78	-0.085987985
43	0xbdb5a818	-0.08869952
44	0x3c9b9d87	0.018996013
45	0xbd6ecf17	-0.058302965
46	0xbd7d96f3	-0.061911535
47	0xbcd728da	-0.026264597
48	0xbd592b0a	-0.05301956
49	0xbd9301ca	-0.071780756
50	0xbdbc4dd5	-0.09194533
51	0x3d122ffd	0.035690296
52	0x3cc790c7	0.024361027
53	0xbdc3a21d	-0.09552405
54	0x3dbfa9d7	0.09358566
55	0x3d7af220	0.061266065
56	0x3d0fb5a7	0.035085347
57	0xbd4adc8a	-0.04952673
58	0x3da86e93	0.08224215
59	0xbd41f8fd	-0.047356594
60	0xbb120d9a	-0.002228594
61	0x3d701310	0.05861193
62	0x3dc5aca2	0.09652068
63	0xbdb0588a	-0.086106375
64	0x3d4faab0	0.05069989
65	0xbc90f27a	-0.017693747
66	0x3d855793	0.06510844
67	0xbdb5a145	-0.0886865
68	0xbcaee947	-0.02135147
69	0x3dcbd965	0.09953574
70	0xbd907f5a	-0.070555404
71	0x3daf171d	0.085493304
72	0x3d3ff58a	0.046865024
73	0x3d45eb9a	0.04832039
74	0x3d8674f0	0.06565273
75	0xbce0b820	-0.027431548
76	0xbd88157a	-0.06644721
77	0x3c90a287	0.017655624
78	0xbd8ef8f0	-0.06981075
79	0xbcb95ead	-0.022628153
80	0x3dc91502	0.0981846
81	0xbd686abd	-0.05674242
82	0xbda1ff02	-0.07909967
83	0x3d112007	0.035430934
84	0xbc8c3be0	-0.017118394
85	0xbdabc05b	-0.08386298
86	0xbd052c93	-0.032513212
87	0xbd41bc70	-0.04729885
88	0x3db8b9f5	0.090198435
89	0x3d6725c0	0.056432486
90	0xbd86a347	-0.065741114
91	0xbc123b5a	-0.008925283
92	0x3d002220	0.031282544
93	0xbd49967a	-0.04921577
94	0x3d37ffca	0.044921674
95	0xbb5929cd	-0.0033136487
96	0x3d201e73	0.03909154
97	0xbd89eaba	-0.06734224
98	0xbd867057	-0.06564396
99	0x3db01907	0.085985236
100	0xbd28382d	-0.0410692
101	0xbd8a06c2	-0.0673957
102	0xbcb09680	-0.021556139
103	0x3d6da64d	0.058019925
104	0x3d0cdd50	0.034390748
105	0x3daa464d	0.0831419
106	0xbc409900	-0.011755228
107	0x3da1bada	0.07896967
108	0x3d3b2827	0.04569259
109	0x3d7afc9d	0.061276067
110	0xbd07c5c0	-0.033147573
111	0xbcac2ef3	-0.02101848
112	0xbd8f100d	-0.06985483
113	0x3dbe2782	0.09284879
114	0x3dbda4cf	0.0925995
115	0x3d6c845a	0.057743408
116	0xbdc532c7	-0.09628826
117	0xbb63069a	-0.0034641386
118	0x3dc397b3	0.09550419
119	0xbd33dd2a	-0.04391209
120	0xbd9c2aef	-0.076253764
121	0x3dba2ac3	0.090901874
122	0x3d8b973d	0.06815956
123	0xbd6057bd	-0.054771174
124	0x3d94049d	0.072274424
125	0x3d1322f7	0.035922017
126	0x3daf3b37	0.08556216
127	0x3da3da82	0.080006614
128	0xbce65033	-0.028114414
129	0x3c091780	0.008367419
130	0x3d23c6a7	0.03998437
131	0xbd799d80	-0.06094122
132	0xbdb384f2	-0.08765592
133	0x3babd500	0.0052438974
134	0xbdc2559f	-0.09488987
135	0xbd62ccc7	-0.055371072
136	0x3d0fca2d	0.03510492
137	0x3ce65420	0.028116286
138	0x3d348350	0.04407054
139	0xbd130b87	-0.035899665
140	0xbd5c692a	-0.05381123
141	0x3d858ae8	0.06520635
142	0x3c959500	0.018259525
143	0x3d9d892b	0.07692178
144	0xbd94944b	-0.07254847
145	0xbdc6a492	-0.09699358
146	0xbd96246a	-0.07331164
147	0x3d75c143	0.05999876
148	0x3bffe84d	0.007809675
149	0x3d329753	0.043601345
150	0xbdc159d3	-0.09440961
151	0x3c5088b3	0.012727904
152	0x3d653eea	0.055968203
153	0xbc403400	-0.011731148
154	0x3d60ac40	0.05485177
155	0xbdae5fca	-0.08514364
156	0xbd971c9a	-0.07378502
157	0x3c248eda	0.010043824
158	0x3dbe26dd	0.09284756
159	0x3d2aa1b3	0.041658115
160	0x3cd4e0ba	0.025986064
161	0x3b40e4cd	0.002943325
162	0x3d8ba68b	0.06818875
163	0xbcace013	-0.02110294
164	0x3dc5f077	0.09665006
165	0xbc2edecd	-0.010673237
166	0xbbb95ab3	-0.005656564
167	0x3d9b9f5b	0.07598754
168	0x3d884dc3	0.06655457
169	0x3c1774c0	0.009244144
170	0x3d15e97d	0.036599625
171	0x3c85ebb3	0.016347742
172	0x3d5263a0	0.05136454
173	0x3d73ed93	0.05955274
174	0xbdb608ba	-0.08888383
175	0x3d91bbb2	0.07115878
176	0x3d8ecc45	0.06972555
177	0xbd442aaa	-0.04789225
178	0xbd10fa00	-0.03539467
179	0x3d65238d	0.055942107
180	0xbd87f642	-0.06638767
181	0xbd767d83	-0.06017829
182	0xbb8795e7	-0.004137743
183	0x3d89eae5	0.06734256
184	0xbd19a9fd	-0.03751563
185	0xbcbbf953	-0.022946035
186	0xbbf20e33	-0.0073869466
187	0x3da70f18	0.08157176
188	0xbd80d875	-0.06291286
189	0xbd8ec08f	-0.069703214
190	0x3c160473	0.009156334
191	0xbcea3727	-0.028590752
192	0x39570333	0.0002050519
193	0xbd49ed00	-0.049298286
194	0xbd72ed60	-0.05930841
195	0xbc6751cd	-0.014118624
196	0xbd0511ed	-0.0324878
197	0xbcc95da0	-0.024580777
198	0xbd3a9023	-0.045547616
199	0x3daaa967	0.08333092
200	0x3da201da	0.079105094
201	0xbd0f74b0	-0.03502339
202	0x3d923317	0.07138651
203	0xbdb88ca5	-0.09011201
204	0x3d09da3a	0.033655383
205	0x3b5e969a	0.0033964277
206	0xbdab88e0	-0.08375716
207	0xbc5db3c0	-0.013531625
208	0x3d2ca0f0	0.04214567
209	0xbdbd441f	-0.09241509
210	0xbc407d1a	-0.011748577
211	0x3bf8211a	0.0075723054
212	0x3c0a0073	0.008422959
213	0x3c81f040	0.01586163
214	0xbc98ec40	-0.01866734
215	0x3ca79f27	0.020461632
216	0xba18db33	-0.0005831003
217	0xbc4741b3	-0.01216166
218	0x3daedce7	0.085382275
219	0x3d584847	0.052803304
220	0x3c371f80	0.011176944
221	0xbd824533	-0.06360855
222	0xbdc20d62	-0.09475209
223	0x3dca8542	0.09888698
224	0x3d8f7900	0.07005501
225	0x3db15b9d	0.08660052
226	0xbc558827	-0.0130329495
227	0x3d76b8ca	0.060234822
228	0xbd9fe795	-0.07807843
229	0x3d0cda40	0.034387827
230	0xbd8cc820	-0.06874108
231	0x3d0edabd	0.034876574
232	0x3d2ba8e3	0.04190911
233	0x3dc01f85	0.09381012
234	0x3dc84805	0.09779362
235	0xbc0ea9b3	-0.008707452
236	0xbdc57c7f	-0.09642886
237	0x3ce9815a	0.028504062
238	0x3d324040	0.043518305
239	0xbb140fcd	-0.0022592426
240	0x3dcc9a78	0.099904
241	0xbc32caf3	-0.010912645
242	0xbd3e9b8d	-0.046535064
243	0x3c97cce0	0.01853031
244	0x3dba6eb2	0.09103145
245	0x3ad5ab33	0.0016301632
246	0xbd18b74d	-0.037284184
247	0x3bcac54d	0.006188071
248	0xbd86a0a0	-0.065736055
249	0xbd64e443	-0.05588175
250	0xbd3057c3	-0.043052446
251	0x3d5722bd	0.052523363
252	0xbd2c2a93	-0.04203279
253	0xbccd4a87	-0.025059951
254	0x3d8273d8	0.06369752
255	0xbdc4a88a	-0.09602459

lstm.bias_ih_l0 f4 [400]
0	0x3db7b7f0	0.0897063
1	0xbd040e2a	-0.03224007
2	0xbd686c4a	-0.056743897
3	0x3d074d4a	0.033032693
4	0x3dbf5f2f	0.09344327
5	0x3d0f58e0	0.034996867
6	0x3d9fe8b5	0.07808057
7	0xbb60f300	-0.0034324527
8	0x3db45985	0.08806137
9	0xbdb0285a	-0.086014464
10	0x3db48027	0.088135056
11	0x3d527603	0.051382076
12	0x3dbf3f8b	0.09338292
13	0x3c9d6c73	0.019216752
14	0xbd857e6a	-0.06518252
15	0xbcd28e07	-0.02570249
16	0xbb646d9a	-0.0034855367
17	0x3d236bed	0.039897848
18	0xbc3bd45a	-0.011464203
19	0xbda8ee92	-0.08248629
20	0xbd355127	-0.044266846
21	0x3dbf652b	0.09345468
22	0xbda748e3	-0.08168199
23	0x3d6b1d73	0.05740113
24	0xbd15c170	-0.03656143
25	0xbda74aa0	-0.081685305
26	0x3d7c6130	0.061616123
27	0xbda81d25	-0.08208684
28	0xbbc587cd	-0.0060281516
29	0xbdbec510	-0.093149304
30	0x3cadb7b3	0.021205759
31	0x3d900c2f	0.07033574
32	0xbdc670d0	-0.09689486
33	0x3d3c0f7a	0.045913197
34	0xbcb7a4f3	-0.022417521
35	0xbd7d341a	-0.061817266
36	0x3cd394d3	0.0258278
37	0xbd4700a3	-0.04858459
38	0xbd77879d	-0.060432065
39	0xbd85bfe5	-0.065307416
40	0x3c002dda	0.007823432
41	0xbdaa0eba	-0.0830359
42	0x3d826105	0.06366161
43	0x3d773f97	0.06036338
44	0xbcafc5c0	-0.0214566
45	0x3d95d7a0	0.07316518
46	0xbc7e6233	-0.015526342
47	0xbd9e95a0	-0.077433825
48	0x3a71e800	0.0009227991
49	0x3d966aad	0.073445655
50	0xbdbaa5db	-0.09113666
51	0x3dc27cd7	0.094964676
52	0xbcae9633	-0.021311855
53	0xbd1ec260	-0.03875959
54	0xbdb862e0	-0.09003234
55	0x3d362a5a	0.044473983
56	0xbc4d7bda	-0.012541736
57	0xbd135d73	-0.035977792
58	0xbd3acc90	-0.045605242
59	0xbb3f21cd	-0.0029164434
60	0xbc0fc973	-0.008776057
61	0x3d4b3aaa	0.049616493
62	0x3da13043	0.07870533
63	0xbd990d1d	-0.07473204
64	0x3d7cfe10	0.06176573
65	0xbdadf5a7	-0.0849412
66	0x3c6376f3	0.01388334
67	0xbd9f5c0b	-0.07781228
68	0xbd84611f	-0.06463837
69	0x3dca93a0	0.098914385
70	0xbd8f8f17	-0.07009714
71	0x3d64f907	0.055901553
72	0x3d5027e3	0.05081929
73	0x3b4dec33	0.0031421303
74	0xbd202e0a	-0.039106406
75	0xbdad0615	-0.08448426
76	0xbc972713	-0.01845125
77	0xbd3cb4aa	-0.046070732
78	0xbd382fba	-0.04496739
79	0xbdc74085	-0.09729103
80	0x3d20a540	0.039220095
81	0x3d1d67b0	0.038428962
82	0xbce72507	-0.028215898
83	0xbdb15bd5	-0.08660094
84	0xbbd68567	-0.0065466645
85	0xbb1e7b33	-0.002418232
86	0xbc5a2ba7	-0.013316072
87	0xbd191300	-0.037371635
88	0x3ce1eca7	0.027578665
89	0x3c111b1a	0.008856559
90	0x3c756173	0.014976847
91	0xbdac81a3	-0.08423164
92	0xbc6f6ab3	-0.014612841
93	0x3cccdccd	0.02500763
94	0xbd13c64a	-0.036077775
95	0xbd0f8e9d	-0.035048116
96	0x3d026083	0.031830322
97	0x3dcb1715	0.09916512
98	0x3c80d567	0.015726758
99	0xbbbf4be7	-0.0058379057
100	0xbd88dfa5	-0.06683282
101	0x3d8ef44f	0.06980192
102	0x3db5485d	0.08851693
103	0x3dbddea5	0.09270982
104	0xbd9146b2	-0.07093562
105	0x3d87f777	0.06638997
106	0x3bde1e67	0.0067785266
107	0x3d4fabf3	0.050701093
108	0x3d7bfc57	0.061519947
109	0x3d8e8d67	0.06960564
110	0x3da26d6b	0.07931026
111	0x3c6889c0	0.014192998
112	0x3d5b1a97	0.053492155
113	0x3dc425d7	0.0957753
114	0xbd6e3e9d	-0.05816518
115	0xbc52a0a7	-0.012855685
116	0xbd525e7a	-0.05135963
117	0x3d93c207	0.07214742
118	0xbd7399aa	-0.059472717
119	0x3d6805ad	0.056646038
120	0x3d803988	0.06260973
121	0xbb838067	-0.0040131095
122	0x3c7a569a	0.0152794365
123	0x3d184a30	0.037180126
124	0x3dafd823	0.08586147
125	0x3d994975	0.07484714
126	0xbcffce73	-0.031226372
127	0x3d833ffa	0.06408687
128	0xbc88342d	-0.016626442
129	0x3b4d6733	0.003134203
130	0xbd93dde5	-0.072200574
131	0x3c7ae4f3	0.015313375
132	0x3daf89bf	0.08571195
133	0xbca76ffa	-0.020439137
134	0xbd64889d	-0.055794347
135	0x3d53e20d	0.05172925
136	0x3d6f012d	0.05835073
137	0x3cd96b33	0.026540374
138	0xbd4e16a7	-0.05031457
139	0xbb52abcd	-0.0032145858
140	0xbda8a4a2	-0.08234526
141	0x3d9e3127	0.07724219
142	0x3d5e3b6a	0.05425588
143	0xba0a90cd	-0.0005285859
144	0x3d8fb46d	0.07016835
145	0xbd7dfc23	-0.062008034
146	0xbca15a4d	-0.01969638
147	0xbda373b8	-0.07981056
148	0xbc9f2c87	-0.019430412
149	0x3da5b260	0.08090663
150	0x3d627567	0.055287745
151	0x3cc465a7	0.023974253
152	0x3d24973d	0.040183295
153	0x3d9b85ff	0.07593917
154	0xbda7c538	-0.08191913
155	0x3d4bde10	0.049772322
156	0xbba78580	-0.00511235
157	0x3d89efb0	0.0673517
158	0x3dc3609b	0.095399104
159	0xbd3eb223	-0.046556603
160	0x3d026087	0.031830337
161	0x3d84f36f	0.06491744
162	0x3d921be3	0.07134225
163	0x3d7fef1a	0.062483884
164	0x3d9cb7d2	0.076522484
165	0xbdbb4eff	-0.09145927
166	0x3d13e763	0.03610934
167	0x3da5c1c2	0.08093597
168	0x3caee28d	0.021348262
169	0xbc43e6e7	-0.011956907
170	0x3db46005	0.08807377
171	0xbdc55160	-0.09634662
172	0xbd4d319d	-0.050096143
173	0xbd2e194a	-0.042504586
174	0x3ca6abc7	0.020345582
175	0x3d1d9130	0.03846854
176	0x3da08f8f	0.07839882
177	0x3db41ffb	0.08795162
178	0x3d6f4faa	0.058425583
179	0xbd5030ba	-0.05082772
180	0xbc49864d	-0.012300086
181	0x3d89dcff	0.06731605
182	0xbd6d13d0	-0.057880223
183	0xbd868882	-0.065690055
184	0xbd5507b3	-0.052009296
185	0x3cb0e627	0.02159412
186	0xbcfc42ad	-0.030793512
187	0xbd9ad5e2	-0.07560326
188	0x3ba0a900	0.004902959
189	0xbd18976a	-0.037253775
190	0x3d678cb0	0.056530654
191	0xbc13b70d	-0.009015811
192	0x3d25d100	0.04048252
193	0xbd271e0d	-0.040800143
194	0xbdc5c015	-0.09655777
195	0x3c0f3067	0.008739567
196	0xbd8e2c87	-0.06942087
197	0xbd7ec953	-0.062203716
198	0x3b3c8633	0.0028766512
199	0x3d914ae0	0.070943594
200	0xbdcb7188	-0.09933764
201	0x3cf0753a	0.029352773
202	0x3d750820	0.0598222
203	0xbd95c703	-0.07313349
204	0x3c5b12cd	0.013371182
205	0xbba69e1a	-0.005084765
206	0xbdab804f	-0.08374082
207	0xbd8af132	-0.067842856
208	0x3d867bf2	0.065666094
209	0xbd7a3610	-0.061086714
210	0xbd6775a3	-0.05650867
211	0x3dc913d2	0.098182335
212	0xbdb7362f	-0.089458816
213	0x3d14750d	0.03624444
214	0x3da57c13	0.08080306
215	0x3dba64df	0.09101271
216	0x3c9c2d87	0.019064678
217	0xbd372e77	-0.044722047
218	0xbdb7a43b	-0.08966871
219	0x3b97a91a	0.004628313
220	0xbd4cd6fd	-0.050009716
221	0xbd8d348f	-0.068947904
222	0x3d59356a	0.053029455
223	0x3db88b18	0.09010905
224	0x3d721177	0.059098687
225	0x3cca9913	0.024731195
226	0xbc35c267	-0.011093712
227	0x3db7e4b7	0.08979171
228	0x3ccf4e07	0.025305761
229	0xbd81d6c3	-0.06339791
230	0xbd0078bd	-0.031365145
231	0x3d180d30	0.03712195
232	0xbda1584b	-0.07878169
233	0x3d381b30	0.044947803
234	0xbd717170	-0.058946073
235	0xba422333	-0.0007405758
236	0xbc855aad	-0.01627859
237	0xbd37514a	-0.044755258
238	0x3d86ef6b	0.06588634
239	0x3d9e55f5	0.07731239
240	0x3d67a5d7	0.05655464
241	0x3d2882fa	0.041140534
242	0xbc0f734d	-0.008755517
243	0x3da7facb	0.08202132
244	0xbd86b262	-0.065769926
245	0xbda8f6c8	-0.08250195
246	0x3b38dd00	0.0028207898
247	0x3d9e5592	0.07731165
248	0x3d582aaa	0.052775063
249	0x3dc3aef3	0.09554853
250	0x3cc8df73	0.024520611
251	0xbd6ad3c3	-0.057330858
252	0xbd2fc413	-0.0429116
253	0xbd336d2d	-0.04380529
254	0xbc0a2200	-0.008430958
255	0x3d42f657	0.04759821

lstm.bias_hh_l0 f4 [400]
0	0xbd59fc93	-0.05321939
1	0x3d7e2cf7	0.0620546
2	0xbd932e6d	-0.071865894
3	0x3d611e40	0.05496049
4	0x3db0a910	0.08625996
5	0x3d6b78b0	0.057488143
6	0xbc1d7827	-0.009611166
7	0x3d1cec7d	0.03831147
8	0xbd53dd4d	-0.05172472
9	0xbc921ef3	-0.017837023
10	0xbd997283	-0.074925445
11	0xbd1eee3d	-0.03880142
12	0x3c9b7280	0.018975496
13	0x3d8c7c3f	0.068596356
14	0x3c8c762d	0.017146194
15	0x3dc3922f	0.09549367
16	0x3bee581a	0.007273686
17	0x3c71cdc0	0.014758527
18	0xbbbe3fb3	-0.0058059334
19	0xbd034033	-0.032043647
20	0x3d53e1ad	0.051728893
21	0x3d14b7cd	0.0363081
22	0xbda8bb98	-0.08238906
23	0xbc9575c0	-0.018244624
24	0x3b83cce7	0.004022229
25	0xbbb5a800	-0.005543709
26	0x3d0585b0	0.032598197
27	0xbd360663	-0.044439685
28	0xbc93781a	-0.018001605
29	0x3d12da4a	0.035852708
30	0x3cf33860	0.029689968
31	0x3c9e5c13	0.019331014
32	0x3dcc1e68	0.09966737
33	0x3d0dc08d	0.03460746
34	0xbcb1962d	-0.021678055
35	0xbd0e24cd	-0.034703065
36	0xbd952090	-0.072816014
37	0x3d0b57d7	0.034019317
38	0xba9ed59a	-0.0012118102
39	0xbda8c4cb	-0.0824066
40	0x3d95ea27	0.07320052
41	0xbdb4dc08	-0.0883103
42	0xbc7f3aa7	-0.015577949
43	0x3c65c0b3	0.014022994
44	0xbd9fc978	-0.07802099
45	0xbd9462b7	-0.07245391
46	0xbd2f1a7a	-0.04274986
47	0x3d27dd87	0.04098275
48	0xbd812dd5	-0.0630757
49	0xbd8eb438	-0.06967968
50	0xbc06b61a	-0.008222127
51	0x3ca63bba	0.020292152
52	0x3da03903	0.07823374
53	0x3d286ec7	0.04112127
54	0x3db3e567	0.087839894
55	0xba4324cd	-0.00074441434
56	0x3d91df87	0.071227126
57	0x3d6e0edd	0.058119643
58	0xbd971c93	-0.07378497
59	0x3d8f545f	0.069985144
60	0xbd28a45a	-0.041172363
61	0xbd595697	-0.053061094
62	0x3cc3a327	0.023881508
63	0x3c2ce08d	0.010551584
64	0x3c978a5a	0.018498588
65	0x3d42dcca	0.047573842
66	0x3d9cf585	0.07664017
67	0xbc650cf3	-0.013980138
68	0x3d9b9562	0.07596852
69	0x3d0f83ea	0.035037912
70	0xbd1f2e9a	-0.038862802
71	0x3c93d13a	0.018044103
72	0x3db629b2	0.088946715
73	0x3da5c728	0.08094627
74	0xbd626d93	-0.05528028
75	0x3da180d0	0.07885897
76	0x3b9ff780	0.004881799
77	0x3d1a8080	0.037720203
78	0x3cd54b60	0.026036918
79	0xbda06aba	-0.078328565
80	0xbdc12b63	-0.094321035
81	0xbccc4913	-0.024937188
82	0x3dbcb140	0.09213495
83	0x3d25146a	0.04030267
84	0xbd932c42	-0.07186176
85	0x3daf59c0	0.0856204
86	0x3dccab02	0.09993555
87	0x3dcb961b	0.0994074
88	0xbd94856a	-0.07252009
89	0xbdb2dcaf	-0.08733498
90	0x3db6c19d	0.089236476
91	0x3d9fee45	0.07809118
92	0x3c1e0640	0.009645045
93	0xbd9b6f95	-0.07589642
94	0x3c77b1c0	0.0151180625
95	0x3d815362	0.06314732
96	0x3d1955b0	0.037435234
97	0x3d0828f7	0.033242192
98	0x3cbcdda0	0.023054898
99	0x3db4b6d2	0.08823933
100	0x3d8e593b	0.06950613
101	0xbdbf487d	-0.09339998
102	0xbd26d5a0	-0.040731072
103	0xbd4921e0	-0.04910457
104	0xbd4e5bdd	-0.050380576
105	0x3dac5530	0.08414686
106	0x3cf377e0	0.029720247
107	0x3da3e775	0.08003131
108	0x3c40d880	0.011770368
109	0x3c151973	0.009100306
110	0x3daf0348	0.08545548
111	0xbd8ff213	-0.07028594
112	0x3d9a1ed0	0.07525408
113	0x3d0f1747	0.03493431
114	0xbd98880d	-0.074478246
115	0x3d814f8a	0.06313999
116	0x3caff4c7	0.021479024
117	0xbda0e51d	-0.078562
118	0x3c722f4d	0.014781785
119	0xbc94407a	-0.018097151
120	0xbc362667	-0.011117554
121	0xbd7745d0	-0.060369313
122	0x3d62e81d	0.05539714
123	0xbdbf3eab	-0.09338125
124	0xbd12a9b0	-0.035806358
125	0x3d9f4b52	0.07778038
126	0xbd8e1990	-0.069384694
127	0x3dca7812	0.09886183
128	0x3ca8f067	0.020622445
129	0xbacdcd33	-0.0015701413
130	0x3da71337	0.08157962
131	0xbd1c56d3	-0.03816874
132	0x3c9f16a0	0.019419968
133	0xbd93ab7a	-0.07210441
134	0x3c56f71a	0.013120437
135	0xbcbc4acd	-0.022984887
136	0x3c220e0d	0.009891045
137	0xbdb0ddbd	-0.08636043
138	0xbdc40ae5	-0.095723905
139	0x3d992293	0.07477298
140	0x3d4f7580	0.050649166
141	0x3d7a3923	0.061089646
142	0x3dbffa80	0.09373951
143	0x395a199a	0.00020799637
144	0xbc61a980	-0.013773322
145	0xbd98018a	-0.074221686
146	0xbd5f0f0d	-0.054457713
147	0xbdc33d13	-0.09533133
148	0x3d179950	0.037011445
149	0xbcc6648d	-0.024217868
150	0xbc997fb3	-0.01873765
151	0xbc1e02f3	-0.009644258
152	0x3d938bbf	0.07204389
153	0xbd594520	-0.05304444
154	0xbda5cb28	-0.080953896
155	0xbd790217	-0.06079301
156	0x3d617ed0	0.05505258
157	0x3d36a76d	0.044593263
158	0x3d9af6a2	0.07566573
159	0xbda23263	-0.07919767
160	0x3d94ce87	0.072659545
161	0x3d74388d	0.059624244
162	0xbd0b43e0	-0.034000278
163	0xbc230bc0	-0.009951532
164	0xbd2648d3	-0.040596794
165	0xbda6f79b	-0.08152696
166	0x3b603e67	0.0034216882
167	0x3d69ba6d	0.057062555
168	0x3ca671cd	0.020317936
169	0xbd9772ed	-0.07394967
170	0x3cf6e0cd	0.03013649
171	0x3d502f0d	0.05082612
172	0x3ce8f9d3	0.028439438
173	0xbc0b6d80	-0.008509994
174	0x3d793c90	0.060848773
175	0x3d6b73ad	0.057483364
176	0xbd9e1392	-0.077185765
177	0x3d3b1293	0.04567201
178	0x3c6f60e7	0.014610506
179	0xbcd9ec87	-0.026602043
180	0xbdb8287f	-0.08992099
181	0xbda69ebd	-0.08135746
182	0xbd11a980	-0.03556204
183	0xbd42fb8d	-0.04760318
184	0x3dbb6fd7	0.09152191
185	0x3cd69c1a	0.026197482
186	0x3d694757	0.0569528
187	0xbd6e20ed	-0.05813687
188	0xbccb537a	-0.024820078
189	0xbc29a773	-0.010354864
190	0x3d87b057	0.06625431
191	0xbdc5b555	-0.09653727
192	0x3d4d3030	0.050094783
193	0xbd764f9d	-0.06013452
194	0xbd5476c3	-0.051871073
195	0x3d0f9490	0.03505379
196	0xbda99093	-0.082795285
197	0x3d260e43	0.040540945
198	0xbaba2133	-0.0014200568
199	0xbce14c9a	-0.027502347
200	0x3da63a8a	0.08116634
201	0x3b7ca633	0.003855121
202	0xbd7ededa	-0.062224247
203	0xbc97ac2d	-0.018514717
204	0xbd51c7e0	-0.051216006
205	0xbd5906f0	-0.05298513
206	0x3daa2c15	0.08309189
207	0xbcea7b27	-0.028623177
208	0xbc5c8227	-0.013458765
209	0xbda2572b	-0.07926782
210	0xbd40c98d	-0.047067214
211	0x3d9b823a	0.07593198
212	0x3d829897	0.063767605
213	0x3da4f778	0.080550134
214	0x3c5371cd	0.01290555
215	0x3d6a6a2a	0.057230152
216	0xbd08bd93	-0.033383917
217	0x3d1e8c70	0.03870815
218	0xbcebd0e7	-0.028786136
219	0xbd9f3cdf	-0.07775282
220	0xbda5ff30	-0.08105314
221	0x3d9173aa	0.07102139
222	0x3d9a05a8	0.0752061
223	0xbc83af1a	-0.016074706
224	0xbb7b5700	-0.0038351417
225	0x3da1eca0	0.07906461
226	0xbd2f9a10	-0.042871535
227	0x3d8ce610	0.068798184
228	0x3d1960ed	0.03744595
229	0xbcf302da	-0.029664446
230	0x3bb18ab3	0.0054181456
231	0xbb87764d	-0.0041339756
232	0x3d6d5c37	0.05794927
233	0x3cee3fad	0.029083097
234	0xbad3a800	-0.001614809
235	0xbd9ca478	-0.076485574
236	0x3d3aa840	0.045570612
237	0x3d3d6b6d	0.046245027
238	0xbc4ecc5a	-0.012621963
239	0x3dc93ec7	0.09826427
240	0x3dc255a5	0.09488992
241	0xbdc0a367	-0.094061665
242	0x3d62f557	0.055409756
243	0x3bd489cd	0.0064861537
244	0x3af5e19a	0.0018759251
245	0xbd71b243	-0.059007894
246	0xbc0d524d	-0.008625579
247	0x3dabd4a8	0.0839017
248	0xbdb92b05	-0.090414084
249	0x3dae9bcd	0.085258104
250	0xbc956280	-0.018235445
251	0x3b8f9fcd	0.0043830634
252	0xbb546e00	-0.0032414198
253	0xbd8c2883	-0.068436645
254	0x3db26bbf	0.08711957
255	0x3cf3c467	0.029756738

linear.weight f4 [1, 100]
0	0x3cac6d9a	0.021048356
1	0xbd39e527	-0.045384552
2	0x3d926418	0.071479976
3	0xbb95f14d	-0.0045758844
4	0x3d28e76a	0.04123632
5	0x3d53c14a	0.051698007
6	0x3d9ee723	0.077589296
7	0xbb80d1cd	-0.00393126
8	0x3d5adf7a	0.05343578
9	0x3b9a3600	0.0047061443
10	0x3dc63fcd	0.09680138
11	0xbd2c76f3	-0.042105626
12	0x3d78ded3	0.060759377
13	0x3c012d9a	0.007884407
14	0x3db0e98b	0.08638295
15	0x3ce08873	0.027408814
16	0xbd609a83	-0.054834854
17	0x3c0c3acd	0.008558941
18	0x3d13cac3	0.03608204
19	0xbcdeaded	-0.027182544
20	0x3d9e197f	0.07719707
21	0xbda88a68	-0.08229524
22	0x3d07604d	0.033050824
23	0x3dc717f8	0.097213686
24	0x3d5dec40	0.054180384
25	0x3ce6f760	0.02819413
26	0x3c597f33	0.013274956
27	0x3c4f5b73	0.012656081
28	0x3d1e0c40	0.0385859
29	0x3d6e3a17	0.058160868
30	0x3cb6f0d3	0.02233163
31	0x3ce89920	0.028393328
32	0x3dc26db2	0.09493579
33	0x3d6702a7	0.056399014
34	0xbdc84ad7	-0.097798996
35	0x3dafa447	0.08576255
36	0x3c95db9a	0.01829319
37	0x3d02375d	0.03179108
38	0x3d828090	0.063721776
39	0xbce91660	-0.028453052
40	0x3b5da133	0.0033818006
41	0x3d0089ad	0.031381298
42	0x3d9d3aeb	0.07677253
43	0x3d06ba57	0.03289255
44	0x3d8a8b07	0.067647986
45	0xbd8bd567	-0.06827813
46	0x3d0647d0	0.03278333
47	0x3ce07a8d	0.027402187
48	0x3c385e0d	0.011252892
49	0x3dca4935	0.098772444
50	0x3da8689f	0.0822308
51	0xbd8404ad	-0.06446204
52	0xba8a479a	-0.0010549903
53	0x3d944af0	0.07240856
54	0xbda4ddcd	-0.08050118
55	0xbb001567	-0.0019544007
56	0xbd9ac76a	-0.075575665
57	0xbdae3728	-0.08506614
58	0xbdaaf468	-0.08347398
59	0x3c849e6d	0.016188825
60	0x3b467167	0.0030279995
61	0xbcddeb73	-0.02708981
62	0x3dbbd7b2	0.09172
63	0x3da0abeb	0.07845291
64	0x3d293dea	0.04131881
65	0xbd995b97	-0.074881725
66	0xbda21b5b	-0.07915374
67	0xbc903e0d	-0.017607713
68	0xbd32207d	-0.043488014
69	0x3cc43b80	0.023954153
70	0x3d483417	0.0488778
71	0x3d84731d	0.064672686
72	0xbd8c8835	-0.06861917
73	0xbd99c48f	-0.07508194
74	0xbdaa913f	-0.08328485
75	0x3d49be27	0.04925361
76	0x3c9ff280	0.019524813
77	0x3d57170d	0.052512217
78	0x3d6a962d	0.057272125
79	0xbd37349a	-0.0447279
80	0xbdb21e25	-0.08697156
81	0x3d17674d	0.03696375
82	0xbc0d7a1a	-0.008635068
83	0x3cd48e3a	0.025946725
84	0x3d861ba2	0.06548239
85	0x3cfa4dad	0.030554617
86	0x3d8b6cc8	0.06807858
87	0xbd9d0df0	-0.07668674
88	0xbd827342	-0.0636964
89	0x3d7a9bd3	0.06118376
90	0x3cf2b4e7	0.029627277
91	0x3d4664a0	0.048435807
92	0x3ce2f4a0	0.027704537
93	0xbd0d6ecd	-0.034529496
94	0xbdaa906a	-0.08328326
95	0x3d5ae483	0.053440582
96	0xbbbf7a33	-0.0058434247
97	0xbd80cdbb	-0.0628924
98	0x3aa54333	0.0012608528
99	0x3d87693a	0.06611867
