model/1721472673_model-aapl.pth (torch, 174356 bytes, 5 tensors)

lstm.weight_ih_l0 f4 [400, 5]
0	0xbd144860	-0.036201835
1	0x3c85c22d	0.016327942
2	0x3d08abda	0.033367015
3	0x3d397edd	0.045287002
4	0x3d87cd9b	0.06631013
5	0xbbde661a	-0.006787074
6	0xbc6b23a7	-0.014351762
7	0xbcea015a	-0.028565098
8	0x3d2fbc1d	0.04290401
9	0xbd8fb77f	-0.07017421
10	0xbd955663	-0.072918676
11	0x3d5b343d	0.053516615
12	0xbc09791a	-0.008390689
13	0xbd40bb90	-0.047053874
14	0xbd020e5d	-0.03175198
15	0xbd286210	-0.041109145
16	0xbdade25a	-0.08490439
17	0x3bbce04d	0.0057640434
18	0xbcef07cd	-0.029178524
19	0xbd90d140	-0.07071161
20	0x3d8e794a	0.06956728
21	0xbcced433	-0.025247669
22	0x3d3675ad	0.044545818
23	0x3d31ac0a	0.04337696
24	0x3cf7b29a	0.030236531
25	0xbd7c2b90	-0.061564982
26	0x3d16e633	0.03684063
27	0x3d6c8a7a	0.05774925
28	0x3d90da1b	0.0707285
29	0xbc1036f3	-0.008802163
30	0xbd5e899a	-0.054330446
31	0xbd75ea03	-0.060037624
32	0xbdb64d9f	-0.08901524
33	0xbcda5313	-0.026650941
34	0x3dc54f9f	0.09634327
35	0xbd09a2b3	-0.033602428
36	0x3c61baa7	0.013777412
37	0xbda5ab63	-0.0808933
38	0x3d3020c0	0.042999983
39	0x3cb88280	0.022523165
40	0x3d81e5b0	0.063426375
41	0xbdc87350	-0.09787619
42	0xbc53c98d	-0.012926471
43	0x3d2385c3	0.039922487
44	0x3d0fa537	0.03506967
45	0xbd381433	-0.04494114
46	0xbdbf2cff	-0.09334754
47	0xbcc95df3	-0.024580931
48	0x3c936340	0.017991662
49	0xbd0941ad	-0.0335099
50	0x3cfb1af3	0.030652499
51	0x3db9e678	0.090771616
52	0xbba71067	-0.005098391
53	0xbd3de88a	-0.046364345
54	0x3d99ce25	0.07510022
55	0x3d3c8773	0.046027612
56	0x3db20e8d	0.086941816
57	0x3d745efa	0.05966089
58	0x3d593b63	0.05303515
59	0x3d8810ff	0.06643867
60	0x3d280313	0.041018557
61	0xbcc15953	-0.023602163
62	0x3da42cef	0.08016383
63	0xbd871ceb	-0.065973125
64	0x3d476333	0.048678588
65	0xbd660810	-0.056160033
66	0xbca14d60	-0.019690216
67	0xbc7a1640	-0.015264094
68	0x3d8f7cc5	0.0700622
69	0x3d683eb0	0.05670041
70	0xbda70977	-0.08156102
71	0xbd986a7f	-0.074421875
72	0xba0bbc00	-0.00053304434
73	0x3db61c87	0.0889216
74	0x3c9548fa	0.018223274
75	0xbc53ccf3	-0.012927282
76	0x3d57fff3	0.052734327
77	0x3d36a823	0.04459394
78	0x3cad7d27	0.021177841
79	0x3d9a593f	0.075365536
80	0xbcd01000	-0.025398254
81	0xbd5a971d	-0.05336677
82	0xbd8dc0a8	-0.06921512
83	0xbc1d6100	-0.009605646
84	0x3d4d50b0	0.050125778
85	0xbda4e407	-0.08051305
86	0xbd50af4a	-0.05094842
87	0x3d4b6c57	0.049663868
88	0xbdba3e82	-0.09093954
89	0xbcdd5bad	-0.027021253
90	0x3da160c5	0.078797854
91	0xbc3c37e7	-0.0114879375
92	0xbd0685a7	-0.032842305
93	0xbce49373	-0.02790234
94	0x3d48cf23	0.049025666
95	0xbd77355a	-0.060353614
96	0x3dbf9b10	0.09355748
97	0x3da72813	0.081619404
98	0x3d8d7462	0.06906964
99	0xbd95ca35	-0.073139586
100	0xbdbf9007	-0.09353643
101	0xbd8aef18	-0.06783885
102	0xbdad70af	-0.08468758
103	0xbd2e8147	-0.042603757
104	0xbd3510a7	-0.044205334
105	0x3da7b328	0.08188468
106	0xbd8d6af8	-0.06905168
107	0x3d395723	0.045249116
108	0xbd742a73	-0.059610795
109	0x3d669113	0.056290697
110	0x3cc4d08d	0.024025226
111	0xbd62d95a	-0.055383064
112	0xbd27a1e3	-0.04092587
113	0xbd63e197	-0.05563506
114	0xbdbaf372	-0.09128465
115	0x3c9d71ba	0.019219268
116	0xbd9ec182	-0.077517524
117	0x3d8f08b2	0.069840804
118	0x3dc2fba3	0.09520652
119	0x3cff104d	0.031135703
120	0x3ca58980	0.020207167
121	0xbdb7464d	-0.08948956
122	0x3cde02a0	0.027100861
123	0xbc070df3	-0.008243072
124	0x3cc59b87	0.024122013
125	0xbdb57e6a	-0.08862002
126	0xbd50988d	-0.050926734
127	0xbda0ccba	-0.078515485
128	0xbd87bdc5	-0.066279925
129	0xbda7f54d	-0.08201084
130	0xbc227527	-0.009915627
131	0xbdaaa508	-0.083322585
132	0x3dc01e60	0.093807936
133	0x3d9a4f2b	0.07534631
134	0x3cd78cba	0.02631222
135	0xbdaa61b3	-0.08319416
136	0x3d61503d	0.05500816
137	0xbd96713d	-0.07345817
138	0xbdc35cfa	-0.09539218
139	0x3dc02620	0.09382272
140	0xbd4e0a87	-0.05030301
141	0x3d2426a7	0.040075924
142	0x3cf8d767	0.03037615
143	0x3bd58300	0.0065158606
144	0x3c05408d	0.008133066
145	0xbda0f167	-0.07858544
146	0xba636667	-0.0008674622
147	0xbc0b9b67	-0.0085209375
148	0xbcdeb160	-0.027184188
149	0xbd999fcd	-0.07501183
150	0xbc23508d	-0.009967935
151	0xbd8e4c5f	-0.069481604
152	0x3d2a7177	0.041612115
153	0x3d6eca10	0.05829817
154	0x3caa1c27	0.020765377
155	0x3d0567c0	0.032569647
156	0x3d9b76aa	0.07590993
157	0xbd107d50	-0.035275757
158	0xbd0aef8a	-0.03391985
159	0x3c2e8740	0.010652363
160	0x3d0c010d	0.03418069
161	0xbdb7271f	-0.08943009
162	0xbd501e8d	-0.050810385
163	0xbd853b28	-0.06505424
164	0xbc32bf9a	-0.010909939
165	0x3d708ac3	0.058726083
166	0xbbf25300	-0.0073951483
167	0xbdc6cc00	-0.09706879
168	0xbdba6f35	-0.09103242
169	0x3da4a1ca	0.08038671
170	0xbc16eaa7	-0.009211219
171	0xbb5bbf67	-0.0033530833
172	0xbd65e09d	-0.05612241
173	0xbdbdeba0	-0.092734575
174	0x3d7832c7	0.0605953
175	0x3ca4ca7a	0.02011608
176	0x3dc3ff32	0.09570159
177	0x3c09b58d	0.0084051015
178	0xbd87e8aa	-0.06636174
179	0xbc467480	-0.012112737
180	0x3c56d29a	0.013111735
181	0x3d8c8c62	0.068627134
182	0xbd49d17a	-0.049272038
183	0x3c4baf67	0.012431956
184	0x3d306a03	0.04306985
185	0x3c144967	0.009050704
186	0xbd9b9550	-0.075968385
187	0xbc02b01a	-0.007976556
188	0x3c39950d	0.01132704
189	0xbd626fc3	-0.055282366
190	0xbbd55fe7	-0.0065116766
191	0x3d821cca	0.06353147
192	0xbdcbc130	-0.09948957
193	0xbd4cc5a0	-0.049993157
194	0x3d8a236d	0.06745038
195	0x3d5f8497	0.054569807
196	0xbb6c199a	-0.0036026002
197	0x3c2b9acd	0.010473919
198	0x3dc62fa8	0.096770585
199	0x3d25daf0	0.040492
200	0x3db7f1d3	0.08981671
201	0x3c3b8840	0.011446059
202	0xbcf408ad	-0.029789293
203	0x3bfff04d	0.0078106285
204	0xbd38dccd	-0.045132447
205	0x3d9cb467	0.076515965
206	0x3da283c0	0.079352856
207	0x3daa87bb	0.0832667
208	0x3dc5efa0	0.096648455
209	0x3d518a9d	0.051157583
210	0x3c2b6e27	0.010463274
211	0xbbc65733	-0.0060528754
212	0xbc48a1f3	-0.012245643
213	0x3d1709f7	0.036874738
214	0xbc6bbe0d	-0.014388573
215	0xbcadaf9a	-0.021201897
216	0x3d883a4a	0.06651743
217	0xbcd4808d	-0.025940204
218	0x3c25a69a	0.010110522
219	0x3ce8c240	0.028412938
220	0x3dc2e083	0.095154785
221	0xbdc13d37	-0.09435504
222	0xbd07e650	-0.033178627
223	0xbdbc33e5	-0.091895856
224	0xbc98ad3a	-0.018637288
225	0x3d008c4a	0.03138379
226	0x3d909f2b	0.07061609
227	0xbdbcbef3	-0.09216108
228	0xbb2567cd	-0.0025238872
229	0x3d75416d	0.059876848
230	0x3dca215a	0.098696426
231	0xbdc49f22	-0.09600665
232	0x3da964df	0.08271193
233	0x3dc39830	0.09550512
234	0x3dacef2a	0.084440544
235	0x3d1938f0	0.037407815
236	0xbd8f10eb	-0.06985649
237	0xbbf772b3	-0.007551515
238	0xbdb9d4e3	-0.09073808
239	0x3aaac99a	0.0013030053
240	0x3cd7e0c0	0.026352286
241	0xbcccfca7	-0.025022818
242	0xbce393d3	-0.027780449
243	0xbd904512	-0.07044424
244	0xbdb411c8	-0.08792454
245	0x3ce1ae60	0.027548969
246	0xbd262ff3	-0.04057307
247	0x3da21ab5	0.0791525
248	0xbdc25267	-0.09488373
249	0xbda60430	-0.081062675
250	0x3dbdb102	0.09262277
251	0xbc95edfa	-0.018301953
252	0x3b636500	0.0034697652
253	0x3d7e84b3	0.06213827
254	0xbdc75dc2	-0.0973468
255	0xba6cdc00	-0.0009035468

lstm.weight_hh_l0 f4 [400, 100]
0	0x39b6619a	0.00034786464
1	0x3dba728d	0.0910388
2	0xbc998c4d	-0.018743658
3	0x3c40c20d	0.011765015
4	0xbdc988d3	-0.0984055
5	0xbcf6dce0	-0.030134618
6	0xbdb1b283	-0.086766265
7	0xbd8563d8	-0.06513184
8	0xbcc8b4d3	-0.024500286
9	0xbd2023f0	-0.039096773
10	0xbc1437c0	-0.009046495
11	0x3d0fa103	0.035065662
12	0x3d3895f3	0.045064878
13	0xbc140380	-0.009034038
14	0xbd7fe2b0	-0.062472045
15	0x3d9617aa	0.07328732
16	0xbc9fb66d	-0.019496167
17	0x3d768c8d	0.060192633
18	0x3d8c27db	0.06843539
19	0x3d6a8370	0.057254255
20	0xbd42d59a	-0.047566988
21	0xbca27c1a	-0.019834567
22	0xbd3f937d	-0.046771515
23	0xbd6b166a	-0.057394423
24	0x3d9bf843	0.076157115
25	0x3c83da53	0.016095316
26	0xbc54f09a	-0.012996817
27	0x3d9aef28	0.07565147
28	0xbc11c633	-0.008897352
29	0xbd0f9527	-0.035054352
30	0xbdab829a	-0.0837452
31	0xbd85cda7	-0.06533366
32	0xbb27b633	-0.0025590777
33	0x3da80fb3	0.082061194
34	0x3d222b23	0.03959192
35	0xbdb0b223	-0.08627727
36	0xbd258e90	-0.04041916
37	0x3d71d77d	0.059043396
38	0x3d0a5ea7	0.033781674
39	0x3bfa2d00	0.007634759
40	0x3d47081d	0.04859172
41	0x3cd4422d	0.025910461
42	0xbd9e8a60	-0.07741237
43	0x3d9ce72d	0.07661281
44	0xbcb2eea0	-0.0218423
45	0x3dac6600	0.084178925
46	0xbbc187b3	-0.005906069
47	0x3d3b9280	0.04579401
48	0x3d8ee013	0.069763325
49	0xbc59f94d	-0.013304067
50	0x3d87fcba	0.06640001
51	0x3d952695	0.072827496
52	0xbdb9a6a0	-0.09064984
53	0xbc43ecb3	-0.011958289
54	0xbda861b0	-0.082217574
55	0xbd4eeafa	-0.05051706
56	0xbd02bba3	-0.031917226
57	0xbd7a6aed	-0.06113713
58	0xbd4917f0	-0.049095094
59	0xbd66d3e0	-0.056354403
60	0xbb80fb67	-0.0039362195
61	0x3ca5a3c0	0.020219684
62	0xbd44ba43	-0.048029196
63	0xbc694b8d	-0.014239204
64	0x3d976be8	0.07393628
65	0xbd8a677d	-0.0675802
66	0xbca61813	-0.020275151
67	0xbd83fa57	-0.06444233
68	0x3c143773	0.009046423
69	0x3dc0a338	0.094061315
70	0x3d9a72e3	0.07541444
71	0xbadeaf9a	-0.0016989589
72	0x3b200b9a	0.0024420978
73	0x3dc00c03	0.09377291
74	0x3c8f9f87	0.017532123
75	0x3cae7027	0.021293713
76	0x3d0b6610	0.03403288
77	0xbc4c9667	-0.012487031
78	0xbdc6a942	-0.09700252
79	0xbda1184d	-0.07865963
80	0x3dbc1908	0.09184462
81	0x3db623e2	0.08893563
82	0x3d61844a	0.0550578
83	0xbdc6503d	-0.09683273
84	0xbdbe6242	-0.09296085
85	0xbbb99867	-0.0056639197
86	0xbd601cfa	-0.054715134
87	0xbdc9ad0a	-0.09847458
88	0x3bdc674d	0.0067261816
89	0x3d17e4e7	0.037083533
90	0xbc0f7dda	-0.008758033
91	0x3d921008	0.07131964
92	0x3d6df2f3	0.058093023
93	0x3d31681d	0.04331218
94	0xbdb16137	-0.086611204
95	0xbc72d3f3	-0.01482104
96	0x3d3ea787	0.046546485
97	0x3d9a0d62	0.07522084
98	0xbd189c10	-0.037258208
99	0x3d7e6a90	0.062113345
100	0xbd43d950	-0.047814667
101	0x3db54393	0.088507794
102	0x3d33244a	0.04373578
103	0x3daaa935	0.08333055
104	0x3d5f76d7	0.054556694
105	0x3d5753fd	0.05257033
106	0x3dab9875	0.08378688
107	0xbd7ba76d	-0.061438967
108	0x3d26e73d	0.04074787
109	0x3ba60780	0.005066812
110	0x3d848867	0.06471329
111	0xbcd615b3	-0.026133394
112	0xbdc92b05	-0.098226584
113	0xbc2388b3	-0.009981322
114	0x3d0a807d	0.033813942
115	0xbdb8f492	-0.09031023
116	0xbdbca2c7	-0.09210735
117	0xbc8c9fc7	-0.017166032
118	0x3cf025ba	0.029314864
119	0xbd79873d	-0.06091999
120	0x3cb688da	0.022282053
121	0x3cbf07cd	0.02331915
122	0x3d3e5f5a	0.046477653
123	0x3b337967	0.0027385594
124	0xbdb436f8	-0.08799547
125	0xbd5ab6e3	-0.05339707
126	0xbd95d6a8	-0.07316333
127	0xbd7d5233	-0.06184597
128	0x3d5e0bca	0.05421046
129	0x3d6432ad	0.05571239
130	0x3c7a965a	0.015294636
131	0xbcc736c0	-0.024318099
132	0x3d73d510	0.059529364
133	0xbae7dc00	-0.0017689466
134	0xbd33a017	-0.043853845
135	0xbcea0600	-0.028567314
136	0x3c8b2cfa	0.01698922
137	0xbc8a843a	-0.016908754
138	0x3d79c82d	0.060981918
139	0x3d9fcf62	0.07803227
140	0xbdad1757	-0.08451717
141	0xbd12d5e0	-0.0358485
142	0xbd1dc0f7	-0.038514104
143	0x3cccd967	0.02500601
144	0x3d0cd750	0.034385026
145	0xbd8d7dba	-0.06908746
146	0x3c8f8587	0.017519725
147	0xbdb937a3	-0.09043815
148	0x3d3cdcb7	0.046108928
149	0x3d3abd23	0.04559053
150	0x3d9478ef	0.07249629
151	0x3d487fd3	0.048950028
152	0xbbf48c4d	-0.007463014
153	0xbd501677	-0.050802674
154	0xbc4b685a	-0.012415016
155	0xbd0e26d0	-0.034704983
156	0x3ca4ed73	0.020132756
157	0xba0a2400	-0.00052696466
158	0x3d9d1ffb	0.076721154
159	0x3d8b3498	0.06797141
160	0x3dc2b558	0.09507245
161	0x3d87b9a3	0.06627204
162	0xbd9973d2	-0.07492794
163	0x3da8ca7b	0.08241745
164	0xbd9671bb	-0.07345911
165	0xbda72623	-0.08161571
166	0x3d49a750	0.049231827
167	0x3daf712f	0.0856651
168	0x3dc60e6a	0.09670718
169	0x3d08bbc7	0.033382203
170	0xbdab58dd	-0.08366559
171	0xbcc4e53a	-0.024035085
172	0x3cd9aa0d	0.026570344
173	0x3dc7eb0f	0.09761631
174	0xbc06938d	-0.00821389
175	0x3d4bc777	0.04975077
176	0x3da3f020	0.080047846
177	0x3b25c99a	0.0025297166
178	0xbdcc238b	-0.09967717
179	0x3dcafc03	0.09911349
180	0xbb40c900	-0.002941668
181	0xbdc10107	-0.09424024
182	0xbdba4152	-0.0909449
183	0x3b169800	0.0022978783
184	0xbced1313	-0.02893976
185	0x3da79950	0.08183539
186	0xbd3ba55a	-0.04581199
187	0x3b057ecd	0.0020369769
188	0x3dbce465	0.0922325
189	0x3d2ad1aa	0.041703857
190	0x3d854df5	0.0650901
191	0x3daae6e2	0.08344819
192	0xbd9a70e7	-0.07541066
193	0x3cf1cbda	0.02951615
194	0xbd8db48b	-0.069192015
195	0xbdc11535	-0.09427873
196	0x3d334ba0	0.043773293
197	0x3c8c049a	0.017092038
198	0xbd73652a	-0.05942265
199	0xbd2dec3a	-0.04246161
200	0x3ca2c8d3	0.019871151
201	0xbd959ea0	-0.07305646
202	0x3ad82d9a	0.0016493083
203	0x3d749d00	0.05972004
204	0x3d3616bd	0.04445528
205	0x3d291980	0.041284084
206	0x3c0f388d	0.00874151
207	0x3dbbf625	0.09177808
208	0xbd3f4a6a	-0.046701826
209	0xbb9bf080	-0.0047588944
210	0x3dc8c220	0.098026514
211	0xbd403de7	-0.046934035
212	0xbbe55fe7	-0.006999958
213	0xbdb5975a	-0.08866759
214	0xbdc39ea5	-0.095517434
215	0x3c99ddba	0.018782485
216	0x3b39d300	0.0028354526
217	0xbd390917	-0.045174684
218	0x3d50445a	0.050846435
219	0x3d995655	0.0748717
220	0xbd81a092	-0.063294545
221	0xbd6209c0	-0.05518508
222	0xbcff4dc7	-0.031165017
223	0x3dae38e3	0.08506944
224	0x3c07701a	0.008266473
225	0x3cd0a8ad	0.025471056
226	0x3cecef3a	0.028922666
227	0xbd6651d7	-0.056230392
228	0x3da45cb8	0.08025497
229	0x3d827b82	0.063712135
230	0x3dc7c90f	0.09755146
231	0xbd23dff3	-0.040008496
232	0x3d474e1d	0.04865848
233	0x3ba5da1a	0.0050614
234	0x3d64c590	0.055852473
235	0x3c72d8b3	0.014822173
236	0xbb9e0567	-0.0048224214
237	0xbc068ac0	-0.0082117915
238	0xbd844e32	-0.06460227
239	0x3d5b775d	0.05358063
240	0x3d034850	0.032051384
241	0xbda9654a	-0.082712725
242	0xbd393cf3	-0.04522414
243	0xbd7e71a3	-0.06212009
244	0xbd15e44a	-0.036594667
245	0x3d2c0eba	0.04200623
246	0xbb69e3cd	-0.0035688758
247	0xbd99f2d3	-0.07517018
248	0xbd915a12	-0.07097258
249	0xbd463010	-0.04838568
250	0x3d9df9ed	0.07713685
251	0xbc01f427	-0.007931746
252	0x3d2b85e7	0.041875746
253	0x3d949a3f	0.072559826
254	0xbcd4cd6d	-0.02597686
255	0x3dae4aea	0.085103825

lstm.bias_ih_l0 f4 [400]
0	0x3d2468c0	0.04013896
1	0x3d2f9a80	0.042871952
2	0x3d423ce7	0.047421362
3	0xbd161efd	-0.036650646
4	0x3d5ac8c7	0.053414132
5	0xbd330533	-0.04370613
6	0x3c2699da	0.010168517
7	0xbd4acc17	-0.04951104
8	0x3dc5c48f	0.09656631
9	0x3d9196c7	0.071088366
10	0xbd90673a	-0.07050939
11	0x3c3943a7	0.0113076335
12	0x3dcc7dd2	0.09984936
13	0x3d8e58fb	0.069505654
14	0x3dab3887	0.08360391
15	0x3d14bf83	0.036315452
16	0xbce1f28d	-0.027581478
17	0xbd4ef560	-0.050526977
18	0x3da1221d	0.07867835
19	0x3d87d5fd	0.06632612
20	0xbda5341d	-0.080665804
21	0x3da4f6d5	0.08054892
22	0x3d2e5d00	0.04256916
23	0xbd2e9d97	-0.042630758
24	0x3dbf9345	0.09354261
25	0xbd3a09da	-0.04541955
26	0x3d3ba577	0.045812096
27	0x3d78a6ba	0.060705878
28	0x3d8eb6bb	0.06968447
29	0x3dc28d60	0.094996214
30	0xbdc10f62	-0.09426762
31	0xbc27cf9a	-0.010242367
32	0x3d288a83	0.04114772
33	0x3d20369a	0.039114572
34	0xbdc9368d	-0.09824858
35	0x3dbfcc32	0.09365119
36	0x3d6dd1ea	0.058061518
37	0xbcf56c00	-0.029958725
38	0x3dcba005	0.09942631
39	0x3d722f57	0.059127178
40	0x3d1ea26d	0.03872912
41	0xbd2f3a7a	-0.042780377
42	0x3da1fc9d	0.0790951
43	0xbda8b515	-0.08237664
44	0x3daf01d5	0.08545271
45	0x3d456d57	0.048199978
46	0xbc98c013	-0.018646276
47	0xbcf8dea7	-0.030379606
48	0xbc8927b3	-0.016742563
49	0xbd4fe7fd	-0.05075835
50	0x3db3149d	0.08744166
51	0x3c55f81a	0.01305964
52	0xbdaad3b3	-0.0834116
53	0xbd8125d7	-0.063060455
54	0xbd2c7863	-0.042106997
55	0x3d3fbe1a	0.046812154
56	0x3d0761aa	0.033052124
57	0x3da93412	0.08261885
58	0xbda457c3	-0.08024552
59	0xbcbb4427	-0.022859646
60	0x3d6dd5c7	0.058065202
61	0xbbd6b7e7	-0.0065526846
62	0xbd311d67	-0.04324093
63	0xbd074a00	-0.033029556
64	0xbdab5370	-0.08365524
65	0xbb6f63cd	-0.0036527992
66	0x3dad737d	0.08469293
67	0xbd62c497	-0.055363264
68	0xbc9c9187	-0.019112362
69	0xbc6409cd	-0.013918352
70	0xbd5b4920	-0.053536534
71	0x3d0aef37	0.03391954
72	0xbda33098	-0.07968253
73	0xbdc7a8e3	-0.097490095
74	0xbd117980	-0.035516262
75	0xbd9be9a7	-0.07612925
76	0xbd23c237	-0.03998014
77	0x3d82b1c8	0.06381565
78	0x3cbdd013	0.023170507
79	0x3d0b4127	0.03399768
80	0x3ce83413	0.028345143
81	0xbdc0cccf	-0.09414064
82	0x3d048367	0.032351878
83	0xbcfe3a4d	-0.03103366
84	0xbd26bc77	-0.040707078
85	0xb9688ccd	-0.00022177697
86	0x3d841225	0.06448773
87	0x3db32abd	0.08748386
88	0xbd19e4d0	-0.03757173
89	0xbdb0c307	-0.086309485
90	0xbd3dae00	-0.046308517
91	0xbdb0151d	-0.08597777
92	0x3d7b10fd	0.0612955
93	0x3da5a388	0.08087832
94	0xbcb72f40	-0.022361398
95	0x3db449f3	0.08803167
96	0xbc08d7cd	-0.008352232
97	0xbd99bd1d	-0.075067736
98	0xbda34790	-0.07972634
99	0xbc130e4d	-0.008975578
100	0xbd71cf17	-0.059035387
101	0xbd6a6107	-0.05722144
102	0x3d2e4e2a	0.04255501
103	0x3d722523	0.059117448
104	0x3dc6a0a7	0.09698611
105	0x3d8fa3b5	0.070136465
106	0x3c01d280	0.007923722
107	0x3d8c428d	0.06848631
108	0xbd0e3487	-0.034718063
109	0xbd3cee8d	-0.046125937
110	0xbd56a720	-0.052405477
111	0xbb93bd67	-0.0045086625
112	0xbb685e9a	-0.0035456778
113	0xbd885ef0	-0.06658733
114	0x3d61bfe0	0.055114627
115	0x3d3ce54d	0.046117116
116	0x3bc8859a	0.006119442
117	0x3d69e7c0	0.05710578
118	0xbd7b263d	-0.061315764
119	0xbd88cf4a	-0.06680162
120	0x3d29a0ba	0.041413046
121	0x3da0406a	0.07824786
122	0x3dc0c25a	0.094120696
123	0x3c4f37e7	0.0126476055
124	0xbdb705f7	-0.089366846
125	0xbc6de7f3	-0.014520633
126	0xbd9e25c8	-0.0772205
127	0xbd2ce45a	-0.04220996
128	0xbd9c5f42	-0.076353565
129	0x3d38976a	0.045066275
130	0xbdc10e45	-0.0942655
131	0xbdb6377b	-0.08897301
132	0xbd876867	-0.0661171
133	0xbda0d765	-0.07853583
134	0x3d85299a	0.065020755
135	0xbd5b7b2a	-0.053584255
136	0x3d3d75fd	0.0462551
137	0x3d86fd22	0.0659125
138	0x3d67a890	0.056557238
139	0xbc19f933	-0.009397793
140	0xbcd0eba0	-0.02550298
141	0x3d383d67	0.044980433
142	0x3d1c86ad	0.038214374
143	0xbd2d08bd	-0.04224466
144	0x3c947687	0.018122924
145	0x3d8bcb3f	0.068258755
146	0x3cce081a	0.025150348
147	0x3d38e863	0.045143496
148	0x3d6fab93	0.058513235
149	0xbdae0ddf	-0.084987395
150	0xbd8f84e3	-0.07007768
151	0x3d78eec3	0.060774576
152	0xbbd3de9a	-0.006465745
153	0xbd27331a	-0.04082022
154	0x3d5ea2bd	0.054354418
155	0xbd63169a	-0.055441476
156	0x3d807add	0.06273434
157	0x3d7e2a73	0.0620522
158	0xbc23b51a	-0.009991908
159	0xbd64a79a	-0.0558239
160	0x3d44bb60	0.048030257
161	0xbc541dc0	-0.012946546
162	0x3c640673	0.013917553
163	0xbcc2d69a	-0.02378397
164	0x3dbdf8fd	0.09276006
165	0xbd26df57	-0.040740337
166	0x3d779b1d	0.060450662
167	0x3d8cbba3	0.06871726
168	0xbc838ef3	-0.016059374
169	0x3cbd69ad	0.02312168
170	0x3cdbe640	0.02684319
171	0xbdabc0e3	-0.083863996
172	0x3d097f4a	0.033568658
173	0x3d8540f3	0.06506529
174	0x3da9eca0	0.08297086
175	0xbdc16148	-0.09442383
176	0x3dc4f6a7	0.09617358
177	0xbb22ce00	-0.0024842024
178	0xbd79a7d0	-0.060951054
179	0xbd94af1a	-0.072599605
180	0x3d9cfbfb	0.07665249
181	0x3cb65f4d	0.02226224
182	0xbd6cf397	-0.057849493
183	0x3d989f65	0.07452277
184	0x3d5119ed	0.051050115
185	0x3d0b5c37	0.03402349
186	0x3dcc14db	0.09964915
187	0x3dc7f5d7	0.09763687
188	0xbd62690a	-0.055275954
189	0xbcf20667	-0.029544069
190	0xbd8c8e02	-0.06863023
191	0xbc9e2acd	-0.019307518
192	0xbda8466f	-0.08216559
193	0xbd260c8a	-0.040539302
194	0x3d1c1e1d	0.038114656
195	0x3cd520cd	0.026016617
196	0xbb28db33	-0.0025765419
197	0xbda4e9b3	-0.08052387
198	0x3cb125cd	0.02162447
199	0x3d9053cb	0.07047232
200	0xbd150e4d	-0.03639059
201	0x3d707a6a	0.058710493
202	0x3d2f569d	0.04280721
203	0xbd7220e0	-0.059113383
204	0x3d9ef103	0.07760813
205	0xbc24a25a	-0.010048473
206	0x3d10a59d	0.03531419
207	0x3d658f57	0.056044903
208	0xbdc73b0d	-0.0972806
209	0x3d7af947	0.061272886
210	0x3d9b7a8b	0.075917326
211	0x3d68dd33	0.056851577
212	0x3ce1be1a	0.027556468
213	0xbd332fe3	-0.04374684
214	0x3db88d93	0.09011378
215	0x3c9fff47	0.019530905
216	0xbd4cb28a	-0.049974956
217	0xbc20d080	-0.009815335
218	0x3d1fad0a	0.038983382
219	0x3d41b1f3	0.047288846
220	0xbd48df9d	-0.04904138
221	0xbd118da7	-0.03553548
222	0xba7dcccd	-0.0009681702
223	0x3d95877d	0.07301233
224	0xbd8c7a93	-0.06859317
225	0x3cd194e0	0.025583684
226	0x3d6ef423	0.058338296
227	0x3d36a3a3	0.04458965
228	0x3d8b441b	0.068000995
229	0x3cda39c7	0.026638879
230	0x3dc90457	0.09815281
231	0x3cc2ae47	0.023764743
232	0x3d192a17	0.037393656
233	0x3d4bc37d	0.04974698
234	0xbdbe3da2	-0.09289099
235	0x3d71870d	0.058966685
236	0x3d08a0c0	0.03335643
237	0xbd91f370	-0.0712651
238	0x3d953928	0.07286292
239	0xbda6888a	-0.081315115
240	0x3dcbdd9f	0.0995438
241	0x3d32c83d	0.043647993
242	0x3d815e93	0.06316867
243	0xbc6fda67	-0.0146394735
244	0x3d820df7	0.0635032
245	0xbdc7f0a5	-0.09762696
246	0x3c7c3db3	0.01539557
247	0xbd116ea7	-0.035505917
248	0xbd8acfda	-0.06777926
249	0x3c3e6c80	0.011622548
250	0xbda21943	-0.079149745
251	0x3bd2b8e7	0.0064307335
252	0x3d8ac760	0.06776309
253	0x3d9da52a	0.07697518
254	0xbc7295da	-0.014806235
255	0xbc38aab3	-0.011271167

lstm.bias_hh_l0 f4 [400]
0	0x3d179ba7	0.037013676
1	0x3d447053	0.047958683
2	0x3b407533	0.0029366731
3	0xbdc90917	-0.09816187
4	0xbdcb9ef2	-0.09942426
5	0xbc583180	-0.0131953955
6	0xbce141a7	-0.027497126
7	0xbd6c4187	-0.05767968
8	0x3db3187f	0.08744907
9	0x3babec4d	0.005246675
10	0xbd125ce0	-0.035733104
11	0x3dc51223	0.096226
12	0x3d99ee3b	0.07516142
13	0x3dc113e5	0.09427623
14	0x3cb6765a	0.022273231
15	0x3d2056f3	0.03914542
16	0x3d9a2fda	0.07528658
17	0xbdbbf077	-0.091767244
18	0x3c220ec0	0.009891212
19	0x3d93e7ef	0.07221972
20	0x3b9bb41a	0.0047516944
21	0xbc260700	-0.010133505
22	0xbd9bf802	-0.07615663
23	0x3bb930b3	0.0056515574
24	0x3d61d287	0.055132415
25	0x3db64917	0.089006595
26	0xbdb17e97	-0.08666723
27	0x3cadacd3	0.021200573
28	0x3cb6cd2d	0.022314632
29	0xbc6ed0f3	-0.014576185
30	0xbd807478	-0.06272215
31	0xbd49cfc3	-0.049270403
32	0xbd837da7	-0.06420451
33	0x3d93a1a0	0.07208562
34	0x3c66cbc0	0.014086664
35	0xbd20e5e0	-0.039281726
36	0x3dc207ba	0.0947413
37	0xbdc6bb65	-0.097037114
38	0x3d62d0f0	0.05537504
39	0x3d9c7c1a	0.07640858
40	0x3d061953	0.032738995
41	0xbc0d258d	-0.00861491
42	0x3d51fec3	0.05126835
43	0xbd9eac18	-0.07747668
44	0x3c25a0b3	0.010109114
45	0x3cdc4393	0.02688769
46	0x3dae1efa	0.08502002
47	0x3d383687	0.044973876
48	0xbd98344a	-0.07431848
49	0xbd8c9688	-0.06864649
50	0x3c6e5b80	0.0145481825
51	0x3daef747	0.08543258
52	0xbd6c8d50	-0.057751954
53	0x3dbe4e60	0.092922926
54	0xbcbe2200	-0.023209572
55	0x3d95fe7b	0.07323929
56	0x3cc7cb00	0.02438879
57	0xbda18b3b	-0.07887884
58	0x3d29f2f7	0.041491475
59	0x3cdb2a73	0.02675364
60	0xbd1f4dda	-0.038892604
61	0x3d3dfcdd	0.046383727
62	0xbcb50907	-0.022099031
63	0xbd11ceba	-0.03559754
64	0x3d83bbaf	0.06432282
65	0xbd9a8daa	-0.075465515
66	0xbd6562da	-0.056002475
67	0xbd5e4100	-0.054261208
68	0xbc32b400	-0.010907173
69	0x3d9bb0a5	0.07602052
70	0xbd942860	-0.072342634
71	0xb9b6799a	-0.00034804345
72	0x3dbc2913	0.09187522
73	0x3db91382	0.09036924
74	0xbd316a6a	-0.043314375
75	0x3cf9b347	0.030480994
76	0xbd209e20	-0.0392133
77	0xbdb27c22	-0.08715083
78	0x3d53b260	0.051683784
79	0x3d8d6332	0.06903686
80	0x3d05ccfa	0.032666184
81	0xbd8aae78	-0.067715585
82	0xbdba7933	-0.09105148
83	0x3cc18373	0.02362225
84	0x3d2e584d	0.04256468
85	0xbc8dabed	-0.017293895
86	0x3d4c6c5a	0.04990802
87	0x3d821685	0.063519515
88	0x3d8ea79b	0.06965562
89	0x3d592120	0.053010106
90	0xbdba4ca2	-0.09096648
91	0x3be5ab00	0.00700891
92	0x3b5374cd	0.0032265664
93	0x3d82683a	0.06367536
94	0xbcaf4afa	-0.021398056
95	0x3d84a7b5	0.064773
96	0xbd9922f5	-0.07477371
97	0x3d0109f7	0.031503644
98	0x3d97044b	0.07373866
99	0xbc48555a	-0.012227381
100	0xbd3e5f27	-0.046477463
101	0x3d23244d	0.03982954
102	0x3d8302cb	0.06397017
103	0x3d368057	0.04455599
104	0x3dc278a2	0.09495665
105	0x3cd4d627	0.025981022
106	0x3d37cc20	0.044872403
107	0x3d420070	0.0473637
108	0x3d9895ed	0.07450471
109	0x3d739ce0	0.05947578
110	0x3da231b2	0.07919635
111	0x3dbbd6e0	0.091718435
112	0x3d9d3200	0.07675552
113	0x3d427b87	0.047481086
114	0xbd08a5fa	-0.033361413
115	0xbdccba13	-0.09996428
116	0x3dbc162b	0.09183916
117	0xbd33fef7	-0.043944325
118	0xbc8a03ba	-0.01684748
119	0x3c001fc0	0.00782007
120	0x3d27b147	0.04094055
121	0x3d9b845a	0.075936034
122	0x3b961bcd	0.004580951
123	0x3d07a1d3	0.033113312
124	0xbd27165d	-0.04079281
125	0x3dc1a8a5	0.094559945
126	0xbd553a37	-0.05205747
127	0xbd2a51da	-0.041581966
128	0xbd224d7d	-0.03962468
129	0xbdb88beb	-0.09011062
130	0x3cde01cd	0.027100468
131	0x3c150e67	0.009097672
132	0x3d956772	0.07295121
133	0xbc2434b3	-0.01002233
134	0x3d091340	0.033465624
135	0x3d17707d	0.03697251
136	0x3d934f78	0.07192892
137	0x3d080a47	0.033212926
138	0xbd72762d	-0.059194732
139	0x3d5e71e3	0.05430783
140	0x3d87979a	0.066207126
141	0x3dca8fad	0.09890685
142	0x3ce0b240	0.027428746
143	0x3da85988	0.08220202
144	0xbd8b8578	-0.068125665
145	0x3db30602	0.0874138
146	0xbdbc434b	-0.091925226
147	0xbdac8a5a	-0.08424826
148	0xbdc3032f	-0.095220916
149	0x3d9daaff	0.076986305
150	0x3c8926e0	0.01674217
151	0xbd89c890	-0.067277074
152	0xbdc6e8c7	-0.097123675
153	0xbdb6deba	-0.089292005
154	0xbd2cc9dd	-0.0421847
155	0xbda42d8f	-0.08016502
156	0xbdb399f8	-0.087696016
157	0xbc643273	-0.013928044
158	0x3d8aac5a	0.06771155
159	0xbc019567	-0.007909155
160	0xbdbf0f3d	-0.09329078
161	0xbce0ce60	-0.027442157
162	0x3d79ccaa	0.0609862
163	0xbd404d4a	-0.04694871
164	0x3db97763	0.09055974
165	0x3c28b3f3	0.0102968095
166	0x3d6af7fa	0.057365395
167	0x3d4256f7	0.047446217
168	0x3d25f0f7	0.040513005
169	0x3da8596d	0.082201816
170	0x3d741f1a	0.059599973
171	0xbdad5980	-0.084643364
172	0x3cf28e07	0.02960874
173	0x3ce40a07	0.027836813
174	0x3c6235c0	0.01380676
175	0xbc9f7653	-0.019465601
176	0x3d0d6227	0.034517433
177	0xbd5027c7	-0.050819185
178	0x3c4e0367	0.012574053
179	0x3d934872	0.07191552
180	0xbd9d4f42	-0.07681133
181	0x3c6fc127	0.014633453
182	0x3cdfc5b3	0.02731595
183	0xbcce8da0	-0.025214016
184	0xbd827637	-0.06370204
185	0x3bc2d71a	0.0059460523
186	0x3c0f798d	0.008757007
187	0xbd373de3	-0.044736754
188	0xbdc811c0	-0.097690105
189	0x3dc840d7	0.09777992
190	0x3d33dc6a	0.043911375
191	0xbc3887c0	-0.011262834
192	0xbda6bb0b	-0.08141144
193	0xbd85b9ef	-0.06529605
194	0x3d2242b7	0.039614405
195	0xbd4b8bd7	-0.04969391
196	0x3d773573	0.060353708
197	0x3dbf77b7	0.09349006
198	0x3d2eecda	0.042706348
199	0xbd597d40	-0.053097963
200	0xbce4651a	-0.02788024
201	0x3d49725a	0.04918132
202	0xbdafefc5	-0.08590654
203	0x3daa2eb3	0.083096884
204	0x3d6dc033	0.058044624
205	0x3cd5e7a0	0.026111424
206	0xbd6fba93	-0.05852754
207	0xbd84edab	-0.06490644
208	0xbdad3837	-0.08457988
209	0xbd5bffd0	-0.05371076
210	0xbc33caf3	-0.01097368
211	0xbd76d157	-0.060258236
212	0xbd2b82ca	-0.041872777
213	0x3db69e7d	0.08916948
214	0xbd13c677	-0.036077943
215	0x3d1e998a	0.038720645
216	0xbc443ada	-0.011976922
217	0x3d8167cd	0.063186266
218	0xbd6081f0	-0.054811418
219	0x3cd1a33a	0.025590528
220	0x3dbff37b	0.09372612
221	0x3c2afa73	0.010435688
222	0xbdc0e402	-0.09418489
223	0xbc8b8dd3	-0.0170354
224	0xbd42efed	-0.047592092
225	0xbd8e30fb	-0.06942936
226	0xbdcbba8f	-0.099476926
227	0x3c1b755a	0.009488428
228	0xbd03234a	-0.032016076
229	0x3ca5115a	0.020149875
230	0xbdafc063	-0.08581617
231	0x3d0c5783	0.034263145
232	0x3da2a77a	0.079421
233	0x3da0e638	0.07856411
234	0xbdadf6a3	-0.08494308
235	0xbd772203	-0.06033517
236	0x3d351ed0	0.04421884
237	0xbcaf6a67	-0.021413041
238	0x3dafa09f	0.08575558
239	0x3d9d9daa	0.07696088
240	0x3da6e308	0.081487715
241	0xbd9bb722	-0.07603289
242	0x3c02ab8d	0.007975471
243	0x3dc9afc5	0.098479785
244	0xbbf4341a	-0.0074525
245	0xbd16816d	-0.036744524
246	0x3cd4e5da	0.025988508
247	0x3d44ac43	0.048015844
248	0xbb2a0b00	-0.0025946498
249	0xbdc02713	-0.09382453
250	0xbbffd29a	-0.007807088
251	0x3d677280	0.05650568
252	0x3d4fcf20	0.05073464
253	0x3d6ededd	0.058318008
254	0xbd5cf513	-0.05394466
255	0xbd333197	-0.043748464

linear.weight f4 [1, 100]
0	0xbd8ad527	-0.06778937
1	0xbc849d4d	-0.016188288
2	0xbcdde49a	-0.027086545
3	0x3dac368a	0.0840884
4	0x3be16633	0.006878638
5	0x3bfa7200	0.0076429844
6	0x3d276400	0.04086685
7	0xbd813e83	-0.06310751
8	0x3d0f3a27	0.034967568
9	0x3bd8a880	0.0066118836
10	0xbd892c8f	-0.06697952
11	0x3dbb5d1a	0.09148617
12	0xbd458b5a	-0.0482286
13	0x3bd6b080	0.006551802
14	0x3d90e0d2	0.07074131
15	0xbc12fde7	-0.008971668
16	0xbd674cd3	-0.05646975
17	0xbd42220a	-0.047395743
18	0x3d1d109d	0.03834592
19	0x3d80e3c5	0.062934436
20	0xbc2b08e7	-0.010439134
21	0x3d0db1ea	0.0345935
22	0x3bbb9a67	0.0057251933
23	0xbd30bf43	-0.04315115
24	0x3d7a3b43	0.061091673
25	0xba0c3267	-0.00053480867
26	0x3dbacd93	0.091212414
27	0x3d6bcec0	0.05757022
28	0xbda9361a	-0.08262272
29	0x3c5f4c73	0.013629067
30	0x3da5a77d	0.080885865
31	0x3d53eab0	0.051737487
32	0xbbafeeb3	-0.0053690313
33	0xbdcb0065	-0.099121846
34	0x3c2205cd	0.009889078
35	0x3db480cf	0.08813631
36	0xbd422c73	-0.04740567
37	0xbdb3faaf	-0.087880485
38	0xbc50b19a	-0.012737656
39	0xbd484763	-0.048896205
40	0xbd51f7fd	-0.05126189
41	0x3d6bfdbd	0.05761503
42	0xbd51f180	-0.051255703
43	0xbd5c1f60	-0.05374086
44	0x3d9295bd	0.071574666
45	0x3d8f6d1d	0.070032336
46	0x3d537843	0.051628362
47	0xbd95091b	-0.07277127
48	0xbdbf08ba	-0.09327836
49	0xbc36b20d	-0.011150849
50	0xbd834ccd	-0.06411133
51	0xbd871db7	-0.065974645
52	0x3cef8d4d	0.029242182
53	0x3da91a80	0.082570076
54	0x3d972a82	0.073811546
55	0xbd9cad60	-0.07650256
56	0x3dcc36c3	0.099713825
57	0x3cf9a8a7	0.030475928
58	0xbdab1bab	-0.083548866
59	0x3d4de217	0.050264444
60	0x3c9cfeed	0.019164527
61	0x3bec5e9a	0.007213426
62	0xbc988673	-0.018618798
63	0x3dccc70b	0.09998902
64	0x3d9911f3	0.07474127
65	0xbdb2f7ff	-0.08738708
66	0xbd9f7b00	-0.07787132
67	0xbc14ef67	-0.009090281
68	0x3d163a6d	0.036676813
69	0xbd8207ab	-0.06349119
70	0xbd285647	-0.041097905
71	0x3cb90db3	0.02258954
72	0xbdc66d10	-0.09688771
73	0x392c5333	0.00016434192
74	0xbd8db96a	-0.069201306
75	0xbd5fea57	-0.054666843
76	0xbd7537ca	-0.059867658
77	0x3d8546e3	0.06507661
78	0xbd7ea45a	-0.062168457
79	0xbcb62fa0	-0.022239506
80	0xbb734033	-0.0037117123
81	0xbd86783d	-0.065659024
82	0xbd39f440	-0.04539895
83	0x3d2c545d	0.042072643
84	0xbbe06080	-0.006847441
85	0x3dc3fe2b	0.09569963
86	0x3ca7710d	0.020439649
87	0x3dc34970	0.095354915
88	0xbd73da1d	-0.05953418
89	0x3c8fa4c7	0.017534627
90	0xbdb486b8	-0.08814758
91	0xbbaba267	-0.0052378657
92	0x3cbe9e20	0.02326876
93	0xbdac7c00	-0.084220886
94	0xbcf1fc13	-0.029539144
95	0xbcd03173	-0.025414204
96	0x3dafb41f	0.08579277
97	0x3db95f9a	0.09051438
98	0xbd4a6d9a	-0.04942093
99	0xbd1f471d	-0.03888618
