model/1721470600_model-aapl.pth (torch, 174356 bytes, 5 tensors)

lstm.weight_ih_l0 f4 [400, 5]
0.00924736 -0.04997232 0.028641142 0.061906565 -0.24052133 -0.12220969 -0.009988516 0.030652102
-0.12167205 0.12758122 0.07815561 -0.10928373 -0.038818296 -0.093588516 -0.37801844 -0.08566249
-0.041277897 0.0017883021 -0.027121877 -0.7605058 0.067722835 0.057654526 0.034531735 -0.039502073
-0.12567961 -0.0010104335 0.025138129 4.089375e-05 -0.031527445 0.12609716 -0.086189784 -0.08372963
0.003448288 0.008109892 -0.44910172 -0.23429704 -0.22146875 -0.10942338 -0.19368114 -0.40345722
-0.15410087 -0.089575954 -0.12366504 -0.22455467 -0.39594662 -0.11957756 -0.10387051 -0.12359777
-0.24944907 -0.1435777 -0.06993914 -0.09850541 -0.08235049 0.040810946 -0.10544453 0.045303755
-0.06611234 -0.069203645 -0.04807232 0.026290517 0.09140189 -0.05207299 -0.029106323 -0.03562169
-0.48604238 0.117770255 0.012135483 0.09823671 0.12618524 0.2483262 -0.09173982 -0.023659257
-0.005935988 -0.005090099 0.014683013 -0.0049390593 0.047085002 -0.12967885 0.056827262 0.0024640127
-0.14368807 -0.12308925 -0.029984448 -0.018557748 -0.19882093 -0.10263469 -0.10444834 0.033328936
0.030400835 0.13023183 0.033853833 0.02160255 -0.06213892 -0.049676843 0.17774677 -0.077529065
0.042992696 -0.081127495 0.035413418 0.056589834 -0.053227063 -0.09399688 -0.04723883 -0.057147466
-0.2561457 0.08669167 -0.0075341915 -0.054401416 -0.039272793 -0.19894387 0.0465511 -0.08405807
-0.024393288 -0.007286114 -0.06281431 0.059427783 -0.07120288 0.057167068 -0.07944429 -0.45916635
0.03380967 0.11814803 0.07305568 0.031651735 -1.0780145 -0.12534322 -0.1172664 -0.001287682
-0.06506395 -0.2982269 -0.0374733 -0.07033983 -0.077941924 -0.12094542 -0.025683397 0.08742149
-0.071671054 -0.022214256 -0.058222204 0.19023038 -0.1435515 -0.019263573 -0.03854126 -0.031003384
-0.4151075 0.097957075 0.00044589344 -0.00040123356 -0.14901349 -1.2651564 0.18182866 0.17476678
0.07500091 0.113248155 0.48319975 0.030391268 -0.03445515 -0.12654662 0.041280735 0.08507886
-0.13492389 -0.043321237 -0.11251556 -0.11923468 -0.028124236 0.07033084 0.04135981 -0.036388125
0.04806813 0.33196005 -0.024074204 -0.016998257 -0.00310979 -0.023266118 -0.116282135 -0.1399591
-0.046688456 0.019992517 -0.04872523 -0.05144377 -0.07269002 0.054442793 -0.0845643 -0.026702572
0.12863222 -0.067468144 0.02523038 -0.14111646 -0.09076096 -0.39224556 -0.11886734 -0.032348476
-0.09534555 0.065680526 0.1350364 -0.10746086 -0.12891717 -0.03139274 -0.0033320314 0.009429487
-0.018007481 -0.020162174 0.028672388 -0.022839233 0.028352201 0.00012916802 -0.1632823 -0.005769716
-0.086347096 0.10606805 -0.07690131 -0.060115557 0.032777403 -0.031719014 -0.03971677 -0.19580181
-0.18851224 -0.15187441 -0.09619978 -0.17755206 -0.14564578 -0.08442742 0.011549779 0.0073028994
0.110763066 -0.12788777 -0.121831305 -0.036125433 0.05032866 0.0014054693 -0.10970592 -0.123865016
-0.0013567827 -0.019765796 0.067874454 -0.0053967377 -0.15350339 0.009710314 0.030804237 0.013848857
-0.12334157 -0.07862434 0.033272292 -0.06007152 0.037884302 -0.08806861 -0.108908 0.01681775
-0.12727726 -0.22513154 -0.058234874 -0.041179284 0.031748828 0.042894933 0.15793306 0.0040410855
00000000: 3d82 173c c7af 4cbd d4a0 ea3c bd91 7d3d
00000010: 394b 76be 1349 fabd dfa6 23bc 1e1a fb3c
00000020: 322f f9bd a7a4 023e 0c10 a03d 26d0 dfbd
00000030: efff 1ebd 56ab bfbd a28b c1be d16f afbd
00000040: 0313 29bd 7665 ea3a b32e debc 82b0 42bf
00000050: 45b2 8a3d 2727 6c3d 2671 0d3d edcc 21bd
00000060: 28b2 00be 8670 84ba 7aee cd3c 5485 2b38
00000070: ec22 01bd 9d1f 013e 4584 b0bd 717a abbd
00000080: acfc 613b 5adf 043c a9f0 e5be 90eb 6fbe
00000090: b4c8 62be 5d19 e0bd 5954 46be f291 cebe
000000a0: 9ecc 1dbe 9973 b7bd 1944 fdbd a9f1 65be
000000b0: 84b9 cabe 14e5 f4bd 10ba d4bd d420 fdbd
000000c0: 946f 7fbe 0806 13be 403c 8fbd 34bd c9bd
000000d0: 60a7 a8bd 6129 273d 4df3 d7bd 6e90 393d
000000e0: e865 87bd a4ba 8dbd 7be7 44bd 365f d73c
000000f0: ea30 bb3d 7d4a 55bd 6270 eebc 0de8 11bd
00000100: 8cda f8be 8831 f13d e8d3 463c 5430 c93d
00000110: b436 013e 3949 7e3e 16e2 bbbd 0fd1 c1bc
00000120: ad82 c2bb d8ca a6bb 0591 703c d5d7 a1bb
00000130: 34dc 403d 88ca 04be b4c3 683d 467b 213b
00000140: f722 13be 3716 fcbd f2a1 f5bc 6b06 98bc
00000150: b797 4bbe 2332 d2bd 03e9 d5bd ec83 083d
00000160: 2c0b f93c 7e5b 053e 51aa 0a3d d5f7 b03c
00000170: 6185 7ebd f279 4bbd 4003 363e 8fc7 9ebd
00000180: 1c19 303d 2c26 a6bd a90d 113d beca 673d
00000190: 9f04 5abd 7081 c0bd 817d 41bd 7613 6abd
000001a0: 8725 83be 678b b13d 61e1 f6bb 05d4 5ebd
000001b0: 82dc 20bd f1b7 4bbe 5eac 3e3d a326 acbd
000001c0: 6fd4 c7bc 5bc0 eebb caa4 80bd 8c6a 733d
000001d0: d1d2 91bd 0428 6a3d b0b3 a2bd da17 ebbe
000001e0: 027c 0a3d 98f7 f13d 379e 953d 40a5 013d
000001f0: 61fc 89bf f959 00be 5e29 f0bd 70c7 a8ba
00000200: 4040 85bd 32b1 98be 9a7d 19bd 540e 90bd
00000210: 04a0 9fbd 3bb2 f7bd fd65 d2bc 0a0a b33d
00000220: 46c8 92bd acfa b5bc 687a 6ebd c1cb 423e
00000230: 2aff 12be a4ce 9dbc 71dd 1dbd cffa fdbc
00000240: f888 d4be b89d c83d cec6 e939 a85c d2b9
00000250: fe96 18be a5f0 a1bf 4b31 3a3e 10f6 323e
00000260: 149a 993d a6ee e73d f565 f73e 1cf7 f83c
00000270: d820 0dbd 7095 01be fd15 293d d33d ae3d
00000280: 7d29 0abe 9c71 31bd 8f6e e6bd 5031 f4bd
00000290: cc64 e6bc 9e09 903d e768 293d b70b 15bd
000002a0: 16e3 443d abf6 a93e 4437 c5bc ee3f 8bbc
000002b0: 9ecd 4bbb 9698 bebc 5425 eebd 7051 0fbe
000002c0: 653c 3fbd 59c7 a33c 1b94 47bd b4b6 52bd
000002d0: 81de 94bd 68ff 5e3d 0c30 adbd 5abf dabc
000002e0: 2ab8 033e bd2c 8abd f1af ce3c d580 10be
000002f0: e2e0 b9bd 69d4 c8be b870 f3bd d67f 04bd
00000300: 8744 c3bd 8383 863d fb46 0a3e 7014 dcbd
00000310: dd02 04be ac95 00bd 365e 5abb 237e 1a3c
00000320: 6d84 93bc 252b a5bc 5be2 ea3c 5819 bbbc
00000330: e042 e83c 4771 0739 7a33 27be e30f bdbb
00000340: bfd6 b0bd 353a d93d 6f7e 9dbd bb3b 76bd
00000350: 9941 063d cceb 01bd 0dae 22bd 4580 48be
00000360: 5a09 41be f784 1bbe 6404 c5bd 35d0 35be
00000370: 2b24 15be 48e8 acbd 493b 3d3c 294d ef3b
00000380: bfd7 e23d 03f5 02be b182 f9bd 43f8 13bd
00000390: 6d25 4e3d b937 b83a 7fad e0bd f1ac fdbd
000003a0: 13d6 b1ba e1eb a1bc c301 8b3d 1ed7 b0bb
000003b0: fe2f 1dbe 0218 1f3c 2b59 fc3c 51e6 623c
000003c0: 819a fcbd cc05 a1bd 8748 083d 8e0d 76bd
000003d0: 922c 1b3d 515d b4bd 280b dfbd 61c5 893c
000003e0: f854 02be e288 66be b187 6ebd 9cab 28bd
000003f0: 0f0b 023d 99b2 2f3d 34b9 213e 156b 843b

lstm.weight_hh_l0 f4 [400, 100]
0.014861748 0.13076733 -0.071618296 0.16071267 -0.084975444 -0.05992875 0.04247861 -0.14557244
0.06744967 0.12149706 -0.015753176 0.020017754 -0.038935017 0.15035954 0.063028045 -0.04914507
0.030203866 0.05652743 -0.11026744 0.030401697 0.022264935 0.2115974 -0.069402054 -0.0051823393
-0.22934154 -0.07280321 -0.18019474 0.09886008 0.06701354 0.13246238 -0.050197408 0.008106273
-0.044649247 -0.12706211 -0.039219737 0.057352234 0.015669603 -0.047131386 0.15755308 0.03452456
0.051273704 0.14748031 0.052016858 0.033697315 0.083697 -0.048442658 -0.03953984 0.006660701
-0.03635595 0.123232104 -0.10599781 0.00027449473 0.25235838 0.076308995 0.037627332 0.009294133
0.005030191 0.111397445 -0.04611947 -0.22335929 -0.009314391 0.13126183 0.07871241 -0.022309082
-0.04393982 0.047843803 0.16427106 -0.17043898 -0.019872217 -0.025271956 0.029303186 -0.019727062
-0.004716117 0.100586504 -0.113399416 0.08835587 -0.00509115 0.1624714 -0.11790341 0.058445416
-0.124995604 -0.008241673 -0.12587613 0.16145225 -0.07147413 -0.0388917 0.046004035 -0.046636306
0.03857557 -0.08827569 0.046532013 -0.06852438 -0.025217207 0.08542633 0.031617377 0.014255508
-0.007600632 -0.02244757 -0.1058015 0.04351633 -0.038292088 -0.037825666 -0.1395785 0.025509272
0.0495979 0.05115645 -0.079347745 -0.24678825 -0.031577613 0.049091738 -0.041767918 0.019015532
0.08396605 0.03241404 -0.06965181 -0.07957075 -0.19595143 0.12691191 -0.020725647 0.0074695335
0.08936337 0.009587732 0.008406986 0.05336152 -0.023760814 0.05356924 -0.16707264 0.1480771
0.15101613 0.10416351 -0.10677264 0.037959397 -0.02421496 0.026332658 0.00086444494 0.029991815
-0.023658285 -0.16490045 0.11071202 -0.084066324 0.004726002 0.07787509 -0.07628245 0.17097802
0.05281483 -0.004255999 -0.05173742 -0.020208618 0.0071352716 -0.07799866 0.12398314 0.1262765
0.05631927 0.029896144 0.0057696835 0.013945905 -0.030109685 0.07393659 0.022891544 -0.047594912
0.15665175 -0.036111653 0.12575267 0.110630535 0.0065173237 0.002086322 -0.01746232 -0.04074618
0.12810796 -0.058859766 0.04837398 0.03454344 -0.06019039 0.02479358 0.01543644 -0.08685899
0.033004165 0.03861124 -0.10883258 0.12924898 -0.13484764 -0.11995366 0.006698409 0.058263913
-0.06870446 -0.051249266 0.048989326 -0.044030532 -0.15547693 -0.01339535 -0.02149867 -0.041927632
-0.06661977 -0.02988369 -0.016987588 -0.05489784 -0.01950564 -0.16192718 -0.043568395 -0.012367383
-0.19261001 -0.09182771 -0.09705343 0.068302356 0.06037795 -0.051273547 -0.1522098 -0.0073833996
-0.051287122 0.027535228 -0.12340357 0.09674922 0.06485147 -0.055270802 0.022132305 -0.11846536
-0.1148494 0.08711939 0.112361774 0.0023515788 -0.047500595 0.0470734 0.08477468 0.14084126
-0.011764733 -0.09000331 -0.021895342 0.12430997 -0.18752752 0.12824993 -0.27070796 -0.057517342
-0.09703216 0.068199165 0.08261847 -0.0836386 -0.021249093 -0.02160961 -0.026575053 0.070497744
0.06488255 -0.023373427 -0.03379691 -0.012958216 -0.3743257 -0.066346206 0.08701045 -0.13894333
0.09399627 -0.027640373 -0.042967282 0.17480211 -0.086223036 -0.0667048 0.03197473 0.09156662
00000000: b07e 733c dfe7 053e 9dac 92bd dd91 243e
00000010: 9b07 aebd d977 75bd 0dfe 2d3d f110 15be
00000020: 0d23 8a3d 73d3 f83d ce0c 81bc 46fc a33c
00000030: 537a 1fbd daf7 193e d914 813d 574c 49bd
00000040: 196e f73c 4e89 673d e5d3 e1bd fb0c f93c
00000050: f464 b63c fdac 583e aa22 8ebd 9dd0 a9bb
00000060: 82d8 6abe d919 95bd f884 38be 2777 ca3d
00000070: 653e 893d 38a4 073e cc9b 4dbd 2cd0 043c
00000080: 21e2 36bd 921c 02be e0a4 20bd 2dea 6a3d
00000090: 8a5d 803c d70c 41bd 9855 213e a069 0d3d
000000a0: 6004 523d 1405 173e a10f 553d 3206 0a3d
000000b0: 5569 ab3d cf6b 46bd 87f4 21bd 0242 da3b
000000c0: fae9 14bd 1d61 fc3d 6115 d9bd 0fea 8f39
000000d0: 1e35 813e e447 9c3d 1e1f 1a3d 6b46 183c
000000e0: 4dd4 a43b 5824 e43d c5e7 3cbd 4cb8 64be
000000f0: 639b 18bc 8069 063e f933 a13d 89c1 b6bc
00000100: 3efa 33bd ddf7 433d ac36 283e 8e87 2ebe
00000110: 0fcb a2bc 2207 cfbc 3c0d f03c a69a a1bc
00000120: a889 9abb 4c00 ce3d f43d e8bd ecf3 b43d
00000130: a9d3 a6bb e75e 263e 5877 f1bd 7664 6f3d
00000140: b2fd ffbd 1508 07bc ace5 00be bd53 253e
00000150: 0761 92bd e74c 1fbd ba6e 3c3d b605 3fbd
00000160: 6b01 1e3d e3c9 b4bd 5a98 3e3d 8356 8cbd
00000170: 5194 cebc 00f4 ae3d 3981 013d ef8f 693c
00000180: b90e f9bb f7e3 b7bc 75ae d8bd 2e3e 323d
00000190: 2ad8 1cbd 16ef 1abd abed 0ebe d2f8 d03c
000001a0: 2b27 4b3d 6d89 513d 1281 a2bd 0fb6 7cbe
000001b0: 8757 01bd 6b14 493d d614 2bbd 76c6 9b3c
000001c0: 64f6 ab3d 96c4 043d 9ca5 8ebd fdf5 a2bd
000001d0: 7ea7 48be 32f5 013e d5c8 a9bc fdc2 f43b
000001e0: 2404 b73d dd15 1d3c 74bd 093c 9c91 5a3d
000001f0: 0aa6 c2bc 6b6b 5b3d 1715 2bbe 86a1 173e
00000200: f9a3 1a3e ae53 d53d 9dab dabd 507b 1b3d
00000210: 745e c6bc 96b7 d73c eb9b 623a 65b1 f53c
00000220: 05cf c1bc aadb 28be fcbc e23d f72a acbd
00000230: 94dc 9a3b fa7c 9f3d f939 9cbd dd14 2f3e
00000240: 5d54 583d e875 8bbb 9eea 53bd 8b8c a5bc
00000250: ffce e93b c3bd 9fbd dfea fd3d a04e 013e
00000260: 09af 663d c2e8 f43c 9d0f bd3b 5d7d 643c
00000270: 96a8 f6bc 116c 973d 0c87 bb3c e2f2 42bd
00000280: 5169 203e d0e9 13bd 4fc5 003e 4392 e23d
00000290: 468f d53b adba 083b 240d 8fbc 77e5 26bd
000002a0: bc2e 033e f016 71bd cb23 463d 6c7d 0d3d
000002b0: 338a 76bd e81b cb3c 1fe9 7c3c 20e3 b1bd
000002c0: 602f 073d d226 1e3d 9ee3 debd d859 043e
000002d0: 8015 0abe 44aa f5bd 547e db3b 24a6 6e3d
000002e0: edb4 8cbd c0ea 51bd 08a9 483d 5c59 34bd
000002f0: 5835 1fbe 2c78 5bbc fb1d b0bc 4fbc 2bbd
00000300: f26f 88bd a4ce f4bc 8e29 8bbc 8fdc 60bd
00000310: 4bca 9fbc 3dd0 25be c674 32bd 90a0 4abc
00000320: 8f3b 45be 2b10 bcbd f3c3 c6bd 1be2 8b3d
00000330: df4e 773d 3604 52bd e3dc 1bbe 72f0 f1bb
00000340: 7212 52bd 8f91 e13c 03bb fcbd 7424 c63d
00000350: d9d0 843d a363 62bd cf4e b53c f79d f2bd
00000360: 2a36 ebbd a76b b23d ee1d e63d f21c 1a3b
00000370: fc8f 42bd 0ad0 403d 599e ad3d b138 103e
00000380: dec0 40bc a853 b8bd dc5d b3bc 3a96 fe3d
00000390: 3707 40be f353 033e 3c9a 8abe 4e97 6bbd
000003a0: ccb8 c6bd 01ac 8b3d df33 a93d b74a abbd
000003b0: 9412 aebc a306 b1bc edb3 d9bc 1f61 903d
000003c0: 24e1 843d a179 bfbc a16e 0abd b24e 54bc
000003d0: 9ea7 bfbe 85e0 87bd 8932 b23d 2947 0ebe
000003e0: 1e81 c03d 106e e2bc 76fe 2fbd 53ff 323e
000003f0: b495 b0bd 879c 88bd eff7 023d 4887 bb3d

lstm.bias_ih_l0 f4 [400]
-0.066541776 -0.11292369 0.10426613 0.16142283 -0.120929725 -0.04180651 -0.08146709 -0.102184094
-0.13792098 -0.20746824 -0.09168322 0.012980311 -0.18124647 -0.014365806 -0.0014774462 -0.08222348
-0.002654841 0.009036337 0.031608775 0.07708229 -0.21655896 -0.05862619 0.04984686 0.08197336
0.034070972 -0.020064395 -0.08376927 -0.06372749 -0.15413722 0.15447478 0.011046114 -0.033486407
-0.09979286 -0.011912316 0.048243336 0.045846462 0.05362638 -0.04309818 -0.08745316 -0.039017335
0.0036523014 -0.15883036 0.0018913691 -0.24992149 -0.009887673 -0.1318298 -0.0957145 -0.03031331
0.027662266 -0.0657841 0.0430041 -0.17578202 -0.17385112 0.035665516 -0.03358701 -0.009574048
0.01734524 0.043580513 -0.09666621 -0.053367753 -0.123832345 0.053898573 -0.16814007 -0.109647945
-0.08847336 -0.028107656 -0.14505567 -0.04217079 -0.10314821 -0.08337211 -0.031396743 -0.08320159
-0.027357804 -0.0996193 -0.04276826 -0.11826596 -0.16894771 -0.040853404 -0.031774715 0.002306409
-0.08852529 -0.03742494 -0.042941615 0.089399725 -0.025478505 -0.22136153 -0.08772824 -0.18777123
-0.03460524 -0.0485337 -0.08137 -0.041840184 -0.05175252 -0.050854318 -0.13919738 -0.12942748
0.059661955 -0.22359544 0.0057864576 -0.053802468 -0.104530945 -0.028714443 0.037410367 -0.18085688
-0.010004847 0.024570065 -0.13709964 -0.16523671 -0.06956214 -0.08156588 -0.030615712 -0.03570586
-0.20537949 -0.14973736 -0.082527354 0.05156067 -0.03301204 -0.019369144 -0.11060656 0.051444095
-0.017400151 -0.17035477 0.017150126 -0.053509656 -0.24541293 -0.037016463 -0.12010911 -0.06956042
-0.11059635 -0.016237503 0.050840173 -0.07637447 0.030489767 -0.099782646 -0.10248677 0.030391447
-0.07756857 -0.110758044 0.0565829 0.02391325 0.05234982 -0.109693594 -0.022333391 -0.049910467
-0.17368585 -0.078405276 -0.09716044 -0.00010644042 0.0082560135 -0.051079385 -0.006824834 -0.11231278
-0.040437184 0.012660349 0.06532966 -0.13746677 -0.037561446 -0.035562247 -0.032175034 -0.06043833
-0.10025345 -0.11016918 -0.20164356 -0.20548303 -0.03476852 -0.035075124 -0.08836909 -0.080895096
-0.024490735 -0.06905568 -0.06388017 -0.09182345 -0.013301075 -0.03460638 -0.035648555 -0.007495922
-0.084551975 -0.088759504 -0.02896604 -0.014953936 -0.12239526 -0.16919096 -0.109522946 -0.19191879
-0.03270346 -0.17337498 -0.13180354 -0.20121916 -0.09396324 -0.13215578 -0.060944643 0.058669806
-0.114499904 -0.10918033 0.007491081 -0.10205089 -0.1374043 -0.15631273 -0.060664352 -0.18462485
-0.08602319 -0.051133316 -0.026206523 0.09633977 -0.009115338 0.11125964 0.04685865 -0.037898775
0.0011304615 -0.092564344 -0.03443161 -0.057935987 0.05711357 0.018452194 0.0012916087 0.012263224
0.026076533 -0.12136694 0.038416028 -0.049794704 0.02441656 -0.020288885 -0.12850635 0.03213405
0.03820009 0.031119855 0.09255376 -0.12324264 0.10892324 -0.016070785 -0.061881125 -0.06978189
0.043914985 0.04458778 0.019391946 0.033249684 -0.082677215 0.05180738 -0.09212771 0.009292116
-0.08596699 -0.06201475 0.08138126 -0.0005079212 0.014090278 0.10354423 0.010947596 0.046438538
-0.088604495 0.11378798 -0.020125592 0.02095166 -0.035980795 -0.070171565 -0.02783026 -0.0421686
00000000: 0e47 88bd 8944 e7bd 7b89 d53d 074c 253e
00000010: 01aa f7bd 4e3d 2bbd 38d8 a6bd e545 d1bd
00000020: 283b 0dbe 8e72 54be 69c4 bbbd 5fab 543c
00000030: ad98 39be 8f5e 6bbc dea6 c1ba c964 a8bd
00000040: d7fc 2dbb 250d 143c 3478 013d 52dd 9d3d
00000050: a2c1 5dbe 0422 70bd 392c 4c3d a6e1 a73d
00000060: 018e 0b3d 165e a4bc 398f abbd 8f83 82bd
00000070: 26d6 1dbe a32e 1e3e c3fa 343c 0b29 09bd
00000080: 3360 ccbd e02b 43bc ce9a 453d 80c9 3b3d
00000090: 56a7 5b3d b887 30bd a41a b3bd a4d0 1fbd
000000a0: 735b 6f3b 6da4 22be d1e7 f73a 6beb 7fbe
000000b0: e8ff 21bc 64fe 06be f705 c4bd 9e53 f8bc
000000c0: fa9b e23c d0b9 86bd 1125 303d 3400 34be
000000d0: 0706 32be 0116 123d 8892 09bd 78dc 1cbc
000000e0: 9b17 8e3c 7b81 323d eff8 c5bd 2598 5abd
000000f0: d09b fdbd c0c4 5c3d e92c 2cbe 1a8f e0bd
00000100: 8531 b5bd 0742 e6bc 7989 14be 47bb 2cbd
00000110: 5e3f d3bd ffbe aabd df99 00bd 9865 aabd
00000120: 791d e0bc 3405 ccbd c52d 2fbd 6c35 f2bd
00000130: a100 2dbe e655 27bd 3426 02bd 1f27 173b
00000140: bf4c b5bd e54a 19bd 8ce3 2fbd 3417 b73d
00000150: 4cb8 d0bc 99ac 62be ddaa b3bd 1a47 40be
00000160: 39be 0dbd 46cb 46bd 51a5 a6bd 9d60 2bbd
00000170: 73fa 53bd 9e4c 50bd c289 0ebe a388 04be
00000180: 1860 743d 34f6 64be 539c bd3b fa5f 5cbd
00000190: 5214 d6bd 8d3a ebbc 9d3b 193d 8c32 39be
000001a0: 5feb 23bc 2947 c93c d963 0cbe d033 29be
000001b0: 9876 8ebd 030c a7bd cdcd fabc 4f40 12bd
000001c0: 004f 52be c054 19be 1a04 a9bd 4831 533d
000001d0: a237 07bd 0aac 9ebc b185 e2bd 0bb7 523d
000001e0: c38a 8ebc 7b71 2ebe 6c7e 8c3c f12c 5bbd
000001f0: 874d 7bbe 939e 17bd c4fb f5bd b275 8ebd
00000200: 5780 e2bd 8304 85bc c93d 503d 386a 9cbd
00000210: adc5 f93c d85a ccbd 95e4 d1bd 7cf7 f83c
00000220: 45dc 9ebd 1dd5 e2bd 79c3 673d b8e5 c33c
00000230: c46c 563d 09a7 e0bd 84f4 b6bc eb6e 4cbd
00000240: b4da 31be f292 a0bd 0efc c6bd c438 dfb8
00000250: 3b44 073c 9e38 51bd dba2 dfbb 3e04 e6bd
00000260: 76a1 25bd 5a6d 4f3c 8fcb 853d 17c4 0cbe
00000270: 08da 19bd b8a9 11bd f8c9 03bd 2f8e 77bd
00000280: ae51 cdbd 61a0 e1bd a67b 4ebe 256a 52be
00000290: 7069 0ebd efaa 0fbd dafa b4bd 54ac a5bd
000002a0: cba0 c8bc 106d 8dbd 9bd3 82bd ef0d bcbd
000002b0: c1ec 59bc 6bbf 0dbd 3804 12bd 5aa0 f5bb
000002c0: 9629 adbd 8bc7 b5bd 304a edbc 5b01 75bc
000002d0: 5eaa fabd 6540 2dbe 914d e0bd 5c86 44be
000002e0: 10f4 05bd 3689 31be 82f7 06be 650c 4ebe
000002f0: cd6f c0bd d853 07be 17a1 79bd c04f 703d
00000300: ed7e eabd f099 dfbd be77 f53b 0f00 d1bd
00000310: b6b3 0cbe 7210 20be 2f7b 78bd 4c0e 3dbe
00000320: ed2c b0bd 2b71 51bd 10af d6bc c94d c53d
00000330: 8058 15bc 18dc e33d dbee 3f3d bf3b 1bbd
00000340: fe2b 943a 6092 bdbd 2908 0dbd 494e 6dbd
00000350: ebef 693d 0e29 973c 324b a93a b1eb 483c
00000360: 749e d53c 3b8f f8bd 205a 1d3d 88f5 4bbd
00000370: 3d05 c83c e034 a6bc 2b97 03be fe9e 033d
00000380: b377 1c3d 11ef fe3c d38c bd3d a366 fcbd
00000390: 2613 df3d e1a6 83bc 1077 7dbd cfe9 8ebd
000003a0: 33e0 333d ada1 363d dcdb 9e3c d230 083d
000003b0: ac52 a9bd fa33 543d 74ad bcbd f63d 183c
000003c0: 760f b0bd 2e03 7ebd 38ab a63d 0426 05ba
000003d0: e9da 663c ff0e d43d 8c5d 333c 5636 3e3d
000003e0: 4676 b5bd ac09 e93d 6dde a4bc d1a2 ab3c
000003f0: 9960 13bd 1cb6 8fbd 49fc e3bc fbb8 2cbd

lstm.bias_hh_l0 f4 [400]
-0.15814461 -0.06494648 0.021311104 0.13720785 0.0051896414 -0.045147397 -0.18659152 -0.08198183
-0.080781296 -0.15596199 -0.041212913 -0.037907768 -0.14944156 0.11717216 0.03754908 -0.05151069
-0.18061636 -0.07639662 -0.0330899 0.0345074 -0.07832669 0.069490425 -0.0088879075 -0.008222336
-0.01395179 -0.20534451 -0.138129 -0.05239272 -0.12626067 0.05718205 -0.03419281 0.08073209
-0.057990868 0.035819523 0.008425059 -0.019560574 -0.041249797 -0.080611154 0.057945315 0.049354907
-0.07242832 -0.16899006 -0.11224075 -0.15335041 -0.10895035 -0.12759733 -0.08760952 0.02987644
0.041601766 -0.043632116 -0.09459072 -0.083347425 -0.0789035 -0.09677607 -0.03176156 0.009756102
0.043341264 -0.0957889 -0.13362823 -0.12437034 -0.06186971 -0.1055015 -0.06208552 -0.18028986
-0.02914923 0.025199817 -0.09641655 0.07798103 -0.08118084 0.033154637 0.005421581 0.0636636
-0.09872537 0.030616771 -0.14303161 -0.040457293 -0.121575676 -0.027057413 0.05711346 -0.036146164
-0.056144457 -0.06358917 -0.054239497 0.09241326 -0.024897683 -0.037450865 0.053673513 -0.14529659
-0.009076552 -0.16355923 -0.09505825 -0.08548028 -0.11449606 -0.12084559 -0.03491721 -0.24215898
0.0017243596 -0.056556225 0.023082098 -0.08916011 -0.081666 -0.031458385 -0.09179734 -0.1521587
-0.019967208 -0.08706303 -0.03844582 -0.22261205 -0.13519669 -0.120099165 -0.025157275 -0.0877482
-0.098622695 -0.10306885 0.019276885 0.023913624 -0.16583468 -0.13917977 0.04071891 -0.0633359
-0.16746934 -0.3310448 -0.04381301 -0.040451653 -0.20255516 -0.1739329 -0.11800279 0.0070334016
-0.1393971 -0.15868865 0.13757971 -0.108020276 -0.11550535 -0.04984375 -0.034733962 0.055981487
-0.0059349467 0.013337104 0.047637492 -0.08463504 0.053178232 -0.118414246 0.020259265 -0.23261473
-0.042927023 0.009207116 -0.07085022 0.014303046 -0.123020716 -0.008689136 0.008726665 -0.10165781
-0.19835716 0.018813608 0.056968413 -0.055209205 0.038204104 -0.03561171 -0.15163 -0.15953206
0.03340177 -0.078869276 -0.16202137 -0.14044009 0.04560288 -0.027752165 -0.054041244 -0.08439078
-0.063735396 0.039759528 -0.066399276 -0.028669227 -0.10178971 0.04738174 0.019067138 -0.0034105035
-0.14157486 -0.13081262 -0.012776447 -0.031308405 -0.09089852 -0.049150024 -0.06422707 -0.042204097
0.0201822 -0.026236152 0.014901286 -0.11782323 -0.1521443 -0.01836505 -0.16783741 -0.029749306
-0.14935048 0.04116273 -0.11689357 -0.07418671 -0.16687244 -0.20587732 -0.16758661 -0.121110365
-0.054695535 0.070884906 0.04732557 -0.09501245 0.03792341 0.07764463 -0.028053345 -0.0033406597
0.02988214 0.04267496 0.07955627 -0.066027 -0.06477752 -0.1277552 -0.092825465 0.06117782
0.0049214177 -0.027965149 0.04244873 -0.050710507 0.037529144 -0.030322587 -0.03857057 -0.0070876135
-0.06463302 -0.10366143 0.09781433 -0.06537371 -0.016577732 0.10998736 0.07654767 -0.07529908
0.01300412 0.06373569 -0.06667437 0.015628275 -0.05461666 -0.03134341 -0.06414443 0.06741921
-0.02307793 -0.012108155 -0.017799953 -0.036576018 -0.058662996 0.024049558 0.060012158 0.047875248
-0.04315724 -0.026358897 0.02815509 0.074952535 0.055988576 0.048321713 -0.055684425 -0.05407089
00000000: a9f0 21be a902 85bd a094 ae3c 3780 0c3e
00000010: de0d aa3b 7aec 38bd d911 3fbe 17e6 a7bd
00000020: aa70 a5bd 80b4 1fbe dfce 28bd 2d45 1bbd
00000030: 3507 19be f5f7 ef3d 10cd 193d e0fc 52bd
00000040: 7ff3 38be d575 9cbd 4689 07bd a257 0d3d
00000050: be69 a0bd ff50 8e3d 969e 11bc fab6 06bc
00000060: 0c96 64bc d545 52be b071 0dbe c099 56bd
00000070: 7a4a 01be ba37 6a3d c30d 0cbd de56 a53d
00000080: d587 6dbd 7eb7 123d 4209 0a3c 7f3d a0bc
00000090: 8cf5 28bd 7617 a5bd 1158 6d3d 5f28 4a3d
000000a0: 4d55 94bd bb0b 2dbe 7ade e5bd e407 1dbe
000000b0: 5c21 dfbd e0a8 02be 9f6c b3bd 70bf f43c
000000c0: 9d66 2a3d 97b7 32bd c8b8 c1bd 0eb2 aabd
000000d0: 2998 a1bd 8832 c6bd 6918 02bd 0fd8 1f3c
000000e0: 9c86 313d f92c c4bd d7d5 08be e0b5 febd
000000f0: 186b 7dbd 2c11 d8bd 634d 7ebd e89d 38be
00000100: 5eca eebc d96f ce3c 0a76 c5bd 85b4 9f3d
00000110: 2442 a6bd 28cd 073d 85a7 b13b 1062 823d
00000120: 8730 cabd 06d0 fa3c e176 12be 8cb6 25bd
00000130: abfc f8bd 82a7 ddbc ceef 693d 000e 14bd
00000140: bbf7 65bd 0a3b 82bd 3c2a 5ebd 2a43 bd3d
00000150: 3af6 cbbc 1466 19bd c2d8 5b3d a1c8 14be
00000160: d2b5 14bc 127c 27be e6ad c2bd 4910 afbd
00000170: e97c eabd e57d f7bd 5905 0fbd 86f8 77be
00000180: e803 e23a 80a7 67bd ab16 bd3c 9399 b6bd
00000190: 8140 a7bd 82da 00bd 3e00 bcbd 7ecf 1bbe
000001a0: 4592 a3bc 1a4e b2bd 5d79 1dbd 6af4 63be
000001b0: 0071 0abe 8df6 f5bd a116 cebc 54b5 b3bd
000001c0: b2fa c9bd c315 d3bd 8fea 9d3c 81e6 c33c
000001d0: 91d0 29be 2485 0ebe dfc8 263d 41b6 81bd
000001e0: 157d 2bbe b47e a9be 4575 33bd a2b0 25bd
000001f0: 9f6a 4fbe 771b 32be 72ab f1bd 7378 e63b
00000200: 1dbe 0ebe 477f 22be b2e1 0c3e bc39 ddbd
00000210: 128e ecbd f628 4cbd 3345 0ebd d84c 653d
00000220: f179 c2bb de83 5a3c 881f 433d 2355 adbd
00000230: 6bd1 593d 2b83 f2bd c2f6 a53c 8e32 6ebe
00000240: 3fd4 2fbd 72d9 163c ec19 91bd 5357 6a3c
00000250: 49f2 fbbd e15c 0ebc 49fa 0e3c f831 d0bd
00000260: 241e 4bbe ff1e 9a3c b657 693d 0c23 62bd
00000270: e87b 1c3d 96dd 11bd e544 1bbe 5f5c 23be
00000280: 4bd0 083d 3786 a1bd eee8 25be 87cf 0fbe
00000290: 16ca 3a3d 8258 e3bc 5a5a 5dbd 13d5 acbd
000002a0: b487 82bd e3da 223d 58fc 87bd badb eabc
000002b0: 2077 d0bd 5b13 423d b032 9c3c c182 5fbb
000002c0: 00f9 10be bef3 05be 4e54 51bc 3e3d 00bd
000002d0: 0129 babd 8951 49bd 7b89 83bd 34de 2cbd
000002e0: 2455 a53c 33ed d6bc 8624 743c 4e4d f1bd
000002f0: b7cb 1bbe 4d72 96bc 92dd 2bbe d1b4 f3bc
00000300: 55ef 18be 409a 283d e565 efbd 34ef 97bd
00000310: 9ce0 2abe 81d1 52be d39b 2bbe b608 f8bd
00000320: 6d08 60bd 1b2c 913d 75d8 413d e395 c2bd
00000330: 9455 1b3d 2604 9f3d 21d0 e5bc f8ee 5abb
00000340: 64cb f43c f0cb 2e3d 66ee a23d 2a39 87bd
00000350: 14aa 84bd 42d2 02be 471b bebd 9895 7a3d
00000360: d843 a13b 2b17 e5bc b8de 2d3d d2b5 4fbd
00000370: 29b8 193d 1367 f8bc 2dfc 1dbd 363f e8bb
00000380: 515e 84bd 724c d4bd e152 c83d a7e2 85bd
00000390: 06ce 87bc 0e41 e13d 06c5 9c3d 6736 9abd
000003a0: 3c0f 553c dc87 823d 928c 88bd de06 803c
000003b0: b8b5 5fbd f361 00bd 285e 83bd 1513 8a3d
000003c0: ed0d bdbc 4861 46bc 35d1 91bc bcd0 15bd
000003d0: 9c48 70bd 9403 c53c 4fcf 753d d618 443d
000003e0: a5c5 30bd 9dee d7bc 81a5 e63c b780 993d
000003f0: 4754 653d fdec 453d 5a15 64bd 7079 5dbd

linear.weight f4 [1, 100]
-0.027773403 -0.09255853 -0.14713556 -0.14802796 0.033068024 0.056397233 -0.03389522 0.03175691
-0.00095466524 -0.04521941 0.010835659 -0.0982315 0.047271498 -0.1104751 -0.018641604 0.0007917097
-0.04032566 -0.043865252 0.111735344 -0.087153256 0.0094858175 -0.09274211 -0.042178113 -0.07000182
0.13187297 0.017353546 0.05567188 -0.071956776 -0.021906523 -0.13644013 -0.15549617 -0.115346715
0.057908837 0.15010047 -0.043327667 0.056238186 -0.080134 -0.06470305 -0.10809863 0.06746841
-0.043115634 -0.07571651 -0.0052330056 -0.014343297 -0.12285202 0.006193239 0.14218606 -0.00453195
-0.028775148 -0.05538046 0.123598985 0.053720213 -0.115000725 0.050567262 -0.06514522 -0.06354626
-0.0798309 -0.07529125 0.11313274 -0.06344837 0.011523579 -0.120985396 -0.064004265 -0.0012532135
0.0121057145 -0.10263245 -0.011045388 0.06388132 -0.017917806 -0.05592617 0.06572034 0.10775069
0.07837233 -0.101661205 0.007867587 0.014031561 -0.0056479503 -0.13152573 0.065134354 -0.06564912
-0.030678423 0.069576584 0.1364661 -0.104828626 0.040123478 0.0898684 -0.10428917 -0.045893632
-0.13092688 0.01664057 -0.04621122 0.053214613 0.05159731 0.006285608 -0.059269097 0.039309263
-0.05507724 -0.031255934 -0.040780205 -0.08303888
00000000: 0c85 e3bc 548f bdbd b4aa 16be a494 17be
00000010: 5672 073d c900 673d b7d5 0abd 8913 023d
00000020: 8042 7aba fd37 39bd 0c88 313c 992d c9bd
00000030: c29f 413d c540 e2bd 47b6 98bc bd8a 4f3a
00000040: 852c 25bd 0dac 33bd 80d5 e43d 687d b2bd
00000050: 676a 1b3c 93ef bdbd f5c2 2cbd 1d5d 8fbd
00000060: b509 073e 0629 8e3c 3208 643d 135e 93bd
00000070: 4f75 b3bc f6b6 0bbe 633a 1fbe e63a ecbd
00000080: d131 6d3d f0b3 193e 5a78 31bd 035a 663d
00000090: 4b1d a4bd 0883 84bd d162 ddbd e12c 8a3d
000000a0: 059a 30bd 4211 9bbd a279 abbb 2600 6bbc
000000b0: d799 fbbd a7f0 ca3b 3999 113e c180 94bb
000000c0: dcb9 ebbc 9fd6 62bd 7721 fd3d ba09 5c3d
000000d0: 8085 ebbd 9e1f 4f3d db6a 85bd 8b24 82bd
000000e0: 627e a3bd 4d32 9abd 23b2 e73d 38f1 81bd
000000f0: 65cd 3c3c 31c7 f7bd ab14 83bd de42 a4ba
00000100: 0c57 463c f630 d2bd b7f7 34bc 36d4 823d
00000110: 5dc8 92bc d712 65bd 6398 863d 65ac dc3d
00000120: ac81 a03d c033 d0bd 0de7 003c a2e4 653c
00000130: 7112 b9bb aeae 06be 2965 853d 0c73 86bd
00000140: 5151 fbbc 2b7e 8e3d c5bd 0b3e 64b0 d6bd
00000150: 8458 243d ec0c b83d 8f95 d5bd f6fa 3bbd
00000160: b211 06be ce51 883c fa47 3dbd 91f7 593d
00000170: b357 533d 80f7 cd3b 27c4 72bd c002 213d
00000180: ac98 61bd 3906 00bd 2509 27bd 4a10 aabd
