model/1721472881_model-aapl.pth (torch, 174356 bytes, 5 tensors)

lstm.weight_ih_l0 f4 [400, 5]
00000000: 80f0 b83b 37dc 5b3d e3fc 9e3d 0044 c8ba
00000010: fd60 123d 533c 8abc 28c5 ae3d 1f50 bebd
00000020: 1ab4 babd d3ce 373d bd6e 423d 12e9 bbbd
00000030: 288c 89bd 2bbd c7bd 0a19 9bbd 5a06 2c3c
00000040: 5d9b 683d b54b 86bd 7a3c aebc 2722 be3c
00000050: 9df0 9c3d baeb 61bd 47a6 3abd 1a68 303c
00000060: d01a 7d3d 8d53 8b3c 1794 5cbd 7aa2 bebd
00000070: 33d7 28bc cbcb c03d 1019 1dbd 2d06 93bd
00000080: 28bf c63d 4b28 96bd 17cd a13d 376b 923d
00000090: 5d68 3fbd bb8a c2bd 074b c0bd d040 24bd
000000a0: 7ff3 a4bd 0fdd b9bd 5382 a4bc 6306 943d
000000b0: 4062 91bd 233b b43d 1aad f5bb 5215 92bd
000000c0: 5ae9 2ebd 67a7 21bc e7ef babb 6dd2 863c
000000d0: 3a14 c53c ed1b d13c 97bb 253d 8549 a73d
000000e0: 073d c1bc fd50 a2bd 1a9d f03c fa5e 6a3d
000000f0: 4362 a93d c581 ab3d d092 143d 7a6a 54bd
00000100: 1aa0 23bc 17ef 2fbd 9722 4abd 1a2d c93b
00000110: c31e 853d 339e 3c3c 23f2 39bd 736e 76bc
00000120: 6f14 93bd a2db 9fbd 9718 953d 9a19 413d
00000130: 285f b13d d25a b43d b0a7 783d 875d f8bc
00000140: 1a6b 533d 27da 603d 7025 9d3d 4ac0 74bd
00000150: ea42 bdbd 8a1d 373d 8adb 3dbd 67e6 55b9
00000160: cd98 86bc a739 913d 5740 0bbd 7761 13bd
00000170: 673d 383d fa5c 81bd ca12 58bd a743 793c
00000180: bd52 8b3d b379 81bd 2dea 253d 7ab4 08bd
00000190: d820 c23d 00d5 12bc 8725 f0bc 00a8 43bd
000001a0: 3da8 bbbd a757 28bd 23e3 55bd 93e8 d33c
000001b0: c75b b3bd 7ba7 a2bd 00f9 1abd 4716 213d
000001c0: 0024 d23c 882b ac3d a3ce 6a3d a0f7 a5bd
000001d0: d09c ca3d 8799 81bc 35d7 97bd 67ae 0a3c
000001e0: 12ec ca3d ffd1 b7bd 08ea 9f3d 6d08 f5bc
000001f0: 0096 f4ba 3710 aebd b71f abbd bf37 c4bd
00000200: 77ce 35bd 0dd7 133c 3325 6ebd 472b 873c
00000210: 93f4 1ebd e000 b33d 00c9 4ebb f3d3 30bd
00000220: 9711 41bd c79f c4bd c3eb 18bd e3dd 4a3d
00000230: 6258 b4bd 33c3 b439 ba45 c6bd f554 b63d
00000240: 90e3 953d 906e a43d 0038 a83a d3cc 78bd
00000250: 537b ac3c da84 84bd 4a2b 94bd 1b1f a03d
00000260: 4533 893d 7d9d 723d fdec 7cbd 0a7d 153d
00000270: b361 dfbc ca78 243d 20ef 803c d2d3 8c3d
00000280: ed65 763d 135c 2b3d 0aeb ae3d e763 77bd
00000290: bb49 b1bd c082 3dbd cdb5 a23c 1a65 83bc
000002a0: 0031 a4bd 673d 06bb 837a 8a3d 3a57 363d
000002b0: 6a41 1abd 0350 1f3d cddd bc3c 0d80 30bd
000002c0: 98c0 cb3d 473b e2bc bba3 cabd ba72 21bd
000002d0: 6760 2dbc d36a b73d 5540 c6bd adf9 c1bd
000002e0: 1a55 e7bc 6bf0 afbd df6d c3bd cd29 293c
000002f0: 478a f83c b345 76bd 7d77 b2bd 4a40 60bd
00000300: 53df 97bd f8e8 b4bd b014 a3bd 75bb 8e3d
00000310: 731f 0ebd b03e 82bd d791 7ebd 00be 8c3c
00000320: 4bab aabd 5a34 68bd 13a4 cd3c 2ac6 733d
00000330: 6d3f 3f3d 6b57 8a3d e025 cc3d 5ad2 67bd
00000340: 00a3 ca3c 108b b8bd a58c a43d 6d7f d53c
00000350: 8d1a 3d3c bb9d c53d d032 943d 805d 15bd
00000360: 6380 153d 4d8f e8bb 336c 5cbc 0d33 543d
00000370: 4ffa 973d f071 4cbd f3b2 8fbd 33b4 a5bb
00000380: b0b3 a3bd 6d39 a5bd 9375 bcbc b3a8 14bd
00000390: c041 a6bc 90a8 453d 5337 af3d cdab 08bc
000003a0: 2b42 a33d 6a97 6c3d 73d0 c83c 3d51 8ebd
000003b0: cd50 f73b baa5 953d e295 92bd b39a 5b3c
000003c0: 0a1e c7bd 63b1 83bd 57b7 67bd 7323 533d
000003d0: 670c c7bb 0077 f4bb dd56 6abd eff7 9ebd
000003e0: b3d4 eb3b 6da7 cb3d 5f65 a03d 5533 8e3d
000003f0: e0ac 5d3d d31e e8bc bd25 55bd f3f0 adbc
0.005643904 0.05367681 0.07763078 -0.0015279055 0.035737026 -0.016874468 0.08533698 -0.09292626
-0.09116383 0.044874977 0.04746889 -0.09175314 -0.06716186 -0.09752878 -0.07573135 0.010499561
0.05678879 -0.06557409 -0.021269072 0.023209644 0.07663081 -0.055156447 -0.04556873 0.010767007
0.06179315 0.017007614 -0.053852167 -0.09308334 -0.010305214 0.094138704 -0.03835398 -0.07178912
0.09704429 -0.07331904 0.07900446 0.07149356 -0.046730388 -0.09499117 -0.0938931 -0.040100873
-0.08054256 -0.09075367 -0.020081675 0.07227781 -0.07098818 0.08800342 -0.007497442 -0.07132973
-0.04270301 -0.009866572 -0.005704868 0.01645776 0.024057496 0.025526011 0.040462103 0.081683196
-0.02358867 -0.079256035 0.029371787 0.057219483 0.08270695 0.08374361 0.036272824 -0.051859356
-0.009986902 -0.042952623 -0.049349394 0.0061394097 0.06500008 0.011512327 -0.045396935 -0.015040982
-0.07181632 -0.078055635 0.07280081 0.047143556 0.08660728 0.08806385 0.060706794 -0.030318035
0.051615812 0.054895546 0.07673156 -0.059753694 -0.092412785 0.044705905 -0.046351947 -0.00020399095
-0.016430283 0.070910744 -0.033996906 -0.03598162 0.044980433 -0.06316562 -0.052752294 0.0152138835
0.068028904 -0.063220404 0.04050653 -0.03337524 0.09478921 -0.008961916 -0.02931477 -0.04776764
-0.09162948 -0.041099217 -0.052218568 0.025867736 -0.087577395 -0.079421006 -0.03783512 0.039327886
0.025651932 0.084067404 0.05732597 -0.08103871 0.09893191 -0.015820278 -0.07414094 0.008464432
0.09908308 -0.089756005 0.0780831 -0.029911244 -0.0018660426 -0.084991865 -0.083556585 -0.09580945
-0.044386353 0.00902344 -0.058140945 0.016500128 -0.038807463 0.08740401 -0.003155291 -0.04317088
-0.047135916 -0.096007876 -0.037334215 0.049528014 -0.0880592 0.0003447771 -0.09681268 0.08902923
0.07318795 0.080289006 0.0012834072 -0.06074221 0.0210549 -0.06470652 -0.07234819 0.07818433
0.06699232 0.059232224 -0.061749447 0.0364962 -0.027268266 0.040154256 0.015739024 0.06876339
0.060155798 0.041835856 0.08540924 -0.06039801 -0.08656641 -0.04626727 0.01986208 -0.01603942
-0.080171585 -0.0020483376 0.067616485 0.04451678 -0.03766004 0.038894664 0.023054982 -0.04309087
0.09948844 -0.027616156 -0.0989451 -0.039416052 -0.010582066 0.08955922 -0.09680239 -0.0947145
-0.028238822 -0.08590778 -0.095424406 0.0103249075 0.030339373 -0.060125064 -0.08714197 -0.05474881
-0.074156426 -0.08833498 -0.0796293 0.06969348 -0.03469796 -0.06359613 -0.062150802 0.017180443
-0.08333453 -0.05669055 0.02510265 0.059515156 0.046691347 0.06754955 0.099681616 -0.05659709
0.024735928 -0.09010899 0.08034638 0.026061738 0.011541975 0.09649225 0.07236254 -0.03646612
0.036499392 -0.007097161 -0.013453531 0.0518065 0.074207895 -0.049913347 -0.07016554 -0.005056882
-0.07993257 -0.08067594 -0.023005283 -0.036293697 -0.020295024 0.048256457 0.08555474 -0.008341742
0.07971605 0.057761587 0.024513459 -0.06949089 0.007547474 0.073070005 -0.07157494 0.013403582
-0.09722526 -0.06430318 -0.05657133 0.05154748 -0.0060744765 -0.007460475 -0.057211746 -0.07762133
0.0071969866 0.09944043 0.07831835 0.069433846 0.054119945 -0.02833501 -0.052037943 -0.021233058

lstm.weight_hh_l0 f4 [400, 100]
00000000: d77b 543d 73a7 253c 4da4 cbbc a0a4 61bd
00000010: 5746 233d 3383 36bc a011 d63c 07de e93c
00000020: 071b ed3c cda9 10bb 2aa3 b4bd 3018 443d
00000030: c733 83bd 0734 333d 6701 e53c 4d83 d2bb
00000040: 3aa9 e93c 9339 303d 4a26 543d 60bf 10bd
00000050: d0d0 883d 67f5 06bc 3549 babd 4021 02bc
00000060: 6db1 7fbd 2348 0a3d 3359 683d 1a55 0f3d
00000070: 9b0e a73d 9a8e f2bb e368 583d 60d5 8cbc
00000080: 40cd 38bd 1a98 243d 10af 263d 2f3b 90bd
00000090: 4d0a dcbc 332c a33b 9ac9 ab3b 9391 9cbc
000000a0: 93e6 e23c cde1 1a3b 33af 543b 9a49 ce3c
000000b0: 1b6d b9bd 9a6c cbbb 9a71 c539 737b 683d
000000c0: 2d81 c3bd 5ae5 a43c 539f a0bc 276f 5e3d
000000d0: 17c0 853d 5285 b03d 33ca 0dbd 506e 293d
000000e0: e536 9f3d f846 993d bf93 9d3d d344 073d
000000f0: ead9 1c3d a086 c0bd 70cf bfbd 672b 61bb
00000100: c754 8cbc bdb0 46bd 87ea 9d3d 573b b2bd
00000110: 9087 583d 205d 1d3d 0362 bc3d f374 4bbc
00000120: 2d1d b33c f70b 8e3d 8329 3e3d 4f9f afbd
00000130: 8062 3abd 33c2 d9bb c09b 5b3c 9ac5 23bc
00000140: 2769 25bd f05e 86bd 7d25 763d e017 b33d
00000150: 2daf ff3c 172f 513d 80e3 9ebc 1714 7e3d
00000160: 3705 223d f774 74bd 1a48 cb3c 42ab bd3d
00000170: c2e6 c9bd 0dea c03d 721f 833d 25b9 abbd
00000180: 7da7 95bd 0db5 d43c b3f9 adbb 2d0f 0d3d
00000190: 8088 a7bd 6a9b 2abd 1d48 58bd 4754 e8bc
000001a0: 3afa 89bd 2299 c13d da4c 033d 7a12 a2bc
000001b0: a30b 3abd f790 323d ea62 b4bd 1d71 343d
000001c0: 1ac0 11bc 9a29 37bc 7abe 103d c314 32bd
000001d0: d0d8 b03d 5081 a13d 6dc7 3e3d dadb 923d
000001e0: cdba e3bc 0fb2 c03d b2c1 b53d 6d65 cb3c
000001f0: 5016 1fbd 7d6b 9cbd 9305 31bd c7ac a93c
00000200: 2774 513c 1749 3a3d 1392 843d 5869 b03d
00000210: 9af0 393b 62ea b8bd e7d2 16bc e74b b1bd
00000220: d3b9 a63c a03a b8bc e71c 5abd 9361 1e3d
00000230: 9afc 86bb 1af6 783c b8b0 aa3d 98fb b13d
00000240: 4f53 c2bd 7782 c2bd 00c0 50ba 0df4 2f3d
00000250: 2766 8dbc 0291 b73d e86b aa3d 67e1 90bd
00000260: fa7a c1bc 2d84 ebbc 8d3e 3bbd 4d38 b8bb
00000270: 0b9d 963d da1d bd3c ed25 53bd b333 8f3b
00000280: 2069 b9bc e01d 55bd 5732 53bd 05a2 c3bd
00000290: 989d 8fbd a3f6 2ebd 1be2 97bd 57f3 8cbd
000002a0: 9a3e ae3b d38d ba3d 03e9 303d 6701 bbbc
000002b0: dbca 8ebd 830b 1c3d b33d babd b3b3 d43c
000002c0: a322 66bd 9a3a 5a3c 0a30 a4bd 9f42 bf3d
000002d0: fd36 72bd b709 0c3d 1ff8 9fbd 47a8 97bd
000002e0: 4d74 0bbc b3b8 bbbd fd15 a9bd 801d 92bd
000002f0: f572 983d 4dc7 dfbb cd6e 4e3b add7 bd3c
00000300: 90a4 5a3d a759 26bd 8d0c 773c 7d90 21bd
00000310: 183f a9bd 405b e23c 7ae6 86bd f3eb 95bc
00000320: 8019 52bd 73ab 02bc 6d65 ea3c 13b7 3dbd
00000330: 47b3 02bd b7e2 2a3d a323 66bd 9aea f53b
00000340: 77b5 b2bd 7d9d 4b3d edd4 30bd 9a45 873d
00000350: 4a9a 9b3d 6378 843d 9a61 4bba b080 c13d
00000360: 67b5 ffbb 10e4 38bd 008e 38bc 9f58 a63d
00000370: cdb8 28bb cdb7 50bd daf9 a73d bacf 013d
00000380: e3a1 06bd ba2e d53c a767 3a3c 509f 063d
00000390: 2afd 023d c0f2 34bd 2bca ae3d 0761 7e3d
000003a0: d0b4 05bd 0a4f bdbd c032 723d a559 9b3d
000003b0: bace a4bd 6231 91bd a773 b4bc 25d3 cbbd
000003c0: 73f3 c4bd 5d19 5c3d b384 c53b 1896 bcbd
000003d0: 7df7 87bd 03b1 18bd 4a7c a03d a7c8 85bc
000003e0: 4df5 55bc 4399 2e3d a001 cb3d 3281 c2bd
000003f0: a7e1 cdbc b3af 8a3d 4032 5d3d 555c c13d
0.051875915 0.010110724 -0.024858618 -0.05508864 0.039862003 -0.011139679 0.026131451 0.028548254
0.028943552 -0.0022073865 -0.088201836 0.04787463 -0.0640636 0.04375079 0.02795477 -0.0064243437
0.028523076 0.043023657 0.051794328 -0.03533876 0.06680453 -0.008237219 -0.090959944 -0.007942498
-0.062425066 0.0337602 0.056725692 0.03499327 0.08157083 -0.0074022533 0.052834403 -0.017191589
-0.045117617 0.040184118 0.040694296 -0.070425384 -0.02686038 0.004979634 0.0052425386 -0.019112384
0.027697837 0.0023633123 0.003245306 0.02518158 -0.09054013 -0.0062080147 0.00037659408 0.056758355
-0.09546123 0.020128895 -0.019607222 0.054305222 0.06530779 0.08619179 -0.03461666 0.041364968
0.07774142 0.07484239 0.07694196 0.03302462 0.038293757 -0.09400678 -0.093657374 -0.0034358145
-0.017130269 -0.048508395 0.07710748 -0.087027244 0.052863657 0.03841889 0.09198382 -0.01241802
0.021864498 0.06935876 0.046426307 -0.085753076 -0.045504093 -0.006645465 0.013403833 -0.009995842
-0.040383484 -0.06561077 0.060094345 0.08744788 0.03121146 0.0510703 -0.01939559 0.062030878
0.039555755 -0.05968186 0.024814654 0.092611805 -0.09858467 0.09419642 0.06402482 -0.08384923
-0.073073365 0.025965238 -0.0053093075 0.0344383 -0.08180332 -0.04165212 -0.052803148 -0.0283605
-0.0673718 0.09453036 0.032055713 -0.019784201 -0.045421254 0.04359528 -0.08807929 0.044053186
-0.008895898 -0.011179352 0.035337903 -0.04347683 0.08635104 0.078859925 0.046576906 0.071708396
-0.027799034 0.09408962 0.08874835 0.024828637 -0.03883964 -0.07637689 -0.043218207 0.02071227
0.0127840405 0.04547986 0.06473174 0.08613843 0.002837217 -0.0902908 -0.0092055565 -0.08657055
0.02035228 -0.022488892 -0.05325022 0.038667273 -0.004119468 0.015195394 0.08334488 0.08690566
-0.09488546 -0.094975404 -0.00079631805 0.042957354 -0.017260624 0.08963205 0.08321363 -0.07074242
-0.02361821 -0.02874955 -0.04571395 -0.005621946 0.07354172 0.023085523 -0.05154984 0.0043701767
-0.022633135 -0.052030444 -0.05156168 -0.09552387 -0.070124805 -0.04271568 -0.07416173 -0.06882351
0.0053175213 0.09109082 0.043190967 -0.022827817 -0.06972285 0.038096916 -0.090937994 0.025964594
-0.056185376 0.013319636 -0.08016975 0.09338879 -0.059134472 0.034188952 -0.07810997 -0.07405143
-0.008511615 -0.09166088 -0.08256147 -0.07134533 0.07443801 -0.0068291784 0.0031499148 0.023174131
0.053379595 -0.040612843 0.015078676 -0.039444435 -0.08263987 0.027631402 -0.06586929 -0.018300986
-0.05129385 -0.007975447 0.028612817 -0.04631717 -0.031909253 0.04172012 -0.05618633 0.0075047733
-0.08726018 0.04971074 -0.04317181 0.06605072 0.07597788 0.064682744 -0.0007758379 0.09448373
-0.0078036073 -0.045139372 -0.011264324 0.08122372 -0.0025744915 -0.050956536 0.08201952 0.031692244
-0.03286923 0.026023258 0.011377252 0.032866776 0.031979717 -0.044176817 0.08534654 0.06210425
-0.03264314 -0.09243591 0.05913043 0.07585458 -0.080472425 -0.07089497 -0.022027804 -0.09952382
-0.09616747 0.053735126 0.006027782 -0.092083156 -0.066390015 -0.037278187 0.07836206 -0.01633103
-0.013058973 0.04262663 0.09912419 -0.09497298 -0.025132013 0.06771793 0.054003 0.09441439

lstm.bias_ih_l0 f4 [400]
00000000: f8ef aa3d 0d1a 2bbc 2a12 bbbd 179d 30bd
00000010: 8afe 753d b044 2dbd 6776 88bb 352f adbd
00000020: 1759 c1bd 28f9 87bd da33 573d adfe 49bd
00000030: 67d0 6e3c 53b5 c9bd ad13 c03c e75c 363d
00000040: 1ac7 8ebb 9dca 83bd 1504 a23d 3d72 4fbd
00000050: f3a0 ed3c b8f3 c63d 7daf 573d c347 3b3d
00000060: 48fb aabd aa34 233d cb8c a0bd d85d bdbd
00000070: 85a5 bdbd 1507 a23d 6fce 9bbd 1a26 41bd
00000080: 80e0 ca3d 4d16 76bc 6746 62ba 7772 5f3d
00000090: dd58 91bd 4d39 a8bc 3f65 82bd 2737 283d
000000a0: ea8c 7fbd c0fa 953c e8cd b73d e720 b9bc
000000b0: 00a8 c73d 33ab 803c 6213 993d b3e6 bfbc
000000c0: 9379 5bbd 38da 8ebd 87a0 b8bd 1a27 b23d
000000d0: 2b32 94bd 30e5 c6bd 20f0 03bd 3358 83bc
000000e0: 2d25 78bd b0cb 84bd 3af6 e9bc 7707 a8bd
000000f0: 07fe 3abd 7358 013d fdb7 24bd 23a5 853d
00000100: 33dc fbbb 63af 453d 8d0b 0ebc 9d20 413d
00000110: 0dee 4f3c 6324 143d cd7f 84bb 00fd 03bd
00000120: c0e9 263d 67de b139 7000 2b3d e728 9d3c
00000130: cd71 f5bb e795 0d3c 30f8 82bd 20b6 d7bc
00000140: 20f9 c53d 6a67 b13d 273f 9f3d c724 7abd
00000150: 95cb 82bd ed99 a8bd d7c9 15bd ad1b 003d
00000160: 4d29 633c 52cc c83d 130e 393d 7a3c 183d
00000170: 8d20 24bd 3b21 b53d 3a2b 833d 95af c5bd
00000180: 3d9f 8e3d 284b 843d 77e9 363d 670c d13c
00000190: 1d28 603d 7a82 443d 0046 f43b 3abe 993d
000001a0: 23ad 2fbd ea42 16bd 1d90 7fbd 0d50 e33c
000001b0: fd14 94bd 47e1 82bd dab3 9bbd 00b2 403c
000001c0: ad42 5ebd 9a0b 453d 4010 a0bc 0755 a13c
000001d0: 0708 33bd 058f 983d a201 83bd 8bec a83d
000001e0: 9a49 7b3c c090 7bbd 1356 003d 2ab1 373d
000001f0: 331a b5bd c748 903d 2fe7 973d e23b a93d
00000200: 1a4a c23b ea4b 193d 0fd0 a6bd 00ca dd3b
00000210: 531a 093d 8a50 42bd 7d88 a7bd c819 813d
00000220: 8034 4f3c 4de0 503c f0c6 24bd e707 a7bb
00000230: 9a56 913c 6715 24bd bd1a 0f3d 838e acbd
00000240: b0a1 783d 9a79 98bd 1db0 6f3d a070 133d
00000250: 12e0 a83d a8f8 8abd a32e 983d 87c1 91bc
00000260: a211 923d 5f0f 8fbd 20e5 c2bd c2a2 a13d
00000270: 73f1 52bd cdcc 1637 88e0 aabd e223 aabd
00000280: a59e ab3d fd26 0cbd b7c7 473d 279b cc3c
00000290: 03c7 a03d 43c0 31bd ea3e 163d 807a c0bd
000002a0: 678c 083d 6345 043d ada1 96bd 10de 0b3d
000002b0: 9334 7fbd 9a5c c6bd e0c5 a93c 1ae2 debb
000002c0: 3058 77bd 8022 263d 9aa0 edbb 2d67 c5bc
000002d0: 6777 a4bd cd5a 163c 9a3a 07bb 2fd7 bdbd
000002e0: 6a62 443d 1bc7 c43d c3ff 883d 3351 eabb
000002f0: e3a8 2cbd cdc0 76bb cd82 bcbc 8213 adbd
00000300: cd43 d3bb b0dd 803d 3383 6739 e704 603d
00000310: ca62 433d c5be 8bbd cd1c e63c f088 bb3d
00000320: d065 20bd 97e6 203d e319 433d 7a83 6f3d
00000330: c0c0 453d c099 20bc 6ff7 963d fa89 62bd
00000340: e379 913d 104c 673d f731 a9bd 876a fabc
00000350: e3b2 883d f307 e1bc 3d15 a13d 074e aebd
00000360: 4a1a 383d 339e ba3b d8a3 993d 93df 8cbd
00000370: c873 b2bd 1227 b03d 200a 9f3c 3003 183d
00000380: efcc 8f3d eaf0 743d a780 843c cd19 433c
00000390: c080 22bc c0ca 733c cb2e a1bd 3813 a93d
000003a0: 00e9 103d 8d96 11bc ca93 213d 0006 a13d
000003b0: 1392 e13c cdbe bbbb faa6 493d 338c cebb
000003c0: 408c b5bc 500f b63d 9a1d 39ba 4024 063d
000003d0: 2a67 433d 8a01 07bd 9a5e 593c 0ffb bdbd
000003e0: 4a44 c73d df62 8f3d e5cf 813d 334f a53d
000003f0: 4738 0b3d 88a7 8c3d 8744 c3bc 7abd b33d
0.08346552 -0.010443223 -0.09134324 -0.043118563 0.0600572 -0.042301834 -0.0041645053 -0.0845627
-0.09440821 -0.0663932 0.052539684 -0.049315143 0.014576054 -0.09849038 0.023446882 0.044522192
-0.004357231 -0.0643513 0.07910935 -0.050646055 0.02900741 0.097144544 0.052657593 0.045722734
-0.08348709 0.039845146 -0.07839354 -0.09246415 -0.09260086 0.07911507 -0.076077335 -0.047155477
0.09906101 -0.015019965 -0.00086317066 0.05455252 -0.070970275 -0.020535136 -0.063669674 0.041068222
-0.062390245 0.018308043 0.089748204 -0.022598697 0.0974884 0.015706634 0.074744 -0.023425436
-0.05358274 -0.06975216 -0.09014993 0.08698864 -0.07236131 -0.09711683 -0.032211423 -0.016033268
-0.06058233 -0.06484163 -0.028559793 -0.08204549 -0.045652416 0.031578492 -0.040214527 0.06525638
-0.007686162 0.048262965 -0.008669746 0.047150243 0.012691033 0.036167514 -0.0040435554 -0.0322237
0.040750265 0.00033925773 0.041748464 0.019184543 -0.0074903728 0.008641697 -0.06394994 -0.026331961
0.096666574 0.08662303 0.07775717 -0.06107023 -0.063864864 -0.08232484 -0.036569443 0.031276394
0.013864827 0.09804596 0.045179438 0.03716705 -0.040070105 0.08844229 0.06404729 -0.0965263
0.06963966 0.064596474 0.044656243 0.02551861 0.054725755 0.047975995 0.0074546337 0.07506986
-0.042889725 -0.036684908 -0.062393297 0.027748132 -0.07230566 -0.063906245 -0.07602663 0.0117611885
-0.054262806 0.048106767 -0.019538999 0.019693865 -0.043708827 0.07449154 -0.06396796 0.08248242
0.015337372 -0.06141734 0.031332087 0.04484669 -0.08842888 0.07045131 0.07417142 0.08263375
0.0059292438 0.037425913 -0.08145153 0.006768465 0.03347237 -0.04744009 -0.0818033 0.063037455
0.012646794 0.01274879 -0.040228784 -0.0050973776 0.01774149 -0.040059473 0.03493761 -0.084256195
0.060701072 -0.07445069 0.058517564 0.03599608 0.08245863 -0.06785709 0.0743077 -0.017792476
0.071322694 -0.06985354 -0.095163584 0.07892372 -0.051499795 8.988381e-06 -0.08343607 -0.08307625
0.083798684 -0.03421687 0.048774447 0.024976326 0.078504585 -0.043396246 0.036681093 -0.09398365
0.033337023 0.032292735 -0.07355056 0.034147322 -0.062305998 -0.09685631 0.020724237 -0.0068018558
-0.060386837 0.040560246 -0.007251811 -0.02409705 -0.08030587 0.009176922 -0.0020634294 -0.09269559
0.047945417 0.09608289 0.06689408 -0.007150793 -0.04215325 -0.003765154 -0.02301159 -0.084509864
-0.0064472915 0.062922835 0.00022078752 0.054692175 0.047701634 -0.06823496 0.028089905 0.09156978
-0.039159596 0.039282408 0.04763211 0.058474995 0.048279524 -0.009802282 0.07371413 -0.055307366
0.07103326 0.056469023 -0.08261483 -0.030568374 0.06674745 -0.02746961 0.07865379 -0.08510976
0.044946946 0.0056951283 0.07501954 -0.06878581 -0.0871349 0.08601202 0.019414008 0.037112415
0.0702151 0.059800066 0.016174627 0.011908007 -0.009918392 0.014879882 -0.07870253 0.08255619
0.035378456 -0.008885992 0.039447583 0.078624725 0.027535474 -0.0057295323 0.049231507 -0.006303334
-0.022161603 0.088896394 -0.0007061601 0.032749414 0.047705807 -0.032960452 0.013267184 -0.09276401
0.09729822 0.0700128 0.06338481 0.08071747 0.033989217 0.068678916 -0.023836387 0.08776374

lstm.bias_hh_l0 f4 [400]
00000000: 9af8 81bd c597 8a3d 135a c7bc d0e2 173d
00000010: 77a8 263d 9af3 b63d cd3e fbba 3ac1 d03c
00000020: 0342 75bd 3af3 3d3d cd61 b8bb c773 c73c
00000030: c7ab ce3c f2cc 933d 2773 813d ad39 b5bc
00000040: 601d 5a3d ba50 ebbc fabe 61bd ffe0 a13d
00000050: 8061 bfbd 7705 4d3d cdc9 f8bc 4d82 49bc
00000060: edfb aa3d 071c 3ebd 3a1f 85bc 43a1 b9bd
00000070: 6510 99bd 2a21 b3bd dabe 313d 3a99 7b3d
00000080: 0031 073c 1dbd 6b3d 9a8f c23c 12cf a13d
00000090: 60d1 17bd a3d9 1d3d 37cf 1e3d a3fc a7bd
000000a0: 00b2 10bb 1b26 8abd 0d7c 9b3c 375e 86bd
000000b0: 004c 98bb 507b be3d 0064 fb3a 27d2 bfbc
000000c0: 2811 9ebd f336 83bd bba9 c3bd 10d9 49bd
000000d0: 5dc7 213d 0a66 333d bf77 c1bd 6782 c8ba
000000e0: b30d 98bb d715 12bd e2a1 a33d f8e8 afbd
000000f0: cd25 dabb e5f0 bbbd 53d5 74bd b394 8dbc
00000100: 9a69 bc3d e7b7 39bc 531d 35bd 1ae6 ce3b
00000110: b39d 9ebd 13b3 663d da5d 4e3d 9aef 023d
00000120: 9a11 0bbd 0d21 33bd 6058 6d3d 5044 44bd
00000130: 071f c63c ba20 dfbc fa26 fb3c 2d94 bcbd
00000140: ea54 5bbd cd54 c839 f0c7 443d 93a4 dabc
00000150: 2f61 853d 73dd 273c 47c4 bdbc 9070 28bd
00000160: 9dd5 30bd 837f bfbd 5ab4 babc 63ae 9a3d
00000170: b79a 873d 4bbd b73d 65d1 93bd c3ec 9ebd
00000180: 97f8 073d 1719 54bd 9a55 98ba 1d57 6fbd
00000190: 40b6 943c cde1 133d dde7 3b3d 5a7c 3ebc
000001a0: 13be f53c 4d7d 5c3c e3f5 5f3d 93f0 573d
000001b0: cba0 823d ad14 3ebd e01c b63c 339b 01bb
000001c0: dd9b 99bd 6346 4cbd 63f4 cb3d cd07 3fbd
000001d0: 8dc4 16bd 3390 fcbb da6c 753d add2 b13c
000001e0: 537c 873c ba74 693d 3a50 b43d 9af7 dc3a
000001f0: 5dc5 573d 07c1 b3bd ba1f 9f3d ba7c f73c
00000200: e382 013d 53d6 93bc 1290 bb3d e7c6 9c3d
00000210: 3d48 403d 6b6a b7bd 1297 abbd 33a4 e9bc
00000220: 5a50 90bc 0da3 8f3d 00be c6bc 2575 943d
00000230: 8770 09bd 1a97 913b 7578 a2bd 3333 75b8
00000240: 9877 903d e2ed a93d 73f9 c5bc 67ce 45bb
00000250: 6bd4 c2bd 0d63 893d a071 503d e8e9 a63d
00000260: e764 d73b 5d46 15bd a734 d4bc c75c 54bd
00000270: 3305 8ebd f022 2e3d a049 a8bd d70a a6bd
00000280: 4760 c4bd 52eb c23d a0ba 3a3d 00a4 1c3c
00000290: 9af0 edbc 67ec f3bc a00c 723d dfdc 9d3d
000002a0: 9af0 753b cd7f 1b3d 2b4a ae3d bbdb c33d
000002b0: 934f b33d b8bc 86bd 302a aa3d 9de3 0f3d
000002c0: 430b 64bd 8d73 84bd fab1 28bd 932f abbc
000002d0: 4a85 c03d cd87 e1bb 4024 acbc 3740 703d
000002e0: f3c2 513c 1766 0cbd df74 8bbd 6710 b33d
000002f0: 452e 82bd 278b 9a3c c7ed 383d 2776 853d
00000300: 9a9e ef3c a2e2 c03d 4bab a63d 3052 9cbd
00000310: 02e2 8fbd 475d 643d daa4 5f3c 48b4 9ebd
00000320: d0bc 1ebd e7e0 81bb 7b13 a13d 0d9d 733c
00000330: eb58 85bd bd7f 9bbd 6219 bfbd c0d3 9ebc
00000340: fbcd b13d adbc e1bc 0834 a5bd daf2 363d
00000350: d070 b1bd f0f1 a9bd c0cd 06bd a73c 883c
00000360: fdd2 22bd eb42 8abd 9ac1 b7b9 5083 9bbd
00000370: f319 0e3d d329 823d 33b4 fbbc 803b b13b
00000380: 1d28 8a3d 6ae5 c03d 5a87 603d 7abc 5c3d
00000390: f70f a9bd 233e cbbd 80f5 86bb 8a12 0dbd
000003a0: e003 eabc 0587 b4bd 7d56 15bd 3d07 37bd
000003b0: b30c 103d 6035 9ebd e0b0 fe3c 589e b03d
000003c0: 4327 34bd 57d2 293d 5868 adbd db3a 9d3d
000003d0: 6758 b9bd c519 b9bd 1ab7 c3bb 8d5a 97bc
000003e0: 403d 2b3d 2a69 80bd 65c5 bbbd 5a34 c93c
000003f0: b841 c2bd d56b 943d 3add a9bd 68f7 c5bd
-0.06346245 0.06767229 -0.024334943 0.03708154 0.040688004 0.08933182 -0.0019168496 0.025482763
-0.059877407 0.046374537 -0.005626893 0.0243472 0.025228394 0.072168246 0.06320792 -0.022122229
0.05325067 -0.028725017 -0.05511377 0.07904243 -0.093447685 0.05005404 -0.030369664 -0.0122991325
0.08348832 -0.046413448 -0.016250242 -0.09063961 -0.0747383 -0.0874656 0.0433949 0.061425425
0.008251429 0.0575534 0.023750115 0.07900824 -0.03706491 0.038537633 0.038771834 -0.082024835
-0.0022078753 -0.06745549 0.01898005 -0.06560939 -0.004647732 0.09300864 0.0019179583 -0.023415638
-0.07718116 -0.06406965 -0.09553858 -0.049279273 0.03949677 0.043798484 -0.09446668 -0.0015297652
-0.004640305 -0.03566536 0.07989861 -0.08589357 -0.0066573382 -0.09176806 -0.059773754 -0.01728282
0.091998294 -0.01133535 -0.04421742 0.0063140513 -0.077449225 0.056323122 0.050382473 0.031966783
-0.033952333 -0.04373269 0.05794561 -0.04791671 0.024184717 -0.027237285 0.030658234 -0.0920795
-0.053547777 0.00038210154 0.048042238 -0.026689803 0.06512677 0.010245669 -0.023164881 -0.041122973
-0.043172467 -0.09350493 -0.022791076 0.07552793 0.066213064 0.08971652 -0.07217673 -0.077600025
0.033196058 -0.05178174 -0.0011622191 -0.058432687 0.01815331 0.036104012 0.04587542 -0.011626327
0.029997861 0.013457608 0.054677855 0.052719664 0.06378325 -0.046406437 0.022230566 -0.0019776344
-0.07500432 -0.049871814 0.099587224 -0.0466383 -0.03680854 -0.0077076196 0.059918262 0.021706903
0.016538775 0.056996085 0.088043645 0.0016858459 0.052678455 -0.087770514 0.07769723 0.030210841
0.031618964 -0.018046534 0.091583386 0.07655125 0.04694389 -0.089558445 -0.08378424 -0.02852068
-0.01761644 0.07013521 -0.024260521 0.07248906 -0.03355458 0.0044430615 -0.079331316 -5.8460235e-05
0.07054061 0.08297326 -0.024166798 -0.003018284 -0.09513172 0.067083456 0.05088961 0.08150083
0.006573308 -0.036444057 -0.025904013 -0.051846292 -0.069345854 0.042513788 -0.08217168 -0.08107536
-0.09588676 0.0951754 0.045588136 0.009560585 -0.029045392 -0.029775811 0.05909407 0.077081434
0.0037527443 0.037963677 0.0851024 0.09563395 0.08755412 -0.06578964 0.08308828 0.03512918
-0.055674803 -0.06467352 -0.041185357 -0.020896709 0.09400423 -0.006882644 -0.02101338 0.05865499
0.012802827 -0.034277048 -0.06809401 0.08743363 -0.063564815 0.018865181 0.045148637 0.065166764
0.029250432 0.09418227 0.0813814 -0.076328635 -0.070255294 0.05575302 0.0136501435 -0.0774923
-0.038754284 -0.003963578 0.07865044 0.014868987 -0.065111004 -0.075927235 -0.09331013 -0.01938808
0.08681866 -0.027555788 -0.08066565 0.044665195 -0.086640954 -0.08298099 -0.032911062 0.016630484
-0.039751995 -0.06751045 -0.00035048724 -0.07593405 0.034692716 0.063556336 -0.030725574 0.0054087043
0.06745932 0.09418757 0.05481658 0.053890683 -0.08254998 -0.09923961 -0.0041186213 -0.03444151
-0.0285663 -0.088148154 -0.036459435 -0.044684637 0.03516836 -0.07725024 0.0310902 0.08623952
-0.043982755 0.04146036 -0.084671676 0.076772414 -0.090500645 -0.09038118 -0.005972755 -0.018475795
0.04180646 -0.062700585 -0.091685094 0.024561096 -0.09485191 0.0724713 -0.08294149 -0.096663296

linear.weight f4 [1, 100]
00000000: 427b b53d 5d21 6dbd e0b2 78bd c791 eebc
00000010: 9d84 483d 73e4 24bc 00fe b5bc c05e cc3d
00000020: 9345 823d 3b12 be3d 80f4 d8bb 8093 b8bb
00000030: 78dd c5bd 7268 82bd 6b18 87bd 8029 b3bc
00000040: b3ba e73c 0090 3fb9 0b98 92bd da0f febc
00000050: 8a61 343d 1f4f acbd e26f 8abd ea01 4dbd
00000060: c0a1 60bc 2d6e a2bc e739 43bc e0f7 753d
00000070: 3a36 d3bc aa47 963d 7a1d 8bbd b725 19bd
00000080: db6d c3bd 6764 a6bc 9b44 bf3d c05a 63bc
00000090: 7f89 993d c558 9abd 5af9 753c 0dcd c53d
000000a0: 679a 023a b7dc 8b3d 0732 a7bd a010 063d
000000b0: f012 23bd b35b 4cbd 87e8 c23d b73e 98bd
000000c0: 7a5f b8bc 13b1 2bbd 737b 6c3c 47fc 2ebd
000000d0: 803e 9dbc 8d19 fc3c f3d0 b8bd a74c 3d3c
000000e0: 3306 083d e34e 9c3d 10e2 bfbd b7a3 48bd
000000f0: a727 9ebc 1a38 f93c f289 94bd b7e4 20bd
00000100: 3d90 363d d3d5 57bd 17a5 833d b37a 693d
00000110: a3db acbd 87ee f3bc 737a 16bc b37b 13bc
00000120: 4b1f 963d f210 823d dfc6 90bd daed 8d3d
00000130: 8070 823d 2bf3 9f3d cbd3 c13d 0a75 873d
00000140: 7db4 783d 63a3 b5bd 07b6 0c3d 9aa4 9cbb
00000150: cdf0 03ba 20d5 323d f377 12bc a749 073d
00000160: e3ac 423d c7a1 a93d 0001 ab3c 2b0c b63d
00000170: fdfe 43bd 8da8 ed3c 805e 483d 9a59 9738
00000180: 80b5 a43b cd37 183b 4028 13bd 8017 20bd
0.088614 -0.057893146 -0.060717463 -0.029122246 0.048954595 -0.010064232 -0.022215843 0.0997901
0.063609265 0.09280821 -0.0066209435 -0.0056328177 -0.096613824 -0.063675776 -0.06596454 -0.021870375
0.028287267 -0.00018268824 -0.07157906 -0.031013418 0.044038333 -0.08413529 -0.06759621 -0.050050654
-0.013710439 -0.019827927 -0.01191566 0.060050845 -0.025782693 0.073378876 -0.067927316 -0.037389483
-0.09542438 -0.020311547 0.09339257 -0.013876617 0.074969284 -0.07536463 0.015013063 0.09658251
0.0004982114 0.068292074 -0.08163839 0.0327307 -0.039812982 -0.04989214 0.09517007 -0.07433837
-0.022506464 -0.041916918 0.014433729 -0.04272106 -0.019194841 0.030773902 -0.09024229 0.01155392
0.033209037 0.07632234 -0.0936929 -0.048984256 -0.019306017 0.03042226 -0.072528735 -0.03928062
0.04457115 -0.052694153 0.06427973 0.05700178 -0.0844033 -0.029776825 -0.009184468 -0.00900166
0.073301874 0.06350888 -0.07069182 0.06930132 0.06369114 0.078100525 0.094642244 0.0661412
0.060719002 -0.08869054 0.034353282 -0.004780364 -0.00050331355 0.043660283 -0.008939731 0.033029225
0.04752816 0.0828281 0.0208745 0.088890396 -0.047850598 0.029011035 0.048918247 7.216931e-05
0.0050265193 0.002322662 -0.035927057 -0.03908491
