model/1721471858_model-aapl.pth (torch, 174356 bytes, 5 tensors)

lstm.weight_ih_l0 f4 [400, 5]
000000 8b 7e a7 bd a5 c6 11 3b 8c 12 27 3d 4c fd b5 bd
       -0.08178433 0.0022243646 0.040789172 -0.08886203
000010 b5 7d 91 bd 3f e6 c8 3d c0 3b ca 3c 18 b3 81 3d
       -0.07104055 0.09809541 0.024686694 0.063329875
000020 6b 27 11 3e 0f 6d 19 bf 36 4a d8 bd d0 cd 84 bd
       0.14175193 -0.59932035 -0.105610296 -0.06484568
000030 41 d8 a7 bd f9 f6 fb bd 7d d6 4a be 3e 54 54 bc
       -0.08195544 -0.12302966 -0.19808383 -0.012959538
000040 35 aa 3e 3d c9 98 cf bd 51 4e d8 bd 70 b4 4a bd
       0.04654904 -0.10136563 -0.10561813 -0.049488485
000050 84 0d 84 bd d7 69 12 be 25 ed 37 be 1c 4f 44 be
       -0.064478904 -0.14298187 -0.17961557 -0.19170803
000060 2b 54 d9 bd f3 a0 08 bd cc 0f 27 bd 2f f1 40 3d
       -0.10611757 -0.033356618 -0.04078655 0.04710501
000070 a6 e9 20 3d 4c 45 09 bd 90 5e 2b be af 45 5d be
       0.039285325 -0.033513352 -0.16735291 -0.21608613
000080 7e 8e 81 be 93 1f 20 be 6c 44 0c be 70 64 44 bd
       -0.25304025 -0.15637045 -0.13697976 -0.047947347
000090 b0 46 c3 bd 29 a0 1f bd 50 b8 45 3c 0a b1 fc be
       -0.09534967 -0.0389711 0.012067869 -0.4935382
0000a0 1a d4 14 bc 31 5d aa 3c a8 1e 14 3d 6b 25 6a 3b
       -0.009083772 0.02079639 0.03616205 0.003572787
0000b0 c6 55 8c 3c 23 97 e4 bc 2e 21 11 be 60 74 3a bd
       0.017130744 -0.027904099 -0.14172813 -0.04552114
0000c0 98 aa d8 3b 2a 1c 07 3d e2 fa 87 be 10 11 d1 be
       0.0066121332 0.032985844 -0.26558596 -0.4083333
0000d0 16 9d b3 be 94 fe d6 be 9f ed 80 be 49 da 5c be
       -0.35080785 -0.41991103 -0.2518129 -0.21567644
0000e0 cc 62 52 be e6 6d 8d be 5d 58 87 be 3f 5b fb be
       -0.205455 -0.27622908 -0.26434603 -0.49093053
0000f0 4f 71 76 3d 9c 3f 3f bc e6 e8 f6 bc c5 9e 56 bc
       0.060166653 -0.0116728805 -0.030140352 -0.013099377
000100 99 e5 c8 bd 3f 96 55 be 07 b1 71 be 6b a1 51 be
       -0.09809417 -0.20858096 -0.23602687 -0.20471732
000110 1a 0d 66 be 6b 78 28 3d 87 ba 36 3d 33 b5 27 3d
       -0.22465935 0.041130465 0.04461148 0.04094429
000120 d7 b8 0a 3b 56 11 fa 3d a9 c7 d9 3c cf c6 4b be
       0.0021167302 0.12210338 0.026584463 -0.19900058
000130 46 cc 30 be 19 5a 59 be ea b1 25 bd 97 e1 04 3e
       -0.17265424 -0.21225776 -0.040452875 0.1297668
000140 da f3 37 bd a0 c9 d5 bd a6 be 9d bd 45 2e 54 be
       -0.04491029 -0.104388475 -0.07702379 -0.20720775
000150 05 aa 3e be 80 89 88 be d2 60 87 be a9 e7 8a be
       -0.18619545 -0.26667404 -0.26441056 -0.27129868
000160 bc 15 52 be d0 ef f4 be 2f 41 4f be 64 60 3e be
       -0.20516104 -0.47839212 -0.2023971 -0.18591458
000170 5a 39 c0 bd 8a c8 0e be 49 7d 43 bf 71 f1 c9 be
       -0.09385939 -0.13943687 -0.76363045 -0.39442018
000180 76 7e e0 be 29 71 ab be 0e 24 97 be 30 7d 58 bf
       -0.43846482 -0.33484772 -0.29519695 -0.8456602
000190 2d 41 0b be 8d 76 38 3d 4d 52 9f 3c fc e0 a9 bd
       -0.13599081 0.045034934 0.019448424 -0.082948655
0001a0 08 f6 84 bd 56 83 fa bd b2 54 f8 bd 3e 7c a0 bd
       -0.06492239 -0.122320816 -0.12125529 -0.07836197
0001b0 a6 5e a1 bd 04 8a 19 be 39 1c 81 bd 08 c8 47 3d
       -0.07879381 -0.14994055 -0.06304211 0.04877475
0001c0 cc c2 d0 bc e1 bf 27 bd 67 d4 06 3d c7 ee 80 3c
       -0.025483511 -0.040954474 0.032917406 0.015738858
0001d0 10 a2 d4 bd a1 97 ac bd aa c9 03 3c 7b 76 80 3d
       -0.103824735 -0.084273584 0.008043686 0.06272598
0001e0 d0 99 41 bc 5f 56 04 be b1 32 2b be 5e 73 d7 bd
       -0.011816457 -0.12923573 -0.16718556 -0.105200514
0001f0 a1 21 7e be 97 9c e6 bd 90 ca e3 ba a6 57 a3 bd
       -0.24817516 -0.11260336 -0.0017379094 -0.07975702
000200 d0 96 74 bc d9 2f 07 bd f4 f3 3e bd 19 30 de bd
       -0.014928535 -0.033004615 -0.04661937 -0.10849018
000210 e3 b4 31 bd 12 f7 e4 bd 31 a0 d5 be d4 60 90 bc
       -0.043385398 -0.111799374 -0.4172378 -0.017624296
000220 04 84 4d 3c 94 72 c3 bd 9e 1a 93 bd 40 02 dd bb
       0.012543682 -0.095433384 -0.07182811 -0.006744653
000230 ef 06 a1 bc 62 95 e5 3b 69 54 d3 3b 4c 72 9c bb
       -0.019656627 0.007006333 0.0064492715 -0.0047743674
000240 1c 4f 98 be e8 a4 44 be 3b 46 8e be 8f 57 fa bd
       -0.29747856 -0.19203532 -0.27787957 -0.12223732
000250 e2 27 70 be 17 fc 26 be d7 56 94 bd 9a c0 28 3c
       -0.23452714 -0.16307102 -0.07243126 0.010299826
000260 0c 98 9b 3c a8 7d d6 bc f0 9e 61 bd 29 67 ec bd
       0.0189934 -0.026182964 -0.055083215 -0.11543114
000270 61 19 13 bd 33 4e 0a bc 41 8b f6 bd cd 76 9e bd
       -0.035912875 -0.008441496 -0.12038279 -0.07737503
000280 d0 6d 2f bc 9a 98 fd bd 88 23 55 bd 5b 3a d9 bd
       -0.010707334 -0.12382622 -0.05203584 -0.106068335
000290 d8 67 0f 3c f7 10 8c bc b0 be b2 3c a0 4a 58 bd
       0.008752786 -0.017097933 0.021819443 -0.052805543
0002a0 78 c3 86 bd fd 98 15 be 33 d3 9c bd 07 33 33 3c
       -0.065802515 -0.14609142 -0.076574706 0.010937459
0002b0 36 48 0c be d7 5b 39 3d 98 06 be bd e2 38 f6 bd
       -0.13699421 0.0452536 -0.092786014 -0.12022568
0002c0 c9 35 98 bd b0 34 dd bd 52 01 de bd ea 39 41 3d
       -0.07432134 -0.10801065 -0.108400956 0.04717437
0002d0 52 fa e0 3c d7 44 1b 3b 9c c8 74 3d b1 56 09 be
       0.027463112 0.0023692155 0.05976163 -0.13411976
0002e0 79 eb 95 bc 5f 85 4e be 07 ee 48 be a7 9f 5d be
       -0.018300759 -0.20168065 -0.1962205 -0.21642934
0002f0 04 65 9f bd f2 78 13 3e 79 68 15 be fe b6 20 be
       -0.07782939 0.14401606 -0.14590634 -0.15694806
000300 04 63 d0 3c 91 18 bb 3c 56 a8 25 be d1 40 fc bd
       0.02543784 0.022838863 -0.16177496 -0.1231705
000310 f9 b1 db bd 68 26 4b bd 13 d1 14 be a0 f5 42 be
       -0.10727305 -0.049597174 -0.1453288 -0.19039011
000320 23 bd e9 3b 83 e5 24 be ae 22 58 bd 5d 04 10 be
       0.0071331426 -0.16103177 -0.052767448 -0.14064164
000330 96 ae 30 3b 51 33 01 3d 0c 3a 02 3b 7c 61 03 be
       0.002695953 0.03154308 0.0019871024 -0.12830156
000340 10 d0 fc bd a6 0f 0e be 48 aa 06 be 15 5a 61 bc
       -0.12344372 -0.13873157 -0.13150895 -0.013754387
000350 b9 1b 2a bc 6c d8 eb 3b 62 ac d3 bd 73 7d 2a be
       -0.010382586 0.0071974304 -0.10335614 -0.16649418
000360 ae dd 8c be 23 ab 73 be c1 47 e1 bd 6f d1 a3 be
       -0.27512878 -0.23795752 -0.11000014 -0.31995723
000370 55 f7 0f 3b d0 33 0c 3e 54 18 0b 3e 37 af ec 3d
       0.002196749 0.1369164 0.13583499 0.11556857
000380 e2 e9 aa 3e 61 58 86 be f7 a5 86 be 99 fa e8 bd
       0.33381563 -0.26239303 -0.26298496 -0.11375923
000390 75 52 e1 bd 0e 79 21 bd a3 1f 4d be ca ef fd bd
       -0.110020556 -0.039422087 -0.200316 -0.12399252
0003a0 5e 6d 71 be 43 b6 71 be 89 81 60 bd d4 cf 3d bd
       -0.23576877 -0.23604684 -0.054811034 -0.04634078
0003b0 95 6c d7 bd dc e2 0e 3d d4 51 6a bd 8c 6b 7b 3b
       -0.10518757 0.03488432 -0.057206944 0.0038363663
0003c0 0d 3a f0 bd 37 2e 04 be 26 2b 39 3a f1 db 27 3c
       -0.11729822 -0.12908255 0.00070636196 0.010245309
0003d0 4d e9 0d be be af 86 be 29 a4 f8 bd 67 94 03 be
       -0.13858528 -0.26305956 -0.12140686 -0.1284958
0003e0 b4 49 36 be 23 a0 bb be ac a9 80 bc 01 82 f0 bd
       -0.17801553 -0.36645612 -0.015705906 -0.11743546
0003f0 43 3d d7 3b 91 d5 e1 bc d2 17 94 bd 02 53 16 be
       0.0065685823 -0.027567657 -0.07231106 -0.14680102

lstm.weight_hh_l0 f4 [400, 100]
000000 f9 c8 29 bd cc 06 7e 3c c1 71 2a bd 23 aa 50 3d
       -0.041451428 0.01550455 -0.04161239 0.050943505
000010 0b b7 63 bd ea 93 07 bd d3 16 7e 3d 55 19 e8 bd
       -0.055594485 -0.033100046 0.062033486 -0.11332957
000020 c0 0f 20 bc 7b ed fe 3c 38 06 1d bc ad b3 3e 3d
       -0.00976938 0.031119099 -0.009584002 0.04655807
000030 55 f9 89 bd 03 9c 7a 3d d2 84 01 3c c9 70 97 3a
       -0.067370094 0.06118394 0.007905202 0.0011553998
000040 9a 21 0b 3e 35 a9 37 be 27 42 9c 3c 1c b7 b6 bd
       0.13587037 -0.17935641 0.019074513 -0.08921644
000050 23 ad 0e bd 7f ff cf bc ab e5 84 3d fc 98 0e be
       -0.034833085 -0.025390385 0.06489118 -0.13925546
000060 f1 2c c8 3d 4b 75 0f 3e f4 24 b1 3b 5c 0f ac bd
       0.09774197 0.14009587 0.0054060165 -0.08401367
000070 8f 41 ee 3d 24 c8 14 be 63 02 31 3c 1b 14 f5 bd
       0.11633598 -0.14529473 0.010803792 -0.119667254
000080 f0 d6 ba 3d e1 6a 98 3c 43 43 86 bd 73 76 d2 bd
       0.09123027 0.018605651 -0.06555798 -0.10276499
000090 0b 19 c9 bd ac e2 d0 3d 10 2f 29 be 49 23 d7 bc
       -0.0981923 0.10199484 -0.16521859 -0.026261942
0000a0 76 3d c8 3d 31 ab f1 3d 7a 28 69 bd e1 b1 ad 3b
       0.09777348 0.1180023 -0.056923367 0.005300746
0000b0 69 08 ce 3c cd 41 96 bc cd 8f d4 bd aa 1e 0e 3c
       0.025150495 -0.018341923 -0.1037899 0.008674303
0000c0 5a 37 11 ba bb 57 8c bd 61 a3 f4 bb c3 af 7b 3d
       -0.0005539559 -0.06852671 -0.0074657653 0.061446916
0000d0 46 4b dd 3b 9f 8f a6 3d bf 5c ec bc 38 e3 7c 3c
       0.006753358 0.08132862 -0.028852819 0.015435033
0000e0 e5 e7 f4 bd eb 9a 19 be c6 de 8e bd fe c6 eb 3d
       -0.11958293 -0.15000503 -0.069760844 0.11512564
0000f0 c3 63 ae 3d 55 4d 20 be 6c 4f f4 bd 0a 87 16 bd
       0.08515122 -0.156545 -0.11929211 -0.036749877
000100 4a f8 8e 3c 14 ad 87 bc 98 82 8a 3c 2e ec fa 3b
       0.017452378 -0.016562022 0.016907975 0.0076575493
000110 b4 00 db 3d 9a f8 0e be 7c 17 4a bb c3 ca 32 3d
       0.106934935 -0.13962021 -0.0030836752 0.0436504
000120 86 7c 98 3b fe 89 d4 bd a7 da 8c 3c 75 e5 22 3d
       0.004653516 -0.103778824 0.017194105 0.03976961
000130 e2 ac ab 3d 09 09 27 3d 24 3c 20 3c 8a 0b de 3c
       0.08382584 0.0407801 0.009779964 0.027105112
000140 36 3d a7 3d b5 78 d2 3c 80 08 ad 3b 9f 78 a3 3d
       0.08165972 0.025692323 0.0052805543 0.07981991
000150 bd da 57 bd 2d 9c 0a 3d 49 7a 8f 3c 08 4b 06 3e
       -0.05269884 0.033840347 0.017514365 0.1311456
000160 fa d7 ef 3c a5 15 a3 bd 5c 07 92 3c 8f 83 0e be
       0.02927779 -0.07963113 0.017825775 -0.13917373
000170 35 8d dc bd cc 3a 10 3e 87 9f 2c bd 6c 9d 17 be
       -0.107691206 0.14084929 -0.042144325 -0.14806145
000180 ca 02 3a be b6 f6 99 bc 30 4d 3b 3d bc af d2 bd
       -0.18165126 -0.018794399 0.04572791 -0.10287425
000190 a4 8e 30 3e 94 19 4e 3c 4c 24 8a 3e 3e 7a 06 be
       0.17241913 0.0125793405 0.26980817 -0.13132569
0001a0 0f 4c 00 be f5 6e a7 bb 60 9b 77 bd ca 3a b3 bd
       -0.12529014 -0.0051096627 -0.06045091 -0.087514475
0001b0 6e ad 71 3d 2f ad bd bd 58 9e e6 bc fd f8 ea 3d
       0.059003286 -0.09261548 -0.028151676 0.11473272
0001c0 48 f7 d2 bd 48 1a 8e bd 59 ad e6 3c 53 d6 dc bd
       -0.103010714 -0.069386065 0.02815883 -0.107830666
0001d0 bc e6 35 bc 49 46 6b 3e 30 49 21 be 6b 97 0d 3e
       -0.011102375 0.2297603 -0.15750575 0.13827293
0001e0 ea 67 fb bd b6 3e cc bb 17 09 15 bd 2e 6e 4e bc
       -0.122756794 -0.0062330617 -0.036385622 -0.012599511
0001f0 f6 16 f0 bd 16 5b 86 3d 79 c2 8f bd 94 f7 8e bc
       -0.117231295 0.06560342 -0.070195146 -0.017452039
000200 cc f6 fc 3e 84 23 a4 3d 39 ba 5a 3d 2f eb 8c bd
       0.4940704 0.080145866 0.053400252 -0.06880795
000210 27 8a 85 3c b0 3f 0c be 8d a5 87 bc e9 59 31 bd
       0.016301228 -0.1369617 -0.016558433 -0.043298636
000220 b6 b8 5e 3c ef 7a 53 be 39 cb e3 bd 05 a4 2c be
       0.013593843 -0.20652364 -0.11122746 -0.16859443
000230 81 e1 2a bd 3c c4 92 bd cf ae 1e be 2b 7a b8 be
       -0.041718964 -0.07166335 -0.15496372 -0.36030707
000240 24 0e f5 bd 85 cb 51 3e 56 90 0b 3e b8 9e f2 bd
       -0.11965588 0.20487793 0.13629279 -0.118466794
000250 b7 1e 05 3e b5 e9 93 bd f4 5a 1e be fb f5 48 3e
       0.12999998 -0.072223105 -0.15464383 0.19625084
000260 22 14 f3 bd 36 6f 41 3d 5a 92 f9 3d 7f 18 28 ba
       -0.118690744 0.0472252 0.121861175 -0.00064123416
000270 28 26 ca bd 22 fb 8f bd d2 c1 81 3e a3 2f 06 bd
       -0.09870559 -0.07030322 0.25343186 -0.032760274
000280 70 de 75 3d 38 21 d1 3e a5 bf 4c bd e1 38 9b bd
       0.060026586 0.40845656 -0.049987454 -0.07579208
000290 15 41 e4 bc 8a c1 03 3e c7 6b 35 be c2 58 31 3d
       -0.027863065 0.12866798 -0.17716895 0.043297537
0002a0 bf 95 9d 3e 4c b3 60 3d 89 d8 5e 3d c0 2f 1f be
       0.3077831 0.05485849 0.054405723 -0.15545559
0002b0 d7 47 3a bd 48 71 86 be fb 15 b7 3d c8 d8 5c 3d
       -0.045478668 -0.26258302 0.08939739 0.053917676
0002c0 b8 ba 05 ba 23 21 ff 3d 4a 91 b5 bd 5a 8f 7f bd
       -0.00051013706 0.12457492 -0.08865602 -0.06239257
0002d0 58 88 3e be 71 56 cc 3d 9a f5 4e 3c 56 82 2c bc
       -0.18606699 0.09977425 0.012631798 -0.010529121
0002e0 fe a2 bf be e1 45 e8 be cf c5 8d bd 30 46 92 3d
       -0.3742904 -0.45365813 -0.069224946 0.071422935
0002f0 7d 64 1d be e3 55 ef be f1 f1 d7 bd 33 6a 04 be
       -0.15370364 -0.46745214 -0.105441935 -0.12931137
000300 ba 6f 86 be db 92 38 bc 29 29 68 3d 04 0d c8 bd
       -0.26257116 -0.011265482 0.05667988 -0.097681075
000310 6c c4 23 3e 80 df 6e ba 56 c3 c7 bd 11 5b 1d be
       0.15992898 -0.00091122836 -0.09754054 -0.1536677
000320 c3 f2 7c 3d 1a 94 be bd db f1 b3 3c 6c bc 93 3b
       0.061754953 -0.09305592 0.021965912 0.0045085456
000330 d3 16 a4 3d 07 20 8e 3d 54 cf dc bc 89 a5 0d 3e
       0.08012166 0.069397025 -0.02695433 0.13832678
000340 23 bc 58 ba 81 c1 99 3b 0b b1 fb 3d 16 95 34 bd
       -0.00082677806 0.004692257 0.12289628 -0.044087492
000350 37 59 e9 3d 52 b5 0d 3d f8 45 cb bd 3e 38 13 3d
       0.113939695 0.03459675 -0.09925455 0.03594231
000360 e1 01 09 bd 2f b4 31 3d 77 32 4c bc 0f 26 a9 3a
       -0.033449057 0.043384727 -0.012463204 0.0012905019
000370 a2 00 15 3e 7b ca a5 b9 68 cc 99 3d 6d 4a ad bc
       0.14551023 -0.00031622112 0.075096905 -0.021153653
000380 6b a1 26 3d c8 59 ca 3c 18 74 e0 bd f4 6e 48 3d
       0.040681284 0.024701014 -0.10959643 0.04893394
000390 03 d4 eb 3d 37 51 cf bb ca e2 9b bd ce 12 c2 bd
       0.115150474 -0.0063268202 -0.07611616 -0.09476243
0003a0 db 40 df 3c ab a0 4e bd a7 de ea 3c 7e 08 2c 3d
       0.027252605 -0.050446194 0.028670622 0.042000286
0003b0 e9 a7 3b bb 1a e9 c2 3d 59 49 8a 3c c1 1a 0e 3e
       -0.0028634018 0.09517117 0.016880678 0.13877393
0003c0 cd 1b 9f bb a2 41 e4 3c cc f0 86 3d 7d 8c 87 bb
       -0.004855609 0.027863327 0.06588897 -0.0041366206
0003d0 aa a4 1d bd 6e 26 04 3e 6f 12 f4 bc 61 e4 a2 bd
       -0.038487114 0.12905285 -0.029793946 -0.07953716
0003e0 59 5b a6 bd 6e a4 ab 3d 8a e5 75 3d 7e 9a af 39
       -0.08122892 0.08380972 0.06003336 0.00033493707
0003f0 77 84 05 3e 17 13 f7 bb 00 07 93 3d df 2f 04 3d
       0.13038813 -0.0075401175 0.071790695 0.032272216

lstm.bias_ih_l0 f4 [400]
000000 0a a1 1c 3d 26 be 0b be 1f b2 18 be a6 a2 b5 bc
       0.038239516 -0.13646755 -0.14911698 -0.022172283
000010 7e a5 98 bd 6b bd b7 bd d7 02 c4 bd 87 16 9e 3c
       -0.0745344 -0.089716755 -0.09570854 0.019297851
000020 40 9c 55 3d 23 f7 37 bd cf b4 89 be e1 1d 7a bd
       0.052150965 -0.044913422 -0.26895759 -0.06106365
000030 24 88 49 bd 78 2c 5f be e5 b8 70 bc 6f 9e 72 bd
       -0.0492021 -0.21794307 -0.01469252 -0.059233125
000040 b8 e6 42 be 7a 51 04 bd 69 9d eb 3b 39 87 10 3b
       -0.19033325 -0.032304265 0.0071903956 0.0022053255
000050 3e f3 8f bd 69 07 cd bd eb 7d 99 3d 10 fd 0b be
       -0.07028817 -0.10011179 0.0749472 -0.13670754
000060 e6 e2 d4 bc 90 de 60 bd c3 9a 65 be 44 5c e2 bd
       -0.0259871 -0.054899752 -0.22422318 -0.110527545
000070 b1 ca ea 3c 1e 38 44 be 99 cf 05 be 73 07 63 bd
       0.028661104 -0.19162032 -0.13067473 -0.055427026
000080 31 39 1a bd 97 5d 29 bd 93 03 06 3d 5d 44 ff 3c
       -0.0376522 -0.04134902 0.032718252 0.031160528
000090 ea 0e 4d bd a1 e1 98 bd bc 31 86 bd e5 27 44 be
       -0.05006305 -0.0746491 -0.06552455 -0.19155844
0000a0 86 09 e5 bd 1d 77 be bd 97 23 74 bc 59 70 34 be
       -0.11183457 -0.09300063 -0.014901063 -0.17620982
0000b0 8a 33 e2 bc 30 10 49 be 0b cf fe bd bb ca 55 3d
       -0.027612466 -0.19635081 -0.12441834 0.052195292
0000c0 e9 4b 49 3d c6 fb 61 be cd fe 8c bd ff 8b da bd
       0.04914466 -0.220687 -0.06884537 -0.106712334
0000d0 bf 97 03 3d f1 75 8c 3d 58 fc 92 3d bb 27 2c bd
       0.03212714 0.06858433 0.07177037 -0.042030077
0000e0 17 86 9e 3d 70 c5 96 bd 5b 2a 29 be 14 cc 09 bd
       0.07740419 -0.07361877 -0.16520064 -0.03364189
0000f0 e0 22 59 bd 74 9b 02 3e a4 49 6e 3b 5d 50 a0 3b
       -0.053011775 0.12754613 0.0036359811 0.0048923925
000100 cd 3a dd 3c 12 b1 0a be df 6d 0d 3d 0f 0f ba bd
       0.027005577 -0.1354411 0.03452861 -0.090849034
000110 a0 72 2b be d8 cd a4 bd de b8 dc bd 44 c4 1a 3d
       -0.16742945 -0.08047074 -0.10777448 0.03778483
000120 0f b1 40 bd ce 4d bb bb 19 47 52 3c 31 a2 08 be
       -0.047043856 -0.005716062 0.012834334 -0.13343121
000130 73 35 83 bd f9 2e 66 be 09 be 21 bc 02 11 e2 3b
       -0.06406679 -0.22478856 -0.009871968 0.006899
000140 ac 57 d2 3d 33 a0 e5 bd d3 ca fd 3b 6f f0 e0 bd
       0.10270628 -0.11212196 0.007745126 -0.10983359
000150 a2 80 97 bd 6b cb d4 bc dc ab 86 bd 1b 5b cb bd
       -0.07397582 -0.025975903 -0.06575748 -0.09929486
000160 88 e9 a9 3b 40 02 fc 3c 44 46 d0 bd 3d 17 1d be
       0.00518531 0.030762792 -0.10169652 -0.15340896
000170 54 69 51 bd e6 93 e6 3c 1d f0 1b be 69 45 2a be
       -0.05112584 0.028146695 -0.15228315 -0.1662804
000180 6f 57 93 bd 12 20 ec bb 0c db 41 be 1b 10 47 bd
       -0.07194411 -0.0072059715 -0.18931216 -0.048599344
000190 bd e2 93 bc e7 02 a4 bd 17 a1 fe bd 01 2e cd bc
       -0.018052453 -0.08008366 -0.12433069 -0.02504635
0001a0 e6 f1 4e be 50 c4 3d bd e2 78 16 be 61 cb 36 be
       -0.20209464 -0.046329796 -0.1469455 -0.1785102
0001b0 82 ee 4e 3d 39 fd 32 3d 6d f2 30 be f2 ba 23 be
       0.050520428 0.043698523 -0.17279978 -0.15989283
0001c0 2d d1 b6 bd 05 17 e4 bd 92 cb e1 3d c5 93 41 be
       -0.08926616 -0.11137203 0.11025156 -0.18904026
0001d0 d4 65 25 be 81 71 d7 bd 5e 12 e7 bd 40 e8 09 be
       -0.16152126 -0.10519696 -0.112828 -0.13467503
0001e0 2c 04 82 bc f2 bb ee bd 8d 8b da 3c c6 78 32 bd
       -0.01587113 -0.116569415 0.026677871 -0.04357221
0001f0 10 36 83 bc bc 81 53 3d 9d ee 0d be dc 10 e0 bc
       -0.01601699 0.051637396 -0.13860555 -0.02735179
000200 b9 31 ab bd 04 7e 22 be b4 09 30 3d 53 79 0c bd
       -0.08359093 -0.15868384 0.042978004 -0.03429539
000210 45 eb 10 3d f8 d3 b9 bb c9 0d 28 3d 97 91 c5 bc
       0.03538062 -0.0056710206 0.04102877 -0.024117274
000220 f9 2d 74 bc e3 93 28 bd 7c 8e 21 be 1b 33 a6 bd
       -0.014903539 -0.04115666 -0.1577701 -0.08115216
000230 60 f2 cb bd d6 a7 51 3d e7 c4 c4 bd f0 9e 22 be
       -0.09958339 0.05118545 -0.09607869 -0.15880942
000240 1e 72 f0 3d be e3 0b be 19 19 49 be 46 27 2a bd
       0.11740516 -0.13661095 -0.1963848 -0.04154136
000250 49 e3 b7 bb 1d 0b 83 bd c0 b9 12 be ce dc 00 be
       -0.0056118113 -0.06398604 -0.1432867 -0.1258423
000260 dc b9 3a bd 13 93 61 3d a4 43 1b 3e 63 c4 f2 bc
       -0.045587406 0.0550719 0.15162522 -0.02963466
000270 3c c6 5c 3d 5e 5c 3a be 1b 7c fb bd 2d 81 6f bc
       0.05389999 -0.18199298 -0.122795306 -0.0146182
000280 a7 90 52 bd 92 ef 1e be f9 75 a5 bd e9 b3 a3 bd
       -0.051407482 -0.15521076 -0.08079142 -0.079932995
000290 e0 3f fb ba ac 5c 29 be 90 ce 2c bd 06 93 60 be
       -0.0019168817 -0.16539258 -0.04218918 -0.21931085
0002a0 3f e2 89 bc 1f 3f 21 be 49 9d 04 be e9 3d 03 be
       -0.016831515 -0.15746735 -0.12950625 -0.12816586
0002b0 2b 58 3a bd 32 9c 27 3c af 63 11 bc ca 41 b0 bd
       -0.04549424 0.010230111 -0.008873864 -0.08606298
0002c0 53 ba 2a be bd 87 37 be ed c1 18 bd a3 29 93 3c
       -0.1667264 -0.17922874 -0.037294317 0.01796419
0002d0 58 40 e3 bd 69 1b bb bd fd e9 13 3d 8a 55 d4 bd
       -0.11096257 -0.091360874 0.03611182 -0.10367878
0002e0 ce 2d 88 3c e8 db 1a bd ff 8f ff 3c fe f2 b3 bd
       0.016623404 -0.037807375 0.031196592 -0.087865815
0002f0 b1 69 b6 bc d8 7d 29 be e2 9e 66 bd 4e 57 00 be
       -0.022267194 -0.16551912 -0.056303866 -0.12533304
000300 12 2d 9c bd 60 e2 ad bd a1 3f 28 be 9f ae e1 bd
       -0.07625784 -0.08490443 -0.16430523 -0.110196345
000310 d2 ca bd 38 1a de 0f bd 02 8f 13 be 4d 5d 9d bd
       9.0500005e-05 -0.035123922 -0.14410022 -0.07683811
000320 79 6f c6 bd 2a 9a ad bc 81 71 2e bd 73 05 5f bc
       -0.096892305 -0.021191675 -0.042588715 -0.013612139
000330 e8 d3 2e 3c 00 c1 71 bd 81 b4 66 3d 25 28 21 3d
       0.01067064 -0.05902195 0.056324486 0.039344925
000340 5a c5 16 3d 54 c9 c9 bc 3b 62 84 3d ff bc 97 bc
       0.036809303 -0.024632134 0.064640485 -0.018522738
000350 e3 51 93 3d 23 19 6f 3d 73 5b a0 bc c6 16 28 3d
       0.07193353 0.05837358 -0.019574856 0.041037343
000360 b3 91 19 bd e2 d1 8d bd 6b fc 9f 3d bc ab 09 be
       -0.037492465 -0.069247976 0.07811817 -0.13444418
000370 a1 df 12 bc b0 e4 35 38 5c 9c b0 3c aa 7a e6 3b
       -0.00896445 4.3366745e-05 0.021558933 0.0070336657
000380 83 6f 47 bd e5 54 15 bd 4b 20 a6 3c 3c 94 47 bc
       -0.04869033 -0.036457915 0.02027907 -0.012181338
000390 4e 11 96 bd 8a 98 83 bc 7f 85 99 ba a9 0a 13 3b
       -0.07327519 -0.016063947 -0.0011712759 0.0022436774
0003a0 9f c2 11 3c 8d 37 27 bd bb cd 52 3d d4 f5 43 3d
       0.008896499 -0.04082446 0.05146573 0.04784186
0003b0 2c 19 3b bd a3 33 87 3d f5 93 45 bd 7a 0a 53 bd
       -0.045678303 0.06601646 -0.048236806 -0.051523663
0003c0 66 2e 93 bc 16 23 4a bd 90 e8 8d bd 8d ef 2f 3d
       -0.01796646 -0.049349867 -0.069291234 0.042953063
0003d0 0f bb 45 bd 30 0d aa 3d 06 f6 04 3d 0b 65 11 3d
       -0.048274096 0.083032966 0.03246119 0.035496753
0003e0 1b 40 97 bb ab 34 94 3d 85 73 21 3d ae f8 be 3c
       -0.0046157963 0.07236608 0.03941681 0.02331194
0003f0 a1 cf 31 bd 82 07 00 3c 8e 25 dc bc 4e 0c 30 3d
       -0.0434109 0.00781429 -0.026873376 0.042980485

lstm.bias_hh_l0 f4 [400]
000000 26 95 fc bd 25 b0 ae bd d4 69 fe bd 2f be 8a bd
       -0.12333135 -0.08529691 -0.12422529 -0.06774556
000010 98 4c 68 bd cd da 84 bd 4e 2a 96 bd ee 86 ca bd
       -0.05671367 -0.064870454 -0.07332288 -0.09889017
000020 fb 88 61 3d 27 e8 7c 3d 83 4b 39 be 16 ae 3e be
       0.055062275 0.061744835 -0.18095212 -0.18621096
000030 79 c8 00 be cc 3a 38 be d7 7a ae 3d 96 6a 90 bd
       -0.12576474 -0.17991179 0.085195236 -0.0705158
000040 8d 13 ef bd 64 c2 87 bd f6 1c ab 3d 4d e7 17 be
       -0.11673651 -0.06628874 0.08355133 -0.14834328
000050 4a 54 3d 3d 7a 4c b1 bd f0 25 3f 3c 11 79 4a 3d
       0.046222962 -0.08657165 0.01166676 0.049431864
000060 43 49 1e bd c1 b6 84 bd 47 8b 05 bd 98 bd 4a 3d
       -0.038644087 -0.0648017 -0.03260353 0.049497217
000070 be f5 20 bd 26 e8 29 be 8f b6 9b bd d6 77 1b be
       -0.039296858 -0.16592464 -0.0760318 -0.15182433
000080 36 f0 a5 bd a9 21 4b 3d 7c 3d 5f bd fe f1 8a 3d
       -0.08102457 0.049592648 -0.054501995 0.067844376
000090 d4 79 56 bd 67 0a 97 3d 41 70 01 be 01 06 dc bd
       -0.052362278 0.07375031 -0.12640478 -0.10743333
0000a0 7f 93 fb bc 08 25 61 3d 37 a2 14 be 62 61 17 be
       -0.03070998 0.054966956 -0.14515005 -0.14783242
0000b0 c1 21 5b bd 36 0e 95 bd 80 22 66 be 65 b4 31 3d
       -0.053498987 -0.07278101 -0.22474098 0.04338493
0000c0 35 2c f8 bd 9d f9 7b be cf 52 be bd cc cb 7e bc
       -0.12117807 -0.24606939 -0.09293138 -0.015551519
0000d0 42 ec 8d bd 7f f2 8b bd ca 8a 00 3d 96 cb 9a 3d
       -0.06929828 -0.06833362 0.03138236 0.07558362
0000e0 bc 6e 92 3c 1c f1 f4 bd 64 7a ed bd 4d 21 c6 bd
       0.017875068 -0.119600505 -0.1159561 -0.0967432
0000f0 38 86 2c 3d 13 6e 65 3d b8 4c 34 3d d4 70 b6 bc
       0.04212019 0.056013178 0.044018477 -0.022270598
000100 86 7d f3 bc 4a d5 a0 bd e5 ef 00 be 3e 25 cf bc
       -0.02972294 -0.07853182 -0.12591513 -0.025286313
000110 dc 16 19 be 67 06 83 3d de d5 e4 bd 5a c5 3e bd
       -0.14950126 0.063977055 -0.111736044 -0.046574928
000120 06 47 fe bd a2 ef 60 bd e6 3a 5f bd cb 38 f1 bd
       -0.124158904 -0.05491603 -0.05449953 -0.117784105
000130 d8 64 19 be b3 7f 7d bd 43 a3 ba bd 7b 90 51 bd
       -0.14979875 -0.06188936 -0.09113171 -0.051163178
000140 68 91 5c bd 50 ea 4b bd 2d f1 a7 bd ec c8 4b bd
       -0.053849608 -0.049784005 -0.082002975 -0.04975216
000150 78 b2 90 bc 03 9b 65 3c 8b cc 79 bd 70 fc cf bd
       -0.017663226 0.014014008 -0.060986083 -0.101555705
000160 87 55 9e 3d 34 a2 8b bd c7 5d 71 bd cb 9c e6 bb
       0.07731157 -0.06818047 -0.058927324 -0.007037734
000170 cd 91 15 be 0f 80 fc 3c 2d 78 1c be 74 ce 29 ba
       -0.146064 0.030822782 -0.15280218 -0.00064776023
000180 dc 75 e9 bd bc ad b6 3a 86 57 48 be 29 62 49 3c
       -0.11399433 0.0013937275 -0.19564638 0.01229147
000190 3c 3e 49 bc 3a 3b 21 be 81 e6 f9 bd ce 1c 65 3d
       -0.012282904 -0.1574525 -0.12202168 0.055935673
0001a0 cf 03 0d be 56 2c 10 be d8 54 a1 bc d5 87 2e be
       -0.13770984 -0.14079413 -0.019693777 -0.17044003
0001b0 68 2a 73 3d 59 c2 fb bc a5 61 62 be 46 37 91 bd
       0.059366614 -0.03073232 -0.22107561 -0.07090621
0001c0 cf 65 38 3d 81 a0 0f be 55 81 b1 3c 6d 17 13 be
       0.045018967 -0.14026071 0.021668116 -0.14364405
0001d0 c5 b9 f9 bd 76 46 02 be 0b d9 26 be 56 e6 66 bd
       -0.12193636 -0.12722191 -0.16293733 -0.05637201
0001e0 ad 3d fb bd 94 a3 db bd 32 5e 25 bd 5f b4 f9 bd
       -0.12267623 -0.107245594 -0.040373035 -0.12192606
0001f0 a0 2b db bd a8 fd 82 bd 66 fc f2 bd 1d 0b fb 3c
       -0.1070168 -0.06396037 -0.118645474 0.030644948
000200 8e 97 10 bd 66 37 98 bc 65 26 0a be ff 68 49 bd
       -0.035300784 -0.018581104 -0.13491209 -0.049172398
000210 ef b5 46 3d 64 de 69 bd 9c 3c 0c bd 94 70 5c 3d
       0.04851335 -0.057096854 -0.03423749 0.0538183
000220 03 42 98 bd 8b f4 e7 3c 98 38 09 be a5 37 23 be
       -0.07434466 0.02831485 -0.13400495 -0.15939195
000230 5d ce f4 bd 42 5f f8 bd df 6f 9a bd 75 fc 9a bd
       -0.11953423 -0.12127544 -0.07540869 -0.075676836
000240 a3 0c b0 3c 89 e4 14 be 80 dd ec bd 51 dc 8d bd
       0.0214904 -0.14540304 -0.11565685 -0.06926788
000250 05 3d 05 bd ca 66 27 bc 01 44 72 bd a1 e1 d0 bc
       -0.032528896 -0.010217378 -0.059146885 -0.025498213
000260 74 cc f8 3c 8a 9b db bd 73 d9 b3 3d c6 7d 4a 3d
       0.030370928 -0.10723026 0.087817095 0.049436353
000270 83 67 b1 bc d0 df 37 be f1 6a 1c be 66 91 d6 3b
       -0.021655804 -0.17956471 -0.1527517 0.0065480946
000280 6d 2d 0d bc de 09 ab bd a2 ec 00 be fa 92 d8 bc
       -0.008616787 -0.083514914 -0.12590268 -0.026437271
000290 19 b1 9f bb e2 31 0b be f5 80 02 be e1 1a 69 bd
       -0.0048734066 -0.13593248 -0.12744506 -0.0569104
0002a0 70 51 ab bd 0b 40 21 be 41 74 41 3c 2f 00 f8 bd
       -0.08365142 -0.15747087 0.011807502 -0.1210941
0002b0 5c 79 22 be 51 03 ad bd d3 87 3d 3d 7d 11 55 be
       -0.15866607 -0.08447898 0.04627211 -0.20807452
0002c0 8d 4a 0e be 61 70 6b bd cc 1b 8d bd 35 25 bf bc
       -0.13895626 -0.05748022 -0.068900675 -0.023333171
0002d0 27 b5 e1 bd b8 41 2a bd 2f cd 56 bc ac a0 b6 3b
       -0.1102088 -0.04156658 -0.013110443 0.005573353
0002e0 5f 98 5b bd 91 11 c3 bc 87 ab 63 bc 44 59 0c be
       -0.05361211 -0.023812087 -0.013895876 -0.13705927
0002f0 ef 17 48 bd 3c 31 10 be 6d 77 f6 bd 1d 3e 5c bd
       -0.04885095 -0.14081281 -0.120344974 -0.053770173
000300 bc 5a 86 bd 76 e6 ea bd 73 17 41 be 9f 2e ed bd
       -0.06560275 -0.11469738 -0.18856601 -0.11581158
000310 81 bc 15 bd 7e 94 63 bd f4 f1 d5 bd d8 42 d9 bd
       -0.036556724 -0.055561535 -0.104465395 -0.106084526
000320 43 17 19 bd 11 0d a9 bd d8 64 a2 bc bb 42 a6 3d
       -0.0373757 -0.08254445 -0.019823477 0.081181966
000330 8c a2 9f 3c 46 17 11 bd d2 6b 03 3d 59 f2 41 bd
       0.019486688 -0.035422586 0.032085247 -0.04735026
000340 50 df e9 3c 01 7c d1 bb 2c be ae 3d 63 ec 04 be
       0.028548867 -0.0063929562 0.08532366 -0.129808
000350 76 c3 18 bb d7 f8 f6 3c fa e7 4b 3c d2 ee 42 bd
       -0.0023309863 0.030147953 0.012445444 -0.047591038
000360 5f 69 4f 3d 62 a5 9e bd fc a8 72 3c 19 74 19 bd
       0.0506376 -0.07746388 0.014810797 -0.037464235
000370 56 6d 94 3d 1c b5 73 bd de 21 8d 3d d1 c1 61 3c
       0.07247417 -0.05949889 0.06891225 0.01377912
000380 f4 7c f3 3d 9f 1e 87 3d 82 67 3e bd 7e e2 59 3d
       0.11889067 0.065976374 -0.04648543 0.053194515
000390 35 28 72 3d 57 ab 95 bd 43 3f c0 bd 9a 45 14 bd
       0.059120376 -0.07308071 -0.09387066 -0.03619919
0003a0 9c bc 0e bd b9 2e 89 bd b8 7b 07 3d 1c ee 26 3d
       -0.03484784 -0.06698365 0.03307697 0.040754423
0003b0 b8 0c 56 3d c0 07 13 3c 1b b8 0d 3d 33 41 a4 3d
       0.052258223 0.008974016 0.034599405 0.08020248
0003c0 5e 2f 90 bc 1c 3f fa 3d 88 3f b2 3d 48 fd 99 3b
       -0.017600711 0.122190684 0.08703524 0.004699383
0003d0 eb 56 e8 3c f0 00 e4 3c 53 5b e3 bc 1d 22 37 3d
       0.028361758 0.027832478 -0.027753508 0.044710267
0003e0 c7 5a 27 3c 9d 80 71 3b d8 cc 15 3b 8b 3f 9f bd
       0.010214514 0.003685034 0.0022857692 -0.07775792
0003f0 3f 4a 79 3d 8a 36 93 3d bd 2e 8a 3c 79 3e 9c 3c
       0.060861822 0.07188137 0.01686799 0.019072758

linear.weight f4 [1, 100]
000000 22 db aa bc db 5d 20 be a5 a6 77 3d 40 4e 57 3d
       -0.020856444 -0.15660803 0.06046166 0.05256486
000010 70 b3 26 bc 93 26 d8 bd 03 0c 30 bd 93 86 91 bd
       -0.010174617 -0.105542324 -0.042980205 -0.07105746
000020 51 2b 84 3d 9f c3 08 be 35 bb 35 3d 3b 9a 14 3d
       0.064535744 -0.13355874 0.044367988 0.036279898
000030 fa 38 a8 3d 2e ba d7 3c 93 bd 23 bd 11 00 8e bd
       0.082139924 0.026333895 -0.039975714 -0.069336064
000040 e2 d6 ad 3b 62 08 00 3e 31 bd 23 be 5a 32 ce 3d
       0.005305157 0.12503198 -0.1599014 0.100681975
000050 89 65 76 3d 06 d6 aa bb d5 f1 cd 3d 5c 54 58 3d
       0.060155425 -0.005213502 0.100558914 0.052814826
000060 86 65 43 bd 33 8a fa bc ab 27 04 3d 04 be 66 3d
       -0.047704242 -0.030583477 0.032264393 0.056333557
000070 c4 e6 2b 3e 21 30 0b 3d b6 a1 e5 bc c4 80 03 bd
       0.16787249 0.033981446 -0.028031211 -0.032105222
000080 d1 af 83 bd 9a 8e 58 bb 3b 7e 44 3c 63 ba a0 3d
       -0.06430019 -0.0033043982 0.011992986 0.078480504
000090 2d 25 85 3d 89 77 01 be fd ba 9d bd 16 89 2b 3d
       0.06501231 -0.12643255 -0.07701681 0.041878782
0000a0 5c 34 79 bd 90 f9 40 bd db d6 6d bd 7d d1 43 bd
       -0.06084095 -0.047113 -0.05806623 -0.047807205
0000b0 ea 44 12 be 87 ca 4a 3d 78 47 45 3d a8 33 d5 3d
       -0.14284101 0.04950955 0.04816386 0.10410243
0000c0 07 1a 43 bd 1c 27 4e ba c0 fb 83 bd 3c 3e 8f 3d
       -0.047632243 -0.0007864104 -0.06444502 0.06994292
0000d0 22 9e b5 bd e1 74 5b bd a8 2f e9 bd cb fd d5 3d
       -0.08868052 -0.05357826 -0.11386043 0.10448798
0000e0 ce 8f a8 3d 7c 33 11 bd 86 da c2 ba a6 93 c6 bd
       0.082305536 -0.03544949 -0.001486615 -0.096961305
0000f0 df fa 39 bd 74 d1 65 3e 9a c1 82 bb 8c db b6 3a
       -0.045405265 0.22443181 -0.0039903643 0.0013950928
000100 7c 34 ec bd 48 4c 64 3d 9b 96 c9 bd 78 a7 7a bb
       -0.11533448 0.05573681 -0.09843179 -0.0038246792
000110 65 c5 ca 3d cc b5 16 3d e7 fa 4e bd 06 37 99 bc
       0.09900931 0.03679447 -0.050532248 -0.018702995
000120 f8 6d 9d 3d a3 9b 9a bd 08 87 09 bc c2 a9 88 3d
       0.076869905 -0.075492166 -0.00839401 0.06673004
000130 60 5b af 3d 84 0d aa 3c 0e e7 27 bd fb 47 95 3d
       0.0856235 0.020758398 -0.040991835 0.0728912
000140 5b eb 1f be 5b 81 43 bb 60 e0 ed bb 67 2e 9d bb
       -0.15617125 -0.002983174 -0.0072594136 -0.0047967914
000150 28 bf 08 be a5 b6 43 be 77 2e 0c 3d 25 85 58 bd
       -0.1335417 -0.19112642 0.034224 -0.05286135
000160 36 10 d6 3d cc da fe bd 5f 0d da 3c 8c 06 1b bd
       0.10452311 -0.12444076 0.026617704 -0.03784804
000170 e5 2a b8 bd ef 31 98 bd 98 dc 64 3b 36 59 ae 3d
       -0.089925565 -0.07431399 0.0034921523 0.085131094
000180 86 a4 e6 3b 58 2d eb 3d 5e bb c4 3b 1e e3 f8 bc
       0.0070386557 0.11483258 0.006003781 -0.030381735
