model/1721468406_model-aapl.pth (torch, 174356 bytes, 5 tensors)

lstm.weight_ih_l0 f4 [400, 5]
000000 1c 41 14 3c a2 d7 8f bc 22 d9 e3 bd 06 e3 f5 bd
       0.009048726 -0.017558876 -0.11125399 -0.12006192
000010 2c c1 4d bc ed 94 0b 3e f8 b0 ba 3d 1f c4 d4 3c
       -0.012558263 0.1363103 0.09115785 0.025972424
000020 34 e1 02 3e ac fb 0d 3e c0 df 37 3d 4d 06 a2 bd
       0.1278122 0.13865536 0.04489112 -0.07911358
000030 b6 da 90 bd 0d 6f 97 3c 7f a0 b4 bc 05 2c 51 be
       -0.07072966 0.01848557 -0.022049187 -0.20426948
000040 62 f0 8b be b2 a5 e9 bd 54 8a 93 be fb 9e d2 be
       -0.27331835 -0.11408557 -0.28816473 -0.41136917
000050 9e 7f 2f bd a9 81 20 bd 0b 6d b4 bd ad 5d 1e be
       -0.042846315 -0.039186154 -0.08809861 -0.15465422
000060 19 dc b0 bd cd 2f 92 bd f4 41 07 be 94 8c 62 be
       -0.0863573 -0.071380235 -0.13208753 -0.22123939
000070 34 1c d0 bd 72 01 f6 bc 15 a8 a9 3c 89 40 b7 bd
       -0.10161629 -0.030029986 0.02071003 -0.08947856
000080 da 38 8d bd 91 46 49 3d b6 20 76 be 58 9f cc bd
       -0.06895609 0.049139563 -0.24035916 -0.0999133
000090 08 e1 96 ba 86 9f a7 bd ea 5a d3 bd df 93 da be
       -0.0011511156 -0.081847236 -0.10320075 -0.42690942
0000a0 ae 86 c1 bd b3 c1 f4 bd 26 18 d0 bc 92 ff 0b be
       -0.09449516 -0.11951008 -0.02540214 -0.13671711
0000b0 84 fa c0 be 26 b1 15 3c e5 6e 1a bd a2 49 df bd
       -0.37691128 0.009136474 -0.037703414 -0.10902716
0000c0 a2 cc 5f 3d ac 48 d4 3e 20 f6 fb bd be 00 38 be
       0.054638512 0.41461694 -0.12302804 -0.17969033
0000d0 6d 57 fc bd 1f d1 57 bc 96 04 be 3d 39 d0 df bb
       -0.12321363 -0.013172417 0.092782184 -0.006830242
0000e0 d5 e3 38 bd 96 05 65 bd 94 58 ff bd 72 12 ce 3e
       -0.045139153 -0.05591353 -0.12468067 0.40248448
0000f0 9e 4c 26 3e 68 6f 02 3e da f4 ad 3c 3d 02 2d 3d
       0.16240165 0.1273781 0.021234918 0.042238463
000100 5f cf ab 3d 82 6e 2d 3d 0d bb 55 3d e1 c2 20 bd
       0.08389162 0.042341717 0.05218034 -0.03924835
000110 f5 6c 05 3d 54 98 e1 3c 51 a8 a3 3d fb 36 7a bd
       0.032574613 0.027538456 0.07991088 -0.06108759
000120 ca 4f 2e 3b eb 03 c6 bd ea 50 db 3d c7 18 f7 bd
       0.002659785 -0.09668716 0.107087925 -0.12065273
000130 1b 72 f6 bd 58 0d 02 be c2 73 bf bd 0e 6d bf 3d
       -0.12033483 -0.12700403 -0.09348251 0.093469724
000140 2b ae 22 bd 6e 32 cd 3c 60 b6 78 3d f4 7a b8 3b
       -0.03971688 0.02504846 0.0607208 0.0056298915
000150 e9 89 d5 bd 3b e9 cb bc 5c bc 25 3d 45 29 6a bd
       -0.10426695 -0.024891486 0.040462837 -0.057168264
000160 00 b6 f1 3b e4 2f 83 bc bd af 7a be 54 71 17 be
       0.0073764324 -0.016014047 -0.24481101 -0.14789325
000170 a6 e3 02 be 64 ac 85 be 35 28 6f be 47 c1 de 3d
       -0.12782153 -0.26108086 -0.23355182 0.108767085
000180 cc 29 0a 3e dc 19 5e 3d 43 fa e9 3d 8e 27 c7 3d
       0.13492507 0.05422388 0.11424687 0.09724341
000190 1f 21 69 3d 71 47 67 3d 1d 65 07 3d 4d 1a a7 bd
       0.056916352 0.056464616 0.033055414 -0.08159313
0001a0 31 ad d6 3d 7e 68 66 be b5 04 2a be 86 16 7f be
       0.104822524 -0.22500798 -0.16603358 -0.24910936
0001b0 60 39 e8 bd 6f 48 43 be 21 2b 17 be d3 ba ed bd
       -0.113390684 -0.190706 -0.14762546 -0.116078995
0001c0 93 f0 55 be 67 84 0a be 6c 63 23 bd 44 08 a8 be
       -0.20892553 -0.1352707 -0.039889738 -0.32818806
0001d0 64 f1 a2 be b1 fa 94 be f6 59 b8 be c8 52 10 be
       -0.3182479 -0.29097512 -0.36006135 -0.14094079
0001e0 f3 e6 0b be 30 5a 8d bd ab c5 3f be d7 13 b8 bd
       -0.13662319 -0.069019675 -0.18727748 -0.08988159
0001f0 ca 2c 6a be 9f 5c 8f be b9 46 23 be 97 ef 42 be
       -0.22868648 -0.28000352 -0.15944947 -0.19036709
000200 11 7c 86 be dd 35 02 be 04 8a 93 bb f8 2b 44 3c
       -0.2626653 -0.1271586 -0.0045025367 0.011973374
000210 0b f7 3f 3d 3e d2 c4 bc 26 5a 72 3e 39 99 a5 bd
       0.046866458 -0.024026033 0.23667201 -0.080858655
000220 03 c4 2f 3d 8a 9a 40 bd 0d f2 cc bd 82 0b bb 3d
       0.04291154 -0.04702238 -0.10007105 0.09133054
000230 ff 27 d9 bc d6 14 9e bd e2 18 ac 3c 0c a2 2e bc
       -0.02650833 -0.07718818 0.021007959 -0.010658752
000240 59 a4 32 bc b7 99 40 3d 95 42 fd bd 4f 06 12 bc
       -0.010903441 0.047021594 -0.12366215 -0.008912637
000250 4d d1 e2 bd 2b fb dd 3c 9a c6 df 3c 95 d2 3a 3d
       -0.11075077 0.027097305 0.02731638 0.045610983
000260 45 a1 f5 3c 43 dd 0a bd 81 9f 02 bd 8b ec 3d be
       0.029984126 -0.033902418 -0.031890396 -0.18547265
000270 f2 96 ca bd d6 b1 4c be 96 06 20 be 72 df f4 be
       -0.09892072 -0.19989714 -0.15627512 -0.47826725
000280 48 3f 30 bd 90 9d 01 bd 7a 19 66 bd fa 36 34 be
       -0.0430291 -0.031644404 -0.05617664 -0.17599097
000290 5a 9d b5 3e 6f 36 8e 3d 25 ca 52 3d af bd 8c bd
       0.35471612 0.06943976 0.05146231 -0.06872117
0002a0 64 ed a3 bd c8 d1 86 3d 7e 8c 30 be 90 d8 14 be
       -0.08004263 0.06582981 -0.17241094 -0.14535737
0002b0 8e 6e ed bd 76 0f a8 bd 86 6f 30 bd ed 55 53 3d
       -0.11593352 -0.08206074 -0.043075107 0.051595617
0002c0 86 1f 17 bc 45 43 00 be 19 5f f4 bd 15 71 aa bd
       -0.009223824 -0.12525661 -0.11932201 -0.0832235
0002d0 c5 83 2d be 95 e0 02 be d0 09 0c be 76 80 56 be
       -0.16944797 -0.12780984 -0.13675618 -0.20947441
0002e0 e5 75 9b bd d0 e4 8d bd 1a 59 93 bd e1 47 48 be
       -0.07590846 -0.06928408 -0.07194729 -0.1955867
0002f0 6e ce d3 bd b1 b1 47 bd ce 87 01 3c 99 ae da bd
       -0.10342108 -0.048753444 0.0079059135 -0.10677833
000300 de dd 8f 3c 06 83 57 bd 94 4a 8d be 30 f5 9d 3c
       0.01756185 -0.052615188 -0.2759596 0.019281954
000310 49 ee 46 3c 6c a6 c5 bd bb 0c a9 bc 3f 9b a6 3b
       0.012141773 -0.09650883 -0.020635953 0.0050844247
000320 c9 f4 64 bd 02 b5 e8 3c 83 48 a2 bc 81 bb 18 bc
       -0.055897508 0.028406624 -0.019809967 -0.009322048
000330 a8 5e 82 3d 60 85 23 be 9b e0 88 be 59 d1 78 be
       0.063657105 -0.15968847 -0.2673386 -0.2429861
000340 99 50 40 be 0c 7e b1 be 6a cf ee bd 89 2e 01 be
       -0.18780746 -0.3466648 -0.11660655 -0.12615408
000350 aa 78 5e bd c0 d8 fc bc 80 a3 25 3d 86 50 51 bd
       -0.054314293 -0.030865073 0.04043913 -0.051102184
000360 97 51 4b 3c 52 30 56 3c 1f 33 a8 bd a0 f3 80 bb
       0.012409589 0.013073044 -0.082128756 -0.0039352924
000370 5d 10 3d be a8 18 83 bd 5e a8 2a be 4d 9a 6d be
       -0.18463273 -0.06401187 -0.1666579 -0.23203392
000380 dd 9a d8 bd ec e2 dd 3c 5e 6b 45 bd 6f b4 9c bd
       -0.10576413 0.027085744 -0.048198096 -0.076516025
000390 92 8f b0 b8 dc 1a 92 3d 66 84 bf bd ee 4f 7d 3d
       -8.419076e-05 0.07134029 -0.09351425 0.061843805
0003a0 c5 0f a5 bd 0f 3f 56 3d ad 84 3e bd 26 48 cd bd
       -0.080596484 0.05230623 -0.04651325 -0.10023527
0003b0 6e 3e c6 bd 5e be 3d bd af 90 6e 3b e2 6b c3 3a
       -0.09679876 -0.046324126 0.0036402156 0.0014909471
0003c0 21 65 77 3d 66 b5 1a bd fe 66 ac bd 42 68 48 bc
       0.06039918 -0.03777065 -0.08418082 -0.012231888
0003d0 94 de 6d 3c 9b 48 e8 bd be ae 04 be 02 da 0c be
       0.014518399 -0.113419734 -0.12957284 -0.13755038
0003e0 6c 5d 1d be 1f 20 67 bd e6 3c e6 bc c0 b9 7c bd
       -0.15367669 -0.056427117 -0.02810521 -0.061700583
0003f0 ae ea 2d bc 91 05 e8 bd d0 cd 65 be 8e e6 fd bd
       -0.010615034 -0.11329187 -0.22441792 -0.123974904

lstm.weight_hh_l0 f4 [400, 100]
000000 90 d4 02 3d 24 ad 99 3d 32 9c 7e bc 55 f0 42 3d
       0.031940997 0.07503727 -0.01554017 0.04759248
000010 90 a6 27 be b9 9e 4a 3b bf c8 b0 3d 2e 42 40 3c
       -0.16372132 0.003091736 0.08632039 0.0117345285
000020 c9 75 71 bd 46 43 75 bd ca 66 63 3e f1 0c a4 3d
       -0.05895022 -0.05987861 0.2220718 0.08010281
000030 57 74 d9 3d a9 1f fa 3d ff ab b2 3c ef 23 89 3c
       0.10617893 0.1221307 0.02181053 0.016740767
000040 82 23 7a 3d 3d fc a5 3c 65 a4 19 3d f6 06 a4 be
       0.06106902 0.020261878 0.037510294 -0.3203656
000050 73 79 05 3c 24 c1 fd bd 80 29 ce bd 40 7b 1d be
       0.0081466315 -0.12390354 -0.10066509 -0.15379047
000060 39 5b 19 bd cd a2 3d bd 68 65 a4 3d 25 15 59 bd
       -0.037440512 -0.046297837 0.08027154 -0.05299868
000070 06 ec 9c bd 48 96 03 3e ef 3b 58 bd 92 6d 0f bd
       -0.076622054 0.12850296 -0.052791532 -0.035016604
000080 cc 45 e6 3e 40 db 6a 3c 7d 43 11 3e a1 25 ed 3d
       0.44975126 0.0143345 0.14185901 0.11579443
000090 fc 91 f6 bd 42 4c 81 3c f1 fb a9 3d 2a 57 39 bd
       -0.12039563 0.015783433 0.08300007 -0.04524914
0000a0 8f b6 9c 3d 2f a9 d7 bd 49 e7 ee bd 7e a9 20 3d
       0.07652008 -0.10530316 -0.11665208 0.03922414
0000b0 77 e2 2c bd ef b0 61 3d f5 4e 02 bc 55 26 12 bd
       -0.04220816 0.055100378 -0.007953395 -0.035681088
0000c0 7a 2d 99 3d 07 a8 98 3d 39 30 7c 3d 9c 16 ba 3c
       0.07479377 0.07453924 0.061569426 0.02271586
0000d0 15 a5 47 3c 29 bf 8a bd 81 cb 01 be 46 3c a8 bd
       0.012185355 -0.06774742 -0.12675287 -0.08214621
0000e0 63 19 0c 3d 13 c5 50 bd 75 b9 ae bd 1a f6 60 be
       0.0342039 -0.050969195 -0.08531467 -0.2196888
0000f0 79 d7 29 3d be 08 bf bd 75 03 4e 3d 84 cb 00 3d
       0.041465256 -0.09327839 0.050296266 0.031444088
000100 94 70 84 3c 71 6e 1c bd 48 b1 02 3d 96 ec 06 bd
       0.016166963 -0.038191263 0.03190735 -0.03294047
000110 d3 82 95 3b b2 52 ee bd a8 ed c8 bb b8 77 d3 bd
       0.0045627146 -0.11636867 -0.0061318465 -0.10325569
000120 99 ba 6c bc ea b4 6c bd 59 81 5b bb 27 2c 91 3d
       -0.014448785 -0.05778972 -0.0033493845 0.070884995
000130 16 75 0f 3d e7 75 d3 bb f1 bb aa 3d 38 78 f3 bd
       0.03502377 -0.006453264 0.08336628 -0.11888164
000140 cc f5 31 3d 8b 06 2a be 0d b7 7b 3b e9 d4 a5 3d
       0.0434473 -0.16604058 0.0038408667 0.0809725
000150 1e fa 0d be aa e6 f4 bd 12 48 85 3c 68 4c a7 3d
       -0.13864943 -0.11958058 0.016269717 0.0816887
000160 01 a9 bb 3d 97 5c de 3d 4b c6 fa bc 68 8d ed 3a
       0.09163094 0.10857504 -0.030612132 0.0018123807
000170 d3 59 24 bd 31 e8 d3 3d 42 d5 1f 3d b5 04 a3 bd
       -0.040124726 0.10347021 0.039021738 -0.07959882
000180 8c a0 f5 bd 68 e9 18 3e 2f 56 df bd be 26 b1 3d
       -0.119935125 0.14932787 -0.1090511 0.086499676
000190 d7 81 71 3c e9 34 f7 bd c5 3e 76 3d 55 00 32 be
       0.014740429 -0.12070639 0.060118455 -0.17382939
0001a0 1c 2f a3 be a8 09 5b 3e 0f 14 25 3d 04 dc 08 3e
       -0.3187188 0.21390402 0.040302332 0.1336518
0001b0 ce d3 58 3e 0e cc 05 be 05 29 2f 3e 2b ff c7 3e
       0.21174547 -0.13066122 0.17105491 0.39061865
0001c0 c5 7c c0 3d a8 09 60 bd cf 7d 20 bf 1f 7a 0f be
       0.09398798 -0.05469671 -0.6269197 -0.14011429
0001d0 42 77 ab 3d 97 89 19 bd 7b 6e 2d be b3 3e 2a 3d
       0.08372356 -0.03748473 -0.16936676 0.0415637
0001e0 4f 80 89 bd e6 cf 86 3d 0d 8c 62 3d 10 f7 09 3e
       -0.06713926 0.06582622 0.055309344 0.13473153
0001f0 f6 ab 02 3c c1 c9 b5 be 0c 58 54 3d 80 68 e2 3d
       0.007975569 -0.3550549 0.05184178 0.11055088
000200 e2 9c 95 be 0d 27 b7 3d 7b 85 92 be e5 bc 88 bd
       -0.29221255 0.08942995 -0.28617463 -0.06676654
000210 eb 0e 27 3f 41 17 9e 3d 1f 3b 9b bc 25 7d bb bd
       0.6525714 0.07719279 -0.01894909 -0.09154729
000220 87 6a 2a 3e e3 41 91 bd 17 87 6f 3c e8 b6 35 be
       0.166422 -0.07092645 0.01461961 -0.17745554
000230 5a b5 89 bd d2 40 10 bd fa 6f 8c 3d 9a ce 16 bd
       -0.06724043 -0.035218067 0.06857295 -0.036818124
000240 e5 db dd bd 55 95 c9 3d ba a1 61 be c9 c0 fe 3c
       -0.10832957 0.09842936 -0.2203435 0.031097787
000250 bc 44 27 3b bf 06 2a be 5f e6 9f bc 95 5f ff 3e
       0.0025523147 -0.16604136 -0.01951903 0.4987761
000260 f7 a1 b3 3c 1f ba aa 3c 00 34 97 3d 80 45 2c be
       0.021927817 0.020840703 0.07382965 -0.16823387
000270 54 ae f9 3c e9 e3 8b 3d 8c 11 cb 3d d2 20 1d be
       0.030478634 0.0683058 0.09915456 -0.15344551
000280 06 50 20 3e 60 3d d1 3d 2b 09 6e 3e c6 83 df be
       0.15655527 0.102167845 0.23245685 -0.43655223
000290 1d 54 1a 3e 43 99 ef 3d 89 e5 14 3d ee 29 a8 bd
       0.15071149 0.11699154 0.036351714 -0.082111225
0002a0 42 0c ba 3d d4 ed 2f bd 53 e9 8b bc 12 00 3c 3e
       0.09084369 -0.04295142 -0.017079031 0.18359402
0002b0 ec dd 15 3e 3d 56 28 bd d3 96 0f bd 05 8b 53 3d
       0.14635438 -0.04109787 -0.035055947 0.05164625
0002c0 5d 99 ac be b4 fb 11 3e a7 4c 8d 3d 20 59 55 3e
       -0.33710757 0.14256173 0.06899386 0.2083478
0002d0 f5 b7 b9 3c 84 aa ed bc 61 95 04 3f b7 cc 82 3d
       0.022670725 -0.029011972 0.51790434 0.063867025
0002e0 0d fb be 3c 2b 56 1a 3d 3e 21 7b bd 20 bc b6 3d
       0.02331307 0.037679832 -0.061311 0.08922601
0002f0 ec a0 b4 be 6a 68 95 3c 97 84 31 3d aa 24 b5 3b
       -0.35279024 0.018238265 0.04333934 0.0055280523
000300 ee 7c 95 be 14 c3 04 be b0 26 13 be b0 b8 1e 3f
       -0.29196876 -0.12965041 -0.14370227 0.6200056
000310 0e 73 0a be ad c0 b6 bd 28 6d 84 3d cb 37 68 bd
       -0.13520452 -0.08923469 0.064661324 -0.056693833
000320 37 66 62 bc c1 f2 8b 3d e0 6f 2f 3d fc 0d 9d bc
       -0.013818315 0.06833411 0.0428313 -0.019171707
000330 45 c5 22 be 2c 69 21 be d7 8a a1 3d 5c 43 14 3d
       -0.15895565 -0.15762776 0.0788781 0.03619705
000340 81 da 3d 3d 54 ba f7 3d 02 92 2c 3e 0a 03 6b 3c
       0.04635096 0.12096086 0.16852573 0.014343986
000350 cc 87 92 bc 6a a1 7b 3d d2 21 98 3c 82 d2 bd ba
       -0.017887019 0.061433233 0.018570814 -0.0014482292
000360 7c 4a 91 bc 6c 42 0f ba 77 7c f1 bd c7 0b 87 be
       -0.017735712 -0.0005464915 -0.11791318 -0.26376173
000370 c6 2b 07 bc f6 a0 bd 3c b7 b5 ef bd b3 34 b0 bd
       -0.0082501825 0.023148041 -0.11704581 -0.086038016
000380 a2 ae 80 3c 4b 36 1a bd db 8c 33 bd bc fd 00 3e
       0.015708271 -0.037649434 -0.043835502 0.12596792
000390 94 51 db bd 68 e4 e1 ba a7 77 11 bd e4 eb ed bd
       -0.10708919 -0.0017234208 -0.0355145 -0.11617258
0003a0 21 80 a3 3e 5e 73 cd bd 5c 84 08 3e 42 84 05 3e
       0.31933692 -0.1003177 0.13331741 0.13038734
0003b0 dc 89 a2 3c e3 8f 04 be e2 de d6 3d 53 0f 87 bb
       0.019841127 -0.12945513 0.1049173 -0.0041217
0003c0 d3 8d 03 3e 2b dc b2 bd ea 04 a9 bd d4 68 ba bc
       0.1284707 -0.087334 -0.082528904 -0.022755064
0003d0 59 5f 45 bd bb 89 42 bd 77 55 53 bc df 6d e1 3d
       -0.048186634 -0.04749463 -0.012898794 0.110072844
0003e0 0b 10 26 3d 5d 44 0d 3d e4 dd de bc eb da 85 bd
       0.040542644 0.034489024 -0.027205415 -0.06535896
0003f0 2c fb 78 3d 43 d4 e8 3d 10 7d 46 be 99 08 2f be
       0.06078641 0.11368611 -0.19383645 -0.17093123

lstm.bias_ih_l0 f4 [400]
000000 1a 77 b7 bd 6b a4 91 bc 58 52 ba 3c 65 d5 3f be
       -0.08958264 -0.017778596 0.022744343 -0.18733747
000010 05 72 19 3d 47 89 73 bd a7 75 8f bd ae 11 09 be
       0.037462253 -0.05945709 -0.07004862 -0.1338565
000020 53 43 04 be 2c 31 de bb 42 36 b7 bd 16 5f ff bc
       -0.12916307 -0.006780764 -0.08945896 -0.03117327
000030 1d d1 93 3d e7 5e 08 bd cb d4 19 bc 98 0f d9 bd
       0.072176196 -0.03329363 -0.009389113 -0.105986774
000040 e8 b8 6d 3d c3 e7 b8 3d 95 5d e2 bd 28 f4 94 3d
       0.05803767 0.0902858 -0.110530056 0.072731316
000050 67 4c 8a 3c 70 08 38 be 2c 06 0a bd 8c 33 e1 bd
       0.016882135 -0.17971969 -0.033697292 -0.1099616
000060 2f b7 33 bd 7c 41 0e be e8 1e a6 bd 03 fb 86 bd
       -0.04387587 -0.13892168 -0.08111364 -0.065908454
000070 a6 ed 0f be 9c 6a 89 3c dc cc a5 3d e6 fc 17 be
       -0.140555 0.016774468 0.080957144 -0.14842567
000080 60 50 6d bd f4 eb 98 3c 33 9c 83 bd 38 e6 da bd
       -0.05793798 0.018667199 -0.06426277 -0.10688442
000090 e9 af f7 bd cf ea fa bd 96 9b b8 bc 51 eb 69 3d
       -0.12094099 -0.122518174 -0.022535127 0.05710918
0000a0 6a 44 29 3d 25 3d 38 bd dd 69 c3 bd f5 c0 9b 3b
       0.04132501 -0.044980187 -0.09541676 0.004753227
0000b0 ec 66 2b be 03 81 ed bc 79 75 d9 3d 80 31 f1 bd
       -0.1673848 -0.028992182 0.10618109 -0.117770195
0000c0 32 2d e2 3d 2e 09 89 bc fb 2c 46 3d ed 90 86 bd
       0.110437766 -0.01672801 0.04838274 -0.06570611
0000d0 e0 dc fa bd 4b a0 84 3c 0e fb b8 bd b4 a6 5c be
       -0.1224916 0.016189715 -0.0903226 -0.21547967
0000e0 27 4e 0a be 16 17 4b be 4e aa b1 bd 5a 59 fb bd
       -0.13506375 -0.19833025 -0.08675061 -0.12272902
0000f0 14 68 13 be d5 ba 36 bb fc 50 83 3d 13 3a 03 3d
       -0.14395171 -0.0027882357 0.06411931 0.032037806
000100 15 be 14 3d 1f 91 25 be 8a 7e ec 3b 5b 3f 02 be
       0.03631409 -0.1616864 0.007217233 -0.1271948
000110 f4 ae 24 bd a2 4e 94 bd 18 9c 19 3d 02 76 f8 3c
       -0.04020591 -0.072415605 0.03750238 0.030329708
000120 83 f7 74 bb a8 73 08 be 1f 77 ba bd 07 88 f0 bd
       -0.0037378974 -0.1332537 -0.09104752 -0.11744695
000130 7b 99 b5 bd 25 fc d7 bd ff f3 b2 3d 65 be 0e bd
       -0.08867165 -0.1054614 0.08737945 -0.034849543
000140 34 09 ff bd f3 19 4b bd b5 4b c3 3c cf 63 6d bd
       -0.12452927 -0.049585294 0.02383981 -0.057956513
000150 53 67 f4 bd f3 0e 9c 3d a6 a1 d9 bd e0 b5 19 be
       -0.1193377 0.07620039 -0.10626535 -0.15010786
000160 98 34 6c 3d a5 3a 05 bd eb 0e 28 bd 85 e0 4b 3c
       0.057667345 -0.03252663 -0.041029852 0.012443666
000170 65 83 3e be 56 e8 2a be f6 90 9d bd 36 3c 4e 3c
       -0.1860481 -0.16690192 -0.07693665 0.012587598
000180 a3 11 cb bd 50 50 07 be d9 c4 9a 3d 56 7a f2 3d
       -0.09915473 -0.1321423 0.07557077 0.1183974
000190 b7 3e 5d 3d 88 34 bb bd 4f 14 f2 bd a3 80 47 be
       0.054014888 -0.09140879 -0.1182028 -0.19482665
0001a0 ee fd de bd d1 df d2 bc 7e 80 bf bd 6a 13 65 be
       -0.10888277 -0.02574149 -0.0935068 -0.22370687
0001b0 68 3d fc bd f4 17 4d 3c 8d 75 43 bc b7 c9 94 3b
       -0.123164 0.012517918 -0.011929882 0.004540648
0001c0 49 72 23 3e 33 b7 a8 bd 70 bd 01 be 19 07 1e 3d
       0.15961565 -0.082380675 -0.12669921 0.038580988
0001d0 82 32 15 bc 34 ca 7f bd f8 de 48 bd a8 c1 1d 3d
       -0.00910628 -0.062448695 -0.049040765 0.038514763
0001e0 9b 8c 4f 3d 65 ec 3e be 01 02 52 be 87 48 b2 bd
       0.0506712 -0.18644865 -0.20508577 -0.0870524
0001f0 a9 df d5 ba 77 b0 30 bd e4 31 cf 3c 20 99 d2 3c
       -0.0016317266 -0.04313704 0.025292344 0.025707781
000200 c3 68 b3 bd 68 f3 2a 3d 08 e2 08 be bb dc c3 bd
       -0.08760216 0.041736037 -0.13367474 -0.09563585
000210 b5 44 13 bd 15 f3 b9 bc 5c e8 32 bd b1 8b bc bd
       -0.035954196 -0.022698918 -0.043678626 -0.092063315
000220 e9 8e 12 be 1c aa 84 bd ca 28 68 bd 6d 50 be bd
       -0.14312328 -0.06477758 -0.056679524 -0.09292684
000230 d5 2e 8d 3b cd b5 db bc 49 ec 60 bd 88 3e a8 bd
       0.0043085613 -0.026820088 -0.05491284 -0.08215052
000240 f2 29 40 be 75 5e ad bd 7d 99 91 bd 89 8d ac bd
       -0.18766001 -0.08465282 -0.07109354 -0.08425433
000250 39 50 c9 bd 9b a4 70 bc c3 c9 03 be f4 ab b3 3c
       -0.098297544 -0.0146876825 -0.12869935 0.02193258
000260 64 eb 10 be 82 d6 9d 3d 7f 92 1d be 29 69 d8 bd
       -0.14152294 0.0770693 -0.15387915 -0.10566933
000270 a5 b9 b1 3a 9d ab cd bd 2c 9c 33 bd b6 ea 25 be
       0.0013559355 -0.10042498 -0.04385011 -0.16202816
000280 88 5c 33 be 5b 01 82 bd 86 13 9d bd 88 8c 46 be
       -0.17515767 -0.06347915 -0.076697394 -0.19389546
000290 2b 3f 0d bc 81 ac bd 3b 77 ba 85 3d 3a 39 91 bd
       -0.008621017 0.0057883863 0.06529706 -0.07090993
0002a0 45 ec 26 bd 41 d0 28 bc 5f 05 32 bc dd df e5 bd
       -0.040752668 -0.010303558 -0.010865538 -0.11224339
0002b0 bd fe 56 3d 86 a3 25 be d4 fb a1 3a 1d 3d fc bb
       0.05248903 -0.1617566 0.0012358376 -0.007697715
0002c0 f4 bd 2c bd c5 da 40 be b2 a0 ae bd 45 6c 37 be
       -0.04217334 -0.18833454 -0.08526744 -0.17912395
0002d0 b8 62 ff bc e4 1d 34 3c f4 19 52 be fc fd 69 b9
       -0.031175002 0.010993455 -0.20517713 -0.00022315228
0002e0 4c 3d 22 3a af 93 15 bd 2f b6 e8 3c 0c 8d ab bd
       0.00061889435 -0.036517795 0.028407184 -0.08376512
0002f0 7a 9b 84 bd eb 89 9c bd cf 6b 3c be da 2d 51 bd
       -0.06474967 -0.07643493 -0.184005 -0.051069118
000300 7b d9 47 be e0 a2 41 bc 24 2a ca bd 71 92 bd bc
       -0.19516556 -0.011818618 -0.09871319 -0.023141118
000310 4d a0 25 bd 69 42 0b bd 29 52 ff bd 83 b7 da bd
       -0.040436078 -0.03399888 -0.12466843 -0.10679533
000320 a4 27 93 bc fb ba 1c bd 63 74 e2 3c 95 9e d4 bc
       -0.017963238 -0.038264256 0.027643388 -0.025954524
000330 79 61 1e bd 3a 12 0e bd d8 f3 80 bc 64 a6 94 bc
       -0.038667176 -0.03468535 -0.015741274 -0.018145747
000340 24 fa 8a 3d bb 1e 23 bd d3 ae 50 3c b9 1b 3c bd
       0.06785992 -0.03982423 0.012736994 -0.045924876
000350 77 8e 5a 3d 26 c5 62 bc f5 46 a3 3d 89 51 e4 3c
       0.05335852 -0.013840949 0.07972518 0.02787091
000360 72 9d 8a bc 8c 4d b9 bd 29 8a ff bc d7 59 54 bd
       -0.016920779 -0.09047994 -0.03119381 -0.05184349
000370 b5 30 e1 3d f8 ad 41 ba 94 1f d7 3c 48 f2 23 3d
       0.10995618 -0.0007388289 0.026260175 0.04002598
000380 01 82 e2 3a 18 e5 3d bd 83 8c 40 bd 3a 1d 65 bd
       0.0017281176 -0.04636106 -0.047009002 -0.055936076
000390 14 46 c3 b9 c4 7a 76 bd 84 a0 a5 bc 9d 7e 0c bd
       -0.0003724551 -0.060175672 -0.020218141 -0.034300435
0003a0 ed 37 e4 3c 4f dc 17 3d e9 2e 78 3d ad da db bd
       0.027858699 0.037075337 0.060591612 -0.107350685
0003b0 1b 61 68 bd 13 90 94 bd 9c 37 44 3d 73 06 90 bb
       -0.056733232 -0.072540425 0.047904596 -0.0043953
0003c0 90 2b 9f bd 87 49 22 3d cb f6 93 3d 40 8f 31 3d
       -0.07771981 0.039620902 0.072248064 0.043349504
0003d0 2c e0 0b bd 80 3c 15 bd 0d 16 05 3c 70 a9 3c bd
       -0.034149334 -0.03643465 0.008122933 -0.046060026
0003e0 57 de af bd 1b e0 be 3c bd 0b 8c bb ff 6d 5d 3d
       -0.0858733 0.023300221 -0.0042738602 0.05405998
0003f0 49 fa 3e 3d 7a 40 a7 bc d4 4b 30 3d b6 ec 04 3d
       0.04662541 -0.020416487 0.043041065 0.032452308

lstm.bias_hh_l0 f4 [400]
000000 1b cf 6a bd 24 a4 c1 bd 18 e8 60 bd b3 4f 65 be
       -0.057326417 -0.094551355 -0.05490884 -0.22393684
000010 20 c5 88 3b 38 cb 10 be e1 39 a6 bd 12 47 16 be
       0.0041738898 -0.14140022 -0.08116508 -0.14675549
000020 ff bb c8 bd 32 56 91 3a 51 97 be bc e9 d2 36 bd
       -0.098014824 0.001108831 -0.023265513 -0.044634733
000030 92 8d c1 bc c3 55 71 bd fa ae 10 3e 1a 07 13 bd
       -0.023627076 -0.05891968 0.14129248 -0.035895444
000040 2a 9d 10 bd 77 28 f9 3c e3 23 61 be a9 30 85 3d
       -0.035306133 0.030414803 -0.21986346 0.06503422
000050 70 31 08 bc 8a db 97 bd 34 c1 84 bd 31 5e 86 be
       -0.008312568 -0.07414921 -0.06482163 -0.26243737
000060 a3 aa 26 bd 25 52 2f be 33 a7 2d bd e4 ff 66 3c
       -0.040690076 -0.1712118 -0.04239578 0.014099095
000070 1e b4 07 be b0 fc e4 bc 0a 56 a0 3d 72 59 94 bd
       -0.13252303 -0.027952522 0.07828911 -0.07243623
000080 de 4a 03 be 5a 24 c4 3d c4 23 35 bd b6 30 12 bc
       -0.12821528 0.09577246 -0.044223562 -0.008922746
000090 26 d6 a6 bc 40 c3 89 bc 44 0b 6e 3d 5f 85 86 bd
       -0.020365786 -0.016816735 0.058116212 -0.06568407
0000a0 14 75 ce 3c 90 53 8b bd da 48 c5 3c 8d 1e e3 bc
       0.025202312 -0.06803048 0.02408259 -0.027724529
0000b0 18 46 b2 bd e6 d2 ca bd 39 0c 3f 3d 2f 23 98 bc
       -0.087047756 -0.09903507 0.046642516 -0.018571464
0000c0 7f fb 6b bd 66 e5 f0 bd 88 ed 03 be 5b cf f0 3c
       -0.057612892 -0.11762504 -0.1288358 0.02939575
0000d0 5c 63 47 be 9c fe af bd 14 20 0d be 29 1e 62 be
       -0.19471496 -0.08593485 -0.13781768 -0.22081818
0000e0 96 f8 ac bd d6 da 14 be 2d 89 19 3c 3e ab e9 bc
       -0.084458515 -0.14536604 0.009371084 -0.028524037
0000f0 0d b9 20 be 1b 7f 7d bc 00 dd a8 bc e9 d3 4f 3c
       -0.15695591 -0.015472199 -0.020613194 0.012684801
000100 10 d7 9d 3d d2 44 c1 bd 4f 09 0a 3d 1b 0b 22 be
       0.077070355 -0.094369546 0.033700284 -0.15824549
000110 f4 bf 4b bd 99 f8 b3 3d 54 a6 13 3d 78 da 4d 3d
       -0.049743608 0.087876506 0.036047295 0.050257176
000120 88 52 72 bb 40 2a 98 bc c6 8b 3a 3d e4 ec b3 bd
       -0.0036975462 -0.018574834 0.045543455 -0.08785418
000130 7b 27 81 3c fb d5 04 be 5d 2f ee 3c ce e6 c4 bd
       0.015765896 -0.12972252 0.029075319 -0.09614335
000140 3d 62 c3 bd d8 95 5e bd e0 46 b4 3d 11 d3 38 bd
       -0.09540222 -0.05434212 0.08802581 -0.045123164
000150 a7 62 10 be d2 78 5f 3c 21 a9 7c bd 7a b3 af 3b
       -0.14100133 0.013639646 -0.06168473 0.0053619714
000160 28 d0 02 3d 6e c0 13 3d dd c6 49 be ac 3b 09 3b
       0.031936795 0.036072187 -0.19704767 0.0020940108
000170 4a 6c 85 bd 25 2a 3e be a6 1f be 3c 00 21 3d 3c
       -0.06514795 -0.18570764 0.02320845 0.011543512
000180 c8 eb 7e bd 08 44 dd bc 01 2c ec bc 7b 89 d1 3c
       -0.062236577 -0.027009979 -0.028829576 0.025578251
000190 8f dc 65 3d 1d 7a 89 be 97 36 03 3d 3d 1e 5c be
       0.056118544 -0.26850978 0.032034483 -0.2149591
0001a0 36 ce 9b 3a 87 fe 41 be eb 09 61 3d 36 dd 64 be
       0.0011887017 -0.1894475 0.0549411 -0.2235001
0001b0 8b 42 1d be cd 4d ce 3d 1a b8 0d bb 98 1a 44 bd
       -0.15357415 0.10073433 -0.0021624626 -0.047876924
0001c0 04 c3 85 bc c2 91 22 3c 60 5e 66 be 0d a1 56 3d
       -0.016328342 0.009922447 -0.22496939 0.052399684
0001d0 11 a2 92 bd d4 0f a4 3d f6 73 be bd a6 b2 67 3d
       -0.07159818 0.080108315 -0.092994615 0.056566857
0001e0 af 6b a3 bc 76 35 ed bd 9a 18 1b bd df ea 50 be
       -0.019948808 -0.115824625 -0.03786526 -0.20402096
0001f0 fd bd f5 bd e2 e7 0a be 79 ee 80 3c cf a5 6f bc
       -0.11999128 -0.13565019 0.015738713 -0.014626934
000200 f4 08 16 be 20 64 f1 bd de c9 e3 bd 19 9c 70 bd
       -0.14651853 -0.117866755 -0.111224875 -0.058742616
000210 e5 06 06 be 57 57 42 bd 92 5d 8e bd 43 e5 f0 bd
       -0.13088568 -0.047446575 -0.06951441 -0.11762478
000220 15 87 3c bd 15 0f 43 be 6d 73 8b bd 00 37 13 bd
       -0.04602726 -0.19048722 -0.06809125 -0.035941124
000230 47 b4 fa bc 11 56 36 be f4 ba 01 3c ef 95 b2 bd
       -0.030603541 -0.17806269 0.007918108 -0.08720004
000240 a1 f6 6c bb 52 da 05 bd 71 35 96 bd 0c 9e c7 bd
       -0.0036157744 -0.03267891 -0.07334412 -0.09746942
000250 cb 2a b9 bd d3 6e 09 be 8e 5c 3f be f8 38 20 bd
       -0.09041365 -0.13421182 -0.1868765 -0.03911683
000260 0e dd d2 bd 75 83 7a 3b 4e af 32 be 92 58 3d bd
       -0.10296069 0.0038225327 -0.17449686 -0.046227045
000270 ad 9b c9 bc 30 c0 27 bd a8 12 47 bd 04 e6 45 be
       -0.024610365 -0.04095477 -0.048601776 -0.19326025
000280 c7 83 12 be 0b b4 30 be 60 12 d6 3c dc 61 b3 bd
       -0.14308082 -0.17256181 0.026131809 -0.087588996
000290 8e 0a 7a 3d 7b 8a cf bc 94 98 4a bd 85 00 bf 3b
       0.061045222 -0.025334587 -0.049461916 0.0058289194
0002a0 a8 80 0e 3b 3e ce fe 3c cb e6 47 bd 73 71 4b bd
       0.0021744166 0.031104203 -0.048804086 -0.04966874
0002b0 aa 9d 84 3d 08 7a 0e be fd d0 85 3d a3 02 0a 3d
       0.064753845 -0.13913739 0.06534002 0.03369392
0002c0 06 6e 48 bd dc 07 98 bd 60 1c 95 bd ed 9c 27 be
       -0.04893305 -0.07423374 -0.07280803 -0.16368456
0002d0 b4 ae 2a 3d b5 ad 7c bd 51 e8 9b be 1e 0f cb bd
       0.041670516 -0.061689097 -0.3045068 -0.09914993
0002e0 c6 78 0b be b1 5a 1b bd 92 ac 7c bd 53 ed 1b bc
       -0.1362029 -0.037928287 -0.061688013 -0.009517032
0002f0 67 29 ec 3c ee 95 07 bd 35 83 0c be d0 36 13 be
       0.028828336 -0.03310197 -0.13721927 -0.14376378
000300 5e fa 65 bc 6a 16 06 be 23 c7 f9 bc 51 62 64 bd
       -0.014036743 -0.13094488 -0.030490464 -0.055757824
000310 1a 21 ad bd 59 a8 dc bd a2 f5 c1 bc 0e c4 c4 bd
       -0.08453579 -0.10774297 -0.023676697 -0.09607707
000320 50 d9 8f 3b 7d 0b 15 be 2b 0c e5 bd fc 4b eb 3d
       0.0043899193 -0.14555164 -0.111839615 0.11489102
000330 17 e9 37 3c 36 e0 e6 3d 2c 31 42 bc 7c 06 a2 bb
       0.011225007 0.112732336 -0.011852544 -0.0049446207
000340 a8 7c b8 bd 7d b5 c3 bd f0 be b8 ba 9b 6f e0 3d
       -0.09008151 -0.095561005 -0.001409499 0.10958787
000350 c7 8d 2a 3d 4f fa 89 bd 22 7a 09 bc 65 4f b5 3d
       0.041639116 -0.06737196 -0.008390935 0.08853034
000360 63 0f 9c 3d d4 6b bb bd 93 d4 2f bd 7e ee 5e 3d
       0.07620122 -0.09151426 -0.042927336 0.054426663
000370 dd f9 28 3c 36 49 a6 3d 64 dd 63 3d 06 c7 ba 3d
       0.010313478 0.08119433 0.055631056 0.09119992
000380 75 7d 05 bd e2 4c af bd 91 ef 67 bd 46 94 75 bd
       -0.03259035 -0.08559586 -0.056624953 -0.059955858
000390 2e 8b 7f 3c 54 5d b1 bd 6e 09 90 bd 39 18 e5 bd
       0.015597148 -0.08660379 -0.070330486 -0.11186261
0003a0 1f 38 c5 3c 0d e8 18 3d 02 e9 3e bc 9b fe 5d 3d
       0.024074612 0.037330676 -0.011652233 0.05419789
0003b0 ee 5a 90 bc 31 72 b2 3d 9e fc 50 bd 45 5b f5 3c
       -0.017621484 0.087131865 -0.051022165 0.029950747
0003c0 5e 5c 48 bd 51 87 a0 3d 68 79 f9 bc 5d d8 e3 bb
       -0.048916213 0.078383096 -0.030453399 -0.0069532827
0003d0 85 eb 07 3d 29 47 c1 3b 1b 5e 11 bd 36 4f 3f bd
       0.033183593 0.0058983755 -0.035490137 -0.0467064
0003e0 21 15 18 bd b4 ac 12 3d f9 c1 80 3c 31 45 4c bd
       -0.037129525 0.035809234 0.015717493 -0.049870674
0003f0 85 e8 20 3d 97 bd 70 bd b5 98 8d bc 89 e4 76 3c
       0.039284248 -0.058774557 -0.01728473 0.015069135

linear.weight f4 [1, 100]
000000 c6 8e 84 3d 02 5c f4 bd 66 40 38 bd bf 78 82 3c
       0.06472544 -0.119316116 -0.04498329 0.015926717
000010 0b 52 a5 bd 4a 43 6e 3d e8 8c d1 bd f0 0a 34 3c
       -0.08072289 0.05816964 -0.10231954 0.010988936
000020 00 ef 45 3d c8 e0 22 be a6 33 81 3d 15 7b fe 3d
       0.04832363 -0.1590606 0.06308679 0.1242582
000030 3b 92 1e 3e f7 d2 d1 bd 33 aa 84 bd 4c 7d 19 3d
       0.1548547 -0.102453165 -0.064777754 0.037473008
000040 5e ab a5 3d 21 f5 ba bd 2a d2 b1 bc 3a 1f 99 bd
       0.08089326 -0.09128786 -0.02170666 -0.07476659
000050 25 84 9c 3d d6 92 24 3d 8b f4 1f 3d e8 14 1f 3d
       0.07642392 0.040179096 0.039051574 0.038838297
000060 7b b0 30 3d 61 46 84 bd 6c 10 0e be 54 89 54 bd
       0.043137055 -0.06458736 -0.13873452 -0.05188878
000070 13 9a 18 bd 5c 98 94 bd a2 53 1c be a3 d9 8a 3b
       -0.03725631 -0.07255623 -0.15266278 0.00423737
000080 3b f8 ae 3d 22 7e cc 3d 0c 61 19 bd a0 5d 4f bd
       0.0854344 0.099849954 -0.037446067 -0.050626397
000090 ce a3 91 3d 07 dd c4 bc 75 3d 6c bd a4 57 25 3d
       0.071113214 -0.024031175 -0.057675797 0.040366784
0000a0 f6 07 02 be 25 8b 18 bd 04 f8 d9 3d 15 78 af 3d
       -0.1269835 -0.037242074 0.10643008 0.08567826
0000b0 7a 12 60 bc f3 f1 e3 bc 11 64 26 be de 6f 0c bb
       -0.01367628 -0.027825331 -0.1624911 -0.0021428983
0000c0 04 a9 b3 bd 0a 5e c7 bd 80 22 be 3d 6d de 1d 3e
       -0.087724715 -0.097347334 0.09283924 0.1541688
0000d0 3a 52 21 bd fd 61 fd bd 37 1c f2 bb 74 6c 98 bc
       -0.039385058 -0.123722054 -0.0073886174 -0.018606402
0000e0 ee ec e8 bc 65 ca 18 bc 6d 42 8a 3d 6c e2 ab bd
       -0.02843329 -0.009325598 0.06750951 -0.08392796
0000f0 7c c5 dd 3c d7 12 c8 3d 92 9a e0 3c 1a 37 bd bd
       0.027071707 0.097692184 0.027417455 -0.092390254
000100 ec 4c 6a bd 6e cd 86 3d bf 6c 89 3d 07 6b d3 3b
       -0.057202265 0.06582151 0.06710195 0.0064519676
000110 81 33 12 3e 97 17 a9 3d f5 02 c9 3d 67 d9 95 3d
       0.1427746 0.082564525 0.09815017 0.07316857
000120 bc d4 38 bd cc f7 7a bd df a4 9c bd d9 00 d0 bd
       -0.045124754 -0.061271474 -0.07648634 -0.10156412
000130 18 09 f9 bd 88 19 2a 3d 4c 0d be bd 21 3d 5d 3d
       -0.121599376 0.041528255 -0.0927988 0.054013375
000140 c2 19 47 3c 62 6b 11 3d 0c bf b4 3d c8 f2 b6 bd
       0.012152137 0.0355028 0.08825502 -0.089330256
000150 0c 71 d1 3c 54 4d 4f 3d 61 53 d7 bd f9 1a f3 bc
       0.0255666 0.050610855 -0.1051395 -0.029675948
000160 a6 d3 3a be bb d5 9e bc bc 66 81 3d 43 a9 e6 bc
       -0.182448 -0.019389024 0.06318423 -0.028156882
000170 a5 1c 87 bd 56 d3 b5 bc 23 48 c1 bd 6b 4c 13 3e
       -0.065972604 -0.0221955 -0.09437587 0.1438462
000180 29 24 cf bb 2e 7a 38 3d d4 ac 56 3d 16 93 c6 bd
       -0.0063214493 0.045038395 0.052410915 -0.09696023
