model/1721472638_model-aapl.pth (torch, 174356 bytes, 5 tensors)

lstm.weight_ih_l0 f4 [400, 5]
000000 17 10 7b 3d ca 76 06 3d f3 80 7e 3d 45 f2 81 3d
       0.06129464 0.03282813 0.062134694 0.06345037
000010 7d 92 4e bd 67 cc b5 3c f2 f6 c8 3d ab 0c ad 3d
       -0.05043267 0.022192193 0.09812726 0.08449682
000020 5a ec 02 3c 67 46 67 ba 6b 3f b3 bd 3d ce bd bd
       0.007990921 -0.00088224415 -0.087523304 -0.092678525
000030 3a 5a 7d 3d 3a ad a1 3c 65 17 b0 3d 2a 7f a6 3d
       0.061853625 0.019735921 0.08598212 0.08129723
000040 3f e8 9e 3d c0 d3 7d 3d 67 50 16 bb 8d 4f 8b 3c
       0.07759141 0.06196952 -0.0022936107 0.017005706
000050 9a c2 9c bb b0 7c 5a 3d 75 ab a7 3d db 88 80 3d
       -0.0047839405 0.053341568 0.08187 0.06276103
000060 7a 9f f2 3c a2 a7 88 bd 90 01 6e bd a7 b3 5d bd
       0.02961706 -0.066725984 -0.05810696 -0.054126408
000070 cf 2e 8d 3d 40 db d9 3c ff dd b0 bd 0b 03 b0 3d
       0.06893694 0.026593804 -0.086360924 0.085943304
000080 22 c8 bd 3d 73 a8 89 bc 38 b5 a6 bd 0d c8 39 3c
       0.09266688 -0.016803956 -0.081400335 0.0113392
000090 5a a2 92 3c d0 51 29 3d a3 cc 2c bd 00 4a 3a bc
       0.01789968 0.041337788 -0.042187344 -0.011370182
0000a0 67 f4 1b 3d a8 e3 c7 3d c7 02 e7 3c 40 9b 42 bd
       0.038074877 0.09760219 0.028199567 -0.04751134
0000b0 df e6 93 3d e7 8b 88 3d 50 7a 4a bd 33 33 3f b7
       0.072217695 0.06667309 -0.049433053 -1.1396408e-05
0000c0 b3 10 ba bb ca 65 66 bd 48 6d 86 bd 73 31 eb bc
       -0.0056782602 -0.056249417 -0.065638125 -0.028710103
0000d0 95 cb a2 bd 47 1a ec 3c f0 55 b2 bd d8 c5 9c 3d
       -0.079489864 0.028821124 -0.087077975 0.07654923
0000e0 20 02 6f 3d a0 91 57 3d 6d d0 ab 3c 8a eb ab bd
       0.058351636 0.052629113 0.020973409 -0.08394535
0000f0 53 13 e8 3c f3 10 d2 bc 2a 3a 8a bd 52 dc be 3d
       0.028329527 -0.025642848 -0.06749375 0.093193665
000100 bf f6 93 3d 17 4b bd 3d 1d d4 31 3d 70 12 24 bd
       0.072247975 0.09242838 0.043415178 -0.040056646
000110 77 86 46 bd 73 b1 6f 3d 2d 63 db bc e0 a4 cb 3c
       -0.04846808 0.05851884 -0.02678069 0.024858892
000120 fa 43 94 bc e7 27 f4 bc 20 13 5f 3d ba 1b 84 bd
       -0.01809882 -0.029804183 0.0544616 -0.06450601
000130 67 7d 45 bd 3d ab 33 bd 30 f6 46 bd 4a ff 57 bd
       -0.048215296 -0.043864477 -0.048574626 -0.052733697
000140 60 05 9e bc 60 77 a5 bd 27 5d 3b bd 37 cf 8a 3d
       -0.019289672 -0.080794096 -0.045743134 0.06777804
000150 af ca a0 bd 20 5b c1 bd a5 32 c5 3d f0 f0 92 bd
       -0.07851159 -0.09441209 0.096288 -0.071748614
000160 77 0a 25 bd b8 dd a2 3d b7 eb 48 bd 8a 7e 53 3d
       -0.040293183 0.07952446 -0.04905292 0.05163435
000170 53 b2 99 3c 57 fe 68 bd 8d 94 01 3d 22 72 9b bd
       0.01876179 -0.056883182 0.03163581 -0.075901285
000180 0a 7f cb 3d 02 6b cc 3d 17 0b c7 bd 02 68 88 bd
       0.0993634 0.099813476 -0.09718912 -0.06660463
000190 4d 59 f3 bb 8d ab 8f bd 4a f8 3a bd 1a cc cc bd
       -0.007426417 -0.070151426 -0.045646943 -0.09999867
0001a0 7a c7 b3 bd d5 97 b7 3d b3 10 ae bc b0 d3 b4 3d
       -0.087782815 0.089645065 -0.021248197 0.08829439
0001b0 93 d2 6e bd b3 44 fc bb a0 1c 40 3d c8 a7 c0 3d
       -0.058306288 -0.0076986193 0.0469023 0.09407002
0001c0 67 c7 d7 3b fa a6 e5 3c 2a d4 34 3d a7 36 29 bc
       0.00658505 0.028033722 0.044147648 -0.010327972
0001d0 a0 3b 8e bd da 30 c0 3d 33 f4 b8 3c 07 8e 52 bd
       -0.06944966 0.09384318 0.02257738 -0.05140498
0001e0 42 b2 90 3d e0 84 fc 3c 67 23 29 bb b7 24 40 bd
       0.0706525 0.030825078 -0.0025808455 -0.046910014
0001f0 fd 29 ad bd 77 19 b7 bd 25 7b 95 bd 77 90 0b bd
       -0.08455274 -0.08940404 -0.072988786 -0.03407332
000200 0a e2 bd 3d 00 2f 9e bd 70 82 9e bd 9a ff d5 3c
       0.09271629 -0.07723808 -0.07739723 0.026122857
000210 fa 81 f6 3c 67 96 61 ba 8d e1 13 bd d7 91 bf 3d
       0.030091275 -0.00086054805 -0.036103774 0.093539886
000220 8a d3 a4 3d b2 3e 89 3d 6d fb 2e bd 43 37 3e 3d
       0.080481604 0.06701411 -0.042720247 0.04643942
000230 fd 19 3d bd 90 36 51 bd e0 2f a6 bd 1a 81 fe 3b
       -0.046167362 -0.051077425 -0.081146 0.007766855
000240 28 96 96 3d 73 2e c2 bd 33 12 43 bc 20 0e bc 3c
       0.07352859 -0.09481516 -0.0119061945 0.022955954
000250 73 0b 7c bd a5 f2 c6 3d 87 dd 20 3d 0d f1 8f bd
       -0.061534356 0.097142495 0.039273765 -0.07028399
000260 b7 ea 03 bd b3 8a 1d bc 8a 77 61 3d 07 4d 84 bd
       -0.032206263 -0.009615588 0.055045642 -0.06460004
000270 e2 64 9d 3d 57 0d 92 3d b3 f9 be 3c bd 2a 28 3d
       0.076852575 0.071314506 0.023312425 0.041056383
000280 8d 6e 8a 3c 17 72 9e 3d 0d ca 71 3d a7 34 02 bc
       0.016898418 0.07736605 0.05903058 -0.007947124
000290 b3 43 1b bd cd 3e 59 bd 9a 5b 97 ba 6d ab e3 3c
       -0.03790636 -0.053038407 -0.0011547685 0.027791703
0002a0 20 94 ba 3d 80 2f 51 bc b3 9e bc 3b c5 cf a9 3d
       0.09110284 -0.012767673 0.005756223 0.08291582
0002b0 67 29 9b bc e3 43 7d bd f7 be c5 bd 07 44 0e bd
       -0.01894064 -0.06183232 -0.09655564 -0.034732845
0002c0 50 eb 14 bd 1a 90 37 3d 5f 22 bd bd 63 d8 5d 3d
       -0.036357224 0.04481516 -0.092350714 0.05416144
0002d0 67 5b 52 3c 33 ea 3f bb a0 88 de 3c 3a df 74 3d
       0.012839175 -0.002928388 0.027164757 0.059783198
0002e0 dd 25 61 bd d2 dc 8f bd 73 79 4c 3d 67 12 8f bd
       -0.05496775 -0.0702454 0.04992051 -0.06985932
0002f0 c8 20 88 3d dd f2 16 3d 3a fb 7e 3d cd 2c de bc
       0.066468775 0.036852706 0.062251307 -0.027120972
000300 48 24 8e 3d 60 c0 16 3d f8 55 8f bd ca 86 6a 3d
       0.06940514 0.036804557 -0.06998819 0.05725745
000310 40 75 58 bc 6a 14 a4 3d 63 94 69 3d 6d d5 02 3d
       -0.013211548 0.08011706 0.05702628 0.03194182
000320 10 8a 49 3d ea bc 1e 3d a0 22 58 bd 53 a8 0b bd
       0.049203932 0.03875438 -0.052767396 -0.034096073
000330 cd 64 bc bc 77 3b 07 bd 4d 4d 2a bc d0 35 8f bd
       -0.022997284 -0.033015694 -0.0103944065 -0.06992686
000340 4d 2c 74 3d a0 83 b7 bc 53 f9 9e bd 80 0a ca 3b
       0.05961256 -0.02240163 -0.077623986 0.0061658025
000350 6d df b2 bd b3 c4 9a bb 0d dc cb 3c 77 db 9a 3d
       -0.08734021 -0.0047231554 0.024885202 0.07561391
000360 b3 49 90 bc 7d 18 5b 3d 23 1d 57 bd 20 6c 42 3d
       -0.017613268 0.05349015 -0.05251802 0.047466397
000370 2d f4 64 3d 27 c6 b6 bc db bd c4 3d 57 77 68 3d
       0.055896927 -0.022311283 0.096065246 0.056754436
000380 00 da d6 bb 9d f5 29 3d 68 b3 a5 3d 97 05 40 3d
       -0.0065567493 0.041494 0.0809086 0.04688033
000390 c5 f4 a0 3d 33 68 0d bd 43 27 61 bd a5 28 b1 3d
       0.07859186 -0.0345232 -0.054969084 0.086503305
0003a0 98 04 a1 3d 30 da 67 3d 7a d3 51 3d c0 1b bf 3d
       0.07862204 0.056604564 0.05122707 0.09331465
0003b0 a8 a6 ba bd f8 3e c9 3d a5 50 ca 3d 73 bf 7b 3c
       -0.091138184 0.098264635 0.09878663 0.015365469
0003c0 47 7d bc 3c 4a 38 c2 3d 27 a4 c9 3c 45 24 97 bd
       0.023008956 0.094833925 0.024614407 -0.07379965
0003d0 9d fa 91 bd da a1 87 3d 50 7a 85 3d 6d de 96 3d
       -0.07127879 0.066226676 0.0651747 0.07366643
0003e0 55 e5 c9 3d 00 88 c0 bb 9d 6f 82 bd 97 d1 a0 3d
       0.09858195 -0.0058755875 -0.06368945 0.07852476
0003f0 9a 45 bc 3d 0a 57 7e 3d fa c9 d3 3c c0 d7 e5 bc
       0.09192963 0.062094726 0.025853146 -0.02805698

lstm.weight_hh_l0 f4 [400, 100]
000000 90 2a 04 3d df 57 be bd 73 7f 08 bc 67 76 a0 bc
       0.032267153 -0.09294104 -0.0083311675 -0.019587709
000010 57 63 26 bd 9b 61 8e 3d 9a 27 e8 bb 3d f5 8c bd
       -0.04062208 0.069522105 -0.007084799 -0.06882713
000020 80 69 2d 3c b7 48 55 3d 82 e5 c2 3d ad fa b6 3c
       0.010584235 0.0520713 0.095164314 0.022336328
000030 4d e5 9d 3d d3 d2 01 bd 3a a3 db 3c 2d 20 c0 3d
       0.07709751 -0.0316952 0.02681123 0.09381137
000040 bd 25 76 bd 0d ab 20 3c 03 63 35 3d c3 2e 25 bd
       -0.060094584 0.009806407 0.044283878 -0.0403278
000050 90 bd 06 3d 80 04 9b 3d cd fa ed bc 9a 32 af 3d
       0.032895625 0.07569218 -0.029050255 0.08554573
000060 cb c0 8b bd e7 31 50 3c 98 d5 8c bd 73 a3 2a bc
       -0.06823882 0.01270721 -0.06876677 -0.010414946
000070 e3 22 94 3d 03 0d 37 bd e7 23 af 3b 9a 96 75 3d
       0.072332166 -0.044690143 0.005344856 0.059958078
000080 8a e0 6d bd ff 09 b9 3d da cc 4d 3c 60 6f ea bc
       -0.058075465 0.0903511 0.012561047 -0.02861756
000090 07 84 c8 3c 4d f4 6b bd b5 3d 8b bd 80 30 e2 3c
       0.024477018 -0.05760603 -0.06798879 0.027611017
0000a0 a0 02 ce 3c cd 10 4c bd 65 cd 9e bd ff d3 8f bd
       0.025147736 -0.04982071 -0.0775402 -0.07022857
0000b0 1a 9b e7 bb ed a3 06 3d 80 83 b5 3d 3a b7 b1 bd
       -0.00706805 0.032871176 0.08862972 -0.08677526
0000c0 83 9a 09 3d 17 39 51 3d 97 bb 24 3d e7 f8 93 3b
       0.03359462 0.051079836 0.040217962 0.0045157555
0000d0 b3 14 bd 3c fa d1 71 3d fd 0d 59 bd 92 02 c3 bd
       0.02308116 0.05903814 -0.052991856 -0.095219746
0000e0 5f 15 cb 3d 25 30 83 3d 43 2b 10 3d 6d fa 68 bd
       0.099161856 0.06405667 0.035197508 -0.05687945
0000f0 60 d4 0d bd 2a 50 67 bd 40 93 a9 bd 1a d1 9d 3c
       -0.034626365 -0.056472935 -0.08280039 0.019264746
000100 27 1e 17 3c c7 0c c6 bd ba 4f d2 3c 5d 18 09 bd
       0.0092234975 -0.09670406 0.025672782 -0.0334705
000110 da e8 3e bd 5d 5c 78 3d 93 43 54 bd 40 aa 4f 3c
       -0.046608783 0.06063496 -0.051822256 0.012674868
000120 10 47 9a 3d 00 e4 e5 bb 73 1f 8b 3d 6a 23 bb 3d
       0.07533085 -0.007015705 0.06793108 0.09137614
000130 d7 23 7f 3d 68 59 87 3d 33 53 9a b9 33 33 d1 bc
       0.06229004 0.0660885 -0.00029435157 -0.025537109
000140 c0 88 5b 3d 70 0f 4b 3d 40 d1 a4 bd 1a 3c f3 bc
       0.05359721 0.04957527 -0.08047724 -0.029691745
000150 a7 0d 8b bc ad 63 c5 bc 73 12 58 bd 90 9a 48 bd
       -0.016974283 -0.02409538 -0.05275197 -0.048975527
000160 23 0e 67 bd 9a 7b 3e bd 80 4b 94 3b 07 d2 0b 3d
       -0.056409966 -0.046504594 0.004525602 0.034135845
000170 bd ad c7 bd 47 1b bb bd 5d d7 58 3d 00 e3 21 3c
       -0.09749935 -0.09136062 0.05293976 0.009880781
000180 37 1e 84 3d 1a 30 a6 3b 52 72 88 bd 8a b2 03 bd
       0.064510755 0.005071652 -0.0666243 -0.03215269
000190 32 c2 a5 3d 20 33 45 3d f3 3b 7c bd 7d fd 1e bd
       0.080936804 0.04814446 -0.06158061 -0.038815964
0001a0 c7 0e e8 bc 05 12 c9 3d 63 12 67 bd ad 22 3f 3d
       -0.028327359 0.0981789 -0.05641402 0.04666393
0001b0 af dd 80 3d e7 6e b8 3c 8b 9e 83 3d 28 69 9a bd
       0.06292283 0.02251382 0.06426724 -0.07539588
0001c0 d3 d6 de bc 00 0b 52 bd b3 85 e6 bc 9b ee c5 bd
       -0.027202046 -0.05128002 -0.028139925 -0.09664651
0001d0 00 c7 b8 3c 2a 6b 1d bd e7 34 83 bc 80 d2 b7 bd
       0.022555828 -0.038432278 -0.016016437 -0.089756966
0001e0 47 d4 c9 3c f7 71 3b bd 9b 22 99 3d f2 e1 97 3d
       0.024637355 -0.045762982 0.074773036 0.074161425
0001f0 53 87 d1 bc 33 45 36 3d 1f 9b 91 3d 9a a5 db ba
       -0.025577223 0.044499587 0.07109665 -0.0016757727
000200 e7 6b b2 3b 87 2c 75 3d 27 2b af 3c 43 2b 7e bd
       0.005444992 0.059856918 0.021382881 -0.062052976
000210 1a 50 e6 3b da d2 38 3d 47 53 58 bd 33 3a 62 bc
       0.007028592 0.04512296 -0.052813794 -0.013807821
000220 73 e1 ef 3c 7a a6 fc 3c 67 2d a9 3b d2 99 87 3d
       0.029282307 0.030841101 0.005162883 0.06621136
000230 13 ec 14 bd 9a 75 d9 3b 33 e3 b8 3b 60 cf b9 bd
       -0.03635795 0.0066363337 0.0056423186 -0.09072757
000240 2d 8d 92 bc 23 ee a3 bd 0d 13 24 bd 2f e6 b4 bd
       -0.017889583 -0.08004405 -0.04005723 -0.088329665
000250 e2 da b3 3d 90 1c 61 bd c3 9e 15 bd c2 0f b4 bd
       0.08781983 -0.05495888 -0.03652836 -0.08792068
000260 07 aa e1 3c 63 d7 a2 bd 77 b8 a1 bd ba 83 5d bd
       0.027546896 -0.07951238 -0.07896512 -0.054080702
000270 7a 5f b0 bd f3 29 a9 3d b3 0b d4 bb 00 5f 27 bd
       -0.08611961 0.08259954 -0.006471121 -0.040862083
000280 23 4f 36 3d 30 f9 c0 bd 73 9a 63 3d 5b fb 9f 3d
       0.044509064 -0.09422529 0.055567216 0.07811614
000290 b3 6c 8d bd 27 78 7c bd 20 30 bf bd cd f7 b2 3b
       -0.06905498 -0.061638024 -0.09335351 0.005461669
0002a0 22 a5 a0 bd 10 40 7c bd 8f 1a a4 3d dd 7a bd 3d
       -0.078439966 -0.061584532 0.08012878 0.0925195
0002b0 b7 bd 55 bd 9f a8 b6 bd 4d cf bb 3b a0 fc 40 3d
       -0.05218288 -0.08918881 0.0057314993 0.047115922
0002c0 a7 1f 92 3d 67 97 49 bb c3 05 b7 3d f0 9c 2e 3d
       0.071349435 -0.003076041 0.08936646 0.042630136
0002d0 15 e9 c3 bd 4d ce f7 3b 80 b3 ab bb 0d 34 00 3c
       -0.09565941 0.0075624348 -0.005239904 0.00782491
0002e0 da cf 01 bd 17 55 48 3d 07 fa d5 bc 53 e7 66 bd
       -0.031692363 0.048909273 -0.026120199 -0.05637295
0002f0 6a 0f 44 3d d0 ec 06 bd e7 53 6c 3d 47 c3 64 3d
       0.047866262 -0.032940686 0.057697203 0.055850293
000300 78 e0 bd 3d ff eb 8a 3d 9a a0 36 bd 20 dc b7 3d
       0.0927133 0.06783294 -0.044586755 0.089775324
000310 73 56 f9 bc 6d 04 38 3d c7 40 a8 3c 30 73 c5 3d
       -0.03043673 0.044926096 0.0205387 0.09641111
000320 4d 8a 94 3c 7a 26 ba bd e2 b2 9d bd fd 63 15 3d
       0.018132353 -0.0908937 -0.07700135 0.03647231
000330 1a 56 11 3d 83 67 6b bd 9a e1 b1 bc fa 86 c4 bc
       0.035482503 -0.057471763 -0.02171402 -0.023990143
000340 7a 59 9d bc 60 90 88 bc b3 d3 94 bd d7 75 2c 3d
       -0.019207705 -0.016670406 -0.07266941 0.04210457
000350 43 02 7e bd 60 b7 8b bc 03 37 18 bd f8 7c 8b 3d
       -0.062013876 -0.017055213 -0.03716184 0.06810945
000360 8d 3a 96 bc 13 70 1d bd dd 98 45 3d f7 07 99 bd
       -0.018338466 -0.03843696 0.048241485 -0.07472222
000370 df c9 b8 3d 47 ad fa 3c 73 b5 38 3c 37 7f 51 bd
       0.09022879 0.030600203 0.01127373 -0.051146712
000380 73 43 95 3c 57 e5 72 bd 13 aa 00 3d 27 62 80 bc
       0.018220639 -0.059300747 0.031412195 -0.015671803
000390 b3 ee 82 3c 00 63 5f 3c f3 e3 c8 bd d0 c0 ba 3d
       0.015982961 0.013634443 -0.09809103 0.09118807
0003a0 30 a0 61 bd 1a 9f 53 3c 3f 2e c3 3d 2d 9c bc 3c
       -0.055084407 0.012916351 0.09530305 0.02302369
0003b0 9a ed a3 ba 8f b6 82 3d 73 81 7f bd 87 06 5b bd
       -0.0012506724 0.063824765 -0.06237931 -0.05347302
0003c0 cd ab 2a 3b 80 c4 a6 3c 7a cf bc bc fd e0 b5 bd
       0.0026042343 0.02035737 -0.023048151 -0.08880804
0003d0 33 73 28 3c 97 32 a3 bd f3 8e 48 bd 07 38 4e 3d
       0.010281372 -0.079686336 -0.048964452 0.0503464
0003e0 ef 7c a8 3d c0 58 bf 3c b0 af 7a 3d c0 9c 18 3c
       0.08226954 0.023357749 0.061202705 0.009314716
0003f0 b7 19 81 bd ed 4e 58 3d 47 5a 07 bd 37 4e 6a 3d
       -0.06303733 0.052809644 -0.03304508 0.057203498

lstm.bias_ih_l0 f4 [400]
000000 67 a1 e8 3b 40 69 d0 3c 7b 3b be bd c3 3c a2 bd
       0.007099319 0.025440812 -0.09288689 -0.07921746
000010 80 1f a9 3c 8d 11 13 3c ad 86 a1 bc 1a e7 f0 bc
       0.020644903 0.008976352 -0.019717539 -0.029407073
000020 20 4d 09 bd e5 33 a9 3d 27 ea 9b 3d f3 af 33 3c
       -0.033520818 0.08261851 0.076130204 0.0109672425
000030 73 6f a9 bd 9a 08 f1 bc 1a 78 1d 3c 2d e2 5b bd
       -0.082732104 -0.029423047 0.009611154 -0.053682495
000040 43 09 a2 bd 47 72 97 bc df 93 9b bd 1a 2f 67 3c
       -0.07911923 -0.018487109 -0.075965635 0.014110351
000050 17 39 6d bd 40 21 9a bd 60 4c 70 bd 6b 05 a8 3d
       -0.057915773 -0.07525873 -0.058666587 0.082041584
000060 0d 1c 83 bc 92 d7 9e 3d ed e2 7c 3d 8a d3 1f 3d
       -0.016004587 0.077559605 0.06173985 0.0390201
000070 c7 38 cf bc a2 fe ab bd c7 91 56 bd 7f 51 c6 3d
       -0.025295628 -0.08398177 -0.052385118 0.09683513
000080 ca c9 35 bd 12 36 89 bd 87 25 96 bd e7 06 05 3d
       -0.044381894 -0.06699766 -0.073313765 0.032477286
000090 80 34 a4 3d 7f 27 9b 3d 73 e0 41 3d 67 a6 a2 39
       0.08017826 0.07575893 0.047333192 0.00031023027
0000a0 c7 1b a5 3d 27 a7 34 bc c3 c5 7d 3d 2d e7 02 bd
       0.08061939 -0.01102618 0.06195618 -0.031958748
0000b0 70 b1 5e 3d 37 40 c7 bd e7 5d 81 bd 93 7d a1 3c
       0.054368436 -0.09729045 -0.063167386 0.019713199
0000c0 6a 0f c3 3d 93 bd 83 bc 67 2e 1e bc 85 be be 3d
       0.095244244 -0.016081607 -0.009654618 0.093136825
0000d0 67 83 5c bb a3 66 69 bd 47 bc a4 bc 33 5b 16 3d
       -0.0033647658 -0.056982648 -0.020109309 0.036708068
0000e0 9d c5 4b 3d 3a 25 ce 3c 2a 3f 42 3d a3 06 58 3d
       0.049749006 0.025164235 0.04742352 0.052740704
0000f0 1d 17 50 bd b0 99 85 bd 60 d5 a4 bc 6d 49 98 3c
       -0.050803293 -0.06523454 -0.020121276 0.0185897
000100 b3 c0 9a 3c 0d e1 12 3d b3 f9 12 3d a2 b2 98 bd
       0.018890714 0.035859156 0.035882663 -0.074559465
000110 33 08 de bc f7 2b 4d bd 35 46 bd bd 07 a4 a1 3d
       -0.027103519 -0.050090756 -0.092419066 0.07892614
000120 53 2f bb bd 1d 81 bc 3d 07 3a c0 3d 5d 6a 4b 3d
       -0.09139886 0.09204314 0.09386068 0.049661983
000130 97 5e 41 3d 60 cf c2 bc c0 19 09 bd 57 51 31 bd
       0.04720935 -0.023780525 -0.033471823 -0.043290462
000140 8b 68 92 3d 85 4a 91 3d e7 26 3f 3c 0d 91 4c bd
       0.07148846 0.070942916 0.01166699 -0.04994302
000150 c0 ca 46 bd 1a e7 cf 3b da 11 a6 bd 57 3f 1f 3d
       -0.0485332 0.006344688 -0.08108874 0.038878765
000160 83 39 82 3d 4d 19 5d 3d 73 a2 93 3c d0 19 66 3d
       0.06358626 0.053979207 0.018021798 0.05617696
000170 d3 d5 fa 3c a3 d8 64 bd 4a 3a a5 3d 23 59 54 3d
       0.030619537 -0.055870663 0.080677584 0.05184282
000180 00 a4 80 3c df 97 9d 3d 8f 84 bc bd 33 54 6b bd
       0.015703201 0.07694983 -0.09204971 -0.057453346
000190 47 90 42 bd ea 2c 10 bd 7f 89 af 3d 8d de 66 3d
       -0.047500875 -0.035199083 0.08571147 0.056364585
0001a0 5d df 1d bd 2a 99 60 bd 0a ab 87 3d 60 ce 3a 3d
       -0.038543094 -0.05483357 0.0662442 0.04560697
0001b0 87 c9 ef bc f7 45 c1 3d a3 73 7e 3d f7 22 26 3d
       -0.0292709 0.09437173 0.062122 0.04056069
0001c0 7a 14 d0 3c c5 0a b8 3d 33 5f bd 3a 80 73 b5 3b
       0.025400389 0.08986429 0.0014447927 0.0055374503
0001d0 8d e9 4f 3c 73 71 a0 bc 80 97 f5 bb 9a fb 87 3a
       0.01268996 -0.019585347 -0.007494867 0.0010374666
0001e0 7a 0e 85 bd ed 04 cc bd cd 90 a6 3a 1f 64 b8 bd
       -0.06496902 -0.09961877 0.0012707949 -0.090034716
0001f0 8d 1a eb 3c e7 b5 71 bc cd 94 6b bb ff c3 93 3d
       0.028699184 -0.014752842 -0.0035946846 0.07215118
000200 30 0c bd 3d 10 d0 c2 3d 10 d0 c0 bd 13 5d 9e bc
       0.0923084 0.09512341 -0.09414685 -0.01933149
000210 d0 9a b7 bd 20 d4 9c 3d 60 a4 c7 bc e7 c1 e1 3c
       -0.08965075 0.07657647 -0.024370372 0.02755828
000220 0d 43 99 bd 7a dd 94 bd 3d 6e 28 3d 43 04 09 bd
       -0.07483492 -0.07268806 0.041120756 -0.03345133
000230 ed 8a af bd 9a 3c 8f 3b fa bd 57 3d d0 fd 67 bd
       -0.0857142 0.004371238 0.05267141 -0.05663854
000240 8d 7f a0 bd cb 5b c3 bd 73 4c 37 bc f7 e4 3f bd
       -0.078368284 -0.095389925 -0.0111876605 -0.046849217
000250 f3 9e c1 bc 93 8e 57 3d 48 0d 94 3d b3 37 c4 3d
       -0.023635363 0.052626204 0.07229096 0.09580936
000260 c0 ec ab bd a5 c5 98 bd 9b 7f 90 3d 9a 29 b6 39
       -0.08394766 -0.07459573 0.07055589 0.0003474474
000270 1d 3b c6 3d 27 a1 0c 3d c0 f5 21 3c c0 9d 23 3c
       0.09679244 0.034333374 0.0098852515 0.009986341
000280 17 91 64 bd b3 e6 92 bc c0 a7 29 3d 13 19 a9 bc
       -0.05580243 -0.017932272 0.041419744 -0.02064184
000290 97 77 20 bd c7 ef b8 bc 1a 02 b9 3d ea 27 11 bd
       -0.03917655 -0.022575272 0.09033604 -0.035438456
0002a0 db e8 c7 3d 40 93 17 3c 47 66 8d 3d 3f ca b9 bd
       0.097612105 0.009251416 0.069042735 -0.090717785
0002b0 3d 78 60 3d 9a 07 7c bc 37 da 08 3d b3 81 09 bd
       0.05480217 -0.015382672 0.03341123 -0.033570956
0002c0 da 4b 98 3d c0 4c 9d 3d 65 45 ac 3d 03 01 42 3d
       0.074363425 0.076806545 0.084116735 0.047364246
0002d0 b7 2c a8 bd c0 e7 68 bc 30 53 75 3d 4a f0 a4 bd
       -0.08211654 -0.01421541 0.059893787 -0.08053644
0002e0 27 0c ed 3c 62 01 9e bd 67 63 10 3b c3 56 6e 3d
       0.028936459 -0.077151075 0.0022031905 0.05818821
0002f0 2d df 96 3c 9a f3 3a 3c d3 15 d5 3c f3 bd ca 3d
       0.018416965 0.011410618 0.026011383 0.09899511
000300 7a 75 e5 3c 8a 35 30 3d dd 29 89 bd f3 8a 85 3c
       0.028010119 0.04301981 -0.06697438 0.016301608
000310 0d a3 8e 3c 67 cc f4 3a 6f cd 96 bd 82 94 a1 bd
       0.017411733 0.0018676639 -0.07363402 -0.07889654
000320 ad d0 c8 bd c0 53 09 bd 6d 82 b4 3d 8d 90 e0 3c
       -0.09805427 -0.033527136 0.08813939 0.027412677
000330 f0 e5 2a 3d ca e6 11 bd a7 64 93 bc 7a 48 ac 3d
       0.04172319 -0.03562049 -0.01799233 0.08412261
000340 b3 80 54 bc 07 01 b3 bd c5 7d b8 3d 7a 91 08 bd
       -0.012970137 -0.0874043 0.09008364 -0.033341862
000350 1f 80 89 3d 33 a3 52 3c c7 8e 9d bc 97 2f 68 bd
       0.0671389 0.012856293 -0.01923312 -0.05668601
000360 33 d1 ab ba 47 d6 77 3d 8f 51 bf 3d 38 5d be 3d
       -0.0013108611 0.060507085 0.09341728 0.09295124
000370 33 89 0f bc 67 46 ac 3a 48 0e ae 3d 9a 12 12 3b
       -0.008760738 0.001314354 0.08498818 0.002228892
000380 93 e2 68 3d 9a 5e 4b 3b ad 9e c7 bd e7 75 41 bc
       0.056856703 0.0031031729 -0.09747062 -0.011807895
000390 20 4f 5e 3d b3 a6 68 3d 27 ca bb 3d 13 a4 35 3d
       0.05427468 0.0567996 0.09169417 0.044345926
0003a0 4d 6e 8c bb c0 ac 33 bc a2 94 c3 3d 62 50 9d bd
       -0.00428561 -0.01096648 0.09549834 -0.076813474
0003b0 07 ea ae bd 07 1f 89 3c 67 6b 6e bb 1a b0 31 3c
       -0.08540731 0.016738428 -0.0036379935 0.010845209
0003c0 9d 47 17 bd 7a 69 d5 3c a3 a1 96 bd 67 86 e3 38
       -0.03693353 0.026051272 -0.073550485 0.00010849238
0003d0 eb 81 a7 3d 30 f4 54 bd 5d 16 c1 3d 07 65 15 bd
       0.08179077 -0.051990688 0.094280936 -0.0364733
0003e0 cd cf 8b 3c c3 75 7d 3d 83 a0 0a 3d 70 0e 1c bd
       0.01706686 0.061879884 0.033844482 -0.038099706
0003f0 47 cb 35 3d 4a 29 ab bd 25 75 8e 3d 63 71 7f 3d
       0.044383314 -0.08357485 0.06955937 0.062363993

lstm.bias_hh_l0 f4 [400]
000000 90 32 15 bd 4a 9c 82 bd 50 2e 2c 3d 5a 41 66 bd
       -0.036425173 -0.06377466 0.042036355 -0.056214668
000010 ad f7 be bc 23 18 6b bd 1a a6 bd 3d 0f 1c ba 3d
       -0.02331146 -0.057396065 0.09260197 0.09087383
000020 40 ff 41 bc 67 17 38 3c 93 c3 43 bd 80 05 d6 bc
       -0.0118406415 0.011236048 -0.047793936 -0.02612567
000030 40 1e 66 3c 7d b9 29 bd b3 ac 1d 3d 73 7b 26 3c
       0.014045298 -0.04143666 0.038494777 0.0101612685
000040 4d 35 80 3b 0a 56 1f 3d d3 a5 f5 3c b3 db 4c 3c
       0.003912604 0.038900413 0.029986298 0.012503552
000050 83 fd 13 3d 9a d6 67 3c 9a fd 56 3d 1a 56 eb bc
       0.03613044 0.014150286 0.052487947 -0.02872758
000060 07 c6 f1 bc b0 df 4e bd 20 7e 49 3d 67 d3 d3 3c
       -0.029513372 -0.050506294 0.049192548 0.02585764
000070 4d 9a a8 3c b8 9b 8d bd c0 04 ba 3d 12 52 a7 3d
       0.020581389 -0.069144666 0.09082937 0.081699505
000080 5a 7a 6e 3c 37 c6 b7 bd 03 13 b4 bd f7 68 bd 3d
       0.014555538 -0.08973353 -0.08792689 0.09248536
000090 93 7a 92 bc 7b bf a7 bd 32 8f 83 3d 13 f6 ab 3c
       -0.017880714 -0.08190819 0.06423797 0.02099136
0000a0 10 fa b4 3d 9a 99 95 36 9a 05 9a 3d 27 96 9e 3d
       0.08836758 4.4584276e-06 0.075206 0.07743483
0000b0 fa b9 2e bd 00 bc 43 3b 40 56 f2 bc 4a 81 28 3d
       -0.04265783 0.0029866695 -0.029582143 0.041138925
0000c0 6d 42 ae bc 43 d4 3d 3d 1b 64 a4 3d ad a7 a6 3c
       -0.021271909 0.046345007 0.08026906 0.020343626
0000d0 40 a6 14 3c ad d2 85 3d 57 37 65 3d e7 cc 05 3d
       0.00907284 0.06534324 0.05596098 0.032666113
0000e0 d7 df 2e bd 33 0d 91 3d 25 91 a4 bd 4d 9d c9 bb
       -0.04269394 0.07082596 -0.080354966 -0.006152785
0000f0 cd 6c da b8 3f 25 ad 3d e8 aa cc 3d 77 2d 66 3d
       -0.00010415316 0.0845437 0.09993535 0.056195702
000100 6a a7 29 3d 40 cc c7 3c cf 3d a4 bd 80 35 e2 3b
       0.041419424 0.024389386 -0.080196016 0.0069033504
000110 cd 60 20 3a 5f 6f c7 3d 80 0e 8c 3c 3a 80 4a 3d
       0.000611794 0.09738039 0.017096758 0.049438693
000120 e3 90 0d 3d 45 0e af bd 23 e4 36 bd 43 5b 09 3d
       0.034562003 -0.085476436 -0.044651162 0.0335343
000130 d0 74 81 bd 13 aa af bd 5b 3e 94 bd a7 67 7b bd
       -0.06321108 -0.08577361 -0.07238456 -0.061378147
000140 d0 e5 84 bd 37 3c 85 bd 73 5e 54 3d b3 69 20 3c
       -0.06489146 -0.06505626 0.051847886 0.009790826
000150 67 7a 9d 3b aa 77 c3 3d 3a 74 c3 bd c0 31 0d 3c
       0.0048058513 0.095443085 -0.09543653 0.008617818
000160 33 9b 1a ba c0 3f 6e bd 2a 06 12 3d 27 dc b1 3d
       -0.000589776 -0.058166265 0.03565041 0.08684569
000170 0d 8f a7 bc 3a 3b cf bc 1a 7b a6 3b 67 d1 f9 3b
       -0.020453954 -0.025296796 0.005080593 0.0076238397
000180 a8 c4 be bd e7 e4 30 bd 00 17 3b 3c 7a 1a e0 bc
       -0.09314853 -0.04318705 0.011419058 -0.027356375
000190 20 2c 58 bd 33 05 4e bd 78 00 a2 3d 80 93 ae bc
       -0.052776456 -0.050297927 0.07910246 -0.021310568
0001a0 ed b6 70 bd 90 5a ab bd 32 4c 99 3d 90 cc 51 3d
       -0.0587682 -0.08366883 0.07485236 0.051220477
0001b0 80 92 b6 bd 40 b0 ee bc a0 4e 50 bd b3 58 80 3c
       -0.089146614 -0.029136777 -0.050856233 0.015667295
0001c0 87 f9 a8 3c 83 6f 94 bd 2d a2 ec 3c 67 94 06 3d
       0.020626796 -0.07247832 0.028885925 0.03285637
0001d0 7f 31 c9 bd 8b b9 ae 3d a7 53 3c 3c d3 a5 e8 3c
       -0.09823894 0.08531483 0.011494554 0.028399384
0001e0 33 f7 13 3a 07 be 10 3d d0 7b 8c bd 8d 50 43 3c
       0.00056444405 0.035337474 -0.06859553 0.01192106
0001f0 ba 9f 77 bd 93 0c f1 bc d3 39 dd bc 0a d8 9a 3d
       -0.06045506 -0.029424941 -0.027005112 0.075607374
000200 ca aa 04 bd 53 57 59 bd a3 af 41 bd 77 e8 05 3d
       -0.03238944 -0.053061794 -0.04728664 0.0326924
000210 97 db 8c bd 6b 8d 99 bd c2 b0 ae 3d ba 30 c5 bc
       -0.06877821 -0.074976765 0.085298076 -0.024071086
000220 70 16 90 bd 47 47 87 3d da c6 54 bc 93 1c 5c bd
       -0.070355296 0.06605392 -0.012986863 -0.053738188
000230 d0 a7 a5 3d 70 a6 66 bd e0 6d 87 bc e0 88 8d 3c
       0.08088648 -0.05631107 -0.016531885 0.017277181
000240 22 3b b2 bd b3 9f df 3c 73 1b 52 3c dd 59 57 bd
       -0.08702685 0.02729783 0.012823927 -0.052575935
000250 25 06 83 bd 1a 16 81 3d ea 6f 2d 3d f5 0a c9 bd
       -0.06397656 0.06303044 0.042343058 -0.09816543
000260 b0 16 23 3d 33 54 bd 3c 18 57 8b 3d 2d 3e 59 3d
       0.03981656 0.023111438 0.06803721 0.05303781
000270 80 3e b5 bc 77 db 9b 3d 77 9f ab 3d c7 bc 92 bc
       -0.022124529 0.07610219 0.08380025 -0.017912282
000280 52 c2 a7 bd 45 08 9f 3d 20 b7 14 3d 4b 93 9e bd
       -0.081913605 0.07765249 0.036307454 -0.07742938
000290 27 4e 11 bd 2d 74 b3 bd 27 10 d0 bc 47 9d 7f 3d
       -0.035474923 -0.08762393 -0.025398327 0.06240585
0002a0 72 b9 a1 bd 53 64 11 3d c0 c7 f2 bc 23 94 54 bd
       -0.07896699 0.035496067 -0.029636264 -0.051899087
0002b0 68 05 a8 3d ed d9 9a 3c 73 bc 51 3c ef 75 be 3d
       0.08204156 0.018902743 0.012801277 0.09299838
0002c0 0d d8 ae bc 3a ca c8 3c a7 6b 5c 3d fa c3 99 bd
       -0.021343255 0.024510492 0.053813603 -0.07508083
0002d0 20 70 5f 3d d5 87 84 bd 93 2c c5 3c 4a 8e 52 3d
       0.05455029 -0.064712204 0.024069106 0.05140523
0002e0 f8 96 96 3d 1a 29 9d bc e5 62 c0 bd 97 bb b1 bd
       0.07353014 -0.019184638 -0.09393863 -0.08678358
0002f0 2a 80 2a 3d 33 1a 74 3d 08 f1 89 bd 9a ef 84 ba
       0.041626133 0.059595298 -0.06735426 -0.0010142208
000300 d0 c2 4a 3d 73 ec 95 bd 13 b2 db bc 05 35 8c bd
       0.049502194 -0.0732049 -0.02681831 -0.0684605
000310 4f 22 94 3d 5d 08 90 3d 9a dd cc 3a 2f 1f 85 bd
       0.07233106 0.07032845 0.0015630007 -0.065000884
000320 b3 47 ff bb b0 e4 c9 3d 5a 6d 8d bc 10 c0 23 3d
       -0.0077905296 0.09858072 -0.017264057 0.039978087
000330 43 a6 3f bd 9d 35 33 bd 7f 32 bb 3d ba 6c c1 3c
       -0.04678942 -0.0437523 0.09140491 0.023611415
000340 3a 17 76 bd 7d 08 00 3d 07 5c 12 bd aa df 79 3d
       -0.060080744 0.031258095 -0.035732295 0.06100432
000350 b3 27 4d 3c da 31 12 bd 9a eb 15 3c ba 1c 93 3c
       0.012521672 -0.035692073 0.00915041 0.017958034
000360 b0 75 26 bd 37 1d 0b bd 9a 49 98 3b c0 8e 7b 3c
       -0.04063958 -0.03396341 0.004647446 0.0153538585
000370 ed 5f 84 bc fa b6 5f 3d e5 72 c9 bd b3 51 91 3c
       -0.016159022 0.05461786 -0.098363675 0.017739153
000380 fb 65 8e bd 67 d5 d6 3b fd ad 8b 3d c3 fd 3e bd
       -0.06953045 0.0065562013 0.06820295 -0.046628725
000390 4d fd 97 3d cb 87 b3 bd ba 46 ae bc 6d d7 83 3c
       0.0742136 -0.08766135 -0.02127396 0.016093934
0003a0 8d 7f 58 bc 47 5a ca bd 7d 39 2e 3d 8d 34 d4 bc
       -0.013214004 -0.098805 0.042535294 -0.025903964
0003b0 c5 89 a9 3d 4d 68 ae 3b a3 56 ad 3d 53 f0 93 3c
       0.082782306 0.005322492 0.0846379 0.018058931
0003c0 13 82 13 3d 68 52 b3 3d 0d 9c e3 3c 2f b7 ab bd
       0.03601272 0.08755952 0.027784372 -0.08384549
0003d0 40 c8 0a bd 17 21 a2 3d d3 24 03 bd 4a ac bb bd
       -0.03388238 0.07916468 -0.03201754 -0.09163721
0003e0 25 74 93 bd 7d 94 9a bd 4d c6 57 3d 47 9f 29 3d
       -0.07199887 -0.07547853 0.05267935 0.041411664
0003f0 93 55 be bc 4d 29 a9 3c 47 ad 2a bd c0 85 82 bd
       -0.023234164 0.020649577 -0.041669156 -0.06373167

linear.weight f4 [1, 100]
000000 5b 48 b1 3d da 05 6b 3d 77 68 bd 3d 82 18 b3 bd
       0.08656379 0.057378627 0.09248441 -0.08744909
000010 53 a8 70 3d 9d 64 14 3d 67 b6 ca bd 2a 7e 5a 3d
       0.058754276 0.036228765 -0.09898072 0.053342976
000020 da c1 df 3c 1a 26 59 3d 8a 21 01 bd cf 75 a0 3d
       0.027314115 0.053014852 -0.031526126 0.0783497
000030 27 57 97 bc 43 e4 30 bd 67 39 a8 bd 3a 16 ed 3c
       -0.018474175 -0.043186437 -0.08214074 0.028941263
000040 00 9a 0d bb 7d 5e 59 bd d8 b3 9a 3d ed 89 84 3c
       -0.0021606684 -0.053068627 0.07553834 0.01617905
000050 a7 55 9c bd d0 54 75 bd 83 93 b2 bd 33 1e 84 bb
       -0.076335244 -0.059895337 -0.08719542 -0.0040319203
000060 f3 d8 ed bc 6d 59 b4 bc 00 96 e2 3a f3 65 37 bc
       -0.029034114 -0.022015298 0.0017287135 -0.01119374
000070 ad 89 f0 bc a7 9b 77 3d 10 13 ad bd 30 55 a3 3d
       -0.029362524 0.060451176 -0.084509015 0.079752326
000080 1a 4d ad 3d a0 08 74 3d 7d b8 72 3d 92 ce b1 bd
       0.084619716 0.059578538 0.059257973 -0.08681978
000090 48 ee ad 3d f3 40 6b 3d 52 b0 ab 3d 20 6d 63 3d
       0.08492714 0.057434987 0.0838324 0.05552399
0000a0 a5 3f 8c bd 33 fe 37 bd 4f 36 c1 bd 27 f6 09 bd
       -0.06848077 -0.044920158 -0.09434187 -0.033682015
0000b0 fd 55 c9 bd f2 34 87 bd 0d ee 98 bc 5b 15 c9 bd
       -0.09830854 -0.066018954 -0.018668199 -0.09818526
0000c0 bd 8c 4d bd 73 22 b5 bd 60 42 8f 3d 33 0a 31 3c
       -0.050183047 -0.08844461 0.06995082 0.010805654
0000d0 67 e5 7e 3c 17 f4 ba bd 33 96 4a 3c ed 17 02 3d
       0.0155576235 -0.09128588 0.012364912 0.0317611
0000e0 b3 56 48 3c 13 6f 5e 3d da 08 85 3c da 80 a9 bc
       0.012227702 0.054305147 0.016239572 -0.020691324
0000f0 fd fe 26 bd 10 65 6d bd 1f 71 8d bd da 9d c0 3c
       -0.04077052 -0.05795771 -0.06906342 0.02351277
000100 90 3f 4b 3d e7 90 fa 3c c3 a2 13 bd a3 1a 78 3d
       0.049621165 0.030586673 -0.036043894 0.060572278
000110 67 d4 13 3d bd ae 7c 3d e5 e8 bf 3d 78 71 ba bd
       0.036091235 0.06169008 0.09370593 -0.09103674
000120 e7 cd d6 bb c0 fe b1 3d 33 c3 53 bb f3 3a f0 bc
       -0.006555307 0.08691168 -0.0032312393 -0.029324984
000130 b7 02 b4 3d 57 ec 67 bd 80 02 a9 bc 2b 7d c7 bd
       0.0878958 -0.056621876 -0.020631075 -0.09740671
000140 95 68 8f bd 38 a9 bd bd 93 0c 38 3d f3 6a 95 3d
       -0.07002369 -0.092607915 0.044933867 0.072957896
000150 ba f8 7f bd da c9 69 bc 2d 6e 4a 3d b3 66 63 bc
       -0.062493064 -0.014269317 0.049421478 -0.013879466
000160 cd 3a c2 bd 13 c7 d9 3c 12 30 bf bd ed 2e a8 bc
       -0.094838716 0.026584184 -0.093353406 -0.020530188
000170 93 07 86 3c c0 f3 ee bc c3 76 ad bd a3 d8 bf bd
       0.016361034 -0.029168963 -0.084699176 -0.09367492
000180 30 04 96 bd 2a c6 15 bd 3a 74 29 bd 7d 8a 16 bd
       -0.073250175 -0.036565937 -0.041370608 -0.036753166
