model/1721471079_model-aapl.pth (torch, 174356 bytes, 5 tensors)

lstm.weight_ih_l0 f4 [400, 5]
0.067704834 0.0179276 -0.072311476 -0.010298205 0.082823835 0.07499874 0.004597628 -0.058386672
-0.019353366 -0.0635167 0.077643655 -0.010586775 0.029882872 -0.043219507 0.0025984526 -0.007088685
0.044896282 0.045615684 0.020473016 0.021455264 0.02943337 -0.031983055 -0.09377642 0.061680485
-0.027137686 0.07197732 -0.05284059 0.035089552 -0.052684046 0.05366626 0.029827321 -0.05669657
-0.08841642 0.03201002 -0.0073755863 0.05832503 0.08726839 -0.02625798 -0.046608366 0.042761397
-0.049313463 0.09693202 -0.031324018 -0.05431354 -0.005752027 -0.019501066 -0.06024289 0.09080484
0.07905977 0.09435971 0.06104069 -0.04349604 -0.058992602 0.09253404 0.06232053 0.05631217
0.027319754 0.09814034 0.010601032 0.023173107 -0.08158677 -0.09901321 0.058486678 0.059764434
0.034495603 0.058618523 0.028391827 0.08798076 0.003973973 0.06913743 -0.0067484737 0.023574604
-0.008459759 0.01592989 -0.015279854 -0.037797213 0.045660343 0.0627885 -0.086564876 -0.0867575
0.033685792 -0.067468666 -0.065097764 0.029313637 -0.038377907 -0.020085787 0.07789826 -0.007884264
-0.055762112 0.08034434 -0.08369248 -0.08243173 -0.097803436 -0.017353153 -0.01805433 -0.09792805
0.06604171 -0.07265891 -0.06925392 -0.08111546 -0.064929 0.022916257 0.073714904 -0.09073333
-0.004650259 0.0640408 0.042187918 -0.0991224 0.0018924713 -0.025103843 -0.07638536 -0.09682977
0.09637312 -0.011294878 0.083579555 0.04414941 -0.077912845 0.023608768 0.0013549089 0.026160205
-0.040318765 -0.04418062 -0.07932905 0.025880922 -0.011010945 0.060790587 0.018688774 0.05918485
-0.06444649 -0.07096241 -0.09821602 -0.047490846 -0.06369885 0.045403708 -0.07988655 -0.08461521
0.007777476 0.03111489 -0.013742971 -0.055881526 0.09926828 -0.039436247 -0.051339544 0.07167878
-0.08601921 -0.031308066 -0.028663779 0.06839319 -0.089797415 0.07142085 -0.060352515 -0.053897657
0.015621972 -0.09952541 0.07488018 -0.048630036 -0.03619186 0.050591636 0.08126831 0.0051197293
0.0836149 0.059120595 0.012512541 0.093649186 -0.077793695 -0.09866827 -0.051979937 0.099106364
-0.059053015 -0.03902922 0.08584672 0.046982314 0.09344562 0.07279686 0.08817299 -0.012330008
0.010430622 0.05222143 0.0071116686 8.280278e-05 -0.06121681 0.01892767 -0.013516736 -0.040539157
0.020970881 -0.0477754 -0.022867013 0.08661876 0.08325423 0.0025548816 0.08058526 -0.054080214
-0.044751085 0.07169131 0.019781291 0.015184009 -0.023128415 0.06899468 0.0635116 0.072483554
0.07172047 -0.01679504 -0.0022848488 0.03519342 -0.08426805 0.0023321628 0.046250116 -0.07264797
0.055708326 -0.019723607 0.07486987 -0.036994804 -0.033428397 0.025385141 0.031591654 0.06258102
0.07486375 0.07417045 -0.00319916 0.09287881 -0.07575315 -0.0669361 0.022511745 0.064918354
0.06318684 -0.062724866 0.043578126 0.0473555 -0.04310442 0.07616436 0.09965891 -0.081689015
-0.09453678 0.05819991 0.018164312 0.0024180412 -0.0849394 -0.010295356 0.07190176 0.054769803
0.012110365 -0.042372584 -0.060737323 -0.08985396 0.06116083 0.061463963 0.03155396 -0.026790012
0.006410897 0.032392453 -0.0027021766 0.08725699 -0.08847958 0.031512868 0.01920948 -0.04006827
00000000: d5a8 8a3d e7dc 923c 0a18 94bd cdb9 28bc
00000010: 8b9f a93d f098 993d b3a7 963b dd26 6fbd
00000020: f38a 9ebc 0b15 82bd a303 9f3d 2774 2dbc
00000030: edcc f43c f006 31bd cd4a 2a3b 3348 e8bb
00000040: 2ae5 373d 83d7 3a3d 07b7 a73c f3c2 af3c
00000050: 401e f13c aa00 03bd da0d c0bd ada4 7c3d
00000060: da4f debc d868 933d 606f 58bd 10ba 0f3d
00000070: 3acb 57bd 27d1 5b3d 6d58 f43c aa3a 68bd
00000080: ab13 b5bd f01c 033d e7ae f1bb 3ae6 6e3d
00000090: c5b9 b23d fa1a d7bc 6ae8 3ebd 9326 2f3d
000000a0: eafc 49bd 4b84 c63d 9d4d 00bd e077 5ebd
000000b0: 807b bcbb b3c0 9fbc 40c1 76bd e3f7 b93d
000000c0: 17ea a13d aa3f c13d cd05 7a3d e728 32bd
000000d0: 3aa2 71bd 7d82 bd3d d043 7f3d 97a7 663d
000000e0: adcd df3c cdfd c83d f3af 2d3c 87d5 bd3c
000000f0: f716 a7bd 70c7 cabd ba8f 6f3d 8dcb 743d
00000100: 434b 0d3d fa19 703d fa95 e83c 422f b43d
00000110: 1a38 823b ed97 8d3d 4d22 ddbb 871f c13c
00000120: cd9a 0abc 677f 823c 5a58 7abc 40d1 1abd
00000130: 5706 3b3d 4297 803d ed48 b1bd ebad b1bd
00000140: 1dfa 093d 032d 8abd fa51 85bd 2723 f03c
00000150: 2732 1dbd f38a a4bc 1f89 9f3d 002d 01bc
00000160: d066 64bd 938b a43d f766 abbd f8d1 a8bd
00000170: 2b4d c8bd 3328 8ebc ade6 93bc 808e c8bd
00000180: e040 873d 32ce 94bd 00d5 8dbd dd1f a6bd
00000190: 7ff9 84bd e0ba bb3c d7f7 963d 65d2 b9bd
000001a0: 3361 98bb d327 833d 3dcd 2c3d af00 cbbd
000001b0: cd0c f83a 93a6 cdbc ed6f 9cbd b04e c6bd
000001c0: 455f c53d 270e 39bc c22b ab3d 03d6 343d
000001d0: c590 9fbd 2d67 c13c 3397 b13a ed4d d63c
000001e0: 4a25 25bd bdf6 34bd 4577 a2bd 3a04 d43c
000001f0: 4067 34bc 8dff 783d 3319 993c d06b 723d
00000200: 85fc 83bd bd54 91bd 7b25 c9bd c385 42bd
00000210: 8b74 82bd 3df9 393d 8f9b a3bd bd4a adbd
00000220: 33da fe3b a7e4 fe3c 332a 61bc 07e4 64bd
00000230: 2b4d cb3d e787 21bd 6a49 52bd 53cc 923d
00000240: d72a b0bd e33c 00bd 4dd0 eabc bb11 8c3d
00000250: b5e7 b7bd 1845 923d 3334 77bd cac3 5cbd
00000260: 4df3 7f3c fad3 cbbd c85a 993d 4a30 47bd
00000270: ea3d 14bd 2d39 4f3d 0070 a63d 67c3 a73b
00000280: 4a3e ab3d 7028 723d 6701 4d3c 25cb bf3d
00000290: 4d52 9fbd 9712 cabd eae8 54bd 47f8 ca3d
000002a0: 93e1 71bd 1add 1fbd 68d0 af3d 8770 403d
000002b0: 6b60 bf3d 8516 953d 0a94 b43d cd03 4abc
000002c0: 33e5 2a3c 23e6 553d 0009 e93b 67a6 ad38
000002d0: 7abe 7abd 330e 9b3c 4d75 5dbc 630c 26bd
000002e0: 20cb ab3c 23b0 43bd 9a53 bbbc 2d65 b13d
000002f0: 3281 aa3d cd6f 273b e309 a53d 3783 5dbd
00000300: ea4c 37bd e5d2 923d 600c a23c 5ac6 783c
00000310: cd77 bdbc 154d 8d3d 5f12 823d 4272 943d
00000320: 2fe2 923d c095 89bc 67bd 15bb fa26 103d
00000330: ba94 acbd 33d7 183b c370 3d3d 75c8 94bd
00000340: 6a2e 643d 6793 a1bc 6055 993d dd87 17bd
00000350: 37ec 08bd 80f4 cf3c 4066 013d 7a2a 803d
00000360: 2a52 993d ade6 973d 00a9 51bb 3f37 be3d
00000370: 7824 9bbd cb15 89bd 8d6a b83c eaf3 843d
00000380: 1a68 813d e575 80bd fa7e 323d d7f7 413d
00000390: 438e 30bd 0ffc 9b3d f819 cc3d 924c a7bd
000003a0: 809c c1bd 0763 6e3d 53cd 943c 0078 1e3b
000003b0: b5f4 adbd daad 28bc 3b41 933d 4d56 603d
000003c0: 8d6a 463c e08e 2dbd b3c7 78bd 5a05 b8bd
000003d0: c783 7a3d a3c1 7b3d ba3e 013d ba76 dbbc
000003e0: 8012 d23b f3ad 043d 0017 31bb cbb3 b23d
000003f0: c834 b5bd a313 013d 335d 9d3c a01e 24bd

lstm.weight_hh_l0 f4 [400, 100]
-0.09333086 -0.042606592 -0.0749576 0.07423996 0.023902917 -0.027388979 0.04732709 0.02429179
0.006449473 -0.047597777 0.0146443015 -0.092505 -0.0004249096 -0.08060683 -0.061215937 0.041686416
-0.024049783 -0.07253827 0.020169903 -0.08483253 0.065974474 -0.018563164 -0.06744045 0.0598253
0.09324213 -0.08933611 -0.010660375 -0.040893305 0.04198238 0.022506226 -0.054588627 0.09061279
-0.07707685 -0.025244225 0.09970824 0.041241765 -0.05279082 0.08921237 -0.052628852 0.0038927912
0.08723538 -0.05109152 0.05141553 -0.015074968 0.04662762 0.0091389185 0.050155606 -0.008382511
-0.048368406 -0.038322724 0.021649182 0.02944119 -0.047698915 -0.06749543 -0.026959157 -0.096906476
0.048017383 0.06402693 -0.060299397 -0.04524971 -0.09029585 -0.043623663 0.08182408 -0.06550409
-0.088945925 -0.038254928 -0.027405132 -0.02803719 0.059324443 0.024417425 -0.08227696 -0.031652
-0.04191306 -0.06886118 -0.091126256 0.05523124 -0.09697183 0.0150876045 -0.01951412 -0.08047873
0.068685904 -0.061806407 -0.0635911 0.09821943 -0.055129062 -0.03950205 -0.041824736 0.029813934
-0.05650071 -0.0422058 0.054118525 -0.099721946 -0.0599141 -0.015372241 -0.059562888 -0.00066219567
0.024455536 0.045238223 -0.094008364 -0.018458474 -0.051457513 -0.028923249 -0.08533162 0.019927157
0.060288787 0.08584708 -0.05845834 -0.04925109 0.09809331 -0.06800523 0.033632804 0.09767598
0.0802887 -0.09991335 0.077579096 -0.06111611 0.07916142 -0.07020594 0.061493076 0.04007132
0.012857163 -0.040434252 -0.031267226 0.09882205 0.033967294 0.03632232 -0.08896474 -0.06683463
0.005552292 -0.091308415 0.06755026 -0.06524626 0.04638616 -0.008091605 -0.079736166 -0.050463058
0.0050951005 -0.06834526 -0.029565407 0.06584791 0.0658968 -0.09888462 0.07688584 -0.020492984
0.049376857 -0.08504323 0.0028646828 0.05432049 -0.098090254 0.05892227 -0.076056056 -0.0062711597
0.034332134 -0.074368596 -0.030084694 0.026637351 -0.07779878 -0.0712891 0.031187033 0.0270347
0.05433066 0.0733639 -0.060471535 -0.027559472 0.028936148 -0.074815944 -0.005690217 -0.07664781
-0.050477054 0.07398645 -0.01880752 -0.058050454 0.07169875 -0.027567733 -0.013091552 0.03012886
-0.07267314 -0.09689738 0.007958221 -0.09673866 0.07426889 0.00830698 -0.096433066 -0.06794112
-0.042245757 -0.014200747 0.077495836 -0.07365531 0.013656569 -0.04444499 -0.07256903 -0.084974624
0.037412953 0.03938035 0.019553041 0.062416162 -0.06427535 0.096451856 0.09656949 0.026696695
0.052300252 -0.0043652295 0.041752305 0.04185734 -0.018367637 0.07862836 0.029075837 0.05801741
0.01645577 -0.09698422 0.05639422 0.040613975 -0.0036637306 0.058561422 -0.042295504 -0.010775852
-0.012493468 0.018815756 -0.037608244 -0.018825615 -0.07684555 0.048554983 -0.027732302 -0.015398062
0.049263157 -0.024280835 0.020710802 0.025018597 0.01606803 -0.06819445 -0.0034317852 0.01615647
-0.07356902 0.02797296 0.047325205 0.06369894 -0.08922404 0.08531672 0.08647913 -0.087489225
0.02525494 -0.09262579 -0.082333766 -0.020401133 0.09542073 -0.041745972 0.07184493 0.07785585
-0.034667242 -0.06165893 -0.030055929 0.074058846 -0.06763051 -0.0092261555 -0.009389711 -0.06888654
00000000: 4024 bfbd 4084 2ebd 5f83 99bd 1f0b 983d
00000010: 0dd0 c33c da5e e0bc 0dda 413d 93ff c63c
00000020: 1a56 d33b e3f5 42bd a7ee 6f3c 4373 bdbd
00000030: 67c6 deb9 3215 a5bd 90bd 7abd 60bf 2a3d
00000040: 0d04 c5bc f28e 94bd 5a3b a53c adbc adbd
00000050: a01d 873d c711 98bc 381e 8abd 600b 753d
00000060: bbf5 be3d daf5 b6bd daa8 2ebc bd7f 27bd
00000070: b7f5 2b3d fa5e b83c 5398 5fbd 3393 b93d
00000080: 78da 9dbd facc cebc d533 cc3d 20ed 283d
00000090: 303b 58bd fab4 b63d 5a91 57bd 331e 7f3b
000000a0: 77a8 b23d 5745 51bd 1799 523d 00fd 76bc
000000b0: 9afc 3e3d 67bb 153c f76f 4d3d cd56 09bc
000000c0: f31d 46bd 4af8 1cbd a059 b13c a72e f13c
000000d0: f05f 43bd 0b3b 8abd 73d9 dcbc e776 c6bd
000000e0: e0ad 443d 8d20 833d 80fc 76bd c357 39bd
000000f0: 08ed b8bd baae 32bd 6293 a73d 0227 86bd
00000100: 4829 b6bd 33b1 1cbd ba80 e0bc 40ae e5bc
00000110: 30fe 723d 0d07 c83c d380 a8bd 87a5 01bd
00000120: 07ad 2bbd 1707 8dbd 67a0 babd 273a 623d
00000130: 2b99 c6bd 0032 773c 13dc 9fbc 08d2 a4bd
00000140: 32ab 8c3d b728 7dbd 0d3c 82bd 4527 c93d
00000150: 03cf 61bd e7cc 21bd 6a50 2bbd 5a3c f43c
00000160: 4a6d 67bd fddf 2cbd 63ab 5d3d 053b ccbd
00000170: 7d68 75bd dadb 7bbc 37f8 73bd 3397 2dba
00000180: fa56 c83c b74b 393d 7587 c0bd 3a36 97bc
00000190: 1dc5 52bd 73f0 ecbc 58c2 aebd 473e a33c
000001a0: 60f1 763d 98d0 af3d 0372 6fbd 83bb 49bd
000001b0: 25e5 c83d 5346 8bbd 8dc2 093d 580a c83d
000001c0: 676e a43d 5f9f ccbd cae1 9e3d e354 7abd
000001d0: 621f a23d 22c8 8fbd 2ae0 7b3d d321 243d
000001e0: daa6 523c 639e 25bd 1012 00bd 3763 ca3d
000001f0: 4a21 0b3d b7c6 143d 2533 b6bd 98e0 88bd
00000200: 00f0 b53b e8ff babd ca57 8a3d d59f 85bd
00000210: 6aff 3d3d a792 04bc b74c a3bd 5ab2 4ebd
00000220: cdf4 a63b 9af8 8bbd 2733 f2bc 45db 863d
00000230: e7f4 863d 0584 cabd 5376 9d3d e7e0 a7bc
00000240: 633f 4a3d 252b aebd 67bd 3b3b 2a7f 5e3d
00000250: 8be3 c8bd 7a58 713d 47c3 9bbd 4d7e cdbb
00000260: da9f 0c3d 904e 98bd 2d74 f6bc 9336 da3c
00000270: f754 9fbd 0500 92bd f37b ff3c e077 dd3c
00000280: d389 5e3d d03f 963d 00b1 77bd 67c4 e1bc
00000290: 800b ed3c 1a39 99bd 0075 babb 87f9 9cbd
000002a0: 07c1 4ebd 3586 973d 3a12 9abc 50c6 6dbd
000002b0: cbd6 923d bad5 e1bc f37d 56bc cdd0 f63c
000002c0: a8d5 94bd 2272 c6bd 3363 023c eb1e c6bd
000002d0: 4a1a 983d 001a 083c b37e c5bd b724 8bbd
000002e0: e309 2dbd 40aa 68bc 23b6 9e3d 98d8 96bd
000002f0: cdbf 5f3c f30b 36bd 129f 94bd 2d07 aebd
00000300: 533e 193d 4a4d 213d b32d a03c 17a8 7f3d
00000310: cba2 83bd 8d88 c53d 3ac6 c53d 07b3 da3c
00000320: ca38 563d 330a 8fbb 7704 2b3d 9a72 2b3d
00000330: ba77 96bc e807 a13d 7330 ee3c aaa3 6d3d
00000340: 40ce 863c aa9f c6bd a0fd 663d d75a 263d
00000350: 331b 70bb 1ade 6f3d 0d3e 2dbd 338d 30bc
00000360: 67b1 4cbc 8023 9a3c 1a0b 1abd 2d38 9abc
00000370: 3361 9dbd 97e1 463d da2e e3bc 2748 7cbc
00000380: 2ac8 493d 9ae8 c6bc b3a9 a93c cdf3 cc3c
00000390: 1aa1 833c 88a9 8bbd cde7 60bb 935a 843c
000003a0: 5bab 96bd 8d27 e53c 13d8 413d 9774 823d
000003b0: 18bb b6bd 88ba ae3d f81b b13d 8d2d b3bd
000003c0: 73e3 ce3c 97b2 bdbd 9b9e a8bd 4720 a7bc
000003d0: f26b c33d d3fd 2abd 6f23 933d e372 9f3d
000003e0: 3dff 0dbd 138e 7cbd da37 f6bc 2aac 973d
000003f0: dd81 8abd 4d29 17bc 4dd7 19bc 6314 8dbd

lstm.bias_ih_l0 f4 [400]
0.030134832 -0.03213439 -0.08263197 0.042545427 0.075326554 -0.053910922 0.08987846 -0.07841275
-0.05037416 -0.07583883 -0.06823267 -0.065211415 -0.012496054 0.057532277 0.05642859 0.08616455
-0.03743117 0.082026675 -0.036662757 0.040116645 -0.071868055 0.070611 0.037861932 0.04348687
0.06500343 -0.07555788 0.04954363 -0.09092225 -0.058382787 0.04540453 0.057237398 0.06400694
-0.085259475 0.04666871 -0.019142902 -0.072231255 0.09773642 0.06124742 -0.08040041 -0.08556356
-0.07558179 0.050442006 0.088282324 0.07598889 -0.06979739 -0.07978114 -0.04026946 0.09667037
-0.09118489 0.0024660826 0.060133304 0.07007574 0.003154731 -0.05064342 0.025792813 -0.08853876
0.07630552 -0.057260524 0.07687508 -0.07856735 0.09220042 0.077076435 0.021271741 -0.07829199
0.025858212 -0.017017305 0.04756508 0.048905768 -0.095864676 0.030370105 -0.045210183 -0.053362787
-0.012708986 0.07620317 -0.0031577707 -0.09494215 0.06285705 -0.08896523 -0.058827233 0.03918177
-0.08337458 0.0037393929 -0.0442361 -0.08783262 0.021968007 -0.012093675 -0.07907404 -0.03035071
-0.098601595 0.08638849 -0.09876163 -0.052708175 -0.02036705 -0.047461487 -0.045136392 0.040635824
-0.007848501 -0.021112775 0.04202354 -0.074579276 -0.075992025 0.0037409307 0.07605238 0.07223796
-0.017379617 -0.0027996541 0.08228626 0.07961341 0.088899806 -0.06492921 -0.0734361 -0.05971242
0.094261065 0.060095597 -0.03631654 0.044547465 -0.05632615 0.06810708 0.0018062234 0.021219969
0.096205465 -0.04413562 -0.052111115 0.06450851 -0.0413661 0.0071716667 -0.031111335 0.01652286
-0.08678339 0.05731988 0.020365357 -0.022409344 -0.03292762 -0.04261614 0.0764341 -0.07585055
0.0077551603 0.00493896 -0.0145752905 -0.059497643 -0.01433326 -0.04651332 -0.014907169 -0.031817626
0.010529351 0.07690521 -0.041881155 0.026491666 0.0139236925 -0.015873218 0.06306409 0.027583648
-0.05948594 0.082297996 0.011921763 -0.08304762 -0.07852166 -0.09297762 0.027062166 0.07893081
0.09542107 -0.091795735 0.008209742 -0.006856203 0.076317005 0.09098133 0.085648395 -0.05498178
0.05132369 -0.08107331 -0.034145404 0.06406834 0.010341251 0.09057591 0.029035484 0.05246326
-0.024339903 -0.08586117 0.017227853 0.018609881 0.03536084 -0.07828567 -0.07049554 0.02114736
0.03636657 0.092498995 -0.07068856 -0.09459382 -0.08653777 -0.08317971 0.021812463 0.07089227
0.004417038 -0.036305275 0.03835882 -0.050542902 -0.012683416 0.025377823 -0.032791425 -0.0029205799
0.06588662 -0.07887059 -0.0049408316 -0.00561378 -0.07006891 0.07304414 -0.021501709 0.06271309
-0.026132619 -0.04504521 -0.035343777 0.06429014 0.07133242 0.07148361 0.084724925 -0.086073495
0.054592133 -0.02493968 0.023465812 0.06445509 0.003994954 -0.015359545 -0.09389366 0.009511602
-0.087701276 -0.042353537 0.041529 -0.08043724 0.052828014 -0.09818005 -0.06094983 -0.052968036
0.02728541 0.08048906 0.021117164 -0.014427162 -0.028995156 -0.05350374 -0.07624789 -0.08455765
0.02027905 -0.026709987 -0.03329686 0.02362156 -0.033278074 0.0016175628 -0.041644312 0.0837356
0.09045601 -0.039536405 0.0939938 0.04296702 0.044364598 0.002455795 0.082060836 -0.039484333
00000000: 53dd f63c 5a9f 03bd f33a a9bd 1d44 2e3d
00000010: cf44 9a3d b3d1 5cbd 3312 b83d dd96 a0bd
00000020: 2355 4ebd 6351 9bbd 92bd 8bbd 908d 85bd
00000030: 40bc 4cbc f7a6 6b3d aa21 673d 0a77 b03d
00000040: 6d51 19bd 9afd a73d b02b 16bd 5a51 243d
00000050: 8f2f 93bd 809c 903d 1d15 1b3d 4a1f 323d
00000060: 8520 853d 17be 9abd 43ee 4a3d 7235 babd
00000070: ca22 6fbd 1afa 393d c371 6a3d 1216 833d
00000080: 859c aebd b027 3f3d 93d1 9cbc fbed 93bd
00000090: 082a c83d 93de 7a3d f8a8 a4bd f33b afbd
000000a0: a0ca 9abd 479c 4e3d 5dcd b43d 10a0 9b3d
000000b0: eff1 8ebd 4b64 a3bd 97f1 24bd 1dfb c53d
000000c0: 25bf babd 009e 213b 574e 763d df83 8f3d
000000d0: 9abf 4e3b 7a6f 4fbd 734b d33c cf53 b5bd
000000e0: 1246 9c3d 038a 6abd af70 9d3d ebe7 a0bd
000000f0: 93d3 bc3d 40da 9d3d 1342 ae3c 8d57 a0bd
00000100: 9ad4 d33c e067 8bbc 9ad3 423d 6a51 483d
00000110: b354 c4bd baca f83c 502e 39bd f092 5abd
00000120: 5a39 50bc 6810 9c3d 9af2 4ebb 0871 c2bd
00000130: 32bb 803d 6733 b6bd d3f4 70bd 107d 203d
00000140: 4bc0 aabd 9a10 753b ea30 35bd 97e1 b3bd
00000150: 40f6 b33c 8d24 46bc 92f1 a1bd 0da2 f8bc
00000160: a2ef c9bd 73ec b03d 8a43 cabd 87e4 57bd
00000170: cdd8 a6bc fa66 42bd f0e0 38bd c071 263d
00000180: 0097 00bc b3f4 acbc e020 2c3d 05bd 98bd
00000190: b5a1 9bbd 672a 753b 5ac1 9b3d 7ff1 933d
000001a0: b35f 8ebc 677a 37bb b385 a83d 5b0c a33d
000001b0: 1a11 b63d 9bf9 84bd aa65 96bd 0395 74bd
000001c0: f20b c13d cd26 763d a7c0 14bd 6777 363d
000001d0: 40b6 66bd ba7b 8b3d cdbe ec3a 80d5 ad3c
000001e0: 5f07 c53d 8dc7 34bd 7772 55bd 0a1d 843d
000001f0: 806f 29bd 4d00 eb3b 33dd febc f35a 873c
00000200: 7dbb b1bd 40c8 6a3d 40d5 a63c cd93 b7bc
00000210: 1ddf 06bd 438e 2ebd 7b89 9c3d 8857 9bbd
00000220: 001f fe3b 00d7 a13b 33cd 6ebc cdb3 73bd
00000230: 0dd6 6abc c084 3ebd 333d 74bc 3353 02bd
00000240: 4d83 2c3c 7b80 9d3d 938b 2bbd 0d05 d93c
00000250: 3320 643c 8d08 82bc bf27 813d 1af7 e13c
00000260: 87a7 73bd da8b a83d 8053 433c df14 aabd
00000270: f7cf a0bd 0d6b bebd 7ab1 dd3c 7aa6 a13d
00000280: 1f6c c33d 67ff bbbd 2782 063c 00aa e0bb
00000290: 174c 9c3d 6b54 ba3d 6d68 af3d 9334 61bd
000002a0: ca38 523d c309 a6bd 0ddc 0bbd 4336 833d
000002b0: 5a6e 293c dd7f b93d d3db ed3c b7e3 563d
000002c0: 7a64 c7bc fbd7 afbd 6d21 8d3c c073 983c
000002d0: 87d6 103d 3d54 a0bd f75f 90bd 3a3d ad3c
000002e0: 1df5 143d 1d70 bd3d 2ac5 90bd 68ba c1bd
000002f0: b73a b1bd 205a aabd 0db0 b23c f72f 913d
00000300: cdbc 903b d7b4 14bd 231e 1d3d 1306 4fbd
00000310: 1ace 4fbc 27e5 cf3c 4d50 06bd 3367 3fbb
00000320: 90ef 863d e786 a1bd b3e6 a1bb cdf3 b7bb
00000330: 4a80 8fbd 2b98 953d 5a24 b0bc b86f 803d
00000340: 1314 d6bc 5381 38bd a3c4 10bd 8daa 833d
00000350: bb16 923d 0066 923d 4384 ad3d 4d47 b0bd
00000360: 009c 5f3d 4d4e ccbc 603b c03c 0801 843d
00000370: 1ae8 823b 9aa6 7bbc 524b c0bd 8dd6 1b3c
00000380: ba9c b3bd e77a 2dbd 501a 2a3d 48bc a4bd
00000390: 3062 583d 9f12 c9bd 87a6 79bd 03f5 58bd
000003a0: a785 df3c 73d7 a43d e7fd ac3c e75f 6cbc
000003b0: 4087 edbc bd26 5bbd db27 9cbd 902c adbd
000003c0: 4020 a63c e7ce dabc 4a62 08bd 0082 c13c
000003d0: 974e 08bd 6704 d43a 3a93 2abd 927d ab3d
000003e0: 0041 b93d edf0 21bd d27f c03d 30fe 2f3d
000003f0: a7b7 353d 67f1 203b 830f a83d 53ba 21bd

lstm.bias_hh_l0 f4 [400]
-0.01658771 -0.055018365 0.097182885 -0.09937042 -0.04267924 0.045508217 0.026410056 -0.08842818
0.014981056 0.019588029 0.024777388 -0.030135442 0.05210619 0.07936144 0.0928633 0.052222706
-0.08925157 -0.095197104 0.032103147 0.06666341 -0.0020305037 -0.022722555 0.06146599 -0.058404695
0.005699718 -0.051843394 0.018828178 -0.0022631169 0.056875326 0.026826834 -0.08564432 0.056807663
-0.0440243 0.025589217 -0.065392874 0.06377778 -0.023295343 0.069045976 -0.06635141 0.034790255
0.095496275 0.039824784 -0.00013918876 -0.021700813 0.053050615 -0.069146454 -0.059672512 -0.0312814
-0.084645055 0.08943623 0.07370841 -0.08725426 -0.059640873 -0.023078525 -0.04894042 0.07143767
0.058111336 -0.0012128114 0.0026684403 -0.08414953 0.08280951 0.03998345 -0.07203477 0.0476236
0.05695338 -0.03955263 -0.042795386 -0.09861588 0.044373598 0.023247136 0.09428873 -0.019407345
-0.08642056 -0.07876138 0.025115132 -0.048324086 -0.07294091 -0.052336004 0.07636215 -0.028500045
0.040386498 0.072182775 0.024348652 0.023183346 0.019632889 -0.051658083 -0.05911578 0.08421757
-0.09777005 -0.01735562 -0.047003996 0.008601558 0.030664206 0.04620513 0.03296721 0.07124932
0.011643362 -0.085331894 0.04868536 0.06377492 0.0827499 0.008923448 -0.08717104 -0.065286
-0.03279407 -0.08835035 -0.06622785 0.045560967 -0.04743979 -0.09060031 0.010772347 0.094718136
0.058796525 -0.01995734 0.024773348 0.017197728 -0.09668374 0.006110513 0.0516358 -0.0988899
0.07175565 0.013460374 0.07584975 -0.09089227 -0.04933386 0.0056507112 -0.07124851 -0.0298622
-0.044083465 -0.07087188 -0.016798938 -0.05041516 0.09182011 -0.042277325 -0.010040986 0.018750036
-0.08882803 -0.081655614 0.06771433 0.043384995 -0.009029472 -0.020248843 -0.07804588 -0.04700012
-0.04790931 0.06155274 -0.04543327 0.034977045 0.03593259 -0.05218506 0.03783908 -0.065729655
0.04303619 0.033752203 -0.00022993088 0.062465098 0.07084968 0.09981169 -0.06887571 0.05908109
-0.010185802 -0.07100715 -0.033188175 -0.029956747 0.081001475 0.03673395 0.018079877 -0.034508765
-0.092123844 0.071873784 0.04152527 0.06977017 -0.024256099 0.006252885 0.055277336 -0.07919287
0.0011409045 0.0472922 -0.014228702 -0.024173474 0.0131681925 0.062248792 0.045395352 -0.034808483
0.00914346 0.046005547 -0.09640526 0.04437492 0.07837653 -0.05034473 -0.07556957 -0.0029691576
-0.038177706 0.07317906 0.028658831 -0.08483412 0.0750643 -0.011913383 0.053054657 -0.0064157248
-0.029265499 -0.08599444 -0.041199066 -0.05864377 -0.05653539 -0.0557804 0.07180651 0.047178354
-0.002480507 -0.028190006 -0.0010527015 0.09696505 -0.05138899 -0.027075423 -0.050243583 0.0962913
0.042692102 -0.080645286 -0.091448486 0.01443348 0.0721918 0.043715455 -0.091229476 0.0016545415
-0.017987061 0.050507154 -0.031594943 0.008832253 0.077865124 0.03824537 -0.067815416 -0.05730338
0.017263353 0.055324007 0.020226574 0.05961993 0.000587678 -0.0989823 0.003886509 -0.08223362
0.08941757 -0.024303531 0.02860458 -0.047624003 0.04379821 -0.029751206 -0.04900211 0.0608413
-0.017140985 -0.0006350041 0.08223762 -0.06611067 0.047239672 -0.076557435 0.058393456 0.05330646
00000000: f3e2 87bc f05a 61bd d207 c73d b882 cbbd
00000010: 6dd0 2ebd d366 3a3d e759 d83c d519 b5bd
00000020: 1a73 753c 1377 a03c f3f9 ca3c 9ade f6bc
00000030: 4d6d 553d 4088 a23d 1d2f be3d 7ae7 553d
00000040: 87c9 b6bd b3f6 c2bd 977e 033d d386 883d
00000050: 3312 05bb a724 babc c3c3 7b3d c339 6fbd
00000060: b3c4 ba3b bd59 54bd 8d3d 9a3c cd50 14bb
00000070: 1af6 683d f3c3 db3c 4a66 afbd 27af 683d
00000080: d352 34bd 7aa0 d13c b3ec 85bd ed9d 823d
00000090: e0d5 bebc fa67 8d3d 3fe3 87bd 3a80 0e3d
000000a0: 8d93 c33d 501f 233d 33f3 11b9 e7c5 b1bc
000000b0: 9a4b 593d a89c 8dbd 2a6b 74bd ed20 00bd
000000c0: 635a adbd 582a b73d 6ff4 963d 5db2 b2bd
000000d0: fd49 74bd 2d0f bdbc c075 48bd ea4d 923d
000000e0: 2706 6e3d 33f7 9eba 00e1 2e3b 9756 acbd
000000f0: 0898 a93d b0c5 233d f786 93bd f710 433d
00000100: f347 693d f001 22bd 374a 2fbd 1ff7 c9bd
00000110: 17c1 353d c770 be3c 731a c13d 27fc 9ebc
00000120: 43fd b0bd a54d a1bd 40be cd3c 7aef 45bd
00000130: 0b62 95bd 475e 56bd c263 9c3d ed78 e9bc
00000140: 506c 253d 90d4 933d d376 c73c 00eb bd3c
00000150: 27d5 a03c 6d97 53bd 6323 72bd 437a ac3d
00000160: aa3b c8bd 602d 8ebc 4387 40bd 8ded 0c3c
00000170: 8033 fb3c 9741 3d3d a008 073d 2aeb 913d
00000180: cdc3 3e3c 7dc2 aebd 4d6a 473d 6d9c 823d
00000190: c878 a93d a733 123c bb86 b2bd abb4 85bd
000001a0: 1353 06bd 07f1 b4bd 78a2 87bd 239e 3a3d
000001b0: 3a50 42bd a88c b9bd 807e 303c 95fb c13d
000001c0: a0d4 703d 937d a3bc 7af1 ca3c 40e2 8c3c
000001d0: 2002 c6bd b33a c83b 1080 533d ca86 cabd
000001e0: a0f4 923d e788 5c3c 1d57 9b3d ba25 babd
000001f0: 4d12 4abd 9a29 b93b bdea 91bd 93a1 f4bc
00000200: dd90 34bd 4725 91bd ed9d 89bc 2080 4ebd
00000210: 2f0c bc3d fd2a 2dbd f382 24bc ad99 993c
00000220: 78eb b5bd 0f3b a7bd d0ad 8a3d 77b4 313d
00000230: 5af0 13bc e7e0 a5bc 85d6 9fbd 3383 40bd
00000240: 8d3c 44bd ba1e 7c3d 3d18 3abd 1744 0f3d
00000250: 0d2e 133d 00c0 55bd 27fd 1a3d 459d 86bd
00000260: b746 303d c03f 0a3d 9a19 71b9 67db 7f3d
00000270: a319 913d 126a cc3d b50e 8dbd 03ff 713d
00000280: 5ae2 26bc 326c 91bd 53f0 07bd da67 f5bc
00000290: 1ae4 a53d 5776 163d 401c 943c 1059 0dbd
000002a0: 6dab bcbd 9032 933d 6716 2a3d aae3 8e3d
000002b0: bab4 c6bc 00e5 cc3b 7d6a 623d df2f a2bd
000002c0: 678a 953a 77b5 413d 801f 69bc 7307 c6bc
000002d0: 67bf 573c 97f8 7e3d 7af0 393d 5793 0ebd
000002e0: 73ce 153c 5070 3c3d 1f70 c5bd 7ac2 353d
000002f0: e083 a03d 4736 4ebd 38c4 9abd 3396 42bb
00000300: 3a60 1cbd e7de 953d edc5 ea3c 83bd adbd
00000310: 50bb 993d 5a30 43bc d74f 593d 003b d2bb
00000320: 33be efbc da1d b0bd 5ac0 28bd 7334 70bd
00000330: a791 67bd fd79 64bd 4b0f 933d 173e 413d
00000340: 0090 22bb baee e6bc cdfa 89ba 9d95 c63d
00000350: 437d 52bd 47cd ddbc 37cc 4dbd 6034 c53d
00000360: eadd 2e3d 5b29 a5bd 5849 bbbd 677a 6c3c
00000370: 4bd9 933d fa0e 333d 85d6 babd 33dd d83a
00000380: 9a59 93bc 97e0 4e3d b369 01bd 27b5 103c
00000390: c077 9f3d 2da7 1c3d cfe2 8abd f3b6 6abd
000003a0: e06b 8d3c 6d9b 623d 33b2 a53c 0734 743d
000003b0: 670e 1a3a 3bb7 cabd cdb4 7e3b 1a6a a8bd
000003c0: 8f20 b73d 3318 c7bc 2754 ea3c 6311 43bd
000003d0: c065 333d cdb8 f3bc 70b6 48bd ba34 793d
000003e0: 406b 8cbc 6776 26ba 336c a83d 0865 87bd
000003f0: 637e 413d 25ca 9cbd fa2d 6f3d e057 5a3d

linear.weight f4 [1, 100]
4.966959 -0.06050811 0.019235289 -5.00706 0.013914025 -4.995115 0.057784736 5.01671
0.09204052 -0.04525615 -4.9882655 4.981583 -4.971597 -0.042098094 0.06953565 -0.059993174
0.022703433 -0.06980534 0.067633644 0.05006211 -0.027535593 0.021089125 4.9909964 0.08848821
-0.07032931 0.014611805 -0.012078083 -0.06867085 -0.015252483 0.0023554207 -4.9571457 0.056949306
0.0755549 -0.041045215 0.065393485 4.9598727 -0.008830142 -5.092693 0.051412094 4.954742
-0.00625267 0.085199766 5.026344 -0.031410407 -0.03312675 0.029679453 -0.009563244 5.0442424
-5.0350137 -0.013459802 0.027860392 5.072741 0.09131675 -0.0837441 -5.0597343 -0.02102903
5.0550213 -0.055245318 -0.073530726 -4.973962 0.04136565 -5.0781813 -0.0747322 -0.03522271
-0.04100051 -5.0578384 -0.052610386 -0.010953772 0.08602723 -0.07298602 -0.069721125 0.09282132
-4.912434 4.998093 -4.9100466 0.06105292 0.08244784 -0.06229216 0.036730494 -0.026776612
-5.0841665 -0.08114976 0.023314822 -0.016711736 0.02059449 4.9986024 -0.071934976 0.058921088
0.0064170957 0.06560713 0.01944393 0.06448039 -0.08303666 4.9297705 5.0407944 0.018985903
-4.991174 -5.0937023 -0.09927364 -5.0956383
00000000: 54f1 9e40 5ad7 77bd 5393 9d3c d639 a0c0
00000010: a7f7 633c fbd7 9fc0 b0af 6c3d e388 a040
00000020: bd7f bc3d 835e 39bd df9f 9fc0 2169 9f40
00000030: 5317 9fc0 0d6f 2cbd b568 8e3d 67bb 75bd
00000040: 8dfc b93c 1af6 8ebd 8283 8a3d ed0d 4d3d
00000050: 5392 e1bc 1ac3 ac3c 3eb6 9f40 4f39 b53d
00000060: d008 90bd 5a66 6f3c 27e3 45bc 4da3 8cbd
00000070: 8de5 79bc 675d 1a3b f0a0 9ec0 ad43 693d
00000080: 87bc 9a3d 071f 28bd 05ed 853d 47b7 9e40
00000090: 4dac 10bc 57f7 a2c0 7d95 523d 3f8d 9e40
000000a0: 33e3 ccbb 377d ae3d cfd7 a040 33a8 00bd
000000b0: eaaf 07bd 5322 f33c 27af 1cbc 6f6a a140
000000c0: d51e a1c0 8086 5cbc 7a3b e43c e553 a240
000000d0: 4704 bb3d 0782 abbd 58e9 a1c0 1345 acbc
000000e0: bcc2 a140 ea48 62bd 4797 96bd b22a 9fc0
000000f0: 076f 293d 7680 a2c0 320d 99bd b045 10bd
00000100: 27f0 27bd d0d9 a1c0 fd7d 57bd 7377 33bc
00000110: 0b2f b03d b279 95bd f3c9 8ebd 1b19 be3d
00000120: a932 9dc0 61f0 9f40 1a1f 9dc0 a012 7a3d
00000130: 6ada a83d 1026 7fbd b772 163d a05a dbbc
00000140: 7eb1 a2c0 d831 a6bd bafe be3c 0de7 88bc
00000150: c7b5 a83c 8df4 9f40 a552 93bd 3d57 713d
00000160: 8046 d23b 085d 863d e048 9f3c 4b0e 843d
00000170: 200f aabd aec0 9d40 304e a140 5388 9b3c
00000180: b3b7 9fc0 9cff a2c0 fa4f cbbd 780f a3c0
